…
I1129 21:36:21.612546 13963 net.cpp:322] The NetState phase (0) differed from the phase (1) specified by a rule in layer accuracy
I1129 21:36:21.615495 13963 net.cpp:58] Initializing net from parameters: 
state {
  phase: TRAIN
  level: 0
  stage: ""
}
layer {
  name: "data"
  type: "ImageData"
  top: "data"
  top: "label"
  include {
    phase: TRAIN
  }
  transform_param {
    mirror: true
    crop_size: 224
  }
  image_data_param {
    source: "../aichallenger_train_treated/all_treated_tra_val_label.txt"
    batch_size: 16
    shuffle: true
  }
}
layer {
  name: "conv1"
  type: "Convolution"
  bottom: "data"
  top: "conv1"
  convolution_param {
    num_output: 64
    bias_term: false
    pad: 3
    kernel_size: 7
    stride: 2
  }
}
layer {
  name: "conv1/bn"
  type: "BatchNorm"
  bottom: "conv1"
  top: "conv1/bn"
  batch_norm_param {
    eps: 1e-05
  }
}
layer {
  name: "conv1/scale"
  type: "Scale"
  bottom: "conv1/bn"
  top: "conv1/bn"
  scale_param {
    bias_term: true
  }
}
layer {
  name: "relu1"
  type: "ReLU"
  bottom: "conv1/bn"
  top: "conv1/bn"
}
layer {
  name: "pool1"
  type: "Pooling"
  bottom: "conv1/bn"
  top: "pool1"
  pooling_param {
    pool: MAX
    kernel_size: 3
    stride: 2
    pad: 1
  }
}
layer {
  name: "conv2_1/x1/bn"
  type: "BatchNorm"
  bottom: "pool1"
  top: "conv2_1/x1/bn"
  batch_norm_param {
    eps: 1e-05
  }
}
layer {
  name: "conv2_1/x1/scale"
  type: "Scale"
  bottom: "conv2_1/x1/bn"
  top: "conv2_1/x1/bn"
  scale_param {
    bias_term: true
  }
}
layer {
  name: "relu2_1/x1"
  type: "ReLU"
  bottom: "conv2_1/x1/bn"
  top: "conv2_1/x1/bn"
}
layer {
  name: "conv2_1/x1"
  type: "Convolution"
  bottom: "conv2_1/x1/bn"
  top: "conv2_1/x1"
  convolution_param {
    num_output: 128
    bias_term: false
    kernel_size: 1
  }
}
layer {
  name: "conv2_1/x2/bn"
  type: "BatchNorm"
  bottom: "conv2_1/x1"
  top: "conv2_1/x2/bn"
  batch_norm_param {
    eps: 1e-05
  }
}
layer {
  name: "conv2_1/x2/scale"
  type: "Scale"
  bottom: "conv2_1/x2/bn"
  top: "conv2_1/x2/bn"
  scale_param {
    bias_term: true
  }
}
layer {
  name: "relu2_1/x2"
  type: "ReLU"
  bottom: "conv2_1/x2/bn"
  top: "conv2_1/x2/bn"
}
layer {
  name: "conv2_1/x2"
  type: "Convolution"
  bottom: "conv2_1/x2/bn"
  top: "conv2_1/x2"
  convolution_param {
    num_output: 32
    bias_term: false
    pad: 1
    kernel_size: 3
  }
}
layer {
  name: "concat_2_1"
  type: "Concat"
  bottom: "pool1"
  bottom: "conv2_1/x2"
  top: "concat_2_1"
}
layer {
  name: "conv2_2/x1/bn"
  type: "BatchNorm"
  bottom: "concat_2_1"
  top: "conv2_2/x1/bn"
  batch_norm_param {
    eps: 1e-05
  }
}
layer {
  name: "conv2_2/x1/scale"
  type: "Scale"
  bottom: "conv2_2/x1/bn"
  top: "conv2_2/x1/bn"
  scale_param {
    bias_term: true
  }
}
layer {
  name: "relu2_2/x1"
  type: "ReLU"
  bottom: "conv2_2/x1/bn"
  top: "conv2_2/x1/bn"
}
layer {
  name: "conv2_2/x1"
  type: "Convolution"
  bottom: "conv2_2/x1/bn"
  top: "conv2_2/x1"
  convolution_param {
    num_output: 128
    bias_term: false
    kernel_size: 1
  }
}
layer {
  name: "conv2_2/x2/bn"
  type: "BatchNorm"
  bottom: "conv2_2/x1"
  top: "conv2_2/x2/bn"
  batch_norm_param {
    eps: 1e-05
  }
}
layer {
  name: "conv2_2/x2/scale"
  type: "Scale"
  bottom: "conv2_2/x2/bn"
  top: "conv2_2/x2/bn"
  scale_param {
    bias_term: true
  }
}
layer {
  name: "relu2_2/x2"
  type: "ReLU"
  bottom: "conv2_2/x2/bn"
  top: "conv2_2/x2/bn"
}
layer {
  name: "conv2_2/x2"
  type: "Convolution"
  bottom: "conv2_2/x2/bn"
  top: "conv2_2/x2"
  convolution_param {
    num_output: 32
    bias_term: false
    pad: 1
    kernel_size: 3
  }
}
layer {
  name: "concat_2_2"
  type: "Concat"
  bottom: "concat_2_1"
  bottom: "conv2_2/x2"
  top: "concat_2_2"
}
layer {
  name: "conv2_3/x1/bn"
  type: "BatchNorm"
  bottom: "concat_2_2"
  top: "conv2_3/x1/bn"
  batch_norm_param {
    eps: 1e-05
  }
}
layer {
  name: "conv2_3/x1/scale"
  type: "Scale"
  bottom: "conv2_3/x1/bn"
  top: "conv2_3/x1/bn"
  scale_param {
    bias_term: true
  }
}
layer {
  name: "relu2_3/x1"
  type: "ReLU"
  bottom: "conv2_3/x1/bn"
  top: "conv2_3/x1/bn"
}
layer {
  name: "conv2_3/x1"
  type: "Convolution"
  bottom: "conv2_3/x1/bn"
  top: "conv2_3/x1"
  convolution_param {
    num_output: 128
    bias_term: false
    kernel_size: 1
  }
}
layer {
  name: "conv2_3/x2/bn"
  type: "BatchNorm"
  bottom: "conv2_3/x1"
  top: "conv2_3/x2/bn"
  batch_norm_param {
    eps: 1e-05
  }
}
layer {
  name: "conv2_3/x2/scale"
  type: "Scale"
  bottom: "conv2_3/x2/bn"
  top: "conv2_3/x2/bn"
  scale_param {
    bias_term: true
  }
}
layer {
  name: "relu2_3/x2"
  type: "ReLU"
  bottom: "conv2_3/x2/bn"
  top: "conv2_3/x2/bn"
}
layer {
  name: "conv2_3/x2"
  type: "Convolution"
  bottom: "conv2_3/x2/bn"
  top: "conv2_3/x2"
  convolution_param {
    num_output: 32
    bias_term: false
    pad: 1
    kernel_size: 3
  }
}
layer {
  name: "concat_2_3"
  type: "Concat"
  bottom: "concat_2_2"
  bottom: "conv2_3/x2"
  top: "concat_2_3"
}
layer {
  name: "conv2_4/x1/bn"
  type: "BatchNorm"
  bottom: "concat_2_3"
  top: "conv2_4/x1/bn"
  batch_norm_param {
    eps: 1e-05
  }
}
layer {
  name: "conv2_4/x1/scale"
  type: "Scale"
  bottom: "conv2_4/x1/bn"
  top: "conv2_4/x1/bn"
  scale_param {
    bias_term: true
  }
}
layer {
  name: "relu2_4/x1"
  type: "ReLU"
  bottom: "conv2_4/x1/bn"
  top: "conv2_4/x1/bn"
}
layer {
  name: "conv2_4/x1"
  type: "Convolution"
  bottom: "conv2_4/x1/bn"
  top: "conv2_4/x1"
  convolution_param {
    num_output: 128
    bias_term: false
    kernel_size: 1
  }
}
layer {
  name: "conv2_4/x2/bn"
  type: "BatchNorm"
  bottom: "conv2_4/x1"
  top: "conv2_4/x2/bn"
  batch_norm_param {
    eps: 1e-05
  }
}
layer {
  name: "conv2_4/x2/scale"
  type: "Scale"
  bottom: "conv2_4/x2/bn"
  top: "conv2_4/x2/bn"
  scale_param {
    bias_term: true
  }
}
layer {
  name: "relu2_4/x2"
  type: "ReLU"
  bottom: "conv2_4/x2/bn"
  top: "conv2_4/x2/bn"
}
layer {
  name: "conv2_4/x2"
  type: "Convolution"
  bottom: "conv2_4/x2/bn"
  top: "conv2_4/x2"
  convolution_param {
    num_output: 32
    bias_term: false
    pad: 1
    kernel_size: 3
  }
}
layer {
  name: "concat_2_4"
  type: "Concat"
  bottom: "concat_2_3"
  bottom: "conv2_4/x2"
  top: "concat_2_4"
}
layer {
  name: "conv2_5/x1/bn"
  type: "BatchNorm"
  bottom: "concat_2_4"
  top: "conv2_5/x1/bn"
  batch_norm_param {
    eps: 1e-05
  }
}
layer {
  name: "conv2_5/x1/scale"
  type: "Scale"
  bottom: "conv2_5/x1/bn"
  top: "conv2_5/x1/bn"
  scale_param {
    bias_term: true
  }
}
layer {
  name: "relu2_5/x1"
  type: "ReLU"
  bottom: "conv2_5/x1/bn"
  top: "conv2_5/x1/bn"
}
layer {
  name: "conv2_5/x1"
  type: "Convolution"
  bottom: "conv2_5/x1/bn"
  top: "conv2_5/x1"
  convolution_param {
    num_output: 128
    bias_term: false
    kernel_size: 1
  }
}
layer {
  name: "conv2_5/x2/bn"
  type: "BatchNorm"
  bottom: "conv2_5/x1"
  top: "conv2_5/x2/bn"
  batch_norm_param {
    eps: 1e-05
  }
}
layer {
  name: "conv2_5/x2/scale"
  type: "Scale"
  bottom: "conv2_5/x2/bn"
  top: "conv2_5/x2/bn"
  scale_param {
    bias_term: true
  }
}
layer {
  name: "relu2_5/x2"
  type: "ReLU"
  bottom: "conv2_5/x2/bn"
  top: "conv2_5/x2/bn"
}
layer {
  name: "conv2_5/x2"
  type: "Convolution"
  bottom: "conv2_5/x2/bn"
  top: "conv2_5/x2"
  convolution_param {
    num_output: 32
    bias_term: false
    pad: 1
    kernel_size: 3
  }
}
layer {
  name: "concat_2_5"
  type: "Concat"
  bottom: "concat_2_4"
  bottom: "conv2_5/x2"
  top: "concat_2_5"
}
layer {
  name: "conv2_6/x1/bn"
  type: "BatchNorm"
  bottom: "concat_2_5"
  top: "conv2_6/x1/bn"
  batch_norm_param {
    eps: 1e-05
  }
}
layer {
  name: "conv2_6/x1/scale"
  type: "Scale"
  bottom: "conv2_6/x1/bn"
  top: "conv2_6/x1/bn"
  scale_param {
    bias_term: true
  }
}
layer {
  name: "relu2_6/x1"
  type: "ReLU"
  bottom: "conv2_6/x1/bn"
  top: "conv2_6/x1/bn"
}
layer {
  name: "conv2_6/x1"
  type: "Convolution"
  bottom: "conv2_6/x1/bn"
  top: "conv2_6/x1"
  convolution_param {
    num_output: 128
    bias_term: false
    kernel_size: 1
  }
}
layer {
  name: "conv2_6/x2/bn"
  type: "BatchNorm"
  bottom: "conv2_6/x1"
  top: "conv2_6/x2/bn"
  batch_norm_param {
    eps: 1e-05
  }
}
layer {
  name: "conv2_6/x2/scale"
  type: "Scale"
  bottom: "conv2_6/x2/bn"
  top: "conv2_6/x2/bn"
  scale_param {
    bias_term: true
  }
}
layer {
  name: "relu2_6/x2"
  type: "ReLU"
  bottom: "conv2_6/x2/bn"
  top: "conv2_6/x2/bn"
}
layer {
  name: "conv2_6/x2"
  type: "Convolution"
  bottom: "conv2_6/x2/bn"
  top: "conv2_6/x2"
  convolution_param {
    num_output: 32
    bias_term: false
    pad: 1
    kernel_size: 3
  }
}
layer {
  name: "concat_2_6"
  type: "Concat"
  bottom: "concat_2_5"
  bottom: "conv2_6/x2"
  top: "concat_2_6"
}
layer {
  name: "conv2_6/blk/bn"
  type: "BatchNorm"
  bottom: "concat_2_6"
  top: "conv2_6/blk/bn"
  batch_norm_param {
    eps: 1e-05
  }
}
layer {
  name: "conv2_6/blk/scale"
  type: "Scale"
  bottom: "conv2_6/blk/bn"
  top: "conv2_6/blk/bn"
  scale_param {
    bias_term: true
  }
}
layer {
  name: "relu2_6/blk"
  type: "ReLU"
  bottom: "conv2_6/blk/bn"
  top: "conv2_6/blk/bn"
}
layer {
  name: "conv2_6/blk"
  type: "Convolution"
  bottom: "conv2_6/blk/bn"
  top: "conv2_6/blk"
  convolution_param {
    num_output: 128
    bias_term: false
    kernel_size: 1
  }
}
layer {
  name: "pool2_6"
  type: "Pooling"
  bottom: "conv2_6/blk"
  top: "pool2_6"
  pooling_param {
    pool: AVE
    kernel_size: 2
    stride: 2
  }
}
layer {
  name: "conv3_1/x1/bn"
  type: "BatchNorm"
  bottom: "pool2_6"
  top: "conv3_1/x1/bn"
  batch_norm_param {
    eps: 1e-05
  }
}
layer {
  name: "conv3_1/x1/scale"
  type: "Scale"
  bottom: "conv3_1/x1/bn"
  top: "conv3_1/x1/bn"
  scale_param {
    bias_term: true
  }
}
layer {
  name: "relu3_1/x1"
  type: "ReLU"
  bottom: "conv3_1/x1/bn"
  top: "conv3_1/x1/bn"
}
layer {
  name: "conv3_1/x1"
  type: "Convolution"
  bottom: "conv3_1/x1/bn"
  top: "conv3_1/x1"
  convolution_param {
    num_output: 128
    bias_term: false
    kernel_size: 1
  }
}
layer {
  name: "conv3_1/x2/bn"
  type: "BatchNorm"
  bottom: "conv3_1/x1"
  top: "conv3_1/x2/bn"
  batch_norm_param {
    eps: 1e-05
  }
}
layer {
  name: "conv3_1/x2/scale"
  type: "Scale"
  bottom: "conv3_1/x2/bn"
  top: "conv3_1/x2/bn"
  scale_param {
    bias_term: true
  }
}
layer {
  name: "relu3_1/x2"
  type: "ReLU"
  bottom: "conv3_1/x2/bn"
  top: "conv3_1/x2/bn"
}
layer {
  name: "conv3_1/x2"
  type: "Convolution"
  bottom: "conv3_1/x2/bn"
  top: "conv3_1/x2"
  convolution_param {
    num_output: 32
    bias_term: false
    pad: 1
    kernel_size: 3
  }
}
layer {
  name: "concat_3_1"
  type: "Concat"
  bottom: "pool2_6"
  bottom: "conv3_1/x2"
  top: "concat_3_1"
}
layer {
  name: "conv3_2/x1/bn"
  type: "BatchNorm"
  bottom: "concat_3_1"
  top: "conv3_2/x1/bn"
  batch_norm_param {
    eps: 1e-05
  }
}
layer {
  name: "conv3_2/x1/scale"
  type: "Scale"
  bottom: "conv3_2/x1/bn"
  top: "conv3_2/x1/bn"
  scale_param {
    bias_term: true
  }
}
layer {
  name: "relu3_2/x1"
  type: "ReLU"
  bottom: "conv3_2/x1/bn"
  top: "conv3_2/x1/bn"
}
layer {
  name: "conv3_2/x1"
  type: "Convolution"
  bottom: "conv3_2/x1/bn"
  top: "conv3_2/x1"
  convolution_param {
    num_output: 128
    bias_term: false
    kernel_size: 1
  }
}
layer {
  name: "conv3_2/x2/bn"
  type: "BatchNorm"
  bottom: "conv3_2/x1"
  top: "conv3_2/x2/bn"
  batch_norm_param {
    eps: 1e-05
  }
}
layer {
  name: "conv3_2/x2/scale"
  type: "Scale"
  bottom: "conv3_2/x2/bn"
  top: "conv3_2/x2/bn"
  scale_param {
    bias_term: true
  }
}
layer {
  name: "relu3_2/x2"
  type: "ReLU"
  bottom: "conv3_2/x2/bn"
  top: "conv3_2/x2/bn"
}
layer {
  name: "conv3_2/x2"
  type: "Convolution"
  bottom: "conv3_2/x2/bn"
  top: "conv3_2/x2"
  convolution_param {
    num_output: 32
    bias_term: false
    pad: 1
    kernel_size: 3
  }
}
layer {
  name: "concat_3_2"
  type: "Concat"
  bottom: "concat_3_1"
  bottom: "conv3_2/x2"
  top: "concat_3_2"
}
layer {
  name: "conv3_3/x1/bn"
  type: "BatchNorm"
  bottom: "concat_3_2"
  top: "conv3_3/x1/bn"
  batch_norm_param {
    eps: 1e-05
  }
}
layer {
  name: "conv3_3/x1/scale"
  type: "Scale"
  bottom: "conv3_3/x1/bn"
  top: "conv3_3/x1/bn"
  scale_param {
    bias_term: true
  }
}
layer {
  name: "relu3_3/x1"
  type: "ReLU"
  bottom: "conv3_3/x1/bn"
  top: "conv3_3/x1/bn"
}
layer {
  name: "conv3_3/x1"
  type: "Convolution"
  bottom: "conv3_3/x1/bn"
  top: "conv3_3/x1"
  convolution_param {
    num_output: 128
    bias_term: false
    kernel_size: 1
  }
}
layer {
  name: "conv3_3/x2/bn"
  type: "BatchNorm"
  bottom: "conv3_3/x1"
  top: "conv3_3/x2/bn"
  batch_norm_param {
    eps: 1e-05
  }
}
layer {
  name: "conv3_3/x2/scale"
  type: "Scale"
  bottom: "conv3_3/x2/bn"
  top: "conv3_3/x2/bn"
  scale_param {
    bias_term: true
  }
}
layer {
  name: "relu3_3/x2"
  type: "ReLU"
  bottom: "conv3_3/x2/bn"
  top: "conv3_3/x2/bn"
}
layer {
  name: "conv3_3/x2"
  type: "Convolution"
  bottom: "conv3_3/x2/bn"
  top: "conv3_3/x2"
  convolution_param {
    num_output: 32
    bias_term: false
    pad: 1
    kernel_size: 3
  }
}
layer {
  name: "concat_3_3"
  type: "Concat"
  bottom: "concat_3_2"
  bottom: "conv3_3/x2"
  top: "concat_3_3"
}
layer {
  name: "conv3_4/x1/bn"
  type: "BatchNorm"
  bottom: "concat_3_3"
  top: "conv3_4/x1/bn"
  batch_norm_param {
    eps: 1e-05
  }
}
layer {
  name: "conv3_4/x1/scale"
  type: "Scale"
  bottom: "conv3_4/x1/bn"
  top: "conv3_4/x1/bn"
  scale_param {
    bias_term: true
  }
}
layer {
  name: "relu3_4/x1"
  type: "ReLU"
  bottom: "conv3_4/x1/bn"
  top: "conv3_4/x1/bn"
}
layer {
  name: "conv3_4/x1"
  type: "Convolution"
  bottom: "conv3_4/x1/bn"
  top: "conv3_4/x1"
  convolution_param {
    num_output: 128
    bias_term: false
    kernel_size: 1
  }
}
layer {
  name: "conv3_4/x2/bn"
  type: "BatchNorm"
  bottom: "conv3_4/x1"
  top: "conv3_4/x2/bn"
  batch_norm_param {
    eps: 1e-05
  }
}
layer {
  name: "conv3_4/x2/scale"
  type: "Scale"
  bottom: "conv3_4/x2/bn"
  top: "conv3_4/x2/bn"
  scale_param {
    bias_term: true
  }
}
layer {
  name: "relu3_4/x2"
  type: "ReLU"
  bottom: "conv3_4/x2/bn"
  top: "conv3_4/x2/bn"
}
layer {
  name: "conv3_4/x2"
  type: "Convolution"
  bottom: "conv3_4/x2/bn"
  top: "conv3_4/x2"
  convolution_param {
    num_output: 32
    bias_term: false
    pad: 1
    kernel_size: 3
  }
}
layer {
  name: "concat_3_4"
  type: "Concat"
  bottom: "concat_3_3"
  bottom: "conv3_4/x2"
  top: "concat_3_4"
}
layer {
  name: "conv3_5/x1/bn"
  type: "BatchNorm"
  bottom: "concat_3_4"
  top: "conv3_5/x1/bn"
  batch_norm_param {
    eps: 1e-05
  }
}
layer {
  name: "conv3_5/x1/scale"
  type: "Scale"
  bottom: "conv3_5/x1/bn"
  top: "conv3_5/x1/bn"
  scale_param {
    bias_term: true
  }
}
layer {
  name: "relu3_5/x1"
  type: "ReLU"
  bottom: "conv3_5/x1/bn"
  top: "conv3_5/x1/bn"
}
layer {
  name: "conv3_5/x1"
  type: "Convolution"
  bottom: "conv3_5/x1/bn"
  top: "conv3_5/x1"
  convolution_param {
    num_output: 128
    bias_term: false
    kernel_size: 1
  }
}
layer {
  name: "conv3_5/x2/bn"
  type: "BatchNorm"
  bottom: "conv3_5/x1"
  top: "conv3_5/x2/bn"
  batch_norm_param {
    eps: 1e-05
  }
}
layer {
  name: "conv3_5/x2/scale"
  type: "Scale"
  bottom: "conv3_5/x2/bn"
  top: "conv3_5/x2/bn"
  scale_param {
    bias_term: true
  }
}
layer {
  name: "relu3_5/x2"
  type: "ReLU"
  bottom: "conv3_5/x2/bn"
  top: "conv3_5/x2/bn"
}
layer {
  name: "conv3_5/x2"
  type: "Convolution"
  bottom: "conv3_5/x2/bn"
  top: "conv3_5/x2"
  convolution_param {
    num_output: 32
    bias_term: false
    pad: 1
    kernel_size: 3
  }
}
layer {
  name: "concat_3_5"
  type: "Concat"
  bottom: "concat_3_4"
  bottom: "conv3_5/x2"
  top: "concat_3_5"
}
layer {
  name: "conv3_6/x1/bn"
  type: "BatchNorm"
  bottom: "concat_3_5"
  top: "conv3_6/x1/bn"
  batch_norm_param {
    eps: 1e-05
  }
}
layer {
  name: "conv3_6/x1/scale"
  type: "Scale"
  bottom: "conv3_6/x1/bn"
  top: "conv3_6/x1/bn"
  scale_param {
    bias_term: true
  }
}
layer {
  name: "relu3_6/x1"
  type: "ReLU"
  bottom: "conv3_6/x1/bn"
  top: "conv3_6/x1/bn"
}
layer {
  name: "conv3_6/x1"
  type: "Convolution"
  bottom: "conv3_6/x1/bn"
  top: "conv3_6/x1"
  convolution_param {
    num_output: 128
    bias_term: false
    kernel_size: 1
  }
}
layer {
  name: "conv3_6/x2/bn"
  type: "BatchNorm"
  bottom: "conv3_6/x1"
  top: "conv3_6/x2/bn"
  batch_norm_param {
    eps: 1e-05
  }
}
layer {
  name: "conv3_6/x2/scale"
  type: "Scale"
  bottom: "conv3_6/x2/bn"
  top: "conv3_6/x2/bn"
  scale_param {
    bias_term: true
  }
}
layer {
  name: "relu3_6/x2"
  type: "ReLU"
  bottom: "conv3_6/x2/bn"
  top: "conv3_6/x2/bn"
}
layer {
  name: "conv3_6/x2"
  type: "Convolution"
  bottom: "conv3_6/x2/bn"
  top: "conv3_6/x2"
  convolution_param {
    num_output: 32
    bias_term: false
    pad: 1
    kernel_size: 3
  }
}
layer {
  name: "concat_3_6"
  type: "Concat"
  bottom: "concat_3_5"
  bottom: "conv3_6/x2"
  top: "concat_3_6"
}
layer {
  name: "conv3_7/x1/bn"
  type: "BatchNorm"
  bottom: "concat_3_6"
  top: "conv3_7/x1/bn"
  batch_norm_param {
    eps: 1e-05
  }
}
layer {
  name: "conv3_7/x1/scale"
  type: "Scale"
  bottom: "conv3_7/x1/bn"
  top: "conv3_7/x1/bn"
  scale_param {
    bias_term: true
  }
}
layer {
  name: "relu3_7/x1"
  type: "ReLU"
  bottom: "conv3_7/x1/bn"
  top: "conv3_7/x1/bn"
}
layer {
  name: "conv3_7/x1"
  type: "Convolution"
  bottom: "conv3_7/x1/bn"
  top: "conv3_7/x1"
  convolution_param {
    num_output: 128
    bias_term: false
    kernel_size: 1
  }
}
layer {
  name: "conv3_7/x2/bn"
  type: "BatchNorm"
  bottom: "conv3_7/x1"
  top: "conv3_7/x2/bn"
  batch_norm_param {
    eps: 1e-05
  }
}
layer {
  name: "conv3_7/x2/scale"
  type: "Scale"
  bottom: "conv3_7/x2/bn"
  top: "conv3_7/x2/bn"
  scale_param {
    bias_term: true
  }
}
layer {
  name: "relu3_7/x2"
  type: "ReLU"
  bottom: "conv3_7/x2/bn"
  top: "conv3_7/x2/bn"
}
layer {
  name: "conv3_7/x2"
  type: "Convolution"
  bottom: "conv3_7/x2/bn"
  top: "conv3_7/x2"
  convolution_param {
    num_output: 32
    bias_term: false
    pad: 1
    kernel_size: 3
  }
}
layer {
  name: "concat_3_7"
  type: "Concat"
  bottom: "concat_3_6"
  bottom: "conv3_7/x2"
  top: "concat_3_7"
}
layer {
  name: "conv3_8/x1/bn"
  type: "BatchNorm"
  bottom: "concat_3_7"
  top: "conv3_8/x1/bn"
  batch_norm_param {
    eps: 1e-05
  }
}
layer {
  name: "conv3_8/x1/scale"
  type: "Scale"
  bottom: "conv3_8/x1/bn"
  top: "conv3_8/x1/bn"
  scale_param {
    bias_term: true
  }
}
layer {
  name: "relu3_8/x1"
  type: "ReLU"
  bottom: "conv3_8/x1/bn"
  top: "conv3_8/x1/bn"
}
layer {
  name: "conv3_8/x1"
  type: "Convolution"
  bottom: "conv3_8/x1/bn"
  top: "conv3_8/x1"
  convolution_param {
    num_output: 128
    bias_term: false
    kernel_size: 1
  }
}
layer {
  name: "conv3_8/x2/bn"
  type: "BatchNorm"
  bottom: "conv3_8/x1"
  top: "conv3_8/x2/bn"
  batch_norm_param {
    eps: 1e-05
  }
}
layer {
  name: "conv3_8/x2/scale"
  type: "Scale"
  bottom: "conv3_8/x2/bn"
  top: "conv3_8/x2/bn"
  scale_param {
    bias_term: true
  }
}
layer {
  name: "relu3_8/x2"
  type: "ReLU"
  bottom: "conv3_8/x2/bn"
  top: "conv3_8/x2/bn"
}
layer {
  name: "conv3_8/x2"
  type: "Convolution"
  bottom: "conv3_8/x2/bn"
  top: "conv3_8/x2"
  convolution_param {
    num_output: 32
    bias_term: false
    pad: 1
    kernel_size: 3
  }
}
layer {
  name: "concat_3_8"
  type: "Concat"
  bottom: "concat_3_7"
  bottom: "conv3_8/x2"
  top: "concat_3_8"
}
layer {
  name: "conv3_9/x1/bn"
  type: "BatchNorm"
  bottom: "concat_3_8"
  top: "conv3_9/x1/bn"
  batch_norm_param {
    eps: 1e-05
  }
}
layer {
  name: "conv3_9/x1/scale"
  type: "Scale"
  bottom: "conv3_9/x1/bn"
  top: "conv3_9/x1/bn"
  scale_param {
    bias_term: true
  }
}
layer {
  name: "relu3_9/x1"
  type: "ReLU"
  bottom: "conv3_9/x1/bn"
  top: "conv3_9/x1/bn"
}
layer {
  name: "conv3_9/x1"
  type: "Convolution"
  bottom: "conv3_9/x1/bn"
  top: "conv3_9/x1"
  convolution_param {
    num_output: 128
    bias_term: false
    kernel_size: 1
  }
}
layer {
  name: "conv3_9/x2/bn"
  type: "BatchNorm"
  bottom: "conv3_9/x1"
  top: "conv3_9/x2/bn"
  batch_norm_param {
    eps: 1e-05
  }
}
layer {
  name: "conv3_9/x2/scale"
  type: "Scale"
  bottom: "conv3_9/x2/bn"
  top: "conv3_9/x2/bn"
  scale_param {
    bias_term: true
  }
}
layer {
  name: "relu3_9/x2"
  type: "ReLU"
  bottom: "conv3_9/x2/bn"
  top: "conv3_9/x2/bn"
}
layer {
  name: "conv3_9/x2"
  type: "Convolution"
  bottom: "conv3_9/x2/bn"
  top: "conv3_9/x2"
  convolution_param {
    num_output: 32
    bias_term: false
    pad: 1
    kernel_size: 3
  }
}
layer {
  name: "concat_3_9"
  type: "Concat"
  bottom: "concat_3_8"
  bottom: "conv3_9/x2"
  top: "concat_3_9"
}
layer {
  name: "conv3_10/x1/bn"
  type: "BatchNorm"
  bottom: "concat_3_9"
  top: "conv3_10/x1/bn"
  batch_norm_param {
    eps: 1e-05
  }
}
layer {
  name: "conv3_10/x1/scale"
  type: "Scale"
  bottom: "conv3_10/x1/bn"
  top: "conv3_10/x1/bn"
  scale_param {
    bias_term: true
  }
}
layer {
  name: "relu3_10/x1"
  type: "ReLU"
  bottom: "conv3_10/x1/bn"
  top: "conv3_10/x1/bn"
}
layer {
  name: "conv3_10/x1"
  type: "Convolution"
  bottom: "conv3_10/x1/bn"
  top: "conv3_10/x1"
  convolution_param {
    num_output: 128
    bias_term: false
    kernel_size: 1
  }
}
layer {
  name: "conv3_10/x2/bn"
  type: "BatchNorm"
  bottom: "conv3_10/x1"
  top: "conv3_10/x2/bn"
  batch_norm_param {
    eps: 1e-05
  }
}
layer {
  name: "conv3_10/x2/scale"
  type: "Scale"
  bottom: "conv3_10/x2/bn"
  top: "conv3_10/x2/bn"
  scale_param {
    bias_term: true
  }
}
layer {
  name: "relu3_10/x2"
  type: "ReLU"
  bottom: "conv3_10/x2/bn"
  top: "conv3_10/x2/bn"
}
layer {
  name: "conv3_10/x2"
  type: "Convolution"
  bottom: "conv3_10/x2/bn"
  top: "conv3_10/x2"
  convolution_param {
    num_output: 32
    bias_term: false
    pad: 1
    kernel_size: 3
  }
}
layer {
  name: "concat_3_10"
  type: "Concat"
  bottom: "concat_3_9"
  bottom: "conv3_10/x2"
  top: "concat_3_10"
}
layer {
  name: "conv3_11/x1/bn"
  type: "BatchNorm"
  bottom: "concat_3_10"
  top: "conv3_11/x1/bn"
  batch_norm_param {
    eps: 1e-05
  }
}
layer {
  name: "conv3_11/x1/scale"
  type: "Scale"
  bottom: "conv3_11/x1/bn"
  top: "conv3_11/x1/bn"
  scale_param {
    bias_term: true
  }
}
layer {
  name: "relu3_11/x1"
  type: "ReLU"
  bottom: "conv3_11/x1/bn"
  top: "conv3_11/x1/bn"
}
layer {
  name: "conv3_11/x1"
  type: "Convolution"
  bottom: "conv3_11/x1/bn"
  top: "conv3_11/x1"
  convolution_param {
    num_output: 128
    bias_term: false
    kernel_size: 1
  }
}
layer {
  name: "conv3_11/x2/bn"
  type: "BatchNorm"
  bottom: "conv3_11/x1"
  top: "conv3_11/x2/bn"
  batch_norm_param {
    eps: 1e-05
  }
}
layer {
  name: "conv3_11/x2/scale"
  type: "Scale"
  bottom: "conv3_11/x2/bn"
  top: "conv3_11/x2/bn"
  scale_param {
    bias_term: true
  }
}
layer {
  name: "relu3_11/x2"
  type: "ReLU"
  bottom: "conv3_11/x2/bn"
  top: "conv3_11/x2/bn"
}
layer {
  name: "conv3_11/x2"
  type: "Convolution"
  bottom: "conv3_11/x2/bn"
  top: "conv3_11/x2"
  convolution_param {
    num_output: 32
    bias_term: false
    pad: 1
    kernel_size: 3
  }
}
layer {
  name: "concat_3_11"
  type: "Concat"
  bottom: "concat_3_10"
  bottom: "conv3_11/x2"
  top: "concat_3_11"
}
layer {
  name: "conv3_12/x1/bn"
  type: "BatchNorm"
  bottom: "concat_3_11"
  top: "conv3_12/x1/bn"
  batch_norm_param {
    eps: 1e-05
  }
}
layer {
  name: "conv3_12/x1/scale"
  type: "Scale"
  bottom: "conv3_12/x1/bn"
  top: "conv3_12/x1/bn"
  scale_param {
    bias_term: true
  }
}
layer {
  name: "relu3_12/x1"
  type: "ReLU"
  bottom: "conv3_12/x1/bn"
  top: "conv3_12/x1/bn"
}
layer {
  name: "conv3_12/x1"
  type: "Convolution"
  bottom: "conv3_12/x1/bn"
  top: "conv3_12/x1"
  convolution_param {
    num_output: 128
    bias_term: false
    kernel_size: 1
  }
}
layer {
  name: "conv3_12/x2/bn"
  type: "BatchNorm"
  bottom: "conv3_12/x1"
  top: "conv3_12/x2/bn"
  batch_norm_param {
    eps: 1e-05
  }
}
layer {
  name: "conv3_12/x2/scale"
  type: "Scale"
  bottom: "conv3_12/x2/bn"
  top: "conv3_12/x2/bn"
  scale_param {
    bias_term: true
  }
}
layer {
  name: "relu3_12/x2"
  type: "ReLU"
  bottom: "conv3_12/x2/bn"
  top: "conv3_12/x2/bn"
}
layer {
  name: "conv3_12/x2"
  type: "Convolution"
  bottom: "conv3_12/x2/bn"
  top: "conv3_12/x2"
  convolution_param {
    num_output: 32
    bias_term: false
    pad: 1
    kernel_size: 3
  }
}
layer {
  name: "concat_3_12"
  type: "Concat"
  bottom: "concat_3_11"
  bottom: "conv3_12/x2"
  top: "concat_3_12"
}
layer {
  name: "conv3_12/blk/bn"
  type: "BatchNorm"
  bottom: "concat_3_12"
  top: "conv3_12/blk/bn"
  batch_norm_param {
    eps: 1e-05
  }
}
layer {
  name: "conv3_12/blk/scale"
  type: "Scale"
  bottom: "conv3_12/blk/bn"
  top: "conv3_12/blk/bn"
  scale_param {
    bias_term: true
  }
}
layer {
  name: "relu3_12/blk"
  type: "ReLU"
  bottom: "conv3_12/blk/bn"
  top: "conv3_12/blk/bn"
}
layer {
  name: "conv3_12/blk"
  type: "Convolution"
  bottom: "conv3_12/blk/bn"
  top: "conv3_12/blk"
  convolution_param {
    num_output: 256
    bias_term: false
    kernel_size: 1
  }
}
layer {
  name: "pool3_12"
  type: "Pooling"
  bottom: "conv3_12/blk"
  top: "pool3_12"
  pooling_param {
    pool: AVE
    kernel_size: 2
    stride: 2
  }
}
layer {
  name: "conv4_1/x1/bn"
  type: "BatchNorm"
  bottom: "pool3_12"
  top: "conv4_1/x1/bn"
  batch_norm_param {
    eps: 1e-05
  }
}
layer {
  name: "conv4_1/x1/scale"
  type: "Scale"
  bottom: "conv4_1/x1/bn"
  top: "conv4_1/x1/bn"
  scale_param {
    bias_term: true
  }
}
layer {
  name: "relu4_1/x1"
  type: "ReLU"
  bottom: "conv4_1/x1/bn"
  top: "conv4_1/x1/bn"
}
layer {
  name: "conv4_1/x1"
  type: "Convolution"
  bottom: "conv4_1/x1/bn"
  top: "conv4_1/x1"
  convolution_param {
    num_output: 128
    bias_term: false
    kernel_size: 1
  }
}
layer {
  name: "conv4_1/x2/bn"
  type: "BatchNorm"
  bottom: "conv4_1/x1"
  top: "conv4_1/x2/bn"
  batch_norm_param {
    eps: 1e-05
  }
}
layer {
  name: "conv4_1/x2/scale"
  type: "Scale"
  bottom: "conv4_1/x2/bn"
  top: "conv4_1/x2/bn"
  scale_param {
    bias_term: true
  }
}
layer {
  name: "relu4_1/x2"
  type: "ReLU"
  bottom: "conv4_1/x2/bn"
  top: "conv4_1/x2/bn"
}
layer {
  name: "conv4_1/x2"
  type: "Convolution"
  bottom: "conv4_1/x2/bn"
  top: "conv4_1/x2"
  convolution_param {
    num_output: 32
    bias_term: false
    pad: 1
    kernel_size: 3
  }
}
layer {
  name: "concat_4_1"
  type: "Concat"
  bottom: "pool3_12"
  bottom: "conv4_1/x2"
  top: "concat_4_1"
}
layer {
  name: "conv4_2/x1/bn"
  type: "BatchNorm"
  bottom: "concat_4_1"
  top: "conv4_2/x1/bn"
  batch_norm_param {
    eps: 1e-05
  }
}
layer {
  name: "conv4_2/x1/scale"
  type: "Scale"
  bottom: "conv4_2/x1/bn"
  top: "conv4_2/x1/bn"
  scale_param {
    bias_term: true
  }
}
layer {
  name: "relu4_2/x1"
  type: "ReLU"
  bottom: "conv4_2/x1/bn"
  top: "conv4_2/x1/bn"
}
layer {
  name: "conv4_2/x1"
  type: "Convolution"
  bottom: "conv4_2/x1/bn"
  top: "conv4_2/x1"
  convolution_param {
    num_output: 128
    bias_term: false
    kernel_size: 1
  }
}
layer {
  name: "conv4_2/x2/bn"
  type: "BatchNorm"
  bottom: "conv4_2/x1"
  top: "conv4_2/x2/bn"
  batch_norm_param {
    eps: 1e-05
  }
}
layer {
  name: "conv4_2/x2/scale"
  type: "Scale"
  bottom: "conv4_2/x2/bn"
  top: "conv4_2/x2/bn"
  scale_param {
    bias_term: true
  }
}
layer {
  name: "relu4_2/x2"
  type: "ReLU"
  bottom: "conv4_2/x2/bn"
  top: "conv4_2/x2/bn"
}
layer {
  name: "conv4_2/x2"
  type: "Convolution"
  bottom: "conv4_2/x2/bn"
  top: "conv4_2/x2"
  convolution_param {
    num_output: 32
    bias_term: false
    pad: 1
    kernel_size: 3
  }
}
layer {
  name: "concat_4_2"
  type: "Concat"
  bottom: "concat_4_1"
  bottom: "conv4_2/x2"
  top: "concat_4_2"
}
layer {
  name: "conv4_3/x1/bn"
  type: "BatchNorm"
  bottom: "concat_4_2"
  top: "conv4_3/x1/bn"
  batch_norm_param {
    eps: 1e-05
  }
}
layer {
  name: "conv4_3/x1/scale"
  type: "Scale"
  bottom: "conv4_3/x1/bn"
  top: "conv4_3/x1/bn"
  scale_param {
    bias_term: true
  }
}
layer {
  name: "relu4_3/x1"
  type: "ReLU"
  bottom: "conv4_3/x1/bn"
  top: "conv4_3/x1/bn"
}
layer {
  name: "conv4_3/x1"
  type: "Convolution"
  bottom: "conv4_3/x1/bn"
  top: "conv4_3/x1"
  convolution_param {
    num_output: 128
    bias_term: false
    kernel_size: 1
  }
}
layer {
  name: "conv4_3/x2/bn"
  type: "BatchNorm"
  bottom: "conv4_3/x1"
  top: "conv4_3/x2/bn"
  batch_norm_param {
    eps: 1e-05
  }
}
layer {
  name: "conv4_3/x2/scale"
  type: "Scale"
  bottom: "conv4_3/x2/bn"
  top: "conv4_3/x2/bn"
  scale_param {
    bias_term: true
  }
}
layer {
  name: "relu4_3/x2"
  type: "ReLU"
  bottom: "conv4_3/x2/bn"
  top: "conv4_3/x2/bn"
}
layer {
  name: "conv4_3/x2"
  type: "Convolution"
  bottom: "conv4_3/x2/bn"
  top: "conv4_3/x2"
  convolution_param {
    num_output: 32
    bias_term: false
    pad: 1
    kernel_size: 3
  }
}
layer {
  name: "concat_4_3"
  type: "Concat"
  bottom: "concat_4_2"
  bottom: "conv4_3/x2"
  top: "concat_4_3"
}
layer {
  name: "conv4_4/x1/bn"
  type: "BatchNorm"
  bottom: "concat_4_3"
  top: "conv4_4/x1/bn"
  batch_norm_param {
    eps: 1e-05
  }
}
layer {
  name: "conv4_4/x1/scale"
  type: "Scale"
  bottom: "conv4_4/x1/bn"
  top: "conv4_4/x1/bn"
  scale_param {
    bias_term: true
  }
}
layer {
  name: "relu4_4/x1"
  type: "ReLU"
  bottom: "conv4_4/x1/bn"
  top: "conv4_4/x1/bn"
}
layer {
  name: "conv4_4/x1"
  type: "Convolution"
  bottom: "conv4_4/x1/bn"
  top: "conv4_4/x1"
  convolution_param {
    num_output: 128
    bias_term: false
    kernel_size: 1
  }
}
layer {
  name: "conv4_4/x2/bn"
  type: "BatchNorm"
  bottom: "conv4_4/x1"
  top: "conv4_4/x2/bn"
  batch_norm_param {
    eps: 1e-05
  }
}
layer {
  name: "conv4_4/x2/scale"
  type: "Scale"
  bottom: "conv4_4/x2/bn"
  top: "conv4_4/x2/bn"
  scale_param {
    bias_term: true
  }
}
layer {
  name: "relu4_4/x2"
  type: "ReLU"
  bottom: "conv4_4/x2/bn"
  top: "conv4_4/x2/bn"
}
layer {
  name: "conv4_4/x2"
  type: "Convolution"
  bottom: "conv4_4/x2/bn"
  top: "conv4_4/x2"
  convolution_param {
    num_output: 32
    bias_term: false
    pad: 1
    kernel_size: 3
  }
}
layer {
  nam
I1129 21:36:21.625725 13963 layer_factory.hpp:77] Creating layer data
I1129 21:36:21.625926 13963 net.cpp:100] Creating Layer data
I1129 21:36:21.625995 13963 net.cpp:408] data -> data
I1129 21:36:21.626098 13963 net.cpp:408] data -> label
I1129 21:36:21.626986 13963 image_data_layer.cpp:38] Opening file ../aichallenger_train_treated/all_treated_tra_val_label.txt
I1129 21:36:21.678617 13963 image_data_layer.cpp:53] Shuffling data
I1129 21:36:21.686625 13963 image_data_layer.cpp:58] A total of 60999 images.
I1129 21:36:21.721204 13963 image_data_layer.cpp:85] output data size: 16,3,224,224
I1129 21:36:21.750921 13963 net.cpp:150] Setting up data
I1129 21:36:21.751070 13963 net.cpp:157] Top shape: 16 3 224 224 (2408448)
I1129 21:36:21.751119 13963 net.cpp:157] Top shape: 16 (16)
I1129 21:36:21.751129 13963 net.cpp:165] Memory required for data: 9633856
I1129 21:36:21.751142 13963 layer_factory.hpp:77] Creating layer conv1
I1129 21:36:21.751173 13963 net.cpp:100] Creating Layer conv1
I1129 21:36:21.751183 13963 net.cpp:434] conv1 <- data
I1129 21:36:21.751210 13963 net.cpp:408] conv1 -> conv1
I1129 21:36:22.155182 13963 net.cpp:150] Setting up conv1
I1129 21:36:22.155239 13963 net.cpp:157] Top shape: 16 64 112 112 (12845056)
I1129 21:36:22.155246 13963 net.cpp:165] Memory required for data: 61014080
I1129 21:36:22.155288 13963 layer_factory.hpp:77] Creating layer conv1/bn
I1129 21:36:22.155336 13963 net.cpp:100] Creating Layer conv1/bn
I1129 21:36:22.155345 13963 net.cpp:434] conv1/bn <- conv1
I1129 21:36:22.155383 13963 net.cpp:408] conv1/bn -> conv1/bn
I1129 21:36:22.155688 13963 net.cpp:150] Setting up conv1/bn
I1129 21:36:22.155706 13963 net.cpp:157] Top shape: 16 64 112 112 (12845056)
I1129 21:36:22.155711 13963 net.cpp:165] Memory required for data: 112394304
I1129 21:36:22.155726 13963 layer_factory.hpp:77] Creating layer conv1/scale
I1129 21:36:22.155743 13963 net.cpp:100] Creating Layer conv1/scale
I1129 21:36:22.155748 13963 net.cpp:434] conv1/scale <- conv1/bn
I1129 21:36:22.155755 13963 net.cpp:395] conv1/scale -> conv1/bn (in-place)
I1129 21:36:22.155819 13963 layer_factory.hpp:77] Creating layer conv1/scale
I1129 21:36:22.155992 13963 net.cpp:150] Setting up conv1/scale
I1129 21:36:22.156009 13963 net.cpp:157] Top shape: 16 64 112 112 (12845056)
I1129 21:36:22.156013 13963 net.cpp:165] Memory required for data: 163774528
I1129 21:36:22.156024 13963 layer_factory.hpp:77] Creating layer relu1
I1129 21:36:22.156036 13963 net.cpp:100] Creating Layer relu1
I1129 21:36:22.156041 13963 net.cpp:434] relu1 <- conv1/bn
I1129 21:36:22.156047 13963 net.cpp:395] relu1 -> conv1/bn (in-place)
I1129 21:36:22.156281 13963 net.cpp:150] Setting up relu1
I1129 21:36:22.156301 13963 net.cpp:157] Top shape: 16 64 112 112 (12845056)
I1129 21:36:22.156304 13963 net.cpp:165] Memory required for data: 215154752
I1129 21:36:22.156309 13963 layer_factory.hpp:77] Creating layer pool1
I1129 21:36:22.156324 13963 net.cpp:100] Creating Layer pool1
I1129 21:36:22.156329 13963 net.cpp:434] pool1 <- conv1/bn
I1129 21:36:22.156335 13963 net.cpp:408] pool1 -> pool1
I1129 21:36:22.156406 13963 net.cpp:150] Setting up pool1
I1129 21:36:22.156433 13963 net.cpp:157] Top shape: 16 64 57 57 (3326976)
I1129 21:36:22.156438 13963 net.cpp:165] Memory required for data: 228462656
I1129 21:36:22.156442 13963 layer_factory.hpp:77] Creating layer pool1_pool1_0_split
I1129 21:36:22.156458 13963 net.cpp:100] Creating Layer pool1_pool1_0_split
I1129 21:36:22.156462 13963 net.cpp:434] pool1_pool1_0_split <- pool1
I1129 21:36:22.156468 13963 net.cpp:408] pool1_pool1_0_split -> pool1_pool1_0_split_0
I1129 21:36:22.156476 13963 net.cpp:408] pool1_pool1_0_split -> pool1_pool1_0_split_1
I1129 21:36:22.156519 13963 net.cpp:150] Setting up pool1_pool1_0_split
I1129 21:36:22.156530 13963 net.cpp:157] Top shape: 16 64 57 57 (3326976)
I1129 21:36:22.156535 13963 net.cpp:157] Top shape: 16 64 57 57 (3326976)
I1129 21:36:22.156539 13963 net.cpp:165] Memory required for data: 255078464
I1129 21:36:22.156543 13963 layer_factory.hpp:77] Creating layer conv2_1/x1/bn
I1129 21:36:22.156550 13963 net.cpp:100] Creating Layer conv2_1/x1/bn
I1129 21:36:22.156554 13963 net.cpp:434] conv2_1/x1/bn <- pool1_pool1_0_split_0
I1129 21:36:22.156560 13963 net.cpp:408] conv2_1/x1/bn -> conv2_1/x1/bn
I1129 21:36:22.158296 13963 net.cpp:150] Setting up conv2_1/x1/bn
I1129 21:36:22.158324 13963 net.cpp:157] Top shape: 16 64 57 57 (3326976)
I1129 21:36:22.158329 13963 net.cpp:165] Memory required for data: 268386368
I1129 21:36:22.158344 13963 layer_factory.hpp:77] Creating layer conv2_1/x1/scale
I1129 21:36:22.158356 13963 net.cpp:100] Creating Layer conv2_1/x1/scale
I1129 21:36:22.158361 13963 net.cpp:434] conv2_1/x1/scale <- conv2_1/x1/bn
I1129 21:36:22.158367 13963 net.cpp:395] conv2_1/x1/scale -> conv2_1/x1/bn (in-place)
I1129 21:36:22.158432 13963 layer_factory.hpp:77] Creating layer conv2_1/x1/scale
I1129 21:36:22.158569 13963 net.cpp:150] Setting up conv2_1/x1/scale
I1129 21:36:22.158586 13963 net.cpp:157] Top shape: 16 64 57 57 (3326976)
I1129 21:36:22.158591 13963 net.cpp:165] Memory required for data: 281694272
I1129 21:36:22.158597 13963 layer_factory.hpp:77] Creating layer relu2_1/x1
I1129 21:36:22.158607 13963 net.cpp:100] Creating Layer relu2_1/x1
I1129 21:36:22.158612 13963 net.cpp:434] relu2_1/x1 <- conv2_1/x1/bn
I1129 21:36:22.158619 13963 net.cpp:395] relu2_1/x1 -> conv2_1/x1/bn (in-place)
I1129 21:36:22.159952 13963 net.cpp:150] Setting up relu2_1/x1
I1129 21:36:22.159981 13963 net.cpp:157] Top shape: 16 64 57 57 (3326976)
I1129 21:36:22.159986 13963 net.cpp:165] Memory required for data: 295002176
I1129 21:36:22.160006 13963 layer_factory.hpp:77] Creating layer conv2_1/x1
I1129 21:36:22.160022 13963 net.cpp:100] Creating Layer conv2_1/x1
I1129 21:36:22.160027 13963 net.cpp:434] conv2_1/x1 <- conv2_1/x1/bn
I1129 21:36:22.160033 13963 net.cpp:408] conv2_1/x1 -> conv2_1/x1
I1129 21:36:22.162055 13963 net.cpp:150] Setting up conv2_1/x1
I1129 21:36:22.162086 13963 net.cpp:157] Top shape: 16 128 57 57 (6653952)
I1129 21:36:22.162091 13963 net.cpp:165] Memory required for data: 321617984
I1129 21:36:22.162098 13963 layer_factory.hpp:77] Creating layer conv2_1/x2/bn
I1129 21:36:22.162108 13963 net.cpp:100] Creating Layer conv2_1/x2/bn
I1129 21:36:22.162112 13963 net.cpp:434] conv2_1/x2/bn <- conv2_1/x1
I1129 21:36:22.162118 13963 net.cpp:408] conv2_1/x2/bn -> conv2_1/x2/bn
I1129 21:36:22.162349 13963 net.cpp:150] Setting up conv2_1/x2/bn
I1129 21:36:22.162366 13963 net.cpp:157] Top shape: 16 128 57 57 (6653952)
I1129 21:36:22.162370 13963 net.cpp:165] Memory required for data: 348233792
I1129 21:36:22.162379 13963 layer_factory.hpp:77] Creating layer conv2_1/x2/scale
I1129 21:36:22.162391 13963 net.cpp:100] Creating Layer conv2_1/x2/scale
I1129 21:36:22.162395 13963 net.cpp:434] conv2_1/x2/scale <- conv2_1/x2/bn
I1129 21:36:22.162401 13963 net.cpp:395] conv2_1/x2/scale -> conv2_1/x2/bn (in-place)
I1129 21:36:22.162467 13963 layer_factory.hpp:77] Creating layer conv2_1/x2/scale
I1129 21:36:22.162601 13963 net.cpp:150] Setting up conv2_1/x2/scale
I1129 21:36:22.162617 13963 net.cpp:157] Top shape: 16 128 57 57 (6653952)
I1129 21:36:22.162621 13963 net.cpp:165] Memory required for data: 374849600
I1129 21:36:22.162632 13963 layer_factory.hpp:77] Creating layer relu2_1/x2
I1129 21:36:22.162643 13963 net.cpp:100] Creating Layer relu2_1/x2
I1129 21:36:22.162647 13963 net.cpp:434] relu2_1/x2 <- conv2_1/x2/bn
I1129 21:36:22.162652 13963 net.cpp:395] relu2_1/x2 -> conv2_1/x2/bn (in-place)
I1129 21:36:22.162915 13963 net.cpp:150] Setting up relu2_1/x2
I1129 21:36:22.162935 13963 net.cpp:157] Top shape: 16 128 57 57 (6653952)
I1129 21:36:22.162940 13963 net.cpp:165] Memory required for data: 401465408
I1129 21:36:22.162945 13963 layer_factory.hpp:77] Creating layer conv2_1/x2
I1129 21:36:22.162959 13963 net.cpp:100] Creating Layer conv2_1/x2
I1129 21:36:22.162964 13963 net.cpp:434] conv2_1/x2 <- conv2_1/x2/bn
I1129 21:36:22.162971 13963 net.cpp:408] conv2_1/x2 -> conv2_1/x2
I1129 21:36:22.166630 13963 net.cpp:150] Setting up conv2_1/x2
I1129 21:36:22.166659 13963 net.cpp:157] Top shape: 16 32 57 57 (1663488)
I1129 21:36:22.166666 13963 net.cpp:165] Memory required for data: 408119360
I1129 21:36:22.166672 13963 layer_factory.hpp:77] Creating layer concat_2_1
I1129 21:36:22.166692 13963 net.cpp:100] Creating Layer concat_2_1
I1129 21:36:22.166697 13963 net.cpp:434] concat_2_1 <- pool1_pool1_0_split_1
I1129 21:36:22.166703 13963 net.cpp:434] concat_2_1 <- conv2_1/x2
I1129 21:36:22.166709 13963 net.cpp:408] concat_2_1 -> concat_2_1
I1129 21:36:22.166754 13963 net.cpp:150] Setting up concat_2_1
I1129 21:36:22.166761 13963 net.cpp:157] Top shape: 16 96 57 57 (4990464)
I1129 21:36:22.166765 13963 net.cpp:165] Memory required for data: 428081216
I1129 21:36:22.166769 13963 layer_factory.hpp:77] Creating layer concat_2_1_concat_2_1_0_split
I1129 21:36:22.166779 13963 net.cpp:100] Creating Layer concat_2_1_concat_2_1_0_split
I1129 21:36:22.166782 13963 net.cpp:434] concat_2_1_concat_2_1_0_split <- concat_2_1
I1129 21:36:22.166790 13963 net.cpp:408] concat_2_1_concat_2_1_0_split -> concat_2_1_concat_2_1_0_split_0
I1129 21:36:22.166798 13963 net.cpp:408] concat_2_1_concat_2_1_0_split -> concat_2_1_concat_2_1_0_split_1
I1129 21:36:22.166839 13963 net.cpp:150] Setting up concat_2_1_concat_2_1_0_split
I1129 21:36:22.166846 13963 net.cpp:157] Top shape: 16 96 57 57 (4990464)
I1129 21:36:22.166851 13963 net.cpp:157] Top shape: 16 96 57 57 (4990464)
I1129 21:36:22.166854 13963 net.cpp:165] Memory required for data: 468004928
I1129 21:36:22.166858 13963 layer_factory.hpp:77] Creating layer conv2_2/x1/bn
I1129 21:36:22.166864 13963 net.cpp:100] Creating Layer conv2_2/x1/bn
I1129 21:36:22.166887 13963 net.cpp:434] conv2_2/x1/bn <- concat_2_1_concat_2_1_0_split_0
I1129 21:36:22.166893 13963 net.cpp:408] conv2_2/x1/bn -> conv2_2/x1/bn
I1129 21:36:22.167132 13963 net.cpp:150] Setting up conv2_2/x1/bn
I1129 21:36:22.167150 13963 net.cpp:157] Top shape: 16 96 57 57 (4990464)
I1129 21:36:22.167155 13963 net.cpp:165] Memory required for data: 487966784
I1129 21:36:22.167165 13963 layer_factory.hpp:77] Creating layer conv2_2/x1/scale
I1129 21:36:22.167171 13963 net.cpp:100] Creating Layer conv2_2/x1/scale
I1129 21:36:22.167176 13963 net.cpp:434] conv2_2/x1/scale <- conv2_2/x1/bn
I1129 21:36:22.167184 13963 net.cpp:395] conv2_2/x1/scale -> conv2_2/x1/bn (in-place)
I1129 21:36:22.167232 13963 layer_factory.hpp:77] Creating layer conv2_2/x1/scale
I1129 21:36:22.167408 13963 net.cpp:150] Setting up conv2_2/x1/scale
I1129 21:36:22.167436 13963 net.cpp:157] Top shape: 16 96 57 57 (4990464)
I1129 21:36:22.167441 13963 net.cpp:165] Memory required for data: 507928640
I1129 21:36:22.167448 13963 layer_factory.hpp:77] Creating layer relu2_2/x1
I1129 21:36:22.167456 13963 net.cpp:100] Creating Layer relu2_2/x1
I1129 21:36:22.167460 13963 net.cpp:434] relu2_2/x1 <- conv2_2/x1/bn
I1129 21:36:22.167470 13963 net.cpp:395] relu2_2/x1 -> conv2_2/x1/bn (in-place)
I1129 21:36:22.167683 13963 net.cpp:150] Setting up relu2_2/x1
I1129 21:36:22.167702 13963 net.cpp:157] Top shape: 16 96 57 57 (4990464)
I1129 21:36:22.167706 13963 net.cpp:165] Memory required for data: 527890496
I1129 21:36:22.167711 13963 layer_factory.hpp:77] Creating layer conv2_2/x1
I1129 21:36:22.167722 13963 net.cpp:100] Creating Layer conv2_2/x1
I1129 21:36:22.167726 13963 net.cpp:434] conv2_2/x1 <- conv2_2/x1/bn
I1129 21:36:22.167734 13963 net.cpp:408] conv2_2/x1 -> conv2_2/x1
I1129 21:36:22.169755 13963 net.cpp:150] Setting up conv2_2/x1
I1129 21:36:22.169783 13963 net.cpp:157] Top shape: 16 128 57 57 (6653952)
I1129 21:36:22.169790 13963 net.cpp:165] Memory required for data: 554506304
I1129 21:36:22.169796 13963 layer_factory.hpp:77] Creating layer conv2_2/x2/bn
I1129 21:36:22.169807 13963 net.cpp:100] Creating Layer conv2_2/x2/bn
I1129 21:36:22.169812 13963 net.cpp:434] conv2_2/x2/bn <- conv2_2/x1
I1129 21:36:22.169821 13963 net.cpp:408] conv2_2/x2/bn -> conv2_2/x2/bn
I1129 21:36:22.170053 13963 net.cpp:150] Setting up conv2_2/x2/bn
I1129 21:36:22.170070 13963 net.cpp:157] Top shape: 16 128 57 57 (6653952)
I1129 21:36:22.170074 13963 net.cpp:165] Memory required for data: 581122112
I1129 21:36:22.170083 13963 layer_factory.hpp:77] Creating layer conv2_2/x2/scale
I1129 21:36:22.170091 13963 net.cpp:100] Creating Layer conv2_2/x2/scale
I1129 21:36:22.170095 13963 net.cpp:434] conv2_2/x2/scale <- conv2_2/x2/bn
I1129 21:36:22.170101 13963 net.cpp:395] conv2_2/x2/scale -> conv2_2/x2/bn (in-place)
I1129 21:36:22.170151 13963 layer_factory.hpp:77] Creating layer conv2_2/x2/scale
I1129 21:36:22.170284 13963 net.cpp:150] Setting up conv2_2/x2/scale
I1129 21:36:22.170298 13963 net.cpp:157] Top shape: 16 128 57 57 (6653952)
I1129 21:36:22.170302 13963 net.cpp:165] Memory required for data: 607737920
I1129 21:36:22.170310 13963 layer_factory.hpp:77] Creating layer relu2_2/x2
I1129 21:36:22.170316 13963 net.cpp:100] Creating Layer relu2_2/x2
I1129 21:36:22.170320 13963 net.cpp:434] relu2_2/x2 <- conv2_2/x2/bn
I1129 21:36:22.170327 13963 net.cpp:395] relu2_2/x2 -> conv2_2/x2/bn (in-place)
I1129 21:36:22.170581 13963 net.cpp:150] Setting up relu2_2/x2
I1129 21:36:22.170601 13963 net.cpp:157] Top shape: 16 128 57 57 (6653952)
I1129 21:36:22.170608 13963 net.cpp:165] Memory required for data: 634353728
I1129 21:36:22.170613 13963 layer_factory.hpp:77] Creating layer conv2_2/x2
I1129 21:36:22.170621 13963 net.cpp:100] Creating Layer conv2_2/x2
I1129 21:36:22.170626 13963 net.cpp:434] conv2_2/x2 <- conv2_2/x2/bn
I1129 21:36:22.170634 13963 net.cpp:408] conv2_2/x2 -> conv2_2/x2
I1129 21:36:22.172668 13963 net.cpp:150] Setting up conv2_2/x2
I1129 21:36:22.172696 13963 net.cpp:157] Top shape: 16 32 57 57 (1663488)
I1129 21:36:22.172718 13963 net.cpp:165] Memory required for data: 641007680
I1129 21:36:22.172725 13963 layer_factory.hpp:77] Creating layer concat_2_2
I1129 21:36:22.172734 13963 net.cpp:100] Creating Layer concat_2_2
I1129 21:36:22.172739 13963 net.cpp:434] concat_2_2 <- concat_2_1_concat_2_1_0_split_1
I1129 21:36:22.172745 13963 net.cpp:434] concat_2_2 <- conv2_2/x2
I1129 21:36:22.172755 13963 net.cpp:408] concat_2_2 -> concat_2_2
I1129 21:36:22.172790 13963 net.cpp:150] Setting up concat_2_2
I1129 21:36:22.172799 13963 net.cpp:157] Top shape: 16 128 57 57 (6653952)
I1129 21:36:22.172803 13963 net.cpp:165] Memory required for data: 667623488
I1129 21:36:22.172807 13963 layer_factory.hpp:77] Creating layer concat_2_2_concat_2_2_0_split
I1129 21:36:22.172814 13963 net.cpp:100] Creating Layer concat_2_2_concat_2_2_0_split
I1129 21:36:22.172818 13963 net.cpp:434] concat_2_2_concat_2_2_0_split <- concat_2_2
I1129 21:36:22.172823 13963 net.cpp:408] concat_2_2_concat_2_2_0_split -> concat_2_2_concat_2_2_0_split_0
I1129 21:36:22.172830 13963 net.cpp:408] concat_2_2_concat_2_2_0_split -> concat_2_2_concat_2_2_0_split_1
I1129 21:36:22.172883 13963 net.cpp:150] Setting up concat_2_2_concat_2_2_0_split
I1129 21:36:22.172890 13963 net.cpp:157] Top shape: 16 128 57 57 (6653952)
I1129 21:36:22.172895 13963 net.cpp:157] Top shape: 16 128 57 57 (6653952)
I1129 21:36:22.172899 13963 net.cpp:165] Memory required for data: 720855104
I1129 21:36:22.172904 13963 layer_factory.hpp:77] Creating layer conv2_3/x1/bn
I1129 21:36:22.172912 13963 net.cpp:100] Creating Layer conv2_3/x1/bn
I1129 21:36:22.172916 13963 net.cpp:434] conv2_3/x1/bn <- concat_2_2_concat_2_2_0_split_0
I1129 21:36:22.172922 13963 net.cpp:408] conv2_3/x1/bn -> conv2_3/x1/bn
I1129 21:36:22.173141 13963 net.cpp:150] Setting up conv2_3/x1/bn
I1129 21:36:22.173156 13963 net.cpp:157] Top shape: 16 128 57 57 (6653952)
I1129 21:36:22.173161 13963 net.cpp:165] Memory required for data: 747470912
I1129 21:36:22.173177 13963 layer_factory.hpp:77] Creating layer conv2_3/x1/scale
I1129 21:36:22.173185 13963 net.cpp:100] Creating Layer conv2_3/x1/scale
I1129 21:36:22.173189 13963 net.cpp:434] conv2_3/x1/scale <- conv2_3/x1/bn
I1129 21:36:22.173197 13963 net.cpp:395] conv2_3/x1/scale -> conv2_3/x1/bn (in-place)
I1129 21:36:22.173243 13963 layer_factory.hpp:77] Creating layer conv2_3/x1/scale
I1129 21:36:22.173383 13963 net.cpp:150] Setting up conv2_3/x1/scale
I1129 21:36:22.173398 13963 net.cpp:157] Top shape: 16 128 57 57 (6653952)
I1129 21:36:22.173401 13963 net.cpp:165] Memory required for data: 774086720
I1129 21:36:22.173409 13963 layer_factory.hpp:77] Creating layer relu2_3/x1
I1129 21:36:22.173429 13963 net.cpp:100] Creating Layer relu2_3/x1
I1129 21:36:22.173434 13963 net.cpp:434] relu2_3/x1 <- conv2_3/x1/bn
I1129 21:36:22.173439 13963 net.cpp:395] relu2_3/x1 -> conv2_3/x1/bn (in-place)
I1129 21:36:22.173653 13963 net.cpp:150] Setting up relu2_3/x1
I1129 21:36:22.173674 13963 net.cpp:157] Top shape: 16 128 57 57 (6653952)
I1129 21:36:22.173678 13963 net.cpp:165] Memory required for data: 800702528
I1129 21:36:22.173683 13963 layer_factory.hpp:77] Creating layer conv2_3/x1
I1129 21:36:22.173692 13963 net.cpp:100] Creating Layer conv2_3/x1
I1129 21:36:22.173696 13963 net.cpp:434] conv2_3/x1 <- conv2_3/x1/bn
I1129 21:36:22.173704 13963 net.cpp:408] conv2_3/x1 -> conv2_3/x1
I1129 21:36:22.175851 13963 net.cpp:150] Setting up conv2_3/x1
I1129 21:36:22.175879 13963 net.cpp:157] Top shape: 16 128 57 57 (6653952)
I1129 21:36:22.175884 13963 net.cpp:165] Memory required for data: 827318336
I1129 21:36:22.175891 13963 layer_factory.hpp:77] Creating layer conv2_3/x2/bn
I1129 21:36:22.175900 13963 net.cpp:100] Creating Layer conv2_3/x2/bn
I1129 21:36:22.175905 13963 net.cpp:434] conv2_3/x2/bn <- conv2_3/x1
I1129 21:36:22.175920 13963 net.cpp:408] conv2_3/x2/bn -> conv2_3/x2/bn
I1129 21:36:22.176180 13963 net.cpp:150] Setting up conv2_3/x2/bn
I1129 21:36:22.176198 13963 net.cpp:157] Top shape: 16 128 57 57 (6653952)
I1129 21:36:22.176203 13963 net.cpp:165] Memory required for data: 853934144
I1129 21:36:22.176231 13963 layer_factory.hpp:77] Creating layer conv2_3/x2/scale
I1129 21:36:22.176249 13963 net.cpp:100] Creating Layer conv2_3/x2/scale
I1129 21:36:22.176254 13963 net.cpp:434] conv2_3/x2/scale <- conv2_3/x2/bn
I1129 21:36:22.176261 13963 net.cpp:395] conv2_3/x2/scale -> conv2_3/x2/bn (in-place)
I1129 21:36:22.176316 13963 layer_factory.hpp:77] Creating layer conv2_3/x2/scale
I1129 21:36:22.176487 13963 net.cpp:150] Setting up conv2_3/x2/scale
I1129 21:36:22.176503 13963 net.cpp:157] Top shape: 16 128 57 57 (6653952)
I1129 21:36:22.176508 13963 net.cpp:165] Memory required for data: 880549952
I1129 21:36:22.176522 13963 layer_factory.hpp:77] Creating layer relu2_3/x2
I1129 21:36:22.176533 13963 net.cpp:100] Creating Layer relu2_3/x2
I1129 21:36:22.176538 13963 net.cpp:434] relu2_3/x2 <- conv2_3/x2/bn
I1129 21:36:22.176543 13963 net.cpp:395] relu2_3/x2 -> conv2_3/x2/bn (in-place)
I1129 21:36:22.176774 13963 net.cpp:150] Setting up relu2_3/x2
I1129 21:36:22.176791 13963 net.cpp:157] Top shape: 16 128 57 57 (6653952)
I1129 21:36:22.176796 13963 net.cpp:165] Memory required for data: 907165760
I1129 21:36:22.176800 13963 layer_factory.hpp:77] Creating layer conv2_3/x2
I1129 21:36:22.176820 13963 net.cpp:100] Creating Layer conv2_3/x2
I1129 21:36:22.176826 13963 net.cpp:434] conv2_3/x2 <- conv2_3/x2/bn
I1129 21:36:22.176831 13963 net.cpp:408] conv2_3/x2 -> conv2_3/x2
I1129 21:36:22.178957 13963 net.cpp:150] Setting up conv2_3/x2
I1129 21:36:22.178985 13963 net.cpp:157] Top shape: 16 32 57 57 (1663488)
I1129 21:36:22.178992 13963 net.cpp:165] Memory required for data: 913819712
I1129 21:36:22.178998 13963 layer_factory.hpp:77] Creating layer concat_2_3
I1129 21:36:22.179013 13963 net.cpp:100] Creating Layer concat_2_3
I1129 21:36:22.179019 13963 net.cpp:434] concat_2_3 <- concat_2_2_concat_2_2_0_split_1
I1129 21:36:22.179026 13963 net.cpp:434] concat_2_3 <- conv2_3/x2
I1129 21:36:22.179033 13963 net.cpp:408] concat_2_3 -> concat_2_3
I1129 21:36:22.179072 13963 net.cpp:150] Setting up concat_2_3
I1129 21:36:22.179080 13963 net.cpp:157] Top shape: 16 160 57 57 (8317440)
I1129 21:36:22.179085 13963 net.cpp:165] Memory required for data: 947089472
I1129 21:36:22.179088 13963 layer_factory.hpp:77] Creating layer concat_2_3_concat_2_3_0_split
I1129 21:36:22.179095 13963 net.cpp:100] Creating Layer concat_2_3_concat_2_3_0_split
I1129 21:36:22.179100 13963 net.cpp:434] concat_2_3_concat_2_3_0_split <- concat_2_3
I1129 21:36:22.179111 13963 net.cpp:408] concat_2_3_concat_2_3_0_split -> concat_2_3_concat_2_3_0_split_0
I1129 21:36:22.179117 13963 net.cpp:408] concat_2_3_concat_2_3_0_split -> concat_2_3_concat_2_3_0_split_1
I1129 21:36:22.179162 13963 net.cpp:150] Setting up concat_2_3_concat_2_3_0_split
I1129 21:36:22.179172 13963 net.cpp:157] Top shape: 16 160 57 57 (8317440)
I1129 21:36:22.179177 13963 net.cpp:157] Top shape: 16 160 57 57 (8317440)
I1129 21:36:22.179181 13963 net.cpp:165] Memory required for data: 1013628992
I1129 21:36:22.179185 13963 layer_factory.hpp:77] Creating layer conv2_4/x1/bn
I1129 21:36:22.179193 13963 net.cpp:100] Creating Layer conv2_4/x1/bn
I1129 21:36:22.179196 13963 net.cpp:434] conv2_4/x1/bn <- concat_2_3_concat_2_3_0_split_0
I1129 21:36:22.179203 13963 net.cpp:408] conv2_4/x1/bn -> conv2_4/x1/bn
I1129 21:36:22.179502 13963 net.cpp:150] Setting up conv2_4/x1/bn
I1129 21:36:22.179520 13963 net.cpp:157] Top shape: 16 160 57 57 (8317440)
I1129 21:36:22.179524 13963 net.cpp:165] Memory required for data: 1046898752
I1129 21:36:22.179534 13963 layer_factory.hpp:77] Creating layer conv2_4/x1/scale
I1129 21:36:22.179555 13963 net.cpp:100] Creating Layer conv2_4/x1/scale
I1129 21:36:22.179561 13963 net.cpp:434] conv2_4/x1/scale <- conv2_4/x1/bn
I1129 21:36:22.179572 13963 net.cpp:395] conv2_4/x1/scale -> conv2_4/x1/bn (in-place)
I1129 21:36:22.179627 13963 layer_factory.hpp:77] Creating layer conv2_4/x1/scale
I1129 21:36:22.179787 13963 net.cpp:150] Setting up conv2_4/x1/scale
I1129 21:36:22.179802 13963 net.cpp:157] Top shape: 16 160 57 57 (8317440)
I1129 21:36:22.179806 13963 net.cpp:165] Memory required for data: 1080168512
I1129 21:36:22.179833 13963 layer_factory.hpp:77] Creating layer relu2_4/x1
I1129 21:36:22.179842 13963 net.cpp:100] Creating Layer relu2_4/x1
I1129 21:36:22.179847 13963 net.cpp:434] relu2_4/x1 <- conv2_4/x1/bn
I1129 21:36:22.179857 13963 net.cpp:395] relu2_4/x1 -> conv2_4/x1/bn (in-place)
I1129 21:36:22.181206 13963 net.cpp:150] Setting up relu2_4/x1
I1129 21:36:22.181232 13963 net.cpp:157] Top shape: 16 160 57 57 (8317440)
I1129 21:36:22.181237 13963 net.cpp:165] Memory required for data: 1113438272
I1129 21:36:22.181242 13963 layer_factory.hpp:77] Creating layer conv2_4/x1
I1129 21:36:22.181258 13963 net.cpp:100] Creating Layer conv2_4/x1
I1129 21:36:22.181264 13963 net.cpp:434] conv2_4/x1 <- conv2_4/x1/bn
I1129 21:36:22.181272 13963 net.cpp:408] conv2_4/x1 -> conv2_4/x1
I1129 21:36:22.183429 13963 net.cpp:150] Setting up conv2_4/x1
I1129 21:36:22.183459 13963 net.cpp:157] Top shape: 16 128 57 57 (6653952)
I1129 21:36:22.183464 13963 net.cpp:165] Memory required for data: 1140054080
I1129 21:36:22.183471 13963 layer_factory.hpp:77] Creating layer conv2_4/x2/bn
I1129 21:36:22.183485 13963 net.cpp:100] Creating Layer conv2_4/x2/bn
I1129 21:36:22.183492 13963 net.cpp:434] conv2_4/x2/bn <- conv2_4/x1
I1129 21:36:22.183504 13963 net.cpp:408] conv2_4/x2/bn -> conv2_4/x2/bn
I1129 21:36:22.183763 13963 net.cpp:150] Setting up conv2_4/x2/bn
I1129 21:36:22.183780 13963 net.cpp:157] Top shape: 16 128 57 57 (6653952)
I1129 21:36:22.183785 13963 net.cpp:165] Memory required for data: 1166669888
I1129 21:36:22.183794 13963 layer_factory.hpp:77] Creating layer conv2_4/x2/scale
I1129 21:36:22.183802 13963 net.cpp:100] Creating Layer conv2_4/x2/scale
I1129 21:36:22.183807 13963 net.cpp:434] conv2_4/x2/scale <- conv2_4/x2/bn
I1129 21:36:22.183814 13963 net.cpp:395] conv2_4/x2/scale -> conv2_4/x2/bn (in-place)
I1129 21:36:22.183873 13963 layer_factory.hpp:77] Creating layer conv2_4/x2/scale
I1129 21:36:22.184029 13963 net.cpp:150] Setting up conv2_4/x2/scale
I1129 21:36:22.184043 13963 net.cpp:157] Top shape: 16 128 57 57 (6653952)
I1129 21:36:22.184048 13963 net.cpp:165] Memory required for data: 1193285696
I1129 21:36:22.184056 13963 layer_factory.hpp:77] Creating layer relu2_4/x2
I1129 21:36:22.184062 13963 net.cpp:100] Creating Layer relu2_4/x2
I1129 21:36:22.184067 13963 net.cpp:434] relu2_4/x2 <- conv2_4/x2/bn
I1129 21:36:22.184077 13963 net.cpp:395] relu2_4/x2 -> conv2_4/x2/bn (in-place)
I1129 21:36:22.184314 13963 net.cpp:150] Setting up relu2_4/x2
I1129 21:36:22.184332 13963 net.cpp:157] Top shape: 16 128 57 57 (6653952)
I1129 21:36:22.184336 13963 net.cpp:165] Memory required for data: 1219901504
I1129 21:36:22.184341 13963 layer_factory.hpp:77] Creating layer conv2_4/x2
I1129 21:36:22.184357 13963 net.cpp:100] Creating Layer conv2_4/x2
I1129 21:36:22.184362 13963 net.cpp:434] conv2_4/x2 <- conv2_4/x2/bn
I1129 21:36:22.184370 13963 net.cpp:408] conv2_4/x2 -> conv2_4/x2
I1129 21:36:22.187655 13963 net.cpp:150] Setting up conv2_4/x2
I1129 21:36:22.187683 13963 net.cpp:157] Top shape: 16 32 57 57 (1663488)
I1129 21:36:22.187690 13963 net.cpp:165] Memory required for data: 1226555456
I1129 21:36:22.187696 13963 layer_factory.hpp:77] Creating layer concat_2_4
I1129 21:36:22.187711 13963 net.cpp:100] Creating Layer concat_2_4
I1129 21:36:22.187719 13963 net.cpp:434] concat_2_4 <- concat_2_3_concat_2_3_0_split_1
I1129 21:36:22.187726 13963 net.cpp:434] concat_2_4 <- conv2_4/x2
I1129 21:36:22.187732 13963 net.cpp:408] concat_2_4 -> concat_2_4
I1129 21:36:22.187783 13963 net.cpp:150] Setting up concat_2_4
I1129 21:36:22.187791 13963 net.cpp:157] Top shape: 16 192 57 57 (9980928)
I1129 21:36:22.187794 13963 net.cpp:165] Memory required for data: 1266479168
I1129 21:36:22.187799 13963 layer_factory.hpp:77] Creating layer concat_2_4_concat_2_4_0_split
I1129 21:36:22.187813 13963 net.cpp:100] Creating Layer concat_2_4_concat_2_4_0_split
I1129 21:36:22.187818 13963 net.cpp:434] concat_2_4_concat_2_4_0_split <- concat_2_4
I1129 21:36:22.187824 13963 net.cpp:408] concat_2_4_concat_2_4_0_split -> concat_2_4_concat_2_4_0_split_0
I1129 21:36:22.187855 13963 net.cpp:408] concat_2_4_concat_2_4_0_split -> concat_2_4_concat_2_4_0_split_1
I1129 21:36:22.187907 13963 net.cpp:150] Setting up concat_2_4_concat_2_4_0_split
I1129 21:36:22.187923 13963 net.cpp:157] Top shape: 16 192 57 57 (9980928)
I1129 21:36:22.187928 13963 net.cpp:157] Top shape: 16 192 57 57 (9980928)
I1129 21:36:22.187932 13963 net.cpp:165] Memory required for data: 1346326592
I1129 21:36:22.187937 13963 layer_factory.hpp:77] Creating layer conv2_5/x1/bn
I1129 21:36:22.187949 13963 net.cpp:100] Creating Layer conv2_5/x1/bn
I1129 21:36:22.187953 13963 net.cpp:434] conv2_5/x1/bn <- concat_2_4_concat_2_4_0_split_0
I1129 21:36:22.187959 13963 net.cpp:408] conv2_5/x1/bn -> conv2_5/x1/bn
I1129 21:36:22.188211 13963 net.cpp:150] Setting up conv2_5/x1/bn
I1129 21:36:22.188227 13963 net.cpp:157] Top shape: 16 192 57 57 (9980928)
I1129 21:36:22.188231 13963 net.cpp:165] Memory required for data: 1386250304
I1129 21:36:22.188241 13963 layer_factory.hpp:77] Creating layer conv2_5/x1/scale
I1129 21:36:22.188253 13963 net.cpp:100] Creating Layer conv2_5/x1/scale
I1129 21:36:22.188258 13963 net.cpp:434] conv2_5/x1/scale <- conv2_5/x1/bn
I1129 21:36:22.188264 13963 net.cpp:395] conv2_5/x1/scale -> conv2_5/x1/bn (in-place)
I1129 21:36:22.188326 13963 layer_factory.hpp:77] Creating layer conv2_5/x1/scale
I1129 21:36:22.188508 13963 net.cpp:150] Setting up conv2_5/x1/scale
I1129 21:36:22.188524 13963 net.cpp:157] Top shape: 16 192 57 57 (9980928)
I1129 21:36:22.188529 13963 net.cpp:165] Memory required for data: 1426174016
I1129 21:36:22.188535 13963 layer_factory.hpp:77] Creating layer relu2_5/x1
I1129 21:36:22.188547 13963 net.cpp:100] Creating Layer relu2_5/x1
I1129 21:36:22.188552 13963 net.cpp:434] relu2_5/x1 <- conv2_5/x1/bn
I1129 21:36:22.188558 13963 net.cpp:395] relu2_5/x1 -> conv2_5/x1/bn (in-place)
I1129 21:36:22.188802 13963 net.cpp:150] Setting up relu2_5/x1
I1129 21:36:22.188827 13963 net.cpp:157] Top shape: 16 192 57 57 (9980928)
I1129 21:36:22.188832 13963 net.cpp:165] Memory required for data: 1466097728
I1129 21:36:22.188836 13963 layer_factory.hpp:77] Creating layer conv2_5/x1
I1129 21:36:22.188850 13963 net.cpp:100] Creating Layer conv2_5/x1
I1129 21:36:22.188856 13963 net.cpp:434] conv2_5/x1 <- conv2_5/x1/bn
I1129 21:36:22.188863 13963 net.cpp:408] conv2_5/x1 -> conv2_5/x1
I1129 21:36:22.190948 13963 net.cpp:150] Setting up conv2_5/x1
I1129 21:36:22.190975 13963 net.cpp:157] Top shape: 16 128 57 57 (6653952)
I1129 21:36:22.190981 13963 net.cpp:165] Memory required for data: 1492713536
I1129 21:36:22.190989 13963 layer_factory.hpp:77] Creating layer conv2_5/x2/bn
I1129 21:36:22.191000 13963 net.cpp:100] Creating Layer conv2_5/x2/bn
I1129 21:36:22.191006 13963 net.cpp:434] conv2_5/x2/bn <- conv2_5/x1
I1129 21:36:22.191013 13963 net.cpp:408] conv2_5/x2/bn -> conv2_5/x2/bn
I1129 21:36:22.191254 13963 net.cpp:150] Setting up conv2_5/x2/bn
I1129 21:36:22.191272 13963 net.cpp:157] Top shape: 16 128 57 57 (6653952)
I1129 21:36:22.191275 13963 net.cpp:165] Memory required for data: 1519329344
I1129 21:36:22.191285 13963 layer_factory.hpp:77] Creating layer conv2_5/x2/scale
I1129 21:36:22.191293 13963 net.cpp:100] Creating Layer conv2_5/x2/scale
I1129 21:36:22.191298 13963 net.cpp:434] conv2_5/x2/scale <- conv2_5/x2/bn
I1129 21:36:22.191328 13963 net.cpp:395] conv2_5/x2/scale -> conv2_5/x2/bn (in-place)
I1129 21:36:22.191382 13963 layer_factory.hpp:77] Creating layer conv2_5/x2/scale
I1129 21:36:22.191536 13963 net.cpp:150] Setting up conv2_5/x2/scale
I1129 21:36:22.191555 13963 net.cpp:157] Top shape: 16 128 57 57 (6653952)
I1129 21:36:22.191560 13963 net.cpp:165] Memory required for data: 1545945152
I1129 21:36:22.191583 13963 layer_factory.hpp:77] Creating layer relu2_5/x2
I1129 21:36:22.191591 13963 net.cpp:100] Creating Layer relu2_5/x2
I1129 21:36:22.191596 13963 net.cpp:434] relu2_5/x2 <- conv2_5/x2/bn
I1129 21:36:22.191601 13963 net.cpp:395] relu2_5/x2 -> conv2_5/x2/bn (in-place)
I1129 21:36:22.191826 13963 net.cpp:150] Setting up relu2_5/x2
I1129 21:36:22.191845 13963 net.cpp:157] Top shape: 16 128 57 57 (6653952)
I1129 21:36:22.191865 13963 net.cpp:165] Memory required for data: 1572560960
I1129 21:36:22.191870 13963 layer_factory.hpp:77] Creating layer conv2_5/x2
I1129 21:36:22.191880 13963 net.cpp:100] Creating Layer conv2_5/x2
I1129 21:36:22.191884 13963 net.cpp:434] conv2_5/x2 <- conv2_5/x2/bn
I1129 21:36:22.191895 13963 net.cpp:408] conv2_5/x2 -> conv2_5/x2
I1129 21:36:22.193958 13963 net.cpp:150] Setting up conv2_5/x2
I1129 21:36:22.193987 13963 net.cpp:157] Top shape: 16 32 57 57 (1663488)
I1129 21:36:22.193992 13963 net.cpp:165] Memory required for data: 1579214912
I1129 21:36:22.194000 13963 layer_factory.hpp:77] Creating layer concat_2_5
I1129 21:36:22.194011 13963 net.cpp:100] Creating Layer concat_2_5
I1129 21:36:22.194016 13963 net.cpp:434] concat_2_5 <- concat_2_4_concat_2_4_0_split_1
I1129 21:36:22.194023 13963 net.cpp:434] concat_2_5 <- conv2_5/x2
I1129 21:36:22.194030 13963 net.cpp:408] concat_2_5 -> concat_2_5
I1129 21:36:22.194067 13963 net.cpp:150] Setting up concat_2_5
I1129 21:36:22.194073 13963 net.cpp:157] Top shape: 16 224 57 57 (11644416)
I1129 21:36:22.194077 13963 net.cpp:165] Memory required for data: 1625792576
I1129 21:36:22.194082 13963 layer_factory.hpp:77] Creating layer concat_2_5_concat_2_5_0_split
I1129 21:36:22.194087 13963 net.cpp:100] Creating Layer concat_2_5_concat_2_5_0_split
I1129 21:36:22.194092 13963 net.cpp:434] concat_2_5_concat_2_5_0_split <- concat_2_5
I1129 21:36:22.194103 13963 net.cpp:408] concat_2_5_concat_2_5_0_split -> concat_2_5_concat_2_5_0_split_0
I1129 21:36:22.194110 13963 net.cpp:408] concat_2_5_concat_2_5_0_split -> concat_2_5_concat_2_5_0_split_1
I1129 21:36:22.194149 13963 net.cpp:150] Setting up concat_2_5_concat_2_5_0_split
I1129 21:36:22.194154 13963 net.cpp:157] Top shape: 16 224 57 57 (11644416)
I1129 21:36:22.194159 13963 net.cpp:157] Top shape: 16 224 57 57 (11644416)
I1129 21:36:22.194164 13963 net.cpp:165] Memory required for data: 1718947904
I1129 21:36:22.194167 13963 layer_factory.hpp:77] Creating layer conv2_6/x1/bn
I1129 21:36:22.194176 13963 net.cpp:100] Creating Layer conv2_6/x1/bn
I1129 21:36:22.194180 13963 net.cpp:434] conv2_6/x1/bn <- concat_2_5_concat_2_5_0_split_0
I1129 21:36:22.194187 13963 net.cpp:408] conv2_6/x1/bn -> conv2_6/x1/bn
I1129 21:36:22.194442 13963 net.cpp:150] Setting up conv2_6/x1/bn
I1129 21:36:22.194458 13963 net.cpp:157] Top shape: 16 224 57 57 (11644416)
I1129 21:36:22.194463 13963 net.cpp:165] Memory required for data: 1765525568
I1129 21:36:22.194473 13963 layer_factory.hpp:77] Creating layer conv2_6/x1/scale
I1129 21:36:22.194480 13963 net.cpp:100] Creating Layer conv2_6/x1/scale
I1129 21:36:22.194484 13963 net.cpp:434] conv2_6/x1/scale <- conv2_6/x1/bn
I1129 21:36:22.194490 13963 net.cpp:395] conv2_6/x1/scale -> conv2_6/x1/bn (in-place)
I1129 21:36:22.194545 13963 layer_factory.hpp:77] Creating layer conv2_6/x1/scale
I1129 21:36:22.194695 13963 net.cpp:150] Setting up conv2_6/x1/scale
I1129 21:36:22.194711 13963 net.cpp:157] Top shape: 16 224 57 57 (11644416)
I1129 21:36:22.194715 13963 net.cpp:165] Memory required for data: 1812103232
I1129 21:36:22.194722 13963 layer_factory.hpp:77] Creating layer relu2_6/x1
I1129 21:36:22.194730 13963 net.cpp:100] Creating Layer relu2_6/x1
I1129 21:36:22.194733 13963 net.cpp:434] relu2_6/x1 <- conv2_6/x1/bn
I1129 21:36:22.194739 13963 net.cpp:395] relu2_6/x1 -> conv2_6/x1/bn (in-place)
I1129 21:36:22.194962 13963 net.cpp:150] Setting up relu2_6/x1
I1129 21:36:22.194980 13963 net.cpp:157] Top shape: 16 224 57 57 (11644416)
I1129 21:36:22.194984 13963 net.cpp:165] Memory required for data: 1858680896
I1129 21:36:22.194988 13963 layer_factory.hpp:77] Creating layer conv2_6/x1
I1129 21:36:22.195000 13963 net.cpp:100] Creating Layer conv2_6/x1
I1129 21:36:22.195005 13963 net.cpp:434] conv2_6/x1 <- conv2_6/x1/bn
I1129 21:36:22.195011 13963 net.cpp:408] conv2_6/x1 -> conv2_6/x1
I1129 21:36:22.197137 13963 net.cpp:150] Setting up conv2_6/x1
I1129 21:36:22.197165 13963 net.cpp:157] Top shape: 16 128 57 57 (6653952)
I1129 21:36:22.197170 13963 net.cpp:165] Memory required for data: 1885296704
I1129 21:36:22.197199 13963 layer_factory.hpp:77] Creating layer conv2_6/x2/bn
I1129 21:36:22.197216 13963 net.cpp:100] Creating Layer conv2_6/x2/bn
I1129 21:36:22.197223 13963 net.cpp:434] conv2_6/x2/bn <- conv2_6/x1
I1129 21:36:22.197230 13963 net.cpp:408] conv2_6/x2/bn -> conv2_6/x2/bn
I1129 21:36:22.197513 13963 net.cpp:150] Setting up conv2_6/x2/bn
I1129 21:36:22.197531 13963 net.cpp:157] Top shape: 16 128 57 57 (6653952)
I1129 21:36:22.197535 13963 net.cpp:165] Memory required for data: 1911912512
I1129 21:36:22.197551 13963 layer_factory.hpp:77] Creating layer conv2_6/x2/scale
I1129 21:36:22.197559 13963 net.cpp:100] Creating Layer conv2_6/x2/scale
I1129 21:36:22.197564 13963 net.cpp:434] conv2_6/x2/scale <- conv2_6/x2/bn
I1129 21:36:22.197571 13963 net.cpp:395] conv2_6/x2/scale -> conv2_6/x2/bn (in-place)
I1129 21:36:22.197626 13963 layer_factory.hpp:77] Creating layer conv2_6/x2/scale
I1129 21:36:22.197787 13963 net.cpp:150] Setting up conv2_6/x2/scale
I1129 21:36:22.197801 13963 net.cpp:157] Top shape: 16 128 57 57 (6653952)
I1129 21:36:22.197805 13963 net.cpp:165] Memory required for data: 1938528320
I1129 21:36:22.197813 13963 layer_factory.hpp:77] Creating layer relu2_6/x2
I1129 21:36:22.197825 13963 net.cpp:100] Creating Layer relu2_6/x2
I1129 21:36:22.197830 13963 net.cpp:434] relu2_6/x2 <- conv2_6/x2/bn
I1129 21:36:22.197836 13963 net.cpp:395] relu2_6/x2 -> conv2_6/x2/bn (in-place)
I1129 21:36:22.198084 13963 net.cpp:150] Setting up relu2_6/x2
I1129 21:36:22.198102 13963 net.cpp:157] Top shape: 16 128 57 57 (6653952)
I1129 21:36:22.198107 13963 net.cpp:165] Memory required for data: 1965144128
I1129 21:36:22.198112 13963 layer_factory.hpp:77] Creating layer conv2_6/x2
I1129 21:36:22.198137 13963 net.cpp:100] Creating Layer conv2_6/x2
I1129 21:36:22.198143 13963 net.cpp:434] conv2_6/x2 <- conv2_6/x2/bn
I1129 21:36:22.198149 13963 net.cpp:408] conv2_6/x2 -> conv2_6/x2
I1129 21:36:22.202620 13963 net.cpp:150] Setting up conv2_6/x2
I1129 21:36:22.202646 13963 net.cpp:157] Top shape: 16 32 57 57 (1663488)
I1129 21:36:22.202651 13963 net.cpp:165] Memory required for data: 1971798080
I1129 21:36:22.202661 13963 layer_factory.hpp:77] Creating layer concat_2_6
I1129 21:36:22.202677 13963 net.cpp:100] Creating Layer concat_2_6
I1129 21:36:22.202682 13963 net.cpp:434] concat_2_6 <- concat_2_5_concat_2_5_0_split_1
I1129 21:36:22.202689 13963 net.cpp:434] concat_2_6 <- conv2_6/x2
I1129 21:36:22.202697 13963 net.cpp:408] concat_2_6 -> concat_2_6
I1129 21:36:22.202746 13963 net.cpp:150] Setting up concat_2_6
I1129 21:36:22.202754 13963 net.cpp:157] Top shape: 16 256 57 57 (13307904)
I1129 21:36:22.202759 13963 net.cpp:165] Memory required for data: 2025029696
I1129 21:36:22.202762 13963 layer_factory.hpp:77] Creating layer conv2_6/blk/bn
I1129 21:36:22.202770 13963 net.cpp:100] Creating Layer conv2_6/blk/bn
I1129 21:36:22.202775 13963 net.cpp:434] conv2_6/blk/bn <- concat_2_6
I1129 21:36:22.202786 13963 net.cpp:408] conv2_6/blk/bn -> conv2_6/blk/bn
I1129 21:36:22.203053 13963 net.cpp:150] Setting up conv2_6/blk/bn
I1129 21:36:22.203069 13963 net.cpp:157] Top shape: 16 256 57 57 (13307904)
I1129 21:36:22.203073 13963 net.cpp:165] Memory required for data: 2078261312
I1129 21:36:22.203083 13963 layer_factory.hpp:77] Creating layer conv2_6/blk/scale
I1129 21:36:22.203097 13963 net.cpp:100] Creating Layer conv2_6/blk/scale
I1129 21:36:22.203104 13963 net.cpp:434] conv2_6/blk/scale <- conv2_6/blk/bn
I1129 21:36:22.203109 13963 net.cpp:395] conv2_6/blk/scale -> conv2_6/blk/bn (in-place)
I1129 21:36:22.203162 13963 layer_factory.hpp:77] Creating layer conv2_6/blk/scale
I1129 21:36:22.203354 13963 net.cpp:150] Setting up conv2_6/blk/scale
I1129 21:36:22.203373 13963 net.cpp:157] Top shape: 16 256 57 57 (13307904)
I1129 21:36:22.203377 13963 net.cpp:165] Memory required for data: 2131492928
I1129 21:36:22.203385 13963 layer_factory.hpp:77] Creating layer relu2_6/blk
I1129 21:36:22.203392 13963 net.cpp:100] Creating Layer relu2_6/blk
I1129 21:36:22.203397 13963 net.cpp:434] relu2_6/blk <- conv2_6/blk/bn
I1129 21:36:22.203438 13963 net.cpp:395] relu2_6/blk -> conv2_6/blk/bn (in-place)
I1129 21:36:22.204788 13963 net.cpp:150] Setting up relu2_6/blk
I1129 21:36:22.204815 13963 net.cpp:157] Top shape: 16 256 57 57 (13307904)
I1129 21:36:22.204820 13963 net.cpp:165] Memory required for data: 2184724544
I1129 21:36:22.204825 13963 layer_factory.hpp:77] Creating layer conv2_6/blk
I1129 21:36:22.204844 13963 net.cpp:100] Creating Layer conv2_6/blk
I1129 21:36:22.204849 13963 net.cpp:434] conv2_6/blk <- conv2_6/blk/bn
I1129 21:36:22.204857 13963 net.cpp:408] conv2_6/blk -> conv2_6/blk
I1129 21:36:22.207020 13963 net.cpp:150] Setting up conv2_6/blk
I1129 21:36:22.207053 13963 net.cpp:157] Top shape: 16 128 57 57 (6653952)
I1129 21:36:22.207059 13963 net.cpp:165] Memory required for data: 2211340352
I1129 21:36:22.207067 13963 layer_factory.hpp:77] Creating layer pool2_6
I1129 21:36:22.207077 13963 net.cpp:100] Creating Layer pool2_6
I1129 21:36:22.207082 13963 net.cpp:434] pool2_6 <- conv2_6/blk
I1129 21:36:22.207089 13963 net.cpp:408] pool2_6 -> pool2_6
I1129 21:36:22.207444 13963 net.cpp:150] Setting up pool2_6
I1129 21:36:22.207466 13963 net.cpp:157] Top shape: 16 128 29 29 (1722368)
I1129 21:36:22.207471 13963 net.cpp:165] Memory required for data: 2218229824
I1129 21:36:22.207475 13963 layer_factory.hpp:77] Creating layer pool2_6_pool2_6_0_split
I1129 21:36:22.207484 13963 net.cpp:100] Creating Layer pool2_6_pool2_6_0_split
I1129 21:36:22.207489 13963 net.cpp:434] pool2_6_pool2_6_0_split <- pool2_6
I1129 21:36:22.207500 13963 net.cpp:408] pool2_6_pool2_6_0_split -> pool2_6_pool2_6_0_split_0
I1129 21:36:22.207509 13963 net.cpp:408] pool2_6_pool2_6_0_split -> pool2_6_pool2_6_0_split_1
I1129 21:36:22.207566 13963 net.cpp:150] Setting up pool2_6_pool2_6_0_split
I1129 21:36:22.207572 13963 net.cpp:157] Top shape: 16 128 29 29 (1722368)
I1129 21:36:22.207577 13963 net.cpp:157] Top shape: 16 128 29 29 (1722368)
I1129 21:36:22.207581 13963 net.cpp:165] Memory required for data: 2232008768
I1129 21:36:22.207586 13963 layer_factory.hpp:77] Creating layer conv3_1/x1/bn
I1129 21:36:22.207592 13963 net.cpp:100] Creating Layer conv3_1/x1/bn
I1129 21:36:22.207597 13963 net.cpp:434] conv3_1/x1/bn <- pool2_6_pool2_6_0_split_0
I1129 21:36:22.207607 13963 net.cpp:408] conv3_1/x1/bn -> conv3_1/x1/bn
I1129 21:36:22.209789 13963 net.cpp:150] Setting up conv3_1/x1/bn
I1129 21:36:22.209816 13963 net.cpp:157] Top shape: 16 128 29 29 (1722368)
I1129 21:36:22.209821 13963 net.cpp:165] Memory required for data: 2238898240
I1129 21:36:22.209832 13963 layer_factory.hpp:77] Creating layer conv3_1/x1/scale
I1129 21:36:22.209842 13963 net.cpp:100] Creating Layer conv3_1/x1/scale
I1129 21:36:22.209847 13963 net.cpp:434] conv3_1/x1/scale <- conv3_1/x1/bn
I1129 21:36:22.209853 13963 net.cpp:395] conv3_1/x1/scale -> conv3_1/x1/bn (in-place)
I1129 21:36:22.209919 13963 layer_factory.hpp:77] Creating layer conv3_1/x1/scale
I1129 21:36:22.210077 13963 net.cpp:150] Setting up conv3_1/x1/scale
I1129 21:36:22.210093 13963 net.cpp:157] Top shape: 16 128 29 29 (1722368)
I1129 21:36:22.210096 13963 net.cpp:165] Memory required for data: 2245787712
I1129 21:36:22.210104 13963 layer_factory.hpp:77] Creating layer relu3_1/x1
I1129 21:36:22.210110 13963 net.cpp:100] Creating Layer relu3_1/x1
I1129 21:36:22.210115 13963 net.cpp:434] relu3_1/x1 <- conv3_1/x1/bn
I1129 21:36:22.210126 13963 net.cpp:395] relu3_1/x1 -> conv3_1/x1/bn (in-place)
I1129 21:36:22.210405 13963 net.cpp:150] Setting up relu3_1/x1
I1129 21:36:22.210434 13963 net.cpp:157] Top shape: 16 128 29 29 (1722368)
I1129 21:36:22.210439 13963 net.cpp:165] Memory required for data: 2252677184
I1129 21:36:22.210444 13963 layer_factory.hpp:77] Creating layer conv3_1/x1
I1129 21:36:22.210453 13963 net.cpp:100] Creating Layer conv3_1/x1
I1129 21:36:22.210458 13963 net.cpp:434] conv3_1/x1 <- conv3_1/x1/bn
I1129 21:36:22.210464 13963 net.cpp:408] conv3_1/x1 -> conv3_1/x1
I1129 21:36:22.212687 13963 net.cpp:150] Setting up conv3_1/x1
I1129 21:36:22.212723 13963 net.cpp:157] Top shape: 16 128 29 29 (1722368)
I1129 21:36:22.212748 13963 net.cpp:165] Memory required for data: 2259566656
I1129 21:36:22.212756 13963 layer_factory.hpp:77] Creating layer conv3_1/x2/bn
I1129 21:36:22.212765 13963 net.cpp:100] Creating Layer conv3_1/x2/bn
I1129 21:36:22.212771 13963 net.cpp:434] conv3_1/x2/bn <- conv3_1/x1
I1129 21:36:22.212785 13963 net.cpp:408] conv3_1/x2/bn -> conv3_1/x2/bn
I1129 21:36:22.213063 13963 net.cpp:150] Setting up conv3_1/x2/bn
I1129 21:36:22.213079 13963 net.cpp:157] Top shape: 16 128 29 29 (1722368)
I1129 21:36:22.213084 13963 net.cpp:165] Memory required for data: 2266456128
I1129 21:36:22.213093 13963 layer_factory.hpp:77] Creating layer conv3_1/x2/scale
I1129 21:36:22.213107 13963 net.cpp:100] Creating Layer conv3_1/x2/scale
I1129 21:36:22.213112 13963 net.cpp:434] conv3_1/x2/scale <- conv3_1/x2/bn
I1129 21:36:22.213119 13963 net.cpp:395] conv3_1/x2/scale -> conv3_1/x2/bn (in-place)
I1129 21:36:22.213173 13963 layer_factory.hpp:77] Creating layer conv3_1/x2/scale
I1129 21:36:22.213331 13963 net.cpp:150] Setting up conv3_1/x2/scale
I1129 21:36:22.213346 13963 net.cpp:157] Top shape: 16 128 29 29 (1722368)
I1129 21:36:22.213351 13963 net.cpp:165] Memory required for data: 2273345600
I1129 21:36:22.213357 13963 layer_factory.hpp:77] Creating layer relu3_1/x2
I1129 21:36:22.213364 13963 net.cpp:100] Creating Layer relu3_1/x2
I1129 21:36:22.213368 13963 net.cpp:434] relu3_1/x2 <- conv3_1/x2/bn
I1129 21:36:22.213374 13963 net.cpp:395] relu3_1/x2 -> conv3_1/x2/bn (in-place)
I1129 21:36:22.213630 13963 net.cpp:150] Setting up relu3_1/x2
I1129 21:36:22.213651 13963 net.cpp:157] Top shape: 16 128 29 29 (1722368)
I1129 21:36:22.213656 13963 net.cpp:165] Memory required for data: 2280235072
I1129 21:36:22.213660 13963 layer_factory.hpp:77] Creating layer conv3_1/x2
I1129 21:36:22.213676 13963 net.cpp:100] Creating Layer conv3_1/x2
I1129 21:36:22.213681 13963 net.cpp:434] conv3_1/x2 <- conv3_1/x2/bn
I1129 21:36:22.213692 13963 net.cpp:408] conv3_1/x2 -> conv3_1/x2
I1129 21:36:22.215915 13963 net.cpp:150] Setting up conv3_1/x2
I1129 21:36:22.215948 13963 net.cpp:157] Top shape: 16 32 29 29 (430592)
I1129 21:36:22.215955 13963 net.cpp:165] Memory required for data: 2281957440
I1129 21:36:22.215962 13963 layer_factory.hpp:77] Creating layer concat_3_1
I1129 21:36:22.215970 13963 net.cpp:100] Creating Layer concat_3_1
I1129 21:36:22.215976 13963 net.cpp:434] concat_3_1 <- pool2_6_pool2_6_0_split_1
I1129 21:36:22.215982 13963 net.cpp:434] concat_3_1 <- conv3_1/x2
I1129 21:36:22.215992 13963 net.cpp:408] concat_3_1 -> concat_3_1
I1129 21:36:22.216027 13963 net.cpp:150] Setting up concat_3_1
I1129 21:36:22.216034 13963 net.cpp:157] Top shape: 16 160 29 29 (2152960)
I1129 21:36:22.216038 13963 net.cpp:165] Memory required for data: 2290569280
I1129 21:36:22.216042 13963 layer_factory.hpp:77] Creating layer concat_3_1_concat_3_1_0_split
I1129 21:36:22.216051 13963 net.cpp:100] Creating Layer concat_3_1_concat_3_1_0_split
I1129 21:36:22.216055 13963 net.cpp:434] concat_3_1_concat_3_1_0_split <- concat_3_1
I1129 21:36:22.216061 13963 net.cpp:408] concat_3_1_concat_3_1_0_split -> concat_3_1_concat_3_1_0_split_0
I1129 21:36:22.216068 13963 net.cpp:408] concat_3_1_concat_3_1_0_split -> concat_3_1_concat_3_1_0_split_1
I1129 21:36:22.216114 13963 net.cpp:150] Setting up concat_3_1_concat_3_1_0_split
I1129 21:36:22.216121 13963 net.cpp:157] Top shape: 16 160 29 29 (2152960)
I1129 21:36:22.216126 13963 net.cpp:157] Top shape: 16 160 29 29 (2152960)
I1129 21:36:22.216130 13963 net.cpp:165] Memory required for data: 2307792960
I1129 21:36:22.216133 13963 layer_factory.hpp:77] Creating layer conv3_2/x1/bn
I1129 21:36:22.216142 13963 net.cpp:100] Creating Layer conv3_2/x1/bn
I1129 21:36:22.216146 13963 net.cpp:434] conv3_2/x1/bn <- concat_3_1_concat_3_1_0_split_0
I1129 21:36:22.216152 13963 net.cpp:408] conv3_2/x1/bn -> conv3_2/x1/bn
I1129 21:36:22.216388 13963 net.cpp:150] Setting up conv3_2/x1/bn
I1129 21:36:22.216405 13963 net.cpp:157] Top shape: 16 160 29 29 (2152960)
I1129 21:36:22.216410 13963 net.cpp:165] Memory required for data: 2316404800
I1129 21:36:22.216445 13963 layer_factory.hpp:77] Creating layer conv3_2/x1/scale
I1129 21:36:22.216456 13963 net.cpp:100] Creating Layer conv3_2/x1/scale
I1129 21:36:22.216461 13963 net.cpp:434] conv3_2/x1/scale <- conv3_2/x1/bn
I1129 21:36:22.216467 13963 net.cpp:395] conv3_2/x1/scale -> conv3_2/x1/bn (in-place)
I1129 21:36:22.216524 13963 layer_factory.hpp:77] Creating layer conv3_2/x1/scale
I1129 21:36:22.216678 13963 net.cpp:150] Setting up conv3_2/x1/scale
I1129 21:36:22.216693 13963 net.cpp:157] Top shape: 16 160 29 29 (2152960)
I1129 21:36:22.216697 13963 net.cpp:165] Memory required for data: 2325016640
I1129 21:36:22.216704 13963 layer_factory.hpp:77] Creating layer relu3_2/x1
I1129 21:36:22.216713 13963 net.cpp:100] Creating Layer relu3_2/x1
I1129 21:36:22.216718 13963 net.cpp:434] relu3_2/x1 <- conv3_2/x1/bn
I1129 21:36:22.216723 13963 net.cpp:395] relu3_2/x1 -> conv3_2/x1/bn (in-place)
I1129 21:36:22.216943 13963 net.cpp:150] Setting up relu3_2/x1
I1129 21:36:22.216961 13963 net.cpp:157] Top shape: 16 160 29 29 (2152960)
I1129 21:36:22.216966 13963 net.cpp:165] Memory required for data: 2333628480
I1129 21:36:22.216970 13963 layer_factory.hpp:77] Creating layer conv3_2/x1
I1129 21:36:22.216981 13963 net.cpp:100] Creating Layer conv3_2/x1
I1129 21:36:22.216986 13963 net.cpp:434] conv3_2/x1 <- conv3_2/x1/bn
I1129 21:36:22.216995 13963 net.cpp:408] conv3_2/x1 -> conv3_2/x1
I1129 21:36:22.219028 13963 net.cpp:150] Setting up conv3_2/x1
I1129 21:36:22.219056 13963 net.cpp:157] Top shape: 16 128 29 29 (1722368)
I1129 21:36:22.219061 13963 net.cpp:165] Memory required for data: 2340517952
I1129 21:36:22.219069 13963 layer_factory.hpp:77] Creating layer conv3_2/x2/bn
I1129 21:36:22.219080 13963 net.cpp:100] Creating Layer conv3_2/x2/bn
I1129 21:36:22.219086 13963 net.cpp:434] conv3_2/x2/bn <- conv3_2/x1
I1129 21:36:22.219095 13963 net.cpp:408] conv3_2/x2/bn -> conv3_2/x2/bn
I1129 21:36:22.219378 13963 net.cpp:150] Setting up conv3_2/x2/bn
I1129 21:36:22.219398 13963 net.cpp:157] Top shape: 16 128 29 29 (1722368)
I1129 21:36:22.219403 13963 net.cpp:165] Memory required for data: 2347407424
I1129 21:36:22.219411 13963 layer_factory.hpp:77] Creating layer conv3_2/x2/scale
I1129 21:36:22.219437 13963 net.cpp:100] Creating Layer conv3_2/x2/scale
I1129 21:36:22.219442 13963 net.cpp:434] conv3_2/x2/scale <- conv3_2/x2/bn
I1129 21:36:22.219449 13963 net.cpp:395] conv3_2/x2/scale -> conv3_2/x2/bn (in-place)
I1129 21:36:22.219504 13963 layer_factory.hpp:77] Creating layer conv3_2/x2/scale
I1129 21:36:22.219641 13963 net.cpp:150] Setting up conv3_2/x2/scale
I1129 21:36:22.219656 13963 net.cpp:157] Top shape: 16 128 29 29 (1722368)
I1129 21:36:22.219660 13963 net.cpp:165] Memory required for data: 2354296896
I1129 21:36:22.219667 13963 layer_factory.hpp:77] Creating layer relu3_2/x2
I1129 21:36:22.219674 13963 net.cpp:100] Creating Layer relu3_2/x2
I1129 21:36:22.219678 13963 net.cpp:434] relu3_2/x2 <- conv3_2/x2/bn
I1129 21:36:22.219686 13963 net.cpp:395] relu3_2/x2 -> conv3_2/x2/bn (in-place)
I1129 21:36:22.221081 13963 net.cpp:150] Setting up relu3_2/x2
I1129 21:36:22.221109 13963 net.cpp:157] Top shape: 16 128 29 29 (1722368)
I1129 21:36:22.221114 13963 net.cpp:165] Memory required for data: 2361186368
I1129 21:36:22.221119 13963 layer_factory.hpp:77] Creating layer conv3_2/x2
I1129 21:36:22.221135 13963 net.cpp:100] Creating Layer conv3_2/x2
I1129 21:36:22.221140 13963 net.cpp:434] conv3_2/x2 <- conv3_2/x2/bn
I1129 21:36:22.221150 13963 net.cpp:408] conv3_2/x2 -> conv3_2/x2
I1129 21:36:22.223214 13963 net.cpp:150] Setting up conv3_2/x2
I1129 21:36:22.223242 13963 net.cpp:157] Top shape: 16 32 29 29 (430592)
I1129 21:36:22.223246 13963 net.cpp:165] Memory required for data: 2362908736
I1129 21:36:22.223254 13963 layer_factory.hpp:77] Creating layer concat_3_2
I1129 21:36:22.223266 13963 net.cpp:100] Creating Layer concat_3_2
I1129 21:36:22.223273 13963 net.cpp:434] concat_3_2 <- concat_3_1_concat_3_1_0_split_1
I1129 21:36:22.223279 13963 net.cpp:434] concat_3_2 <- conv3_2/x2
I1129 21:36:22.223285 13963 net.cpp:408] concat_3_2 -> concat_3_2
I1129 21:36:22.223372 13963 net.cpp:150] Setting up concat_3_2
I1129 21:36:22.223382 13963 net.cpp:157] Top shape: 16 192 29 29 (2583552)
I1129 21:36:22.223387 13963 net.cpp:165] Memory required for data: 2373242944
I1129 21:36:22.223390 13963 layer_factory.hpp:77] Creating layer concat_3_2_concat_3_2_0_split
I1129 21:36:22.223400 13963 net.cpp:100] Creating Layer concat_3_2_concat_3_2_0_split
I1129 21:36:22.223405 13963 net.cpp:434] concat_3_2_concat_3_2_0_split <- concat_3_2
I1129 21:36:22.223424 13963 net.cpp:408] concat_3_2_concat_3_2_0_split -> concat_3_2_concat_3_2_0_split_0
I1129 21:36:22.223439 13963 net.cpp:408] concat_3_2_concat_3_2_0_split -> concat_3_2_concat_3_2_0_split_1
I1129 21:36:22.223490 13963 net.cpp:150] Setting up concat_3_2_concat_3_2_0_split
I1129 21:36:22.223505 13963 net.cpp:157] Top shape: 16 192 29 29 (2583552)
I1129 21:36:22.223510 13963 net.cpp:157] Top shape: 16 192 29 29 (2583552)
I1129 21:36:22.223515 13963 net.cpp:165] Memory required for data: 2393911360
I1129 21:36:22.223520 13963 layer_factory.hpp:77] Creating layer conv3_3/x1/bn
I1129 21:36:22.223529 13963 net.cpp:100] Creating Layer conv3_3/x1/bn
I1129 21:36:22.223533 13963 net.cpp:434] conv3_3/x1/bn <- concat_3_2_concat_3_2_0_split_0
I1129 21:36:22.223539 13963 net.cpp:408] conv3_3/x1/bn -> conv3_3/x1/bn
I1129 21:36:22.223829 13963 net.cpp:150] Setting up conv3_3/x1/bn
I1129 21:36:22.223846 13963 net.cpp:157] Top shape: 16 192 29 29 (2583552)
I1129 21:36:22.223850 13963 net.cpp:165] Memory required for data: 2404245568
I1129 21:36:22.223860 13963 layer_factory.hpp:77] Creating layer conv3_3/x1/scale
I1129 21:36:22.223868 13963 net.cpp:100] Creating Layer conv3_3/x1/scale
I1129 21:36:22.223873 13963 net.cpp:434] conv3_3/x1/scale <- conv3_3/x1/bn
I1129 21:36:22.223879 13963 net.cpp:395] conv3_3/x1/scale -> conv3_3/x1/bn (in-place)
I1129 21:36:22.223933 13963 layer_factory.hpp:77] Creating layer conv3_3/x1/scale
I1129 21:36:22.224073 13963 net.cpp:150] Setting up conv3_3/x1/scale
I1129 21:36:22.224090 13963 net.cpp:157] Top shape: 16 192 29 29 (2583552)
I1129 21:36:22.224094 13963 net.cpp:165] Memory required for data: 2414579776
I1129 21:36:22.224102 13963 layer_factory.hpp:77] Creating layer relu3_3/x1
I1129 21:36:22.224109 13963 net.cpp:100] Creating Layer relu3_3/x1
I1129 21:36:22.224113 13963 net.cpp:434] relu3_3/x1 <- conv3_3/x1/bn
I1129 21:36:22.224118 13963 net.cpp:395] relu3_3/x1 -> conv3_3/x1/bn (in-place)
I1129 21:36:22.225471 13963 net.cpp:150] Setting up relu3_3/x1
I1129 21:36:22.225497 13963 net.cpp:157] Top shape: 16 192 29 29 (2583552)
I1129 21:36:22.225503 13963 net.cpp:165] Memory required for data: 2424913984
I1129 21:36:22.225508 13963 layer_factory.hpp:77] Creating layer conv3_3/x1
I1129 21:36:22.225522 13963 net.cpp:100] Creating Layer conv3_3/x1
I1129 21:36:22.225528 13963 net.cpp:434] conv3_3/x1 <- conv3_3/x1/bn
I1129 21:36:22.225534 13963 net.cpp:408] conv3_3/x1 -> conv3_3/x1
I1129 21:36:22.227614 13963 net.cpp:150] Setting up conv3_3/x1
I1129 21:36:22.227643 13963 net.cpp:157] Top shape: 16 128 29 29 (1722368)
I1129 21:36:22.227648 13963 net.cpp:165] Memory required for data: 2431803456
I1129 21:36:22.227655 13963 layer_factory.hpp:77] Creating layer conv3_3/x2/bn
I1129 21:36:22.227666 13963 net.cpp:100] Creating Layer conv3_3/x2/bn
I1129 21:36:22.227671 13963 net.cpp:434] conv3_3/x2/bn <- conv3_3/x1
I1129 21:36:22.227679 13963 net.cpp:408] conv3_3/x2/bn -> conv3_3/x2/bn
I1129 21:36:22.227958 13963 net.cpp:150] Setting up conv3_3/x2/bn
I1129 21:36:22.227975 13963 net.cpp:157] Top shape: 16 128 29 29 (1722368)
I1129 21:36:22.227980 13963 net.cpp:165] Memory required for data: 2438692928
I1129 21:36:22.227989 13963 layer_factory.hpp:77] Creating layer conv3_3/x2/scale
I1129 21:36:22.227998 13963 net.cpp:100] Creating Layer conv3_3/x2/scale
I1129 21:36:22.228003 13963 net.cpp:434] conv3_3/x2/scale <- conv3_3/x2/bn
I1129 21:36:22.228009 13963 net.cpp:395] conv3_3/x2/scale -> conv3_3/x2/bn (in-place)
I1129 21:36:22.228060 13963 layer_factory.hpp:77] Creating layer conv3_3/x2/scale
I1129 21:36:22.228224 13963 net.cpp:150] Setting up conv3_3/x2/scale
I1129 21:36:22.228241 13963 net.cpp:157] Top shape: 16 128 29 29 (1722368)
I1129 21:36:22.228245 13963 net.cpp:165] Memory required for data: 2445582400
I1129 21:36:22.228253 13963 layer_factory.hpp:77] Creating layer relu3_3/x2
I1129 21:36:22.228260 13963 net.cpp:100] Creating Layer relu3_3/x2
I1129 21:36:22.228265 13963 net.cpp:434] relu3_3/x2 <- conv3_3/x2/bn
I1129 21:36:22.228269 13963 net.cpp:395] relu3_3/x2 -> conv3_3/x2/bn (in-place)
I1129 21:36:22.228510 13963 net.cpp:150] Setting up relu3_3/x2
I1129 21:36:22.228530 13963 net.cpp:157] Top shape: 16 128 29 29 (1722368)
I1129 21:36:22.228534 13963 net.cpp:165] Memory required for data: 2452471872
I1129 21:36:22.228539 13963 layer_factory.hpp:77] Creating layer conv3_3/x2
I1129 21:36:22.228551 13963 net.cpp:100] Creating Layer conv3_3/x2
I1129 21:36:22.228555 13963 net.cpp:434] conv3_3/x2 <- conv3_3/x2/bn
I1129 21:36:22.228562 13963 net.cpp:408] conv3_3/x2 -> conv3_3/x2
I1129 21:36:22.230621 13963 net.cpp:150] Setting up conv3_3/x2
I1129 21:36:22.230648 13963 net.cpp:157] Top shape: 16 32 29 29 (430592)
I1129 21:36:22.230654 13963 net.cpp:165] Memory required for data: 2454194240
I1129 21:36:22.230661 13963 layer_factory.hpp:77] Creating layer concat_3_3
I1129 21:36:22.230669 13963 net.cpp:100] Creating Layer concat_3_3
I1129 21:36:22.230674 13963 net.cpp:434] concat_3_3 <- concat_3_2_concat_3_2_0_split_1
I1129 21:36:22.230681 13963 net.cpp:434] concat_3_3 <- conv3_3/x2
I1129 21:36:22.230690 13963 net.cpp:408] concat_3_3 -> concat_3_3
I1129 21:36:22.230731 13963 net.cpp:150] Setting up concat_3_3
I1129 21:36:22.230738 13963 net.cpp:157] Top shape: 16 224 29 29 (3014144)
I1129 21:36:22.230741 13963 net.cpp:165] Memory required for data: 2466250816
I1129 21:36:22.230746 13963 layer_factory.hpp:77] Creating layer concat_3_3_concat_3_3_0_split
I1129 21:36:22.230752 13963 net.cpp:100] Creating Layer concat_3_3_concat_3_3_0_split
I1129 21:36:22.230756 13963 net.cpp:434] concat_3_3_concat_3_3_0_split <- concat_3_3
I1129 21:36:22.230762 13963 net.cpp:408] concat_3_3_concat_3_3_0_split -> concat_3_3_concat_3_3_0_split_0
I1129 21:36:22.230772 13963 net.cpp:408] concat_3_3_concat_3_3_0_split -> concat_3_3_concat_3_3_0_split_1
I1129 21:36:22.230813 13963 net.cpp:150] Setting up concat_3_3_concat_3_3_0_split
I1129 21:36:22.230819 13963 net.cpp:157] Top shape: 16 224 29 29 (3014144)
I1129 21:36:22.230823 13963 net.cpp:157] Top shape: 16 224 29 29 (3014144)
I1129 21:36:22.230828 13963 net.cpp:165] Memory required for data: 2490363968
I1129 21:36:22.230831 13963 layer_factory.hpp:77] Creating layer conv3_4/x1/bn
I1129 21:36:22.230840 13963 net.cpp:100] Creating Layer conv3_4/x1/bn
I1129 21:36:22.230844 13963 net.cpp:434] conv3_4/x1/bn <- concat_3_3_concat_3_3_0_split_0
I1129 21:36:22.230849 13963 net.cpp:408] conv3_4/x1/bn -> conv3_4/x1/bn
I1129 21:36:22.231117 13963 net.cpp:150] Setting up conv3_4/x1/bn
I1129 21:36:22.231132 13963 net.cpp:157] Top shape: 16 224 29 29 (3014144)
I1129 21:36:22.231137 13963 net.cpp:165] Memory required for data: 2502420544
I1129 21:36:22.231145 13963 layer_factory.hpp:77] Creating layer conv3_4/x1/scale
I1129 21:36:22.231158 13963 net.cpp:100] Creating Layer conv3_4/x1/scale
I1129 21:36:22.231163 13963 net.cpp:434] conv3_4/x1/scale <- conv3_4/x1/bn
I1129 21:36:22.231169 13963 net.cpp:395] conv3_4/x1/scale -> conv3_4/x1/bn (in-place)
I1129 21:36:22.231222 13963 layer_factory.hpp:77] Creating layer conv3_4/x1/scale
I1129 21:36:22.231441 13963 net.cpp:150] Setting up conv3_4/x1/scale
I1129 21:36:22.231461 13963 net.cpp:157] Top shape: 16 224 29 29 (3014144)
I1129 21:36:22.231465 13963 net.cpp:165] Memory required for data: 2514477120
I1129 21:36:22.231473 13963 layer_factory.hpp:77] Creating layer relu3_4/x1
I1129 21:36:22.231480 13963 net.cpp:100] Creating Layer relu3_4/x1
I1129 21:36:22.231485 13963 net.cpp:434] relu3_4/x1 <- conv3_4/x1/bn
I1129 21:36:22.231492 13963 net.cpp:395] relu3_4/x1 -> conv3_4/x1/bn (in-place)
I1129 21:36:22.231739 13963 net.cpp:150] Setting up relu3_4/x1
I1129 21:36:22.231775 13963 net.cpp:157] Top shape: 16 224 29 29 (3014144)
I1129 21:36:22.231779 13963 net.cpp:165] Memory required for data: 2526533696
I1129 21:36:22.231784 13963 layer_factory.hpp:77] Creating layer conv3_4/x1
I1129 21:36:22.231797 13963 net.cpp:100] Creating Layer conv3_4/x1
I1129 21:36:22.231801 13963 net.cpp:434] conv3_4/x1 <- conv3_4/x1/bn
I1129 21:36:22.231808 13963 net.cpp:408] conv3_4/x1 -> conv3_4/x1
I1129 21:36:22.233911 13963 net.cpp:150] Setting up conv3_4/x1
I1129 21:36:22.233940 13963 net.cpp:157] Top shape: 16 128 29 29 (1722368)
I1129 21:36:22.233945 13963 net.cpp:165] Memory required for data: 2533423168
I1129 21:36:22.233952 13963 layer_factory.hpp:77] Creating layer conv3_4/x2/bn
I1129 21:36:22.233964 13963 net.cpp:100] Creating Layer conv3_4/x2/bn
I1129 21:36:22.233970 13963 net.cpp:434] conv3_4/x2/bn <- conv3_4/x1
I1129 21:36:22.233979 13963 net.cpp:408] conv3_4/x2/bn -> conv3_4/x2/bn
I1129 21:36:22.234238 13963 net.cpp:150] Setting up conv3_4/x2/bn
I1129 21:36:22.234256 13963 net.cpp:157] Top shape: 16 128 29 29 (1722368)
I1129 21:36:22.234259 13963 net.cpp:165] Memory required for data: 2540312640
I1129 21:36:22.234290 13963 layer_factory.hpp:77] Creating layer conv3_4/x2/scale
I1129 21:36:22.234298 13963 net.cpp:100] Creating Layer conv3_4/x2/scale
I1129 21:36:22.234303 13963 net.cpp:434] conv3_4/x2/scale <- conv3_4/x2/bn
I1129 21:36:22.234309 13963 net.cpp:395] conv3_4/x2/scale -> conv3_4/x2/bn (in-place)
I1129 21:36:22.234364 13963 layer_factory.hpp:77] Creating layer conv3_4/x2/scale
I1129 21:36:22.234526 13963 net.cpp:150] Setting up conv3_4/x2/scale
I1129 21:36:22.234544 13963 net.cpp:157] Top shape: 16 128 29 29 (1722368)
I1129 21:36:22.234547 13963 net.cpp:165] Memory required for data: 2547202112
I1129 21:36:22.234555 13963 layer_factory.hpp:77] Creating layer relu3_4/x2
I1129 21:36:22.234562 13963 net.cpp:100] Creating Layer relu3_4/x2
I1129 21:36:22.234567 13963 net.cpp:434] relu3_4/x2 <- conv3_4/x2/bn
I1129 21:36:22.234575 13963 net.cpp:395] relu3_4/x2 -> conv3_4/x2/bn (in-place)
I1129 21:36:22.234819 13963 net.cpp:150] Setting up relu3_4/x2
I1129 21:36:22.234839 13963 net.cpp:157] Top shape: 16 128 29 29 (1722368)
I1129 21:36:22.234843 13963 net.cpp:165] Memory required for data: 2554091584
I1129 21:36:22.234848 13963 layer_factory.hpp:77] Creating layer conv3_4/x2
I1129 21:36:22.234861 13963 net.cpp:100] Creating Layer conv3_4/x2
I1129 21:36:22.234869 13963 net.cpp:434] conv3_4/x2 <- conv3_4/x2/bn
I1129 21:36:22.234875 13963 net.cpp:408] conv3_4/x2 -> conv3_4/x2
I1129 21:36:22.239972 13963 net.cpp:150] Setting up conv3_4/x2
I1129 21:36:22.240001 13963 net.cpp:157] Top shape: 16 32 29 29 (430592)
I1129 21:36:22.240006 13963 net.cpp:165] Memory required for data: 2555813952
I1129 21:36:22.240015 13963 layer_factory.hpp:77] Creating layer concat_3_4
I1129 21:36:22.240025 13963 net.cpp:100] Creating Layer concat_3_4
I1129 21:36:22.240031 13963 net.cpp:434] concat_3_4 <- concat_3_3_concat_3_3_0_split_1
I1129 21:36:22.240038 13963 net.cpp:434] concat_3_4 <- conv3_4/x2
I1129 21:36:22.240044 13963 net.cpp:408] concat_3_4 -> concat_3_4
I1129 21:36:22.240093 13963 net.cpp:150] Setting up concat_3_4
I1129 21:36:22.240101 13963 net.cpp:157] Top shape: 16 256 29 29 (3444736)
I1129 21:36:22.240104 13963 net.cpp:165] Memory required for data: 2569592896
I1129 21:36:22.240109 13963 layer_factory.hpp:77] Creating layer concat_3_4_concat_3_4_0_split
I1129 21:36:22.240115 13963 net.cpp:100] Creating Layer concat_3_4_concat_3_4_0_split
I1129 21:36:22.240120 13963 net.cpp:434] concat_3_4_concat_3_4_0_split <- concat_3_4
I1129 21:36:22.240141 13963 net.cpp:408] concat_3_4_concat_3_4_0_split -> concat_3_4_concat_3_4_0_split_0
I1129 21:36:22.240149 13963 net.cpp:408] concat_3_4_concat_3_4_0_split -> concat_3_4_concat_3_4_0_split_1
I1129 21:36:22.240197 13963 net.cpp:150] Setting up concat_3_4_concat_3_4_0_split
I1129 21:36:22.240206 13963 net.cpp:157] Top shape: 16 256 29 29 (3444736)
I1129 21:36:22.240211 13963 net.cpp:157] Top shape: 16 256 29 29 (3444736)
I1129 21:36:22.240216 13963 net.cpp:165] Memory required for data: 2597150784
I1129 21:36:22.240234 13963 layer_factory.hpp:77] Creating layer conv3_5/x1/bn
I1129 21:36:22.240242 13963 net.cpp:100] Creating Layer conv3_5/x1/bn
I1129 21:36:22.240247 13963 net.cpp:434] conv3_5/x1/bn <- concat_3_4_concat_3_4_0_split_0
I1129 21:36:22.240253 13963 net.cpp:408] conv3_5/x1/bn -> conv3_5/x1/bn
I1129 21:36:22.240516 13963 net.cpp:150] Setting up conv3_5/x1/bn
I1129 21:36:22.240535 13963 net.cpp:157] Top shape: 16 256 29 29 (3444736)
I1129 21:36:22.240540 13963 net.cpp:165] Memory required for data: 2610929728
I1129 21:36:22.240550 13963 layer_factory.hpp:77] Creating layer conv3_5/x1/scale
I1129 21:36:22.240557 13963 net.cpp:100] Creating Layer conv3_5/x1/scale
I1129 21:36:22.240562 13963 net.cpp:434] conv3_5/x1/scale <- conv3_5/x1/bn
I1129 21:36:22.240571 13963 net.cpp:395] conv3_5/x1/scale -> conv3_5/x1/bn (in-place)
I1129 21:36:22.240622 13963 layer_factory.hpp:77] Creating layer conv3_5/x1/scale
I1129 21:36:22.240764 13963 net.cpp:150] Setting up conv3_5/x1/scale
I1129 21:36:22.240780 13963 net.cpp:157] Top shape: 16 256 29 29 (3444736)
I1129 21:36:22.240784 13963 net.cpp:165] Memory required for data: 2624708672
I1129 21:36:22.240792 13963 layer_factory.hpp:77] Creating layer relu3_5/x1
I1129 21:36:22.240799 13963 net.cpp:100] Creating Layer relu3_5/x1
I1129 21:36:22.240803 13963 net.cpp:434] relu3_5/x1 <- conv3_5/x1/bn
I1129 21:36:22.240809 13963 net.cpp:395] relu3_5/x1 -> conv3_5/x1/bn (in-place)
I1129 21:36:22.241042 13963 net.cpp:150] Setting up relu3_5/x1
I1129 21:36:22.241062 13963 net.cpp:157] Top shape: 16 256 29 29 (3444736)
I1129 21:36:22.241066 13963 net.cpp:165] Memory required for data: 2638487616
I1129 21:36:22.241071 13963 layer_factory.hpp:77] Creating layer conv3_5/x1
I1129 21:36:22.241082 13963 net.cpp:100] Creating Layer conv3_5/x1
I1129 21:36:22.241087 13963 net.cpp:434] conv3_5/x1 <- conv3_5/x1/bn
I1129 21:36:22.241093 13963 net.cpp:408] conv3_5/x1 -> conv3_5/x1
I1129 21:36:22.243196 13963 net.cpp:150] Setting up conv3_5/x1
I1129 21:36:22.243225 13963 net.cpp:157] Top shape: 16 128 29 29 (1722368)
I1129 21:36:22.243230 13963 net.cpp:165] Memory required for data: 2645377088
I1129 21:36:22.243237 13963 layer_factory.hpp:77] Creating layer conv3_5/x2/bn
I1129 21:36:22.243250 13963 net.cpp:100] Creating Layer conv3_5/x2/bn
I1129 21:36:22.243257 13963 net.cpp:434] conv3_5/x2/bn <- conv3_5/x1
I1129 21:36:22.243265 13963 net.cpp:408] conv3_5/x2/bn -> conv3_5/x2/bn
I1129 21:36:22.243571 13963 net.cpp:150] Setting up conv3_5/x2/bn
I1129 21:36:22.243590 13963 net.cpp:157] Top shape: 16 128 29 29 (1722368)
I1129 21:36:22.243595 13963 net.cpp:165] Memory required for data: 2652266560
I1129 21:36:22.243605 13963 layer_factory.hpp:77] Creating layer conv3_5/x2/scale
I1129 21:36:22.243615 13963 net.cpp:100] Creating Layer conv3_5/x2/scale
I1129 21:36:22.243620 13963 net.cpp:434] conv3_5/x2/scale <- conv3_5/x2/bn
I1129 21:36:22.243626 13963 net.cpp:395] conv3_5/x2/scale -> conv3_5/x2/bn (in-place)
I1129 21:36:22.243681 13963 layer_factory.hpp:77] Creating layer conv3_5/x2/scale
I1129 21:36:22.243822 13963 net.cpp:150] Setting up conv3_5/x2/scale
I1129 21:36:22.243839 13963 net.cpp:157] Top shape: 16 128 29 29 (1722368)
I1129 21:36:22.243842 13963 net.cpp:165] Memory required for data: 2659156032
I1129 21:36:22.243849 13963 layer_factory.hpp:77] Creating layer relu3_5/x2
I1129 21:36:22.243858 13963 net.cpp:100] Creating Layer relu3_5/x2
I1129 21:36:22.243863 13963 net.cpp:434] relu3_5/x2 <- conv3_5/x2/bn
I1129 21:36:22.243868 13963 net.cpp:395] relu3_5/x2 -> conv3_5/x2/bn (in-place)
I1129 21:36:22.245225 13963 net.cpp:150] Setting up relu3_5/x2
I1129 21:36:22.245252 13963 net.cpp:157] Top shape: 16 128 29 29 (1722368)
I1129 21:36:22.245257 13963 net.cpp:165] Memory required for data: 2666045504
I1129 21:36:22.245262 13963 layer_factory.hpp:77] Creating layer conv3_5/x2
I1129 21:36:22.245275 13963 net.cpp:100] Creating Layer conv3_5/x2
I1129 21:36:22.245280 13963 net.cpp:434] conv3_5/x2 <- conv3_5/x2/bn
I1129 21:36:22.245288 13963 net.cpp:408] conv3_5/x2 -> conv3_5/x2
I1129 21:36:22.246253 13963 net.cpp:150] Setting up conv3_5/x2
I1129 21:36:22.246279 13963 net.cpp:157] Top shape: 16 32 29 29 (430592)
I1129 21:36:22.246284 13963 net.cpp:165] Memory required for data: 2667767872
I1129 21:36:22.246291 13963 layer_factory.hpp:77] Creating layer concat_3_5
I1129 21:36:22.246299 13963 net.cpp:100] Creating Layer concat_3_5
I1129 21:36:22.246304 13963 net.cpp:434] concat_3_5 <- concat_3_4_concat_3_4_0_split_1
I1129 21:36:22.246311 13963 net.cpp:434] concat_3_5 <- conv3_5/x2
I1129 21:36:22.246317 13963 net.cpp:408] concat_3_5 -> concat_3_5
I1129 21:36:22.246353 13963 net.cpp:150] Setting up concat_3_5
I1129 21:36:22.246361 13963 net.cpp:157] Top shape: 16 288 29 29 (3875328)
I1129 21:36:22.246366 13963 net.cpp:165] Memory required for data: 2683269184
I1129 21:36:22.246369 13963 layer_factory.hpp:77] Creating layer concat_3_5_concat_3_5_0_split
I1129 21:36:22.246377 13963 net.cpp:100] Creating Layer concat_3_5_concat_3_5_0_split
I1129 21:36:22.246382 13963 net.cpp:434] concat_3_5_concat_3_5_0_split <- concat_3_5
I1129 21:36:22.246387 13963 net.cpp:408] concat_3_5_concat_3_5_0_split -> concat_3_5_concat_3_5_0_split_0
I1129 21:36:22.246394 13963 net.cpp:408] concat_3_5_concat_3_5_0_split -> concat_3_5_concat_3_5_0_split_1
I1129 21:36:22.246453 13963 net.cpp:150] Setting up concat_3_5_concat_3_5_0_split
I1129 21:36:22.246460 13963 net.cpp:157] Top shape: 16 288 29 29 (3875328)
I1129 21:36:22.246465 13963 net.cpp:157] Top shape: 16 288 29 29 (3875328)
I1129 21:36:22.246469 13963 net.cpp:165] Memory required for data: 2714271808
I1129 21:36:22.246472 13963 layer_factory.hpp:77] Creating layer conv3_6/x1/bn
I1129 21:36:22.246480 13963 net.cpp:100] Creating Layer conv3_6/x1/bn
I1129 21:36:22.246484 13963 net.cpp:434] conv3_6/x1/bn <- concat_3_5_concat_3_5_0_split_0
I1129 21:36:22.246492 13963 net.cpp:408] conv3_6/x1/bn -> conv3_6/x1/bn
I1129 21:36:22.246764 13963 net.cpp:150] Setting up conv3_6/x1/bn
I1129 21:36:22.246783 13963 net.cpp:157] Top shape: 16 288 29 29 (3875328)
I1129 21:36:22.246786 13963 net.cpp:165] Memory required for data: 2729773120
I1129 21:36:22.246796 13963 layer_factory.hpp:77] Creating layer conv3_6/x1/scale
I1129 21:36:22.246803 13963 net.cpp:100] Creating Layer conv3_6/x1/scale
I1129 21:36:22.246810 13963 net.cpp:434] conv3_6/x1/scale <- conv3_6/x1/bn
I1129 21:36:22.246817 13963 net.cpp:395] conv3_6/x1/scale -> conv3_6/x1/bn (in-place)
I1129 21:36:22.246872 13963 layer_factory.hpp:77] Creating layer conv3_6/x1/scale
I1129 21:36:22.247012 13963 net.cpp:150] Setting up conv3_6/x1/scale
I1129 21:36:22.247028 13963 net.cpp:157] Top shape: 16 288 29 29 (3875328)
I1129 21:36:22.247032 13963 net.cpp:165] Memory required for data: 2745274432
I1129 21:36:22.247040 13963 layer_factory.hpp:77] Creating layer relu3_6/x1
I1129 21:36:22.247048 13963 net.cpp:100] Creating Layer relu3_6/x1
I1129 21:36:22.247053 13963 net.cpp:434] relu3_6/x1 <- conv3_6/x1/bn
I1129 21:36:22.247059 13963 net.cpp:395] relu3_6/x1 -> conv3_6/x1/bn (in-place)
I1129 21:36:22.248440 13963 net.cpp:150] Setting up relu3_6/x1
I1129 21:36:22.248466 13963 net.cpp:157] Top shape: 16 288 29 29 (3875328)
I1129 21:36:22.248471 13963 net.cpp:165] Memory required for data: 2760775744
I1129 21:36:22.248476 13963 layer_factory.hpp:77] Creating layer conv3_6/x1
I1129 21:36:22.248488 13963 net.cpp:100] Creating Layer conv3_6/x1
I1129 21:36:22.248494 13963 net.cpp:434] conv3_6/x1 <- conv3_6/x1/bn
I1129 21:36:22.248503 13963 net.cpp:408] conv3_6/x1 -> conv3_6/x1
I1129 21:36:22.250624 13963 net.cpp:150] Setting up conv3_6/x1
I1129 21:36:22.250653 13963 net.cpp:157] Top shape: 16 128 29 29 (1722368)
I1129 21:36:22.250659 13963 net.cpp:165] Memory required for data: 2767665216
I1129 21:36:22.250666 13963 layer_factory.hpp:77] Creating layer conv3_6/x2/bn
I1129 21:36:22.250679 13963 net.cpp:100] Creating Layer conv3_6/x2/bn
I1129 21:36:22.250684 13963 net.cpp:434] conv3_6/x2/bn <- conv3_6/x1
I1129 21:36:22.250694 13963 net.cpp:408] conv3_6/x2/bn -> conv3_6/x2/bn
I1129 21:36:22.250957 13963 net.cpp:150] Setting up conv3_6/x2/bn
I1129 21:36:22.250993 13963 net.cpp:157] Top shape: 16 128 29 29 (1722368)
I1129 21:36:22.250998 13963 net.cpp:165] Memory required for data: 2774554688
I1129 21:36:22.251008 13963 layer_factory.hpp:77] Creating layer conv3_6/x2/scale
I1129 21:36:22.251016 13963 net.cpp:100] Creating Layer conv3_6/x2/scale
I1129 21:36:22.251021 13963 net.cpp:434] conv3_6/x2/scale <- conv3_6/x2/bn
I1129 21:36:22.251027 13963 net.cpp:395] conv3_6/x2/scale -> conv3_6/x2/bn (in-place)
I1129 21:36:22.251093 13963 layer_factory.hpp:77] Creating layer conv3_6/x2/scale
I1129 21:36:22.251245 13963 net.cpp:150] Setting up conv3_6/x2/scale
I1129 21:36:22.251260 13963 net.cpp:157] Top shape: 16 128 29 29 (1722368)
I1129 21:36:22.251263 13963 net.cpp:165] Memory required for data: 2781444160
I1129 21:36:22.251271 13963 layer_factory.hpp:77] Creating layer relu3_6/x2
I1129 21:36:22.251294 13963 net.cpp:100] Creating Layer relu3_6/x2
I1129 21:36:22.251299 13963 net.cpp:434] relu3_6/x2 <- conv3_6/x2/bn
I1129 21:36:22.251336 13963 net.cpp:395] relu3_6/x2 -> conv3_6/x2/bn (in-place)
I1129 21:36:22.251618 13963 net.cpp:150] Setting up relu3_6/x2
I1129 21:36:22.251639 13963 net.cpp:157] Top shape: 16 128 29 29 (1722368)
I1129 21:36:22.251644 13963 net.cpp:165] Memory required for data: 2788333632
I1129 21:36:22.251649 13963 layer_factory.hpp:77] Creating layer conv3_6/x2
I1129 21:36:22.251667 13963 net.cpp:100] Creating Layer conv3_6/x2
I1129 21:36:22.251672 13963 net.cpp:434] conv3_6/x2 <- conv3_6/x2/bn
I1129 21:36:22.251678 13963 net.cpp:408] conv3_6/x2 -> conv3_6/x2
I1129 21:36:22.254845 13963 net.cpp:150] Setting up conv3_6/x2
I1129 21:36:22.254873 13963 net.cpp:157] Top shape: 16 32 29 29 (430592)
I1129 21:36:22.254879 13963 net.cpp:165] Memory required for data: 2790056000
I1129 21:36:22.254886 13963 layer_factory.hpp:77] Creating layer concat_3_6
I1129 21:36:22.254897 13963 net.cpp:100] Creating Layer concat_3_6
I1129 21:36:22.254904 13963 net.cpp:434] concat_3_6 <- concat_3_5_concat_3_5_0_split_1
I1129 21:36:22.254911 13963 net.cpp:434] concat_3_6 <- conv3_6/x2
I1129 21:36:22.254917 13963 net.cpp:408] concat_3_6 -> concat_3_6
I1129 21:36:22.254966 13963 net.cpp:150] Setting up concat_3_6
I1129 21:36:22.254974 13963 net.cpp:157] Top shape: 16 320 29 29 (4305920)
I1129 21:36:22.254978 13963 net.cpp:165] Memory required for data: 2807279680
I1129 21:36:22.254982 13963 layer_factory.hpp:77] Creating layer concat_3_6_concat_3_6_0_split
I1129 21:36:22.254989 13963 net.cpp:100] Creating Layer concat_3_6_concat_3_6_0_split
I1129 21:36:22.254993 13963 net.cpp:434] concat_3_6_concat_3_6_0_split <- concat_3_6
I1129 21:36:22.255002 13963 net.cpp:408] concat_3_6_concat_3_6_0_split -> concat_3_6_concat_3_6_0_split_0
I1129 21:36:22.255009 13963 net.cpp:408] concat_3_6_concat_3_6_0_split -> concat_3_6_concat_3_6_0_split_1
I1129 21:36:22.255054 13963 net.cpp:150] Setting up concat_3_6_concat_3_6_0_split
I1129 21:36:22.255061 13963 net.cpp:157] Top shape: 16 320 29 29 (4305920)
I1129 21:36:22.255066 13963 net.cpp:157] Top shape: 16 320 29 29 (4305920)
I1129 21:36:22.255069 13963 net.cpp:165] Memory required for data: 2841727040
I1129 21:36:22.255074 13963 layer_factory.hpp:77] Creating layer conv3_7/x1/bn
I1129 21:36:22.255084 13963 net.cpp:100] Creating Layer conv3_7/x1/bn
I1129 21:36:22.255089 13963 net.cpp:434] conv3_7/x1/bn <- concat_3_6_concat_3_6_0_split_0
I1129 21:36:22.255096 13963 net.cpp:408] conv3_7/x1/bn -> conv3_7/x1/bn
I1129 21:36:22.255388 13963 net.cpp:150] Setting up conv3_7/x1/bn
I1129 21:36:22.255408 13963 net.cpp:157] Top shape: 16 320 29 29 (4305920)
I1129 21:36:22.255411 13963 net.cpp:165] Memory required for data: 2858950720
I1129 21:36:22.255431 13963 layer_factory.hpp:77] Creating layer conv3_7/x1/scale
I1129 21:36:22.255440 13963 net.cpp:100] Creating Layer conv3_7/x1/scale
I1129 21:36:22.255445 13963 net.cpp:434] conv3_7/x1/scale <- conv3_7/x1/bn
I1129 21:36:22.255456 13963 net.cpp:395] conv3_7/x1/scale -> conv3_7/x1/bn (in-place)
I1129 21:36:22.255514 13963 layer_factory.hpp:77] Creating layer conv3_7/x1/scale
I1129 21:36:22.255666 13963 net.cpp:150] Setting up conv3_7/x1/scale
I1129 21:36:22.255697 13963 net.cpp:157] Top shape: 16 320 29 29 (4305920)
I1129 21:36:22.255702 13963 net.cpp:165] Memory required for data: 2876174400
I1129 21:36:22.255709 13963 layer_factory.hpp:77] Creating layer relu3_7/x1
I1129 21:36:22.255717 13963 net.cpp:100] Creating Layer relu3_7/x1
I1129 21:36:22.255722 13963 net.cpp:434] relu3_7/x1 <- conv3_7/x1/bn
I1129 21:36:22.255729 13963 net.cpp:395] relu3_7/x1 -> conv3_7/x1/bn (in-place)
I1129 21:36:22.255969 13963 net.cpp:150] Setting up relu3_7/x1
I1129 21:36:22.255988 13963 net.cpp:157] Top shape: 16 320 29 29 (4305920)
I1129 21:36:22.255992 13963 net.cpp:165] Memory required for data: 2893398080
I1129 21:36:22.255997 13963 layer_factory.hpp:77] Creating layer conv3_7/x1
I1129 21:36:22.256008 13963 net.cpp:100] Creating Layer conv3_7/x1
I1129 21:36:22.256014 13963 net.cpp:434] conv3_7/x1 <- conv3_7/x1/bn
I1129 21:36:22.256023 13963 net.cpp:408] conv3_7/x1 -> conv3_7/x1
I1129 21:36:22.259258 13963 net.cpp:150] Setting up conv3_7/x1
I1129 21:36:22.259287 13963 net.cpp:157] Top shape: 16 128 29 29 (1722368)
I1129 21:36:22.259294 13963 net.cpp:165] Memory required for data: 2900287552
I1129 21:36:22.259300 13963 layer_factory.hpp:77] Creating layer conv3_7/x2/bn
I1129 21:36:22.259340 13963 net.cpp:100] Creating Layer conv3_7/x2/bn
I1129 21:36:22.259346 13963 net.cpp:434] conv3_7/x2/bn <- conv3_7/x1
I1129 21:36:22.259357 13963 net.cpp:408] conv3_7/x2/bn -> conv3_7/x2/bn
I1129 21:36:22.259640 13963 net.cpp:150] Setting up conv3_7/x2/bn
I1129 21:36:22.259660 13963 net.cpp:157] Top shape: 16 128 29 29 (1722368)
I1129 21:36:22.259665 13963 net.cpp:165] Memory required for data: 2907177024
I1129 21:36:22.259673 13963 layer_factory.hpp:77] Creating layer conv3_7/x2/scale
I1129 21:36:22.259683 13963 net.cpp:100] Creating Layer conv3_7/x2/scale
I1129 21:36:22.259690 13963 net.cpp:434] conv3_7/x2/scale <- conv3_7/x2/bn
I1129 21:36:22.259696 13963 net.cpp:395] conv3_7/x2/scale -> conv3_7/x2/bn (in-place)
I1129 21:36:22.259748 13963 layer_factory.hpp:77] Creating layer conv3_7/x2/scale
I1129 21:36:22.259897 13963 net.cpp:150] Setting up conv3_7/x2/scale
I1129 21:36:22.259913 13963 net.cpp:157] Top shape: 16 128 29 29 (1722368)
I1129 21:36:22.259917 13963 net.cpp:165] Memory required for data: 2914066496
I1129 21:36:22.259924 13963 layer_factory.hpp:77] Creating layer relu3_7/x2
I1129 21:36:22.259932 13963 net.cpp:100] Creating Layer relu3_7/x2
I1129 21:36:22.259937 13963 net.cpp:434] relu3_7/x2 <- conv3_7/x2/bn
I1129 21:36:22.259943 13963 net.cpp:395] relu3_7/x2 -> conv3_7/x2/bn (in-place)
I1129 21:36:22.260174 13963 net.cpp:150] Setting up relu3_7/x2
I1129 21:36:22.260193 13963 net.cpp:157] Top shape: 16 128 29 29 (1722368)
I1129 21:36:22.260197 13963 net.cpp:165] Memory required for data: 2920955968
I1129 21:36:22.260202 13963 layer_factory.hpp:77] Creating layer conv3_7/x2
I1129 21:36:22.260213 13963 net.cpp:100] Creating Layer conv3_7/x2
I1129 21:36:22.260218 13963 net.cpp:434] conv3_7/x2 <- conv3_7/x2/bn
I1129 21:36:22.260226 13963 net.cpp:408] conv3_7/x2 -> conv3_7/x2
I1129 21:36:22.262291 13963 net.cpp:150] Setting up conv3_7/x2
I1129 21:36:22.262320 13963 net.cpp:157] Top shape: 16 32 29 29 (430592)
I1129 21:36:22.262326 13963 net.cpp:165] Memory required for data: 2922678336
I1129 21:36:22.262332 13963 layer_factory.hpp:77] Creating layer concat_3_7
I1129 21:36:22.262343 13963 net.cpp:100] Creating Layer concat_3_7
I1129 21:36:22.262349 13963 net.cpp:434] concat_3_7 <- concat_3_6_concat_3_6_0_split_1
I1129 21:36:22.262356 13963 net.cpp:434] concat_3_7 <- conv3_7/x2
I1129 21:36:22.262364 13963 net.cpp:408] concat_3_7 -> concat_3_7
I1129 21:36:22.262401 13963 net.cpp:150] Setting up concat_3_7
I1129 21:36:22.262408 13963 net.cpp:157] Top shape: 16 352 29 29 (4736512)
I1129 21:36:22.262423 13963 net.cpp:165] Memory required for data: 2941624384
I1129 21:36:22.262428 13963 layer_factory.hpp:77] Creating layer concat_3_7_concat_3_7_0_split
I1129 21:36:22.262439 13963 net.cpp:100] Creating Layer concat_3_7_concat_3_7_0_split
I1129 21:36:22.262459 13963 net.cpp:434] concat_3_7_concat_3_7_0_split <- concat_3_7
I1129 21:36:22.262466 13963 net.cpp:408] concat_3_7_concat_3_7_0_split -> concat_3_7_concat_3_7_0_split_0
I1129 21:36:22.262475 13963 net.cpp:408] concat_3_7_concat_3_7_0_split -> concat_3_7_concat_3_7_0_split_1
I1129 21:36:22.262526 13963 net.cpp:150] Setting up concat_3_7_concat_3_7_0_split
I1129 21:36:22.262533 13963 net.cpp:157] Top shape: 16 352 29 29 (4736512)
I1129 21:36:22.262538 13963 net.cpp:157] Top shape: 16 352 29 29 (4736512)
I1129 21:36:22.262542 13963 net.cpp:165] Memory required for data: 2979516480
I1129 21:36:22.262547 13963 layer_factory.hpp:77] Creating layer conv3_8/x1/bn
I1129 21:36:22.262555 13963 net.cpp:100] Creating Layer conv3_8/x1/bn
I1129 21:36:22.262560 13963 net.cpp:434] conv3_8/x1/bn <- concat_3_7_concat_3_7_0_split_0
I1129 21:36:22.262567 13963 net.cpp:408] conv3_8/x1/bn -> conv3_8/x1/bn
I1129 21:36:22.262823 13963 net.cpp:150] Setting up conv3_8/x1/bn
I1129 21:36:22.262840 13963 net.cpp:157] Top shape: 16 352 29 29 (4736512)
I1129 21:36:22.262845 13963 net.cpp:165] Memory required for data: 2998462528
I1129 21:36:22.262854 13963 layer_factory.hpp:77] Creating layer conv3_8/x1/scale
I1129 21:36:22.262864 13963 net.cpp:100] Creating Layer conv3_8/x1/scale
I1129 21:36:22.262869 13963 net.cpp:434] conv3_8/x1/scale <- conv3_8/x1/bn
I1129 21:36:22.262874 13963 net.cpp:395] conv3_8/x1/scale -> conv3_8/x1/bn (in-place)
I1129 21:36:22.262931 13963 layer_factory.hpp:77] Creating layer conv3_8/x1/scale
I1129 21:36:22.263088 13963 net.cpp:150] Setting up conv3_8/x1/scale
I1129 21:36:22.263104 13963 net.cpp:157] Top shape: 16 352 29 29 (4736512)
I1129 21:36:22.263108 13963 net.cpp:165] Memory required for data: 3017408576
I1129 21:36:22.263115 13963 layer_factory.hpp:77] Creating layer relu3_8/x1
I1129 21:36:22.263129 13963 net.cpp:100] Creating Layer relu3_8/x1
I1129 21:36:22.263135 13963 net.cpp:434] relu3_8/x1 <- conv3_8/x1/bn
I1129 21:36:22.263140 13963 net.cpp:395] relu3_8/x1 -> conv3_8/x1/bn (in-place)
I1129 21:36:22.263396 13963 net.cpp:150] Setting up relu3_8/x1
I1129 21:36:22.263427 13963 net.cpp:157] Top shape: 16 352 29 29 (4736512)
I1129 21:36:22.263432 13963 net.cpp:165] Memory required for data: 3036354624
I1129 21:36:22.263437 13963 layer_factory.hpp:77] Creating layer conv3_8/x1
I1129 21:36:22.263448 13963 net.cpp:100] Creating Layer conv3_8/x1
I1129 21:36:22.263453 13963 net.cpp:434] conv3_8/x1 <- conv3_8/x1/bn
I1129 21:36:22.263463 13963 net.cpp:408] conv3_8/x1 -> conv3_8/x1
I1129 21:36:22.265614 13963 net.cpp:150] Setting up conv3_8/x1
I1129 21:36:22.265641 13963 net.cpp:157] Top shape: 16 128 29 29 (1722368)
I1129 21:36:22.265646 13963 net.cpp:165] Memory required for data: 3043244096
I1129 21:36:22.265655 13963 layer_factory.hpp:77] Creating layer conv3_8/x2/bn
I1129 21:36:22.265666 13963 net.cpp:100] Creating Layer conv3_8/x2/bn
I1129 21:36:22.265671 13963 net.cpp:434] conv3_8/x2/bn <- conv3_8/x1
I1129 21:36:22.265678 13963 net.cpp:408] conv3_8/x2/bn -> conv3_8/x2/bn
I1129 21:36:22.265943 13963 net.cpp:150] Setting up conv3_8/x2/bn
I1129 21:36:22.265959 13963 net.cpp:157] Top shape: 16 128 29 29 (1722368)
I1129 21:36:22.265964 13963 net.cpp:165] Memory required for data: 3050133568
I1129 21:36:22.265974 13963 layer_factory.hpp:77] Creating layer conv3_8/x2/scale
I1129 21:36:22.265983 13963 net.cpp:100] Creating Layer conv3_8/x2/scale
I1129 21:36:22.265988 13963 net.cpp:434] conv3_8/x2/scale <- conv3_8/x2/bn
I1129 21:36:22.265993 13963 net.cpp:395] conv3_8/x2/scale -> conv3_8/x2/bn (in-place)
I1129 21:36:22.266049 13963 layer_factory.hpp:77] Creating layer conv3_8/x2/scale
I1129 21:36:22.266199 13963 net.cpp:150] Setting up conv3_8/x2/scale
I1129 21:36:22.266216 13963 net.cpp:157] Top shape: 16 128 29 29 (1722368)
I1129 21:36:22.266219 13963 net.cpp:165] Memory required for data: 3057023040
I1129 21:36:22.266227 13963 layer_factory.hpp:77] Creating layer relu3_8/x2
I1129 21:36:22.266235 13963 net.cpp:100] Creating Layer relu3_8/x2
I1129 21:36:22.266240 13963 net.cpp:434] relu3_8/x2 <- conv3_8/x2/bn
I1129 21:36:22.266270 13963 net.cpp:395] relu3_8/x2 -> conv3_8/x2/bn (in-place)
I1129 21:36:22.267640 13963 net.cpp:150] Setting up relu3_8/x2
I1129 21:36:22.267668 13963 net.cpp:157] Top shape: 16 128 29 29 (1722368)
I1129 21:36:22.267673 13963 net.cpp:165] Memory required for data: 3063912512
I1129 21:36:22.267679 13963 layer_factory.hpp:77] Creating layer conv3_8/x2
I1129 21:36:22.267693 13963 net.cpp:100] Creating Layer conv3_8/x2
I1129 21:36:22.267699 13963 net.cpp:434] conv3_8/x2 <- conv3_8/x2/bn
I1129 21:36:22.267707 13963 net.cpp:408] conv3_8/x2 -> conv3_8/x2
I1129 21:36:22.269750 13963 net.cpp:150] Setting up conv3_8/x2
I1129 21:36:22.269778 13963 net.cpp:157] Top shape: 16 32 29 29 (430592)
I1129 21:36:22.269783 13963 net.cpp:165] Memory required for data: 3065634880
I1129 21:36:22.269791 13963 layer_factory.hpp:77] Creating layer concat_3_8
I1129 21:36:22.269803 13963 net.cpp:100] Creating Layer concat_3_8
I1129 21:36:22.269807 13963 net.cpp:434] concat_3_8 <- concat_3_7_concat_3_7_0_split_1
I1129 21:36:22.269815 13963 net.cpp:434] concat_3_8 <- conv3_8/x2
I1129 21:36:22.269821 13963 net.cpp:408] concat_3_8 -> concat_3_8
I1129 21:36:22.269867 13963 net.cpp:150] Setting up concat_3_8
I1129 21:36:22.269876 13963 net.cpp:157] Top shape: 16 384 29 29 (5167104)
I1129 21:36:22.269878 13963 net.cpp:165] Memory required for data: 3086303296
I1129 21:36:22.269882 13963 layer_factory.hpp:77] Creating layer concat_3_8_concat_3_8_0_split
I1129 21:36:22.269891 13963 net.cpp:100] Creating Layer concat_3_8_concat_3_8_0_split
I1129 21:36:22.269896 13963 net.cpp:434] concat_3_8_concat_3_8_0_split <- concat_3_8
I1129 21:36:22.269904 13963 net.cpp:408] concat_3_8_concat_3_8_0_split -> concat_3_8_concat_3_8_0_split_0
I1129 21:36:22.269912 13963 net.cpp:408] concat_3_8_concat_3_8_0_split -> concat_3_8_concat_3_8_0_split_1
I1129 21:36:22.269955 13963 net.cpp:150] Setting up concat_3_8_concat_3_8_0_split
I1129 21:36:22.269963 13963 net.cpp:157] Top shape: 16 384 29 29 (5167104)
I1129 21:36:22.269968 13963 net.cpp:157] Top shape: 16 384 29 29 (5167104)
I1129 21:36:22.269971 13963 net.cpp:165] Memory required for data: 3127640128
I1129 21:36:22.269975 13963 layer_factory.hpp:77] Creating layer conv3_9/x1/bn
I1129 21:36:22.269984 13963 net.cpp:100] Creating Layer conv3_9/x1/bn
I1129 21:36:22.269989 13963 net.cpp:434] conv3_9/x1/bn <- concat_3_8_concat_3_8_0_split_0
I1129 21:36:22.269994 13963 net.cpp:408] conv3_9/x1/bn -> conv3_9/x1/bn
I1129 21:36:22.270244 13963 net.cpp:150] Setting up conv3_9/x1/bn
I1129 21:36:22.270262 13963 net.cpp:157] Top shape: 16 384 29 29 (5167104)
I1129 21:36:22.270267 13963 net.cpp:165] Memory required for data: 3148308544
I1129 21:36:22.270275 13963 layer_factory.hpp:77] Creating layer conv3_9/x1/scale
I1129 21:36:22.270283 13963 net.cpp:100] Creating Layer conv3_9/x1/scale
I1129 21:36:22.270288 13963 net.cpp:434] conv3_9/x1/scale <- conv3_9/x1/bn
I1129 21:36:22.270297 13963 net.cpp:395] conv3_9/x1/scale -> conv3_9/x1/bn (in-place)
I1129 21:36:22.270352 13963 layer_factory.hpp:77] Creating layer conv3_9/x1/scale
I1129 21:36:22.270514 13963 net.cpp:150] Setting up conv3_9/x1/scale
I1129 21:36:22.270535 13963 net.cpp:157] Top shape: 16 384 29 29 (5167104)
I1129 21:36:22.270540 13963 net.cpp:165] Memory required for data: 3168976960
I1129 21:36:22.270547 13963 layer_factory.hpp:77] Creating layer relu3_9/x1
I1129 21:36:22.270555 13963 net.cpp:100] Creating Layer relu3_9/x1
I1129 21:36:22.270560 13963 net.cpp:434] relu3_9/x1 <- conv3_9/x1/bn
I1129 21:36:22.270565 13963 net.cpp:395] relu3_9/x1 -> conv3_9/x1/bn (in-place)
I1129 21:36:22.271929 13963 net.cpp:150] Setting up relu3_9/x1
I1129 21:36:22.271958 13963 net.cpp:157] Top shape: 16 384 29 29 (5167104)
I1129 21:36:22.271965 13963 net.cpp:165] Memory required for data: 3189645376
I1129 21:36:22.271970 13963 layer_factory.hpp:77] Creating layer conv3_9/x1
I1129 21:36:22.271983 13963 net.cpp:100] Creating Layer conv3_9/x1
I1129 21:36:22.271989 13963 net.cpp:434] conv3_9/x1 <- conv3_9/x1/bn
I1129 21:36:22.271996 13963 net.cpp:408] conv3_9/x1 -> conv3_9/x1
I1129 21:36:22.274130 13963 net.cpp:150] Setting up conv3_9/x1
I1129 21:36:22.274158 13963 net.cpp:157] Top shape: 16 128 29 29 (1722368)
I1129 21:36:22.274163 13963 net.cpp:165] Memory required for data: 3196534848
I1129 21:36:22.274171 13963 layer_factory.hpp:77] Creating layer conv3_9/x2/bn
I1129 21:36:22.274183 13963 net.cpp:100] Creating Layer conv3_9/x2/bn
I1129 21:36:22.274188 13963 net.cpp:434] conv3_9/x2/bn <- conv3_9/x1
I1129 21:36:22.274195 13963 net.cpp:408] conv3_9/x2/bn -> conv3_9/x2/bn
I1129 21:36:22.274482 13963 net.cpp:150] Setting up conv3_9/x2/bn
I1129 21:36:22.274500 13963 net.cpp:157] Top shape: 16 128 29 29 (1722368)
I1129 21:36:22.274505 13963 net.cpp:165] Memory required for data: 3203424320
I1129 21:36:22.274514 13963 layer_factory.hpp:77] Creating layer conv3_9/x2/scale
I1129 21:36:22.274523 13963 net.cpp:100] Creating Layer conv3_9/x2/scale
I1129 21:36:22.274528 13963 net.cpp:434] conv3_9/x2/scale <- conv3_9/x2/bn
I1129 21:36:22.274535 13963 net.cpp:395] conv3_9/x2/scale -> conv3_9/x2/bn (in-place)
I1129 21:36:22.274590 13963 layer_factory.hpp:77] Creating layer conv3_9/x2/scale
I1129 21:36:22.274741 13963 net.cpp:150] Setting up conv3_9/x2/scale
I1129 21:36:22.274760 13963 net.cpp:157] Top shape: 16 128 29 29 (1722368)
I1129 21:36:22.274763 13963 net.cpp:165] Memory required for data: 3210313792
I1129 21:36:22.274770 13963 layer_factory.hpp:77] Creating layer relu3_9/x2
I1129 21:36:22.274777 13963 net.cpp:100] Creating Layer relu3_9/x2
I1129 21:36:22.274781 13963 net.cpp:434] relu3_9/x2 <- conv3_9/x2/bn
I1129 21:36:22.274787 13963 net.cpp:395] relu3_9/x2 -> conv3_9/x2/bn (in-place)
I1129 21:36:22.275053 13963 net.cpp:150] Setting up relu3_9/x2
I1129 21:36:22.275074 13963 net.cpp:157] Top shape: 16 128 29 29 (1722368)
I1129 21:36:22.275079 13963 net.cpp:165] Memory required for data: 3217203264
I1129 21:36:22.275082 13963 layer_factory.hpp:77] Creating layer conv3_9/x2
I1129 21:36:22.275094 13963 net.cpp:100] Creating Layer conv3_9/x2
I1129 21:36:22.275099 13963 net.cpp:434] conv3_9/x2 <- conv3_9/x2/bn
I1129 21:36:22.275106 13963 net.cpp:408] conv3_9/x2 -> conv3_9/x2
I1129 21:36:22.277220 13963 net.cpp:150] Setting up conv3_9/x2
I1129 21:36:22.277248 13963 net.cpp:157] Top shape: 16 32 29 29 (430592)
I1129 21:36:22.277254 13963 net.cpp:165] Memory required for data: 3218925632
I1129 21:36:22.277261 13963 layer_factory.hpp:77] Creating layer concat_3_9
I1129 21:36:22.277272 13963 net.cpp:100] Creating Layer concat_3_9
I1129 21:36:22.277278 13963 net.cpp:434] concat_3_9 <- concat_3_8_concat_3_8_0_split_1
I1129 21:36:22.277285 13963 net.cpp:434] concat_3_9 <- conv3_9/x2
I1129 21:36:22.277292 13963 net.cpp:408] concat_3_9 -> concat_3_9
I1129 21:36:22.277333 13963 net.cpp:150] Setting up concat_3_9
I1129 21:36:22.277339 13963 net.cpp:157] Top shape: 16 416 29 29 (5597696)
I1129 21:36:22.277343 13963 net.cpp:165] Memory required for data: 3241316416
I1129 21:36:22.277348 13963 layer_factory.hpp:77] Creating layer concat_3_9_concat_3_9_0_split
I1129 21:36:22.277354 13963 net.cpp:100] Creating Layer concat_3_9_concat_3_9_0_split
I1129 21:36:22.277359 13963 net.cpp:434] concat_3_9_concat_3_9_0_split <- concat_3_9
I1129 21:36:22.277366 13963 net.cpp:408] concat_3_9_concat_3_9_0_split -> concat_3_9_concat_3_9_0_split_0
I1129 21:36:22.277374 13963 net.cpp:408] concat_3_9_concat_3_9_0_split -> concat_3_9_concat_3_9_0_split_1
I1129 21:36:22.277431 13963 net.cpp:150] Setting up concat_3_9_concat_3_9_0_split
I1129 21:36:22.277439 13963 net.cpp:157] Top shape: 16 416 29 29 (5597696)
I1129 21:36:22.277444 13963 net.cpp:157] Top shape: 16 416 29 29 (5597696)
I1129 21:36:22.277448 13963 net.cpp:165] Memory required for data: 3286097984
I1129 21:36:22.277452 13963 layer_factory.hpp:77] Creating layer conv3_10/x1/bn
I1129 21:36:22.277462 13963 net.cpp:100] Creating Layer conv3_10/x1/bn
I1129 21:36:22.277467 13963 net.cpp:434] conv3_10/x1/bn <- concat_3_9_concat_3_9_0_split_0
I1129 21:36:22.277474 13963 net.cpp:408] conv3_10/x1/bn -> conv3_10/x1/bn
I1129 21:36:22.277739 13963 net.cpp:150] Setting up conv3_10/x1/bn
I1129 21:36:22.277773 13963 net.cpp:157] Top shape: 16 416 29 29 (5597696)
I1129 21:36:22.277778 13963 net.cpp:165] Memory required for data: 3308488768
I1129 21:36:22.277787 13963 layer_factory.hpp:77] Creating layer conv3_10/x1/scale
I1129 21:36:22.277796 13963 net.cpp:100] Creating Layer conv3_10/x1/scale
I1129 21:36:22.277801 13963 net.cpp:434] conv3_10/x1/scale <- conv3_10/x1/bn
I1129 21:36:22.277809 13963 net.cpp:395] conv3_10/x1/scale -> conv3_10/x1/bn (in-place)
I1129 21:36:22.277868 13963 layer_factory.hpp:77] Creating layer conv3_10/x1/scale
I1129 21:36:22.278028 13963 net.cpp:150] Setting up conv3_10/x1/scale
I1129 21:36:22.278044 13963 net.cpp:157] Top shape: 16 416 29 29 (5597696)
I1129 21:36:22.278048 13963 net.cpp:165] Memory required for data: 3330879552
I1129 21:36:22.278055 13963 layer_factory.hpp:77] Creating layer relu3_10/x1
I1129 21:36:22.278064 13963 net.cpp:100] Creating Layer relu3_10/x1
I1129 21:36:22.278069 13963 net.cpp:434] relu3_10/x1 <- conv3_10/x1/bn
I1129 21:36:22.278075 13963 net.cpp:395] relu3_10/x1 -> conv3_10/x1/bn (in-place)
I1129 21:36:22.278302 13963 net.cpp:150] Setting up relu3_10/x1
I1129 21:36:22.278322 13963 net.cpp:157] Top shape: 16 416 29 29 (5597696)
I1129 21:36:22.278326 13963 net.cpp:165] Memory required for data: 3353270336
I1129 21:36:22.278331 13963 layer_factory.hpp:77] Creating layer conv3_10/x1
I1129 21:36:22.278343 13963 net.cpp:100] Creating Layer conv3_10/x1
I1129 21:36:22.278348 13963 net.cpp:434] conv3_10/x1 <- conv3_10/x1/bn
I1129 21:36:22.278357 13963 net.cpp:408] conv3_10/x1 -> conv3_10/x1
I1129 21:36:22.280510 13963 net.cpp:150] Setting up conv3_10/x1
I1129 21:36:22.280539 13963 net.cpp:157] Top shape: 16 128 29 29 (1722368)
I1129 21:36:22.280544 13963 net.cpp:165] Memory required for data: 3360159808
I1129 21:36:22.280551 13963 layer_factory.hpp:77] Creating layer conv3_10/x2/bn
I1129 21:36:22.280562 13963 net.cpp:100] Creating Layer conv3_10/x2/bn
I1129 21:36:22.280568 13963 net.cpp:434] conv3_10/x2/bn <- conv3_10/x1
I1129 21:36:22.280577 13963 net.cpp:408] conv3_10/x2/bn -> conv3_10/x2/bn
I1129 21:36:22.280848 13963 net.cpp:150] Setting up conv3_10/x2/bn
I1129 21:36:22.280867 13963 net.cpp:157] Top shape: 16 128 29 29 (1722368)
I1129 21:36:22.280871 13963 net.cpp:165] Memory required for data: 3367049280
I1129 21:36:22.280880 13963 layer_factory.hpp:77] Creating layer conv3_10/x2/scale
I1129 21:36:22.280889 13963 net.cpp:100] Creating Layer conv3_10/x2/scale
I1129 21:36:22.280894 13963 net.cpp:434] conv3_10/x2/scale <- conv3_10/x2/bn
I1129 21:36:22.280900 13963 net.cpp:395] conv3_10/x2/scale -> conv3_10/x2/bn (in-place)
I1129 21:36:22.280956 13963 layer_factory.hpp:77] Creating layer conv3_10/x2/scale
I1129 21:36:22.281106 13963 net.cpp:150] Setting up conv3_10/x2/scale
I1129 21:36:22.281122 13963 net.cpp:157] Top shape: 16 128 29 29 (1722368)
I1129 21:36:22.281127 13963 net.cpp:165] Memory required for data: 3373938752
I1129 21:36:22.281134 13963 layer_factory.hpp:77] Creating layer relu3_10/x2
I1129 21:36:22.281143 13963 net.cpp:100] Creating Layer relu3_10/x2
I1129 21:36:22.281147 13963 net.cpp:434] relu3_10/x2 <- conv3_10/x2/bn
I1129 21:36:22.281153 13963 net.cpp:395] relu3_10/x2 -> conv3_10/x2/bn (in-place)
I1129 21:36:22.281389 13963 net.cpp:150] Setting up relu3_10/x2
I1129 21:36:22.281409 13963 net.cpp:157] Top shape: 16 128 29 29 (1722368)
I1129 21:36:22.281425 13963 net.cpp:165] Memory required for data: 3380828224
I1129 21:36:22.281430 13963 layer_factory.hpp:77] Creating layer conv3_10/x2
I1129 21:36:22.281441 13963 net.cpp:100] Creating Layer conv3_10/x2
I1129 21:36:22.281447 13963 net.cpp:434] conv3_10/x2 <- conv3_10/x2/bn
I1129 21:36:22.281453 13963 net.cpp:408] conv3_10/x2 -> conv3_10/x2
I1129 21:36:22.284687 13963 net.cpp:150] Setting up conv3_10/x2
I1129 21:36:22.284716 13963 net.cpp:157] Top shape: 16 32 29 29 (430592)
I1129 21:36:22.284721 13963 net.cpp:165] Memory required for data: 3382550592
I1129 21:36:22.284731 13963 layer_factory.hpp:77] Creating layer concat_3_10
I1129 21:36:22.284740 13963 net.cpp:100] Creating Layer concat_3_10
I1129 21:36:22.284761 13963 net.cpp:434] concat_3_10 <- concat_3_9_concat_3_9_0_split_1
I1129 21:36:22.284770 13963 net.cpp:434] concat_3_10 <- conv3_10/x2
I1129 21:36:22.284780 13963 net.cpp:408] concat_3_10 -> concat_3_10
I1129 21:36:22.284828 13963 net.cpp:150] Setting up concat_3_10
I1129 21:36:22.284837 13963 net.cpp:157] Top shape: 16 448 29 29 (6028288)
I1129 21:36:22.284840 13963 net.cpp:165] Memory required for data: 3406663744
I1129 21:36:22.284844 13963 layer_factory.hpp:77] Creating layer concat_3_10_concat_3_10_0_split
I1129 21:36:22.284853 13963 net.cpp:100] Creating Layer concat_3_10_concat_3_10_0_split
I1129 21:36:22.284857 13963 net.cpp:434] concat_3_10_concat_3_10_0_split <- concat_3_10
I1129 21:36:22.284863 13963 net.cpp:408] concat_3_10_concat_3_10_0_split -> concat_3_10_concat_3_10_0_split_0
I1129 21:36:22.284875 13963 net.cpp:408] concat_3_10_concat_3_10_0_split -> concat_3_10_concat_3_10_0_split_1
I1129 21:36:22.284924 13963 net.cpp:150] Setting up concat_3_10_concat_3_10_0_split
I1129 21:36:22.284941 13963 net.cpp:157] Top shape: 16 448 29 29 (6028288)
I1129 21:36:22.284946 13963 net.cpp:157] Top shape: 16 448 29 29 (6028288)
I1129 21:36:22.284950 13963 net.cpp:165] Memory required for data: 3454890048
I1129 21:36:22.284955 13963 layer_factory.hpp:77] Creating layer conv3_11/x1/bn
I1129 21:36:22.284963 13963 net.cpp:100] Creating Layer conv3_11/x1/bn
I1129 21:36:22.284968 13963 net.cpp:434] conv3_11/x1/bn <- concat_3_10_concat_3_10_0_split_0
I1129 21:36:22.284974 13963 net.cpp:408] conv3_11/x1/bn -> conv3_11/x1/bn
I1129 21:36:22.285241 13963 net.cpp:150] Setting up conv3_11/x1/bn
I1129 21:36:22.285257 13963 net.cpp:157] Top shape: 16 448 29 29 (6028288)
I1129 21:36:22.285261 13963 net.cpp:165] Memory required for data: 3479003200
I1129 21:36:22.285270 13963 layer_factory.hpp:77] Creating layer conv3_11/x1/scale
I1129 21:36:22.285280 13963 net.cpp:100] Creating Layer conv3_11/x1/scale
I1129 21:36:22.285285 13963 net.cpp:434] conv3_11/x1/scale <- conv3_11/x1/bn
I1129 21:36:22.285291 13963 net.cpp:395] conv3_11/x1/scale -> conv3_11/x1/bn (in-place)
I1129 21:36:22.285351 13963 layer_factory.hpp:77] Creating layer conv3_11/x1/scale
I1129 21:36:22.285533 13963 net.cpp:150] Setting up conv3_11/x1/scale
I1129 21:36:22.285550 13963 net.cpp:157] Top shape: 16 448 29 29 (6028288)
I1129 21:36:22.285554 13963 net.cpp:165] Memory required for data: 3503116352
I1129 21:36:22.285562 13963 layer_factory.hpp:77] Creating layer relu3_11/x1
I1129 21:36:22.285573 13963 net.cpp:100] Creating Layer relu3_11/x1
I1129 21:36:22.285578 13963 net.cpp:434] relu3_11/x1 <- conv3_11/x1/bn
I1129 21:36:22.285583 13963 net.cpp:395] relu3_11/x1 -> conv3_11/x1/bn (in-place)
I1129 21:36:22.285814 13963 net.cpp:150] Setting up relu3_11/x1
I1129 21:36:22.285833 13963 net.cpp:157] Top shape: 16 448 29 29 (6028288)
I1129 21:36:22.285837 13963 net.cpp:165] Memory required for data: 3527229504
I1129 21:36:22.285842 13963 layer_factory.hpp:77] Creating layer conv3_11/x1
I1129 21:36:22.285852 13963 net.cpp:100] Creating Layer conv3_11/x1
I1129 21:36:22.285857 13963 net.cpp:434] conv3_11/x1 <- conv3_11/x1/bn
I1129 21:36:22.285867 13963 net.cpp:408] conv3_11/x1 -> conv3_11/x1
I1129 21:36:22.289746 13963 net.cpp:150] Setting up conv3_11/x1
I1129 21:36:22.289775 13963 net.cpp:157] Top shape: 16 128 29 29 (1722368)
I1129 21:36:22.289782 13963 net.cpp:165] Memory required for data: 3534118976
I1129 21:36:22.289789 13963 layer_factory.hpp:77] Creating layer conv3_11/x2/bn
I1129 21:36:22.289800 13963 net.cpp:100] Creating Layer conv3_11/x2/bn
I1129 21:36:22.289806 13963 net.cpp:434] conv3_11/x2/bn <- conv3_11/x1
I1129 21:36:22.289813 13963 net.cpp:408] conv3_11/x2/bn -> conv3_11/x2/bn
I1129 21:36:22.290094 13963 net.cpp:150] Setting up conv3_11/x2/bn
I1129 21:36:22.290112 13963 net.cpp:157] Top shape: 16 128 29 29 (1722368)
I1129 21:36:22.290117 13963 net.cpp:165] Memory required for data: 3541008448
I1129 21:36:22.290127 13963 layer_factory.hpp:77] Creating layer conv3_11/x2/scale
I1129 21:36:22.290133 13963 net.cpp:100] Creating Layer conv3_11/x2/scale
I1129 21:36:22.290154 13963 net.cpp:434] conv3_11/x2/scale <- conv3_11/x2/bn
I1129 21:36:22.290161 13963 net.cpp:395] conv3_11/x2/scale -> conv3_11/x2/bn (in-place)
I1129 21:36:22.290223 13963 layer_factory.hpp:77] Creating layer conv3_11/x2/scale
I1129 21:36:22.290385 13963 net.cpp:150] Setting up conv3_11/x2/scale
I1129 21:36:22.290400 13963 net.cpp:157] Top shape: 16 128 29 29 (1722368)
I1129 21:36:22.290405 13963 net.cpp:165] Memory required for data: 3547897920
I1129 21:36:22.290412 13963 layer_factory.hpp:77] Creating layer relu3_11/x2
I1129 21:36:22.290432 13963 net.cpp:100] Creating Layer relu3_11/x2
I1129 21:36:22.290437 13963 net.cpp:434] relu3_11/x2 <- conv3_11/x2/bn
I1129 21:36:22.290442 13963 net.cpp:395] relu3_11/x2 -> conv3_11/x2/bn (in-place)
I1129 21:36:22.291898 13963 net.cpp:150] Setting up relu3_11/x2
I1129 21:36:22.291925 13963 net.cpp:157] Top shape: 16 128 29 29 (1722368)
I1129 21:36:22.291930 13963 net.cpp:165] Memory required for data: 3554787392
I1129 21:36:22.291935 13963 layer_factory.hpp:77] Creating layer conv3_11/x2
I1129 21:36:22.291949 13963 net.cpp:100] Creating Layer conv3_11/x2
I1129 21:36:22.291954 13963 net.cpp:434] conv3_11/x2 <- conv3_11/x2/bn
I1129 21:36:22.291962 13963 net.cpp:408] conv3_11/x2 -> conv3_11/x2
I1129 21:36:22.292949 13963 net.cpp:150] Setting up conv3_11/x2
I1129 21:36:22.292973 13963 net.cpp:157] Top shape: 16 32 29 29 (430592)
I1129 21:36:22.292979 13963 net.cpp:165] Memory required for data: 3556509760
I1129 21:36:22.292985 13963 layer_factory.hpp:77] Creating layer concat_3_11
I1129 21:36:22.292995 13963 net.cpp:100] Creating Layer concat_3_11
I1129 21:36:22.293000 13963 net.cpp:434] concat_3_11 <- concat_3_10_concat_3_10_0_split_1
I1129 21:36:22.293007 13963 net.cpp:434] concat_3_11 <- conv3_11/x2
I1129 21:36:22.293014 13963 net.cpp:408] concat_3_11 -> concat_3_11
I1129 21:36:22.293052 13963 net.cpp:150] Setting up concat_3_11
I1129 21:36:22.293061 13963 net.cpp:157] Top shape: 16 480 29 29 (6458880)
I1129 21:36:22.293064 13963 net.cpp:165] Memory required for data: 3582345280
I1129 21:36:22.293068 13963 layer_factory.hpp:77] Creating layer concat_3_11_concat_3_11_0_split
I1129 21:36:22.293074 13963 net.cpp:100] Creating Layer concat_3_11_concat_3_11_0_split
I1129 21:36:22.293078 13963 net.cpp:434] concat_3_11_concat_3_11_0_split <- concat_3_11
I1129 21:36:22.293087 13963 net.cpp:408] concat_3_11_concat_3_11_0_split -> concat_3_11_concat_3_11_0_split_0
I1129 21:36:22.293093 13963 net.cpp:408] concat_3_11_concat_3_11_0_split -> concat_3_11_concat_3_11_0_split_1
I1129 21:36:22.293156 13963 net.cpp:150] Setting up concat_3_11_concat_3_11_0_split
I1129 21:36:22.293176 13963 net.cpp:157] Top shape: 16 480 29 29 (6458880)
I1129 21:36:22.293182 13963 net.cpp:157] Top shape: 16 480 29 29 (6458880)
I1129 21:36:22.293186 13963 net.cpp:165] Memory required for data: 3634016320
I1129 21:36:22.293191 13963 layer_factory.hpp:77] Creating layer conv3_12/x1/bn
I1129 21:36:22.293200 13963 net.cpp:100] Creating Layer conv3_12/x1/bn
I1129 21:36:22.293205 13963 net.cpp:434] conv3_12/x1/bn <- concat_3_11_concat_3_11_0_split_0
I1129 21:36:22.293211 13963 net.cpp:408] conv3_12/x1/bn -> conv3_12/x1/bn
I1129 21:36:22.293496 13963 net.cpp:150] Setting up conv3_12/x1/bn
I1129 21:36:22.293514 13963 net.cpp:157] Top shape: 16 480 29 29 (6458880)
I1129 21:36:22.293519 13963 net.cpp:165] Memory required for data: 3659851840
I1129 21:36:22.293527 13963 layer_factory.hpp:77] Creating layer conv3_12/x1/scale
I1129 21:36:22.293537 13963 net.cpp:100] Creating Layer conv3_12/x1/scale
I1129 21:36:22.293542 13963 net.cpp:434] conv3_12/x1/scale <- conv3_12/x1/bn
I1129 21:36:22.293548 13963 net.cpp:395] conv3_12/x1/scale -> conv3_12/x1/bn (in-place)
I1129 21:36:22.293608 13963 layer_factory.hpp:77] Creating layer conv3_12/x1/scale
I1129 21:36:22.293767 13963 net.cpp:150] Setting up conv3_12/x1/scale
I1129 21:36:22.293783 13963 net.cpp:157] Top shape: 16 480 29 29 (6458880)
I1129 21:36:22.293787 13963 net.cpp:165] Memory required for data: 3685687360
I1129 21:36:22.293795 13963 layer_factory.hpp:77] Creating layer relu3_12/x1
I1129 21:36:22.293819 13963 net.cpp:100] Creating Layer relu3_12/x1
I1129 21:36:22.293824 13963 net.cpp:434] relu3_12/x1 <- conv3_12/x1/bn
I1129 21:36:22.293830 13963 net.cpp:395] relu3_12/x1 -> conv3_12/x1/bn (in-place)
I1129 21:36:22.295172 13963 net.cpp:150] Setting up relu3_12/x1
I1129 21:36:22.295200 13963 net.cpp:157] Top shape: 16 480 29 29 (6458880)
I1129 21:36:22.295207 13963 net.cpp:165] Memory required for data: 3711522880
I1129 21:36:22.295212 13963 layer_factory.hpp:77] Creating layer conv3_12/x1
I1129 21:36:22.295222 13963 net.cpp:100] Creating Layer conv3_12/x1
I1129 21:36:22.295227 13963 net.cpp:434] conv3_12/x1 <- conv3_12/x1/bn
I1129 21:36:22.295236 13963 net.cpp:408] conv3_12/x1 -> conv3_12/x1
I1129 21:36:22.297361 13963 net.cpp:150] Setting up conv3_12/x1
I1129 21:36:22.297389 13963 net.cpp:157] Top shape: 16 128 29 29 (1722368)
I1129 21:36:22.297395 13963 net.cpp:165] Memory required for data: 3718412352
I1129 21:36:22.297402 13963 layer_factory.hpp:77] Creating layer conv3_12/x2/bn
I1129 21:36:22.297425 13963 net.cpp:100] Creating Layer conv3_12/x2/bn
I1129 21:36:22.297431 13963 net.cpp:434] conv3_12/x2/bn <- conv3_12/x1
I1129 21:36:22.297439 13963 net.cpp:408] conv3_12/x2/bn -> conv3_12/x2/bn
I1129 21:36:22.297720 13963 net.cpp:150] Setting up conv3_12/x2/bn
I1129 21:36:22.297739 13963 net.cpp:157] Top shape: 16 128 29 29 (1722368)
I1129 21:36:22.297744 13963 net.cpp:165] Memory required for data: 3725301824
I1129 21:36:22.297755 13963 layer_factory.hpp:77] Creating layer conv3_12/x2/scale
I1129 21:36:22.297763 13963 net.cpp:100] Creating Layer conv3_12/x2/scale
I1129 21:36:22.297768 13963 net.cpp:434] conv3_12/x2/scale <- conv3_12/x2/bn
I1129 21:36:22.297773 13963 net.cpp:395] conv3_12/x2/scale -> conv3_12/x2/bn (in-place)
I1129 21:36:22.297829 13963 layer_factory.hpp:77] Creating layer conv3_12/x2/scale
I1129 21:36:22.297986 13963 net.cpp:150] Setting up conv3_12/x2/scale
I1129 21:36:22.298002 13963 net.cpp:157] Top shape: 16 128 29 29 (1722368)
I1129 21:36:22.298005 13963 net.cpp:165] Memory required for data: 3732191296
I1129 21:36:22.298013 13963 layer_factory.hpp:77] Creating layer relu3_12/x2
I1129 21:36:22.298022 13963 net.cpp:100] Creating Layer relu3_12/x2
I1129 21:36:22.298027 13963 net.cpp:434] relu3_12/x2 <- conv3_12/x2/bn
I1129 21:36:22.298032 13963 net.cpp:395] relu3_12/x2 -> conv3_12/x2/bn (in-place)
I1129 21:36:22.298272 13963 net.cpp:150] Setting up relu3_12/x2
I1129 21:36:22.298291 13963 net.cpp:157] Top shape: 16 128 29 29 (1722368)
I1129 21:36:22.298295 13963 net.cpp:165] Memory required for data: 3739080768
I1129 21:36:22.298300 13963 layer_factory.hpp:77] Creating layer conv3_12/x2
I1129 21:36:22.298311 13963 net.cpp:100] Creating Layer conv3_12/x2
I1129 21:36:22.298316 13963 net.cpp:434] conv3_12/x2 <- conv3_12/x2/bn
I1129 21:36:22.298323 13963 net.cpp:408] conv3_12/x2 -> conv3_12/x2
I1129 21:36:22.301622 13963 net.cpp:150] Setting up conv3_12/x2
I1129 21:36:22.301650 13963 net.cpp:157] Top shape: 16 32 29 29 (430592)
I1129 21:36:22.301654 13963 net.cpp:165] Memory required for data: 3740803136
I1129 21:36:22.301662 13963 layer_factory.hpp:77] Creating layer concat_3_12
I1129 21:36:22.301673 13963 net.cpp:100] Creating Layer concat_3_12
I1129 21:36:22.301679 13963 net.cpp:434] concat_3_12 <- concat_3_11_concat_3_11_0_split_1
I1129 21:36:22.301687 13963 net.cpp:434] concat_3_12 <- conv3_12/x2
I1129 21:36:22.301693 13963 net.cpp:408] concat_3_12 -> concat_3_12
I1129 21:36:22.301743 13963 net.cpp:150] Setting up concat_3_12
I1129 21:36:22.301751 13963 net.cpp:157] Top shape: 16 512 29 29 (6889472)
I1129 21:36:22.301755 13963 net.cpp:165] Memory required for data: 3768361024
I1129 21:36:22.301760 13963 layer_factory.hpp:77] Creating layer conv3_12/blk/bn
I1129 21:36:22.301767 13963 net.cpp:100] Creating Layer conv3_12/blk/bn
I1129 21:36:22.301772 13963 net.cpp:434] conv3_12/blk/bn <- concat_3_12
I1129 21:36:22.301780 13963 net.cpp:408] conv3_12/blk/bn -> conv3_12/blk/bn
I1129 21:36:22.302054 13963 net.cpp:150] Setting up conv3_12/blk/bn
I1129 21:36:22.302073 13963 net.cpp:157] Top shape: 16 512 29 29 (6889472)
I1129 21:36:22.302093 13963 net.cpp:165] Memory required for data: 3795918912
I1129 21:36:22.302103 13963 layer_factory.hpp:77] Creating layer conv3_12/blk/scale
I1129 21:36:22.302114 13963 net.cpp:100] Creating Layer conv3_12/blk/scale
I1129 21:36:22.302120 13963 net.cpp:434] conv3_12/blk/scale <- conv3_12/blk/bn
I1129 21:36:22.302126 13963 net.cpp:395] conv3_12/blk/scale -> conv3_12/blk/bn (in-place)
I1129 21:36:22.302188 13963 layer_factory.hpp:77] Creating layer conv3_12/blk/scale
I1129 21:36:22.302346 13963 net.cpp:150] Setting up conv3_12/blk/scale
I1129 21:36:22.302362 13963 net.cpp:157] Top shape: 16 512 29 29 (6889472)
I1129 21:36:22.302367 13963 net.cpp:165] Memory required for data: 3823476800
I1129 21:36:22.302374 13963 layer_factory.hpp:77] Creating layer relu3_12/blk
I1129 21:36:22.302381 13963 net.cpp:100] Creating Layer relu3_12/blk
I1129 21:36:22.302386 13963 net.cpp:434] relu3_12/blk <- conv3_12/blk/bn
I1129 21:36:22.302393 13963 net.cpp:395] relu3_12/blk -> conv3_12/blk/bn (in-place)
I1129 21:36:22.302651 13963 net.cpp:150] Setting up relu3_12/blk
I1129 21:36:22.302670 13963 net.cpp:157] Top shape: 16 512 29 29 (6889472)
I1129 21:36:22.302675 13963 net.cpp:165] Memory required for data: 3851034688
I1129 21:36:22.302680 13963 layer_factory.hpp:77] Creating layer conv3_12/blk
I1129 21:36:22.302691 13963 net.cpp:100] Creating Layer conv3_12/blk
I1129 21:36:22.302695 13963 net.cpp:434] conv3_12/blk <- conv3_12/blk/bn
I1129 21:36:22.302705 13963 net.cpp:408] conv3_12/blk -> conv3_12/blk
I1129 21:36:22.308573 13963 net.cpp:150] Setting up conv3_12/blk
I1129 21:36:22.308604 13963 net.cpp:157] Top shape: 16 256 29 29 (3444736)
I1129 21:36:22.308609 13963 net.cpp:165] Memory required for data: 3864813632
I1129 21:36:22.308616 13963 layer_factory.hpp:77] Creating layer pool3_12
I1129 21:36:22.308626 13963 net.cpp:100] Creating Layer pool3_12
I1129 21:36:22.308632 13963 net.cpp:434] pool3_12 <- conv3_12/blk
I1129 21:36:22.308642 13963 net.cpp:408] pool3_12 -> pool3_12
I1129 21:36:22.308912 13963 net.cpp:150] Setting up pool3_12
I1129 21:36:22.308933 13963 net.cpp:157] Top shape: 16 256 15 15 (921600)
I1129 21:36:22.308938 13963 net.cpp:165] Memory required for data: 3868500032
I1129 21:36:22.308943 13963 layer_factory.hpp:77] Creating layer pool3_12_pool3_12_0_split
I1129 21:36:22.308949 13963 net.cpp:100] Creating Layer pool3_12_pool3_12_0_split
I1129 21:36:22.308954 13963 net.cpp:434] pool3_12_pool3_12_0_split <- pool3_12
I1129 21:36:22.308960 13963 net.cpp:408] pool3_12_pool3_12_0_split -> pool3_12_pool3_12_0_split_0
I1129 21:36:22.308969 13963 net.cpp:408] pool3_12_pool3_12_0_split -> pool3_12_pool3_12_0_split_1
I1129 21:36:22.309023 13963 net.cpp:150] Setting up pool3_12_pool3_12_0_split
I1129 21:36:22.309038 13963 net.cpp:157] Top shape: 16 256 15 15 (921600)
I1129 21:36:22.309043 13963 net.cpp:157] Top shape: 16 256 15 15 (921600)
I1129 21:36:22.309047 13963 net.cpp:165] Memory required for data: 3875872832
I1129 21:36:22.309051 13963 layer_factory.hpp:77] Creating layer conv4_1/x1/bn
I1129 21:36:22.309062 13963 net.cpp:100] Creating Layer conv4_1/x1/bn
I1129 21:36:22.309067 13963 net.cpp:434] conv4_1/x1/bn <- pool3_12_pool3_12_0_split_0
I1129 21:36:22.309072 13963 net.cpp:408] conv4_1/x1/bn -> conv4_1/x1/bn
I1129 21:36:22.309334 13963 net.cpp:150] Setting up conv4_1/x1/bn
I1129 21:36:22.309350 13963 net.cpp:157] Top shape: 16 256 15 15 (921600)
I1129 21:36:22.309353 13963 net.cpp:165] Memory required for data: 3879559232
I1129 21:36:22.309365 13963 layer_factory.hpp:77] Creating layer conv4_1/x1/scale
I1129 21:36:22.309372 13963 net.cpp:100] Creating Layer conv4_1/x1/scale
I1129 21:36:22.309377 13963 net.cpp:434] conv4_1/x1/scale <- conv4_1/x1/bn
I1129 21:36:22.309383 13963 net.cpp:395] conv4_1/x1/scale -> conv4_1/x1/bn (in-place)
I1129 21:36:22.309453 13963 layer_factory.hpp:77] Creating layer conv4_1/x1/scale
I1129 21:36:22.309609 13963 net.cpp:150] Setting up conv4_1/x1/scale
I1129 21:36:22.309625 13963 net.cpp:157] Top shape: 16 256 15 15 (921600)
I1129 21:36:22.309645 13963 net.cpp:165] Memory required for data: 3883245632
I1129 21:36:22.309653 13963 layer_factory.hpp:77] Creating layer relu4_1/x1
I1129 21:36:22.309662 13963 net.cpp:100] Creating Layer relu4_1/x1
I1129 21:36:22.309667 13963 net.cpp:434] relu4_1/x1 <- conv4_1/x1/bn
I1129 21:36:22.309674 13963 net.cpp:395] relu4_1/x1 -> conv4_1/x1/bn (in-place)
I1129 21:36:22.309900 13963 net.cpp:150] Setting up relu4_1/x1
I1129 21:36:22.309921 13963 net.cpp:157] Top shape: 16 256 15 15 (921600)
I1129 21:36:22.309926 13963 net.cpp:165] Memory required for data: 3886932032
I1129 21:36:22.309929 13963 layer_factory.hpp:77] Creating layer conv4_1/x1
I1129 21:36:22.309942 13963 net.cpp:100] Creating Layer conv4_1/x1
I1129 21:36:22.309947 13963 net.cpp:434] conv4_1/x1 <- conv4_1/x1/bn
I1129 21:36:22.309953 13963 net.cpp:408] conv4_1/x1 -> conv4_1/x1
I1129 21:36:22.313184 13963 net.cpp:150] Setting up conv4_1/x1
I1129 21:36:22.313213 13963 net.cpp:157] Top shape: 16 128 15 15 (460800)
I1129 21:36:22.313220 13963 net.cpp:165] Memory required for data: 3888775232
I1129 21:36:22.313227 13963 layer_factory.hpp:77] Creating layer conv4_1/x2/bn
I1129 21:36:22.313238 13963 net.cpp:100] Creating Layer conv4_1/x2/bn
I1129 21:36:22.313244 13963 net.cpp:434] conv4_1/x2/bn <- conv4_1/x1
I1129 21:36:22.313253 13963 net.cpp:408] conv4_1/x2/bn -> conv4_1/x2/bn
I1129 21:36:22.313560 13963 net.cpp:150] Setting up conv4_1/x2/bn
I1129 21:36:22.313570 13963 net.cpp:157] Top shape: 16 128 15 15 (460800)
I1129 21:36:22.313573 13963 net.cpp:165] Memory required for data: 3890618432
I1129 21:36:22.313582 13963 layer_factory.hpp:77] Creating layer conv4_1/x2/scale
I1129 21:36:22.313591 13963 net.cpp:100] Creating Layer conv4_1/x2/scale
I1129 21:36:22.313594 13963 net.cpp:434] conv4_1/x2/scale <- conv4_1/x2/bn
I1129 21:36:22.313601 13963 net.cpp:395] conv4_1/x2/scale -> conv4_1/x2/bn (in-place)
I1129 21:36:22.313658 13963 layer_factory.hpp:77] Creating layer conv4_1/x2/scale
I1129 21:36:22.313801 13963 net.cpp:150] Setting up conv4_1/x2/scale
I1129 21:36:22.313807 13963 net.cpp:157] Top shape: 16 128 15 15 (460800)
I1129 21:36:22.313812 13963 net.cpp:165] Memory required for data: 3892461632
I1129 21:36:22.313818 13963 layer_factory.hpp:77] Creating layer relu4_1/x2
I1129 21:36:22.313827 13963 net.cpp:100] Creating Layer relu4_1/x2
I1129 21:36:22.313832 13963 net.cpp:434] relu4_1/x2 <- conv4_1/x2/bn
I1129 21:36:22.313836 13963 net.cpp:395] relu4_1/x2 -> conv4_1/x2/bn (in-place)
I1129 21:36:22.315171 13963 net.cpp:150] Setting up relu4_1/x2
I1129 21:36:22.315197 13963 net.cpp:157] Top shape: 16 128 15 15 (460800)
I1129 21:36:22.315203 13963 net.cpp:165] Memory required for data: 3894304832
I1129 21:36:22.315208 13963 layer_factory.hpp:77] Creating layer conv4_1/x2
I1129 21:36:22.315232 13963 net.cpp:100] Creating Layer conv4_1/x2
I1129 21:36:22.315239 13963 net.cpp:434] conv4_1/x2 <- conv4_1/x2/bn
I1129 21:36:22.315248 13963 net.cpp:408] conv4_1/x2 -> conv4_1/x2
I1129 21:36:22.317423 13963 net.cpp:150] Setting up conv4_1/x2
I1129 21:36:22.317451 13963 net.cpp:157] Top shape: 16 32 15 15 (115200)
I1129 21:36:22.317456 13963 net.cpp:165] Memory required for data: 3894765632
I1129 21:36:22.317463 13963 layer_factory.hpp:77] Creating layer concat_4_1
I1129 21:36:22.317471 13963 net.cpp:100] Creating Layer concat_4_1
I1129 21:36:22.317477 13963 net.cpp:434] concat_4_1 <- pool3_12_pool3_12_0_split_1
I1129 21:36:22.317483 13963 net.cpp:434] concat_4_1 <- conv4_1/x2
I1129 21:36:22.317492 13963 net.cpp:408] concat_4_1 -> concat_4_1
I1129 21:36:22.317536 13963 net.cpp:150] Setting up concat_4_1
I1129 21:36:22.317544 13963 net.cpp:157] Top shape: 16 288 15 15 (1036800)
I1129 21:36:22.317548 13963 net.cpp:165] Memory required for data: 3898912832
I1129 21:36:22.317553 13963 layer_factory.hpp:77] Creating layer concat_4_1_concat_4_1_0_split
I1129 21:36:22.317559 13963 net.cpp:100] Creating Layer concat_4_1_concat_4_1_0_split
I1129 21:36:22.317564 13963 net.cpp:434] concat_4_1_concat_4_1_0_split <- concat_4_1
I1129 21:36:22.317569 13963 net.cpp:408] concat_4_1_concat_4_1_0_split -> concat_4_1_concat_4_1_0_split_0
I1129 21:36:22.317591 13963 net.cpp:408] concat_4_1_concat_4_1_0_split -> concat_4_1_concat_4_1_0_split_1
I1129 21:36:22.317644 13963 net.cpp:150] Setting up concat_4_1_concat_4_1_0_split
I1129 21:36:22.317652 13963 net.cpp:157] Top shape: 16 288 15 15 (1036800)
I1129 21:36:22.317657 13963 net.cpp:157] Top shape: 16 288 15 15 (1036800)
I1129 21:36:22.317662 13963 net.cpp:165] Memory required for data: 3907207232
I1129 21:36:22.317664 13963 layer_factory.hpp:77] Creating layer conv4_2/x1/bn
I1129 21:36:22.317674 13963 net.cpp:100] Creating Layer conv4_2/x1/bn
I1129 21:36:22.317678 13963 net.cpp:434] conv4_2/x1/bn <- concat_4_1_concat_4_1_0_split_0
I1129 21:36:22.317684 13963 net.cpp:408] conv4_2/x1/bn -> conv4_2/x1/bn
I1129 21:36:22.317966 13963 net.cpp:150] Setting up conv4_2/x1/bn
I1129 21:36:22.317975 13963 net.cpp:157] Top shape: 16 288 15 15 (1036800)
I1129 21:36:22.317979 13963 net.cpp:165] Memory required for data: 3911354432
I1129 21:36:22.317987 13963 layer_factory.hpp:77] Creating layer conv4_2/x1/scale
I1129 21:36:22.317996 13963 net.cpp:100] Creating Layer conv4_2/x1/scale
I1129 21:36:22.317999 13963 net.cpp:434] conv4_2/x1/scale <- conv4_2/x1/bn
I1129 21:36:22.318006 13963 net.cpp:395] conv4_2/x1/scale -> conv4_2/x1/bn (in-place)
I1129 21:36:22.318063 13963 layer_factory.hpp:77] Creating layer conv4_2/x1/scale
I1129 21:36:22.318217 13963 net.cpp:150] Setting up conv4_2/x1/scale
I1129 21:36:22.318224 13963 net.cpp:157] Top shape: 16 288 15 15 (1036800)
I1129 21:36:22.318228 13963 net.cpp:165] Memory required for data: 3915501632
I1129 21:36:22.318235 13963 layer_factory.hpp:77] Creating layer relu4_2/x1
I1129 21:36:22.318241 13963 net.cpp:100] Creating Layer relu4_2/x1
I1129 21:36:22.318245 13963 net.cpp:434] relu4_2/x1 <- conv4_2/x1/bn
I1129 21:36:22.318250 13963 net.cpp:395] relu4_2/x1 -> conv4_2/x1/bn (in-place)
I1129 21:36:22.319644 13963 net.cpp:150] Setting up relu4_2/x1
I1129 21:36:22.319672 13963 net.cpp:157] Top shape: 16 288 15 15 (1036800)
I1129 21:36:22.319677 13963 net.cpp:165] Memory required for data: 3919648832
I1129 21:36:22.319684 13963 layer_factory.hpp:77] Creating layer conv4_2/x1
I1129 21:36:22.319699 13963 net.cpp:100] Creating Layer conv4_2/x1
I1129 21:36:22.319703 13963 net.cpp:434] conv4_2/x1 <- conv4_2/x1/bn
I1129 21:36:22.319711 13963 net.cpp:408] conv4_2/x1 -> conv4_2/x1
I1129 21:36:22.321868 13963 net.cpp:150] Setting up conv4_2/x1
I1129 21:36:22.321897 13963 net.cpp:157] Top shape: 16 128 15 15 (460800)
I1129 21:36:22.321903 13963 net.cpp:165] Memory required for data: 3921492032
I1129 21:36:22.321910 13963 layer_factory.hpp:77] Creating layer conv4_2/x2/bn
I1129 21:36:22.321919 13963 net.cpp:100] Creating Layer conv4_2/x2/bn
I1129 21:36:22.321924 13963 net.cpp:434] conv4_2/x2/bn <- conv4_2/x1
I1129 21:36:22.321934 13963 net.cpp:408] conv4_2/x2/bn -> conv4_2/x2/bn
I1129 21:36:22.322211 13963 net.cpp:150] Setting up conv4_2/x2/bn
I1129 21:36:22.322219 13963 net.cpp:157] Top shape: 16 128 15 15 (460800)
I1129 21:36:22.322223 13963 net.cpp:165] Memory required for data: 3923335232
I1129 21:36:22.322232 13963 layer_factory.hpp:77] Creating layer conv4_2/x2/scale
I1129 21:36:22.322242 13963 net.cpp:100] Creating Layer conv4_2/x2/scale
I1129 21:36:22.322247 13963 net.cpp:434] conv4_2/x2/scale <- conv4_2/x2/bn
I1129 21:36:22.322252 13963 net.cpp:395] conv4_2/x2/scale -> conv4_2/x2/bn (in-place)
I1129 21:36:22.322305 13963 layer_factory.hpp:77] Creating layer conv4_2/x2/scale
I1129 21:36:22.322489 13963 net.cpp:150] Setting up conv4_2/x2/scale
…
I1129 21:36:26.041738 13963 net.cpp:408] conv5_24/x2 -> conv5_24/x2
I1129 21:36:26.044386 13963 net.cpp:150] Setting up conv5_24/x2
I1129 21:36:26.044415 13963 net.cpp:157] Top shape: 8 32 8 8 (16384)
I1129 21:36:26.044420 13963 net.cpp:165] Memory required for data: 4668170336
I1129 21:36:26.044427 13963 layer_factory.hpp:77] Creating layer concat_5_24
I1129 21:36:26.044435 13963 net.cpp:100] Creating Layer concat_5_24
I1129 21:36:26.044442 13963 net.cpp:434] concat_5_24 <- concat_5_23_concat_5_23_0_split_1
I1129 21:36:26.044450 13963 net.cpp:434] concat_5_24 <- conv5_24/x2
I1129 21:36:26.044463 13963 net.cpp:408] concat_5_24 -> concat_5_24
I1129 21:36:26.044512 13963 net.cpp:150] Setting up concat_5_24
I1129 21:36:26.044519 13963 net.cpp:157] Top shape: 8 1664 8 8 (851968)
I1129 21:36:26.044523 13963 net.cpp:165] Memory required for data: 4671578208
I1129 21:36:26.044528 13963 layer_factory.hpp:77] Creating layer concat_5_24_concat_5_24_0_split
I1129 21:36:26.044541 13963 net.cpp:100] Creating Layer concat_5_24_concat_5_24_0_split
I1129 21:36:26.044565 13963 net.cpp:434] concat_5_24_concat_5_24_0_split <- concat_5_24
I1129 21:36:26.044572 13963 net.cpp:408] concat_5_24_concat_5_24_0_split -> concat_5_24_concat_5_24_0_split_0
I1129 21:36:26.044580 13963 net.cpp:408] concat_5_24_concat_5_24_0_split -> concat_5_24_concat_5_24_0_split_1
I1129 21:36:26.044651 13963 net.cpp:150] Setting up concat_5_24_concat_5_24_0_split
I1129 21:36:26.044661 13963 net.cpp:157] Top shape: 8 1664 8 8 (851968)
I1129 21:36:26.044665 13963 net.cpp:157] Top shape: 8 1664 8 8 (851968)
I1129 21:36:26.044668 13963 net.cpp:165] Memory required for data: 4678393952
I1129 21:36:26.044672 13963 layer_factory.hpp:77] Creating layer conv5_25/x1/bn
I1129 21:36:26.044684 13963 net.cpp:100] Creating Layer conv5_25/x1/bn
I1129 21:36:26.044690 13963 net.cpp:434] conv5_25/x1/bn <- concat_5_24_concat_5_24_0_split_0
I1129 21:36:26.044697 13963 net.cpp:408] conv5_25/x1/bn -> conv5_25/x1/bn
I1129 21:36:26.045080 13963 net.cpp:150] Setting up conv5_25/x1/bn
I1129 21:36:26.045090 13963 net.cpp:157] Top shape: 8 1664 8 8 (851968)
I1129 21:36:26.045099 13963 net.cpp:165] Memory required for data: 4681801824
I1129 21:36:26.045109 13963 layer_factory.hpp:77] Creating layer conv5_25/x1/scale
I1129 21:36:26.045116 13963 net.cpp:100] Creating Layer conv5_25/x1/scale
I1129 21:36:26.045121 13963 net.cpp:434] conv5_25/x1/scale <- conv5_25/x1/bn
I1129 21:36:26.045132 13963 net.cpp:395] conv5_25/x1/scale -> conv5_25/x1/bn (in-place)
I1129 21:36:26.045223 13963 layer_factory.hpp:77] Creating layer conv5_25/x1/scale
I1129 21:36:26.045464 13963 net.cpp:150] Setting up conv5_25/x1/scale
I1129 21:36:26.045472 13963 net.cpp:157] Top shape: 8 1664 8 8 (851968)
I1129 21:36:26.045476 13963 net.cpp:165] Memory required for data: 4685209696
I1129 21:36:26.045485 13963 layer_factory.hpp:77] Creating layer relu5_25/x1
I1129 21:36:26.045491 13963 net.cpp:100] Creating Layer relu5_25/x1
I1129 21:36:26.045496 13963 net.cpp:434] relu5_25/x1 <- conv5_25/x1/bn
I1129 21:36:26.045502 13963 net.cpp:395] relu5_25/x1 -> conv5_25/x1/bn (in-place)
I1129 21:36:26.045778 13963 net.cpp:150] Setting up relu5_25/x1
I1129 21:36:26.045794 13963 net.cpp:157] Top shape: 8 1664 8 8 (851968)
I1129 21:36:26.045799 13963 net.cpp:165] Memory required for data: 4688617568
I1129 21:36:26.045804 13963 layer_factory.hpp:77] Creating layer conv5_25/x1
I1129 21:36:26.045812 13963 net.cpp:100] Creating Layer conv5_25/x1
I1129 21:36:26.045816 13963 net.cpp:434] conv5_25/x1 <- conv5_25/x1/bn
I1129 21:36:26.045828 13963 net.cpp:408] conv5_25/x1 -> conv5_25/x1
I1129 21:36:26.052305 13963 net.cpp:150] Setting up conv5_25/x1
I1129 21:36:26.052325 13963 net.cpp:157] Top shape: 8 128 8 8 (65536)
I1129 21:36:26.052330 13963 net.cpp:165] Memory required for data: 4688879712
I1129 21:36:26.052337 13963 layer_factory.hpp:77] Creating layer conv5_25/x2/bn
I1129 21:36:26.052348 13963 net.cpp:100] Creating Layer conv5_25/x2/bn
I1129 21:36:26.052357 13963 net.cpp:434] conv5_25/x2/bn <- conv5_25/x1
I1129 21:36:26.052366 13963 net.cpp:408] conv5_25/x2/bn -> conv5_25/x2/bn
I1129 21:36:26.052718 13963 net.cpp:150] Setting up conv5_25/x2/bn
I1129 21:36:26.052728 13963 net.cpp:157] Top shape: 8 128 8 8 (65536)
I1129 21:36:26.052732 13963 net.cpp:165] Memory required for data: 4689141856
I1129 21:36:26.052742 13963 layer_factory.hpp:77] Creating layer conv5_25/x2/scale
I1129 21:36:26.052749 13963 net.cpp:100] Creating Layer conv5_25/x2/scale
I1129 21:36:26.052755 13963 net.cpp:434] conv5_25/x2/scale <- conv5_25/x2/bn
I1129 21:36:26.052762 13963 net.cpp:395] conv5_25/x2/scale -> conv5_25/x2/bn (in-place)
I1129 21:36:26.052829 13963 layer_factory.hpp:77] Creating layer conv5_25/x2/scale
I1129 21:36:26.052999 13963 net.cpp:150] Setting up conv5_25/x2/scale
I1129 21:36:26.053007 13963 net.cpp:157] Top shape: 8 128 8 8 (65536)
I1129 21:36:26.053011 13963 net.cpp:165] Memory required for data: 4689404000
I1129 21:36:26.053019 13963 layer_factory.hpp:77] Creating layer relu5_25/x2
I1129 21:36:26.053025 13963 net.cpp:100] Creating Layer relu5_25/x2
I1129 21:36:26.053030 13963 net.cpp:434] relu5_25/x2 <- conv5_25/x2/bn
I1129 21:36:26.053055 13963 net.cpp:395] relu5_25/x2 -> conv5_25/x2/bn (in-place)
I1129 21:36:26.053320 13963 net.cpp:150] Setting up relu5_25/x2
I1129 21:36:26.053331 13963 net.cpp:157] Top shape: 8 128 8 8 (65536)
I1129 21:36:26.053335 13963 net.cpp:165] Memory required for data: 4689666144
I1129 21:36:26.053339 13963 layer_factory.hpp:77] Creating layer conv5_25/x2
I1129 21:36:26.053351 13963 net.cpp:100] Creating Layer conv5_25/x2
I1129 21:36:26.053356 13963 net.cpp:434] conv5_25/x2 <- conv5_25/x2/bn
I1129 21:36:26.053364 13963 net.cpp:408] conv5_25/x2 -> conv5_25/x2
I1129 21:36:26.057178 13963 net.cpp:150] Setting up conv5_25/x2
I1129 21:36:26.057198 13963 net.cpp:157] Top shape: 8 32 8 8 (16384)
I1129 21:36:26.057201 13963 net.cpp:165] Memory required for data: 4689731680
I1129 21:36:26.057209 13963 layer_factory.hpp:77] Creating layer concat_5_25
I1129 21:36:26.057222 13963 net.cpp:100] Creating Layer concat_5_25
I1129 21:36:26.057229 13963 net.cpp:434] concat_5_25 <- concat_5_24_concat_5_24_0_split_1
I1129 21:36:26.057238 13963 net.cpp:434] concat_5_25 <- conv5_25/x2
I1129 21:36:26.057245 13963 net.cpp:408] concat_5_25 -> concat_5_25
I1129 21:36:26.057307 13963 net.cpp:150] Setting up concat_5_25
I1129 21:36:26.057314 13963 net.cpp:157] Top shape: 8 1696 8 8 (868352)
I1129 21:36:26.057318 13963 net.cpp:165] Memory required for data: 4693205088
I1129 21:36:26.057322 13963 layer_factory.hpp:77] Creating layer concat_5_25_concat_5_25_0_split
I1129 21:36:26.057329 13963 net.cpp:100] Creating Layer concat_5_25_concat_5_25_0_split
I1129 21:36:26.057334 13963 net.cpp:434] concat_5_25_concat_5_25_0_split <- concat_5_25
I1129 21:36:26.057343 13963 net.cpp:408] concat_5_25_concat_5_25_0_split -> concat_5_25_concat_5_25_0_split_0
I1129 21:36:26.057350 13963 net.cpp:408] concat_5_25_concat_5_25_0_split -> concat_5_25_concat_5_25_0_split_1
I1129 21:36:26.057428 13963 net.cpp:150] Setting up concat_5_25_concat_5_25_0_split
I1129 21:36:26.057436 13963 net.cpp:157] Top shape: 8 1696 8 8 (868352)
I1129 21:36:26.057441 13963 net.cpp:157] Top shape: 8 1696 8 8 (868352)
I1129 21:36:26.057446 13963 net.cpp:165] Memory required for data: 4700151904
I1129 21:36:26.057449 13963 layer_factory.hpp:77] Creating layer conv5_26/x1/bn
I1129 21:36:26.057456 13963 net.cpp:100] Creating Layer conv5_26/x1/bn
I1129 21:36:26.057463 13963 net.cpp:434] conv5_26/x1/bn <- concat_5_25_concat_5_25_0_split_0
I1129 21:36:26.057471 13963 net.cpp:408] conv5_26/x1/bn -> conv5_26/x1/bn
I1129 21:36:26.057837 13963 net.cpp:150] Setting up conv5_26/x1/bn
I1129 21:36:26.057847 13963 net.cpp:157] Top shape: 8 1696 8 8 (868352)
I1129 21:36:26.057850 13963 net.cpp:165] Memory required for data: 4703625312
I1129 21:36:26.057860 13963 layer_factory.hpp:77] Creating layer conv5_26/x1/scale
I1129 21:36:26.057868 13963 net.cpp:100] Creating Layer conv5_26/x1/scale
I1129 21:36:26.057873 13963 net.cpp:434] conv5_26/x1/scale <- conv5_26/x1/bn
I1129 21:36:26.057881 13963 net.cpp:395] conv5_26/x1/scale -> conv5_26/x1/bn (in-place)
I1129 21:36:26.057966 13963 layer_factory.hpp:77] Creating layer conv5_26/x1/scale
I1129 21:36:26.058182 13963 net.cpp:150] Setting up conv5_26/x1/scale
I1129 21:36:26.058189 13963 net.cpp:157] Top shape: 8 1696 8 8 (868352)
I1129 21:36:26.058193 13963 net.cpp:165] Memory required for data: 4707098720
I1129 21:36:26.058200 13963 layer_factory.hpp:77] Creating layer relu5_26/x1
I1129 21:36:26.058207 13963 net.cpp:100] Creating Layer relu5_26/x1
I1129 21:36:26.058212 13963 net.cpp:434] relu5_26/x1 <- conv5_26/x1/bn
I1129 21:36:26.058220 13963 net.cpp:395] relu5_26/x1 -> conv5_26/x1/bn (in-place)
I1129 21:36:26.058495 13963 net.cpp:150] Setting up relu5_26/x1
I1129 21:36:26.058506 13963 net.cpp:157] Top shape: 8 1696 8 8 (868352)
I1129 21:36:26.058511 13963 net.cpp:165] Memory required for data: 4710572128
I1129 21:36:26.058516 13963 layer_factory.hpp:77] Creating layer conv5_26/x1
I1129 21:36:26.058526 13963 net.cpp:100] Creating Layer conv5_26/x1
I1129 21:36:26.058531 13963 net.cpp:434] conv5_26/x1 <- conv5_26/x1/bn
I1129 21:36:26.058553 13963 net.cpp:408] conv5_26/x1 -> conv5_26/x1
I1129 21:36:26.061282 13963 net.cpp:150] Setting up conv5_26/x1
I1129 21:36:26.061301 13963 net.cpp:157] Top shape: 8 128 8 8 (65536)
I1129 21:36:26.061306 13963 net.cpp:165] Memory required for data: 4710834272
I1129 21:36:26.061313 13963 layer_factory.hpp:77] Creating layer conv5_26/x2/bn
I1129 21:36:26.061326 13963 net.cpp:100] Creating Layer conv5_26/x2/bn
I1129 21:36:26.061331 13963 net.cpp:434] conv5_26/x2/bn <- conv5_26/x1
I1129 21:36:26.061338 13963 net.cpp:408] conv5_26/x2/bn -> conv5_26/x2/bn
I1129 21:36:26.061713 13963 net.cpp:150] Setting up conv5_26/x2/bn
I1129 21:36:26.061724 13963 net.cpp:157] Top shape: 8 128 8 8 (65536)
I1129 21:36:26.061729 13963 net.cpp:165] Memory required for data: 4711096416
I1129 21:36:26.061738 13963 layer_factory.hpp:77] Creating layer conv5_26/x2/scale
I1129 21:36:26.061746 13963 net.cpp:100] Creating Layer conv5_26/x2/scale
I1129 21:36:26.061753 13963 net.cpp:434] conv5_26/x2/scale <- conv5_26/x2/bn
I1129 21:36:26.061758 13963 net.cpp:395] conv5_26/x2/scale -> conv5_26/x2/bn (in-place)
I1129 21:36:26.061827 13963 layer_factory.hpp:77] Creating layer conv5_26/x2/scale
I1129 21:36:26.061997 13963 net.cpp:150] Setting up conv5_26/x2/scale
I1129 21:36:26.062005 13963 net.cpp:157] Top shape: 8 128 8 8 (65536)
I1129 21:36:26.062008 13963 net.cpp:165] Memory required for data: 4711358560
I1129 21:36:26.062016 13963 layer_factory.hpp:77] Creating layer relu5_26/x2
I1129 21:36:26.062023 13963 net.cpp:100] Creating Layer relu5_26/x2
I1129 21:36:26.062027 13963 net.cpp:434] relu5_26/x2 <- conv5_26/x2/bn
I1129 21:36:26.062036 13963 net.cpp:395] relu5_26/x2 -> conv5_26/x2/bn (in-place)
I1129 21:36:26.062286 13963 net.cpp:150] Setting up relu5_26/x2
I1129 21:36:26.062296 13963 net.cpp:157] Top shape: 8 128 8 8 (65536)
I1129 21:36:26.062300 13963 net.cpp:165] Memory required for data: 4711620704
I1129 21:36:26.062305 13963 layer_factory.hpp:77] Creating layer conv5_26/x2
I1129 21:36:26.062317 13963 net.cpp:100] Creating Layer conv5_26/x2
I1129 21:36:26.062322 13963 net.cpp:434] conv5_26/x2 <- conv5_26/x2/bn
I1129 21:36:26.062330 13963 net.cpp:408] conv5_26/x2 -> conv5_26/x2
I1129 21:36:26.064848 13963 net.cpp:150] Setting up conv5_26/x2
I1129 21:36:26.064867 13963 net.cpp:157] Top shape: 8 32 8 8 (16384)
I1129 21:36:26.064872 13963 net.cpp:165] Memory required for data: 4711686240
I1129 21:36:26.064879 13963 layer_factory.hpp:77] Creating layer concat_5_26
I1129 21:36:26.064888 13963 net.cpp:100] Creating Layer concat_5_26
I1129 21:36:26.064895 13963 net.cpp:434] concat_5_26 <- concat_5_25_concat_5_25_0_split_1
I1129 21:36:26.064903 13963 net.cpp:434] concat_5_26 <- conv5_26/x2
I1129 21:36:26.064909 13963 net.cpp:408] concat_5_26 -> concat_5_26
I1129 21:36:26.064957 13963 net.cpp:150] Setting up concat_5_26
I1129 21:36:26.064965 13963 net.cpp:157] Top shape: 8 1728 8 8 (884736)
I1129 21:36:26.064972 13963 net.cpp:165] Memory required for data: 4715225184
I1129 21:36:26.064976 13963 layer_factory.hpp:77] Creating layer concat_5_26_concat_5_26_0_split
I1129 21:36:26.064983 13963 net.cpp:100] Creating Layer concat_5_26_concat_5_26_0_split
I1129 21:36:26.064988 13963 net.cpp:434] concat_5_26_concat_5_26_0_split <- concat_5_26
I1129 21:36:26.064995 13963 net.cpp:408] concat_5_26_concat_5_26_0_split -> concat_5_26_concat_5_26_0_split_0
I1129 21:36:26.065001 13963 net.cpp:408] concat_5_26_concat_5_26_0_split -> concat_5_26_concat_5_26_0_split_1
I1129 21:36:26.065062 13963 net.cpp:150] Setting up concat_5_26_concat_5_26_0_split
I1129 21:36:26.065068 13963 net.cpp:157] Top shape: 8 1728 8 8 (884736)
I1129 21:36:26.065073 13963 net.cpp:157] Top shape: 8 1728 8 8 (884736)
I1129 21:36:26.065078 13963 net.cpp:165] Memory required for data: 4722303072
I1129 21:36:26.065081 13963 layer_factory.hpp:77] Creating layer conv5_27/x1/bn
I1129 21:36:26.065088 13963 net.cpp:100] Creating Layer conv5_27/x1/bn
I1129 21:36:26.065093 13963 net.cpp:434] conv5_27/x1/bn <- concat_5_26_concat_5_26_0_split_0
I1129 21:36:26.065101 13963 net.cpp:408] conv5_27/x1/bn -> conv5_27/x1/bn
I1129 21:36:26.065521 13963 net.cpp:150] Setting up conv5_27/x1/bn
I1129 21:36:26.065531 13963 net.cpp:157] Top shape: 8 1728 8 8 (884736)
I1129 21:36:26.065534 13963 net.cpp:165] Memory required for data: 4725842016
I1129 21:36:26.065544 13963 layer_factory.hpp:77] Creating layer conv5_27/x1/scale
I1129 21:36:26.065551 13963 net.cpp:100] Creating Layer conv5_27/x1/scale
I1129 21:36:26.065557 13963 net.cpp:434] conv5_27/x1/scale <- conv5_27/x1/bn
I1129 21:36:26.065563 13963 net.cpp:395] conv5_27/x1/scale -> conv5_27/x1/bn (in-place)
I1129 21:36:26.065654 13963 layer_factory.hpp:77] Creating layer conv5_27/x1/scale
I1129 21:36:26.065865 13963 net.cpp:150] Setting up conv5_27/x1/scale
I1129 21:36:26.065872 13963 net.cpp:157] Top shape: 8 1728 8 8 (884736)
I1129 21:36:26.065876 13963 net.cpp:165] Memory required for data: 4729380960
I1129 21:36:26.065884 13963 layer_factory.hpp:77] Creating layer relu5_27/x1
I1129 21:36:26.065893 13963 net.cpp:100] Creating Layer relu5_27/x1
I1129 21:36:26.065899 13963 net.cpp:434] relu5_27/x1 <- conv5_27/x1/bn
I1129 21:36:26.065904 13963 net.cpp:395] relu5_27/x1 -> conv5_27/x1/bn (in-place)
I1129 21:36:26.066162 13963 net.cpp:150] Setting up relu5_27/x1
I1129 21:36:26.066174 13963 net.cpp:157] Top shape: 8 1728 8 8 (884736)
I1129 21:36:26.066179 13963 net.cpp:165] Memory required for data: 4732919904
I1129 21:36:26.066184 13963 layer_factory.hpp:77] Creating layer conv5_27/x1
I1129 21:36:26.066192 13963 net.cpp:100] Creating Layer conv5_27/x1
I1129 21:36:26.066197 13963 net.cpp:434] conv5_27/x1 <- conv5_27/x1/bn
I1129 21:36:26.066205 13963 net.cpp:408] conv5_27/x1 -> conv5_27/x1
I1129 21:36:26.070652 13963 net.cpp:150] Setting up conv5_27/x1
I1129 21:36:26.070670 13963 net.cpp:157] Top shape: 8 128 8 8 (65536)
I1129 21:36:26.070675 13963 net.cpp:165] Memory required for data: 4733182048
I1129 21:36:26.070683 13963 layer_factory.hpp:77] Creating layer conv5_27/x2/bn
I1129 21:36:26.070693 13963 net.cpp:100] Creating Layer conv5_27/x2/bn
I1129 21:36:26.070700 13963 net.cpp:434] conv5_27/x2/bn <- conv5_27/x1
I1129 21:36:26.070708 13963 net.cpp:408] conv5_27/x2/bn -> conv5_27/x2/bn
I1129 21:36:26.071050 13963 net.cpp:150] Setting up conv5_27/x2/bn
I1129 21:36:26.071058 13963 net.cpp:157] Top shape: 8 128 8 8 (65536)
I1129 21:36:26.071063 13963 net.cpp:165] Memory required for data: 4733444192
I1129 21:36:26.071071 13963 layer_factory.hpp:77] Creating layer conv5_27/x2/scale
I1129 21:36:26.071079 13963 net.cpp:100] Creating Layer conv5_27/x2/scale
I1129 21:36:26.071084 13963 net.cpp:434] conv5_27/x2/scale <- conv5_27/x2/bn
I1129 21:36:26.071094 13963 net.cpp:395] conv5_27/x2/scale -> conv5_27/x2/bn (in-place)
I1129 21:36:26.071158 13963 layer_factory.hpp:77] Creating layer conv5_27/x2/scale
I1129 21:36:26.071372 13963 net.cpp:150] Setting up conv5_27/x2/scale
I1129 21:36:26.071385 13963 net.cpp:157] Top shape: 8 128 8 8 (65536)
I1129 21:36:26.071389 13963 net.cpp:165] Memory required for data: 4733706336
I1129 21:36:26.071408 13963 layer_factory.hpp:77] Creating layer relu5_27/x2
I1129 21:36:26.071415 13963 net.cpp:100] Creating Layer relu5_27/x2
I1129 21:36:26.071420 13963 net.cpp:434] relu5_27/x2 <- conv5_27/x2/bn
I1129 21:36:26.071426 13963 net.cpp:395] relu5_27/x2 -> conv5_27/x2/bn (in-place)
I1129 21:36:26.073082 13963 net.cpp:150] Setting up relu5_27/x2
I1129 21:36:26.073099 13963 net.cpp:157] Top shape: 8 128 8 8 (65536)
I1129 21:36:26.073104 13963 net.cpp:165] Memory required for data: 4733968480
I1129 21:36:26.073109 13963 layer_factory.hpp:77] Creating layer conv5_27/x2
I1129 21:36:26.073139 13963 net.cpp:100] Creating Layer conv5_27/x2
I1129 21:36:26.073148 13963 net.cpp:434] conv5_27/x2 <- conv5_27/x2/bn
I1129 21:36:26.073154 13963 net.cpp:408] conv5_27/x2 -> conv5_27/x2
I1129 21:36:26.077013 13963 net.cpp:150] Setting up conv5_27/x2
I1129 21:36:26.077031 13963 net.cpp:157] Top shape: 8 32 8 8 (16384)
I1129 21:36:26.077036 13963 net.cpp:165] Memory required for data: 4734034016
I1129 21:36:26.077044 13963 layer_factory.hpp:77] Creating layer concat_5_27
I1129 21:36:26.077054 13963 net.cpp:100] Creating Layer concat_5_27
I1129 21:36:26.077077 13963 net.cpp:434] concat_5_27 <- concat_5_26_concat_5_26_0_split_1
I1129 21:36:26.077086 13963 net.cpp:434] concat_5_27 <- conv5_27/x2
I1129 21:36:26.077093 13963 net.cpp:408] concat_5_27 -> concat_5_27
I1129 21:36:26.077157 13963 net.cpp:150] Setting up concat_5_27
I1129 21:36:26.077164 13963 net.cpp:157] Top shape: 8 1760 8 8 (901120)
I1129 21:36:26.077168 13963 net.cpp:165] Memory required for data: 4737638496
I1129 21:36:26.077172 13963 layer_factory.hpp:77] Creating layer concat_5_27_concat_5_27_0_split
I1129 21:36:26.077179 13963 net.cpp:100] Creating Layer concat_5_27_concat_5_27_0_split
I1129 21:36:26.077184 13963 net.cpp:434] concat_5_27_concat_5_27_0_split <- concat_5_27
I1129 21:36:26.077193 13963 net.cpp:408] concat_5_27_concat_5_27_0_split -> concat_5_27_concat_5_27_0_split_0
I1129 21:36:26.077201 13963 net.cpp:408] concat_5_27_concat_5_27_0_split -> concat_5_27_concat_5_27_0_split_1
I1129 21:36:26.077263 13963 net.cpp:150] Setting up concat_5_27_concat_5_27_0_split
I1129 21:36:26.077270 13963 net.cpp:157] Top shape: 8 1760 8 8 (901120)
I1129 21:36:26.077275 13963 net.cpp:157] Top shape: 8 1760 8 8 (901120)
I1129 21:36:26.077278 13963 net.cpp:165] Memory required for data: 4744847456
I1129 21:36:26.077282 13963 layer_factory.hpp:77] Creating layer conv5_28/x1/bn
I1129 21:36:26.077292 13963 net.cpp:100] Creating Layer conv5_28/x1/bn
I1129 21:36:26.077296 13963 net.cpp:434] conv5_28/x1/bn <- concat_5_27_concat_5_27_0_split_0
I1129 21:36:26.077306 13963 net.cpp:408] conv5_28/x1/bn -> conv5_28/x1/bn
I1129 21:36:26.077706 13963 net.cpp:150] Setting up conv5_28/x1/bn
I1129 21:36:26.077718 13963 net.cpp:157] Top shape: 8 1760 8 8 (901120)
I1129 21:36:26.077721 13963 net.cpp:165] Memory required for data: 4748451936
I1129 21:36:26.077731 13963 layer_factory.hpp:77] Creating layer conv5_28/x1/scale
I1129 21:36:26.077739 13963 net.cpp:100] Creating Layer conv5_28/x1/scale
I1129 21:36:26.077744 13963 net.cpp:434] conv5_28/x1/scale <- conv5_28/x1/bn
I1129 21:36:26.077752 13963 net.cpp:395] conv5_28/x1/scale -> conv5_28/x1/bn (in-place)
I1129 21:36:26.077843 13963 layer_factory.hpp:77] Creating layer conv5_28/x1/scale
I1129 21:36:26.078058 13963 net.cpp:150] Setting up conv5_28/x1/scale
I1129 21:36:26.078066 13963 net.cpp:157] Top shape: 8 1760 8 8 (901120)
I1129 21:36:26.078070 13963 net.cpp:165] Memory required for data: 4752056416
I1129 21:36:26.078078 13963 layer_factory.hpp:77] Creating layer relu5_28/x1
I1129 21:36:26.078084 13963 net.cpp:100] Creating Layer relu5_28/x1
I1129 21:36:26.078089 13963 net.cpp:434] relu5_28/x1 <- conv5_28/x1/bn
I1129 21:36:26.078096 13963 net.cpp:395] relu5_28/x1 -> conv5_28/x1/bn (in-place)
I1129 21:36:26.078358 13963 net.cpp:150] Setting up relu5_28/x1
I1129 21:36:26.078368 13963 net.cpp:157] Top shape: 8 1760 8 8 (901120)
I1129 21:36:26.078373 13963 net.cpp:165] Memory required for data: 4755660896
I1129 21:36:26.078377 13963 layer_factory.hpp:77] Creating layer conv5_28/x1
I1129 21:36:26.078388 13963 net.cpp:100] Creating Layer conv5_28/x1
I1129 21:36:26.078404 13963 net.cpp:434] conv5_28/x1 <- conv5_28/x1/bn
I1129 21:36:26.078414 13963 net.cpp:408] conv5_28/x1 -> conv5_28/x1
I1129 21:36:26.081198 13963 net.cpp:150] Setting up conv5_28/x1
I1129 21:36:26.081217 13963 net.cpp:157] Top shape: 8 128 8 8 (65536)
I1129 21:36:26.081221 13963 net.cpp:165] Memory required for data: 4755923040
I1129 21:36:26.081229 13963 layer_factory.hpp:77] Creating layer conv5_28/x2/bn
I1129 21:36:26.081240 13963 net.cpp:100] Creating Layer conv5_28/x2/bn
I1129 21:36:26.081248 13963 net.cpp:434] conv5_28/x2/bn <- conv5_28/x1
I1129 21:36:26.081255 13963 net.cpp:408] conv5_28/x2/bn -> conv5_28/x2/bn
I1129 21:36:26.081617 13963 net.cpp:150] Setting up conv5_28/x2/bn
I1129 21:36:26.081626 13963 net.cpp:157] Top shape: 8 128 8 8 (65536)
I1129 21:36:26.081630 13963 net.cpp:165] Memory required for data: 4756185184
I1129 21:36:26.081640 13963 layer_factory.hpp:77] Creating layer conv5_28/x2/scale
I1129 21:36:26.081648 13963 net.cpp:100] Creating Layer conv5_28/x2/scale
I1129 21:36:26.081668 13963 net.cpp:434] conv5_28/x2/scale <- conv5_28/x2/bn
I1129 21:36:26.081676 13963 net.cpp:395] conv5_28/x2/scale -> conv5_28/x2/bn (in-place)
I1129 21:36:26.081748 13963 layer_factory.hpp:77] Creating layer conv5_28/x2/scale
I1129 21:36:26.081920 13963 net.cpp:150] Setting up conv5_28/x2/scale
I1129 21:36:26.081928 13963 net.cpp:157] Top shape: 8 128 8 8 (65536)
I1129 21:36:26.081933 13963 net.cpp:165] Memory required for data: 4756447328
I1129 21:36:26.081940 13963 layer_factory.hpp:77] Creating layer relu5_28/x2
I1129 21:36:26.081948 13963 net.cpp:100] Creating Layer relu5_28/x2
I1129 21:36:26.081954 13963 net.cpp:434] relu5_28/x2 <- conv5_28/x2/bn
I1129 21:36:26.081959 13963 net.cpp:395] relu5_28/x2 -> conv5_28/x2/bn (in-place)
I1129 21:36:26.082217 13963 net.cpp:150] Setting up relu5_28/x2
I1129 21:36:26.082227 13963 net.cpp:157] Top shape: 8 128 8 8 (65536)
I1129 21:36:26.082232 13963 net.cpp:165] Memory required for data: 4756709472
I1129 21:36:26.082237 13963 layer_factory.hpp:77] Creating layer conv5_28/x2
I1129 21:36:26.082247 13963 net.cpp:100] Creating Layer conv5_28/x2
I1129 21:36:26.082252 13963 net.cpp:434] conv5_28/x2 <- conv5_28/x2/bn
I1129 21:36:26.082262 13963 net.cpp:408] conv5_28/x2 -> conv5_28/x2
I1129 21:36:26.084837 13963 net.cpp:150] Setting up conv5_28/x2
I1129 21:36:26.084858 13963 net.cpp:157] Top shape: 8 32 8 8 (16384)
I1129 21:36:26.084863 13963 net.cpp:165] Memory required for data: 4756775008
I1129 21:36:26.084870 13963 layer_factory.hpp:77] Creating layer concat_5_28
I1129 21:36:26.084878 13963 net.cpp:100] Creating Layer concat_5_28
I1129 21:36:26.084885 13963 net.cpp:434] concat_5_28 <- concat_5_27_concat_5_27_0_split_1
I1129 21:36:26.084893 13963 net.cpp:434] concat_5_28 <- conv5_28/x2
I1129 21:36:26.084900 13963 net.cpp:408] concat_5_28 -> concat_5_28
I1129 21:36:26.084949 13963 net.cpp:150] Setting up concat_5_28
I1129 21:36:26.084956 13963 net.cpp:157] Top shape: 8 1792 8 8 (917504)
I1129 21:36:26.084960 13963 net.cpp:165] Memory required for data: 4760445024
I1129 21:36:26.084964 13963 layer_factory.hpp:77] Creating layer concat_5_28_concat_5_28_0_split
I1129 21:36:26.084971 13963 net.cpp:100] Creating Layer concat_5_28_concat_5_28_0_split
I1129 21:36:26.084981 13963 net.cpp:434] concat_5_28_concat_5_28_0_split <- concat_5_28
I1129 21:36:26.084987 13963 net.cpp:408] concat_5_28_concat_5_28_0_split -> concat_5_28_concat_5_28_0_split_0
I1129 21:36:26.084995 13963 net.cpp:408] concat_5_28_concat_5_28_0_split -> concat_5_28_concat_5_28_0_split_1
I1129 21:36:26.085055 13963 net.cpp:150] Setting up concat_5_28_concat_5_28_0_split
I1129 21:36:26.085062 13963 net.cpp:157] Top shape: 8 1792 8 8 (917504)
I1129 21:36:26.085067 13963 net.cpp:157] Top shape: 8 1792 8 8 (917504)
I1129 21:36:26.085072 13963 net.cpp:165] Memory required for data: 4767785056
I1129 21:36:26.085075 13963 layer_factory.hpp:77] Creating layer conv5_29/x1/bn
I1129 21:36:26.085083 13963 net.cpp:100] Creating Layer conv5_29/x1/bn
I1129 21:36:26.085088 13963 net.cpp:434] conv5_29/x1/bn <- concat_5_28_concat_5_28_0_split_0
I1129 21:36:26.085096 13963 net.cpp:408] conv5_29/x1/bn -> conv5_29/x1/bn
I1129 21:36:26.085485 13963 net.cpp:150] Setting up conv5_29/x1/bn
I1129 21:36:26.085495 13963 net.cpp:157] Top shape: 8 1792 8 8 (917504)
I1129 21:36:26.085500 13963 net.cpp:165] Memory required for data: 4771455072
I1129 21:36:26.085510 13963 layer_factory.hpp:77] Creating layer conv5_29/x1/scale
I1129 21:36:26.085518 13963 net.cpp:100] Creating Layer conv5_29/x1/scale
I1129 21:36:26.085525 13963 net.cpp:434] conv5_29/x1/scale <- conv5_29/x1/bn
I1129 21:36:26.085530 13963 net.cpp:395] conv5_29/x1/scale -> conv5_29/x1/bn (in-place)
I1129 21:36:26.085611 13963 layer_factory.hpp:77] Creating layer conv5_29/x1/scale
I1129 21:36:26.085814 13963 net.cpp:150] Setting up conv5_29/x1/scale
I1129 21:36:26.085824 13963 net.cpp:157] Top shape: 8 1792 8 8 (917504)
I1129 21:36:26.085826 13963 net.cpp:165] Memory required for data: 4775125088
I1129 21:36:26.085834 13963 layer_factory.hpp:77] Creating layer relu5_29/x1
I1129 21:36:26.085855 13963 net.cpp:100] Creating Layer relu5_29/x1
I1129 21:36:26.085861 13963 net.cpp:434] relu5_29/x1 <- conv5_29/x1/bn
I1129 21:36:26.085868 13963 net.cpp:395] relu5_29/x1 -> conv5_29/x1/bn (in-place)
I1129 21:36:26.086124 13963 net.cpp:150] Setting up relu5_29/x1
I1129 21:36:26.086135 13963 net.cpp:157] Top shape: 8 1792 8 8 (917504)
I1129 21:36:26.086139 13963 net.cpp:165] Memory required for data: 4778795104
I1129 21:36:26.086144 13963 layer_factory.hpp:77] Creating layer conv5_29/x1
I1129 21:36:26.086154 13963 net.cpp:100] Creating Layer conv5_29/x1
I1129 21:36:26.086159 13963 net.cpp:434] conv5_29/x1 <- conv5_29/x1/bn
I1129 21:36:26.086169 13963 net.cpp:408] conv5_29/x1 -> conv5_29/x1
I1129 21:36:26.090535 13963 net.cpp:150] Setting up conv5_29/x1
I1129 21:36:26.090554 13963 net.cpp:157] Top shape: 8 128 8 8 (65536)
I1129 21:36:26.963961 13963 net.cpp:165] Memory required for data: 4779057248
I1129 21:36:26.964069 13963 layer_factory.hpp:77] Creating layer conv5_29/x2/bn
I1129 21:36:26.964100 13963 net.cpp:100] Creating Layer conv5_29/x2/bn
I1129 21:36:26.964118 13963 net.cpp:434] conv5_29/x2/bn <- conv5_29/x1
I1129 21:36:26.964138 13963 net.cpp:408] conv5_29/x2/bn -> conv5_29/x2/bn
I1129 21:36:26.965694 13963 net.cpp:150] Setting up conv5_29/x2/bn
I1129 21:36:26.965718 13963 net.cpp:157] Top shape: 8 128 8 8 (65536)
I1129 21:36:26.965724 13963 net.cpp:165] Memory required for data: 4779319392
I1129 21:36:26.965744 13963 layer_factory.hpp:77] Creating layer conv5_29/x2/scale
I1129 21:36:26.965759 13963 net.cpp:100] Creating Layer conv5_29/x2/scale
I1129 21:36:26.965770 13963 net.cpp:434] conv5_29/x2/scale <- conv5_29/x2/bn
I1129 21:36:26.965780 13963 net.cpp:395] conv5_29/x2/scale -> conv5_29/x2/bn (in-place)
I1129 21:36:26.965931 13963 layer_factory.hpp:77] Creating layer conv5_29/x2/scale
I1129 21:36:26.966253 13963 net.cpp:150] Setting up conv5_29/x2/scale
I1129 21:36:26.966266 13963 net.cpp:157] Top shape: 8 128 8 8 (65536)
I1129 21:36:26.966274 13963 net.cpp:165] Memory required for data: 4779581536
I1129 21:36:26.966289 13963 layer_factory.hpp:77] Creating layer relu5_29/x2
I1129 21:36:26.966305 13963 net.cpp:100] Creating Layer relu5_29/x2
I1129 21:36:26.966313 13963 net.cpp:434] relu5_29/x2 <- conv5_29/x2/bn
I1129 21:36:26.966323 13963 net.cpp:395] relu5_29/x2 -> conv5_29/x2/bn (in-place)
I1129 21:36:26.967061 13963 net.cpp:150] Setting up relu5_29/x2
I1129 21:36:26.967083 13963 net.cpp:157] Top shape: 8 128 8 8 (65536)
I1129 21:36:26.967090 13963 net.cpp:165] Memory required for data: 4779843680
I1129 21:36:26.967099 13963 layer_factory.hpp:77] Creating layer conv5_29/x2
I1129 21:36:26.967123 13963 net.cpp:100] Creating Layer conv5_29/x2
I1129 21:36:26.967133 13963 net.cpp:434] conv5_29/x2 <- conv5_29/x2/bn
I1129 21:36:26.967144 13963 net.cpp:408] conv5_29/x2 -> conv5_29/x2
I1129 21:36:26.975114 13963 net.cpp:150] Setting up conv5_29/x2
I1129 21:36:26.975147 13963 net.cpp:157] Top shape: 8 32 8 8 (16384)
I1129 21:36:26.975155 13963 net.cpp:165] Memory required for data: 4779909216
I1129 21:36:26.975169 13963 layer_factory.hpp:77] Creating layer concat_5_29
I1129 21:36:26.975188 13963 net.cpp:100] Creating Layer concat_5_29
I1129 21:36:26.975203 13963 net.cpp:434] concat_5_29 <- concat_5_28_concat_5_28_0_split_1
I1129 21:36:26.975216 13963 net.cpp:434] concat_5_29 <- conv5_29/x2
I1129 21:36:26.975229 13963 net.cpp:408] concat_5_29 -> concat_5_29
I1129 21:36:26.975404 13963 net.cpp:150] Setting up concat_5_29
I1129 21:36:26.975423 13963 net.cpp:157] Top shape: 8 1824 8 8 (933888)
I1129 21:36:26.975430 13963 net.cpp:165] Memory required for data: 4783644768
I1129 21:36:26.975437 13963 layer_factory.hpp:77] Creating layer concat_5_29_concat_5_29_0_split
I1129 21:36:26.975450 13963 net.cpp:100] Creating Layer concat_5_29_concat_5_29_0_split
I1129 21:36:26.975459 13963 net.cpp:434] concat_5_29_concat_5_29_0_split <- concat_5_29
I1129 21:36:26.975474 13963 net.cpp:408] concat_5_29_concat_5_29_0_split -> concat_5_29_concat_5_29_0_split_0
I1129 21:36:26.975488 13963 net.cpp:408] concat_5_29_concat_5_29_0_split -> concat_5_29_concat_5_29_0_split_1
I1129 21:36:26.976828 13963 net.cpp:150] Setting up concat_5_29_concat_5_29_0_split
I1129 21:36:26.976852 13963 net.cpp:157] Top shape: 8 1824 8 8 (933888)
I1129 21:36:26.976860 13963 net.cpp:157] Top shape: 8 1824 8 8 (933888)
I1129 21:36:26.976864 13963 net.cpp:165] Memory required for data: 4791115872
I1129 21:36:26.976871 13963 layer_factory.hpp:77] Creating layer conv5_30/x1/bn
I1129 21:36:26.976886 13963 net.cpp:100] Creating Layer conv5_30/x1/bn
I1129 21:36:26.976893 13963 net.cpp:434] conv5_30/x1/bn <- concat_5_29_concat_5_29_0_split_0
I1129 21:36:26.977282 13963 net.cpp:408] conv5_30/x1/bn -> conv5_30/x1/bn
I1129 21:36:26.978767 13963 net.cpp:150] Setting up conv5_30/x1/bn
I1129 21:36:26.978785 13963 net.cpp:157] Top shape: 8 1824 8 8 (933888)
I1129 21:36:26.978791 13963 net.cpp:165] Memory required for data: 4794851424
I1129 21:36:26.978806 13963 layer_factory.hpp:77] Creating layer conv5_30/x1/scale
I1129 21:36:26.978816 13963 net.cpp:100] Creating Layer conv5_30/x1/scale
I1129 21:36:26.978824 13963 net.cpp:434] conv5_30/x1/scale <- conv5_30/x1/bn
I1129 21:36:26.978832 13963 net.cpp:395] conv5_30/x1/scale -> conv5_30/x1/bn (in-place)
I1129 21:36:26.978989 13963 layer_factory.hpp:77] Creating layer conv5_30/x1/scale
I1129 21:36:26.979373 13963 net.cpp:150] Setting up conv5_30/x1/scale
I1129 21:36:26.979406 13963 net.cpp:157] Top shape: 8 1824 8 8 (933888)
I1129 21:36:26.979413 13963 net.cpp:165] Memory required for data: 4798586976
I1129 21:36:26.979423 13963 layer_factory.hpp:77] Creating layer relu5_30/x1
I1129 21:36:26.979434 13963 net.cpp:100] Creating Layer relu5_30/x1
I1129 21:36:26.979440 13963 net.cpp:434] relu5_30/x1 <- conv5_30/x1/bn
I1129 21:36:26.979447 13963 net.cpp:395] relu5_30/x1 -> conv5_30/x1/bn (in-place)
I1129 21:36:26.979995 13963 net.cpp:150] Setting up relu5_30/x1
I1129 21:36:26.980012 13963 net.cpp:157] Top shape: 8 1824 8 8 (933888)
I1129 21:36:26.980017 13963 net.cpp:165] Memory required for data: 4802322528
I1129 21:36:26.980023 13963 layer_factory.hpp:77] Creating layer conv5_30/x1
I1129 21:36:26.980036 13963 net.cpp:100] Creating Layer conv5_30/x1
I1129 21:36:26.980042 13963 net.cpp:434] conv5_30/x1 <- conv5_30/x1/bn
I1129 21:36:26.980057 13963 net.cpp:408] conv5_30/x1 -> conv5_30/x1
I1129 21:36:26.984031 13963 net.cpp:150] Setting up conv5_30/x1
I1129 21:36:26.984057 13963 net.cpp:157] Top shape: 8 128 8 8 (65536)
I1129 21:36:26.984063 13963 net.cpp:165] Memory required for data: 4802584672
I1129 21:36:26.984073 13963 layer_factory.hpp:77] Creating layer conv5_30/x2/bn
I1129 21:36:26.984092 13963 net.cpp:100] Creating Layer conv5_30/x2/bn
I1129 21:36:26.984102 13963 net.cpp:434] conv5_30/x2/bn <- conv5_30/x1
I1129 21:36:26.984118 13963 net.cpp:408] conv5_30/x2/bn -> conv5_30/x2/bn
I1129 21:36:26.984630 13963 net.cpp:150] Setting up conv5_30/x2/bn
I1129 21:36:26.984645 13963 net.cpp:157] Top shape: 8 128 8 8 (65536)
I1129 21:36:26.984650 13963 net.cpp:165] Memory required for data: 4802846816
I1129 21:36:26.984663 13963 layer_factory.hpp:77] Creating layer conv5_30/x2/scale
I1129 21:36:26.984673 13963 net.cpp:100] Creating Layer conv5_30/x2/scale
I1129 21:36:26.984679 13963 net.cpp:434] conv5_30/x2/scale <- conv5_30/x2/bn
I1129 21:36:26.984686 13963 net.cpp:395] conv5_30/x2/scale -> conv5_30/x2/bn (in-place)
I1129 21:36:26.984791 13963 layer_factory.hpp:77] Creating layer conv5_30/x2/scale
I1129 21:36:26.985059 13963 net.cpp:150] Setting up conv5_30/x2/scale
I1129 21:36:26.985071 13963 net.cpp:157] Top shape: 8 128 8 8 (65536)
I1129 21:36:26.985076 13963 net.cpp:165] Memory required for data: 4803108960
I1129 21:36:26.985085 13963 layer_factory.hpp:77] Creating layer relu5_30/x2
I1129 21:36:26.985093 13963 net.cpp:100] Creating Layer relu5_30/x2
I1129 21:36:26.985100 13963 net.cpp:434] relu5_30/x2 <- conv5_30/x2/bn
I1129 21:36:26.985112 13963 net.cpp:395] relu5_30/x2 -> conv5_30/x2/bn (in-place)
I1129 21:36:26.987062 13963 net.cpp:150] Setting up relu5_30/x2
I1129 21:36:26.987083 13963 net.cpp:157] Top shape: 8 128 8 8 (65536)
I1129 21:36:26.987112 13963 net.cpp:165] Memory required for data: 4803371104
I1129 21:36:26.987118 13963 layer_factory.hpp:77] Creating layer conv5_30/x2
I1129 21:36:26.987136 13963 net.cpp:100] Creating Layer conv5_30/x2
I1129 21:36:26.987144 13963 net.cpp:434] conv5_30/x2 <- conv5_30/x2/bn
I1129 21:36:26.987152 13963 net.cpp:408] conv5_30/x2 -> conv5_30/x2
I1129 21:36:26.990161 13963 net.cpp:150] Setting up conv5_30/x2
I1129 21:36:26.990183 13963 net.cpp:157] Top shape: 8 32 8 8 (16384)
I1129 21:36:26.990187 13963 net.cpp:165] Memory required for data: 4803436640
I1129 21:36:26.990195 13963 layer_factory.hpp:77] Creating layer concat_5_30
I1129 21:36:26.990212 13963 net.cpp:100] Creating Layer concat_5_30
I1129 21:36:26.990221 13963 net.cpp:434] concat_5_30 <- concat_5_29_concat_5_29_0_split_1
I1129 21:36:26.990229 13963 net.cpp:434] concat_5_30 <- conv5_30/x2
I1129 21:36:26.990237 13963 net.cpp:408] concat_5_30 -> concat_5_30
I1129 21:36:26.990305 13963 net.cpp:150] Setting up concat_5_30
I1129 21:36:26.990315 13963 net.cpp:157] Top shape: 8 1856 8 8 (950272)
I1129 21:36:26.990319 13963 net.cpp:165] Memory required for data: 4807237728
I1129 21:36:26.990324 13963 layer_factory.hpp:77] Creating layer concat_5_30_concat_5_30_0_split
I1129 21:36:26.990330 13963 net.cpp:100] Creating Layer concat_5_30_concat_5_30_0_split
I1129 21:36:26.990335 13963 net.cpp:434] concat_5_30_concat_5_30_0_split <- concat_5_30
I1129 21:36:26.990348 13963 net.cpp:408] concat_5_30_concat_5_30_0_split -> concat_5_30_concat_5_30_0_split_0
I1129 21:36:26.990357 13963 net.cpp:408] concat_5_30_concat_5_30_0_split -> concat_5_30_concat_5_30_0_split_1
I1129 21:36:26.990459 13963 net.cpp:150] Setting up concat_5_30_concat_5_30_0_split
I1129 21:36:26.990469 13963 net.cpp:157] Top shape: 8 1856 8 8 (950272)
I1129 21:36:26.990475 13963 net.cpp:157] Top shape: 8 1856 8 8 (950272)
I1129 21:36:26.990478 13963 net.cpp:165] Memory required for data: 4814839904
I1129 21:36:26.990483 13963 layer_factory.hpp:77] Creating layer conv5_31/x1/bn
I1129 21:36:26.990497 13963 net.cpp:100] Creating Layer conv5_31/x1/bn
I1129 21:36:26.990504 13963 net.cpp:434] conv5_31/x1/bn <- concat_5_30_concat_5_30_0_split_0
I1129 21:36:26.990516 13963 net.cpp:408] conv5_31/x1/bn -> conv5_31/x1/bn
I1129 21:36:26.990996 13963 net.cpp:150] Setting up conv5_31/x1/bn
I1129 21:36:26.991009 13963 net.cpp:157] Top shape: 8 1856 8 8 (950272)
I1129 21:36:26.991014 13963 net.cpp:165] Memory required for data: 4818640992
I1129 21:36:26.991024 13963 layer_factory.hpp:77] Creating layer conv5_31/x1/scale
I1129 21:36:26.991032 13963 net.cpp:100] Creating Layer conv5_31/x1/scale
I1129 21:36:26.991039 13963 net.cpp:434] conv5_31/x1/scale <- conv5_31/x1/bn
I1129 21:36:26.991051 13963 net.cpp:395] conv5_31/x1/scale -> conv5_31/x1/bn (in-place)
I1129 21:36:26.991259 13963 layer_factory.hpp:77] Creating layer conv5_31/x1/scale
I1129 21:36:26.991626 13963 net.cpp:150] Setting up conv5_31/x1/scale
I1129 21:36:26.991641 13963 net.cpp:157] Top shape: 8 1856 8 8 (950272)
I1129 21:36:26.991644 13963 net.cpp:165] Memory required for data: 4822442080
I1129 21:36:26.991653 13963 layer_factory.hpp:77] Creating layer relu5_31/x1
I1129 21:36:26.991662 13963 net.cpp:100] Creating Layer relu5_31/x1
I1129 21:36:26.991667 13963 net.cpp:434] relu5_31/x1 <- conv5_31/x1/bn
I1129 21:36:26.991681 13963 net.cpp:395] relu5_31/x1 -> conv5_31/x1/bn (in-place)
I1129 21:36:26.991997 13963 net.cpp:150] Setting up relu5_31/x1
I1129 21:36:26.992012 13963 net.cpp:157] Top shape: 8 1856 8 8 (950272)
I1129 21:36:26.992015 13963 net.cpp:165] Memory required for data: 4826243168
I1129 21:36:26.992020 13963 layer_factory.hpp:77] Creating layer conv5_31/x1
I1129 21:36:26.992038 13963 net.cpp:100] Creating Layer conv5_31/x1
I1129 21:36:26.992043 13963 net.cpp:434] conv5_31/x1 <- conv5_31/x1/bn
I1129 21:36:26.992055 13963 net.cpp:408] conv5_31/x1 -> conv5_31/x1
I1129 21:36:26.997310 13963 net.cpp:150] Setting up conv5_31/x1
I1129 21:36:26.997334 13963 net.cpp:157] Top shape: 8 128 8 8 (65536)
I1129 21:36:26.997339 13963 net.cpp:165] Memory required for data: 4826505312
I1129 21:36:26.997364 13963 layer_factory.hpp:77] Creating layer conv5_31/x2/bn
I1129 21:36:26.997375 13963 net.cpp:100] Creating Layer conv5_31/x2/bn
I1129 21:36:26.997381 13963 net.cpp:434] conv5_31/x2/bn <- conv5_31/x1
I1129 21:36:26.997408 13963 net.cpp:408] conv5_31/x2/bn -> conv5_31/x2/bn
I1129 21:36:26.997803 13963 net.cpp:150] Setting up conv5_31/x2/bn
I1129 21:36:26.997814 13963 net.cpp:157] Top shape: 8 128 8 8 (65536)
I1129 21:36:26.997819 13963 net.cpp:165] Memory required for data: 4826767456
I1129 21:36:26.997829 13963 layer_factory.hpp:77] Creating layer conv5_31/x2/scale
I1129 21:36:26.997840 13963 net.cpp:100] Creating Layer conv5_31/x2/scale
I1129 21:36:26.997846 13963 net.cpp:434] conv5_31/x2/scale <- conv5_31/x2/bn
I1129 21:36:26.997853 13963 net.cpp:395] conv5_31/x2/scale -> conv5_31/x2/bn (in-place)
I1129 21:36:26.997932 13963 layer_factory.hpp:77] Creating layer conv5_31/x2/scale
I1129 21:36:26.998128 13963 net.cpp:150] Setting up conv5_31/x2/scale
I1129 21:36:26.998137 13963 net.cpp:157] Top shape: 8 128 8 8 (65536)
I1129 21:36:26.998142 13963 net.cpp:165] Memory required for data: 4827029600
I1129 21:36:26.998148 13963 layer_factory.hpp:77] Creating layer relu5_31/x2
I1129 21:36:26.998159 13963 net.cpp:100] Creating Layer relu5_31/x2
I1129 21:36:26.998164 13963 net.cpp:434] relu5_31/x2 <- conv5_31/x2/bn
I1129 21:36:26.998172 13963 net.cpp:395] relu5_31/x2 -> conv5_31/x2/bn (in-place)
I1129 21:36:26.998468 13963 net.cpp:150] Setting up relu5_31/x2
I1129 21:36:26.998481 13963 net.cpp:157] Top shape: 8 128 8 8 (65536)
I1129 21:36:26.998486 13963 net.cpp:165] Memory required for data: 4827291744
I1129 21:36:26.998491 13963 layer_factory.hpp:77] Creating layer conv5_31/x2
I1129 21:36:26.998502 13963 net.cpp:100] Creating Layer conv5_31/x2
I1129 21:36:26.998508 13963 net.cpp:434] conv5_31/x2 <- conv5_31/x2/bn
I1129 21:36:26.998519 13963 net.cpp:408] conv5_31/x2 -> conv5_31/x2
I1129 21:36:27.002655 13963 net.cpp:150] Setting up conv5_31/x2
I1129 21:36:27.002676 13963 net.cpp:157] Top shape: 8 32 8 8 (16384)
I1129 21:36:27.002681 13963 net.cpp:165] Memory required for data: 4827357280
I1129 21:36:27.002689 13963 layer_factory.hpp:77] Creating layer concat_5_31
I1129 21:36:27.002698 13963 net.cpp:100] Creating Layer concat_5_31
I1129 21:36:27.002707 13963 net.cpp:434] concat_5_31 <- concat_5_30_concat_5_30_0_split_1
I1129 21:36:27.002714 13963 net.cpp:434] concat_5_31 <- conv5_31/x2
I1129 21:36:27.002724 13963 net.cpp:408] concat_5_31 -> concat_5_31
I1129 21:36:27.002799 13963 net.cpp:150] Setting up concat_5_31
I1129 21:36:27.002809 13963 net.cpp:157] Top shape: 8 1888 8 8 (966656)
I1129 21:36:27.002812 13963 net.cpp:165] Memory required for data: 4831223904
I1129 21:36:27.002816 13963 layer_factory.hpp:77] Creating layer concat_5_31_concat_5_31_0_split
I1129 21:36:27.002823 13963 net.cpp:100] Creating Layer concat_5_31_concat_5_31_0_split
I1129 21:36:27.002830 13963 net.cpp:434] concat_5_31_concat_5_31_0_split <- concat_5_31
I1129 21:36:27.002835 13963 net.cpp:408] concat_5_31_concat_5_31_0_split -> concat_5_31_concat_5_31_0_split_0
I1129 21:36:27.002843 13963 net.cpp:408] concat_5_31_concat_5_31_0_split -> concat_5_31_concat_5_31_0_split_1
I1129 21:36:27.002918 13963 net.cpp:150] Setting up concat_5_31_concat_5_31_0_split
I1129 21:36:27.002926 13963 net.cpp:157] Top shape: 8 1888 8 8 (966656)
I1129 21:36:27.002931 13963 net.cpp:157] Top shape: 8 1888 8 8 (966656)
I1129 21:36:27.002934 13963 net.cpp:165] Memory required for data: 4838957152
I1129 21:36:27.002938 13963 layer_factory.hpp:77] Creating layer conv5_32/x1/bn
I1129 21:36:27.002949 13963 net.cpp:100] Creating Layer conv5_32/x1/bn
I1129 21:36:27.002954 13963 net.cpp:434] conv5_32/x1/bn <- concat_5_31_concat_5_31_0_split_0
I1129 21:36:27.002961 13963 net.cpp:408] conv5_32/x1/bn -> conv5_32/x1/bn
I1129 21:36:27.003581 13963 net.cpp:150] Setting up conv5_32/x1/bn
I1129 21:36:27.003600 13963 net.cpp:157] Top shape: 8 1888 8 8 (966656)
I1129 21:36:27.003604 13963 net.cpp:165] Memory required for data: 4842823776
I1129 21:36:27.003633 13963 layer_factory.hpp:77] Creating layer conv5_32/x1/scale
I1129 21:36:27.003643 13963 net.cpp:100] Creating Layer conv5_32/x1/scale
I1129 21:36:27.003649 13963 net.cpp:434] conv5_32/x1/scale <- conv5_32/x1/bn
I1129 21:36:27.003656 13963 net.cpp:395] conv5_32/x1/scale -> conv5_32/x1/bn (in-place)
I1129 21:36:27.003780 13963 layer_factory.hpp:77] Creating layer conv5_32/x1/scale
I1129 21:36:27.004040 13963 net.cpp:150] Setting up conv5_32/x1/scale
I1129 21:36:27.004050 13963 net.cpp:157] Top shape: 8 1888 8 8 (966656)
I1129 21:36:27.004053 13963 net.cpp:165] Memory required for data: 4846690400
I1129 21:36:27.004061 13963 layer_factory.hpp:77] Creating layer relu5_32/x1
I1129 21:36:27.004068 13963 net.cpp:100] Creating Layer relu5_32/x1
I1129 21:36:27.004073 13963 net.cpp:434] relu5_32/x1 <- conv5_32/x1/bn
I1129 21:36:27.004079 13963 net.cpp:395] relu5_32/x1 -> conv5_32/x1/bn (in-place)
I1129 21:36:27.004376 13963 net.cpp:150] Setting up relu5_32/x1
I1129 21:36:27.004405 13963 net.cpp:157] Top shape: 8 1888 8 8 (966656)
I1129 21:36:27.004410 13963 net.cpp:165] Memory required for data: 4850557024
I1129 21:36:27.004415 13963 layer_factory.hpp:77] Creating layer conv5_32/x1
I1129 21:36:27.004436 13963 net.cpp:100] Creating Layer conv5_32/x1
I1129 21:36:27.004444 13963 net.cpp:434] conv5_32/x1 <- conv5_32/x1/bn
I1129 21:36:27.004451 13963 net.cpp:408] conv5_32/x1 -> conv5_32/x1
I1129 21:36:27.007545 13963 net.cpp:150] Setting up conv5_32/x1
I1129 21:36:27.007570 13963 net.cpp:157] Top shape: 8 128 8 8 (65536)
I1129 21:36:27.007575 13963 net.cpp:165] Memory required for data: 4850819168
I1129 21:36:27.007585 13963 layer_factory.hpp:77] Creating layer conv5_32/x2/bn
I1129 21:36:27.007596 13963 net.cpp:100] Creating Layer conv5_32/x2/bn
I1129 21:36:27.007603 13963 net.cpp:434] conv5_32/x2/bn <- conv5_32/x1
I1129 21:36:27.007614 13963 net.cpp:408] conv5_32/x2/bn -> conv5_32/x2/bn
I1129 21:36:27.007999 13963 net.cpp:150] Setting up conv5_32/x2/bn
I1129 21:36:27.008009 13963 net.cpp:157] Top shape: 8 128 8 8 (65536)
I1129 21:36:27.008013 13963 net.cpp:165] Memory required for data: 4851081312
I1129 21:36:27.008024 13963 layer_factory.hpp:77] Creating layer conv5_32/x2/scale
I1129 21:36:27.008033 13963 net.cpp:100] Creating Layer conv5_32/x2/scale
I1129 21:36:27.008038 13963 net.cpp:434] conv5_32/x2/scale <- conv5_32/x2/bn
I1129 21:36:27.008044 13963 net.cpp:395] conv5_32/x2/scale -> conv5_32/x2/bn (in-place)
I1129 21:36:27.008126 13963 layer_factory.hpp:77] Creating layer conv5_32/x2/scale
I1129 21:36:27.008329 13963 net.cpp:150] Setting up conv5_32/x2/scale
I1129 21:36:27.008337 13963 net.cpp:157] Top shape: 8 128 8 8 (65536)
I1129 21:36:27.008342 13963 net.cpp:165] Memory required for data: 4851343456
I1129 21:36:27.008348 13963 layer_factory.hpp:77] Creating layer relu5_32/x2
I1129 21:36:27.008355 13963 net.cpp:100] Creating Layer relu5_32/x2
I1129 21:36:27.008360 13963 net.cpp:434] relu5_32/x2 <- conv5_32/x2/bn
I1129 21:36:27.008368 13963 net.cpp:395] relu5_32/x2 -> conv5_32/x2/bn (in-place)
I1129 21:36:27.008661 13963 net.cpp:150] Setting up relu5_32/x2
I1129 21:36:27.008674 13963 net.cpp:157] Top shape: 8 128 8 8 (65536)
I1129 21:36:27.008678 13963 net.cpp:165] Memory required for data: 4851605600
I1129 21:36:27.008682 13963 layer_factory.hpp:77] Creating layer conv5_32/x2
I1129 21:36:27.008697 13963 net.cpp:100] Creating Layer conv5_32/x2
I1129 21:36:27.008702 13963 net.cpp:434] conv5_32/x2 <- conv5_32/x2/bn
I1129 21:36:27.008709 13963 net.cpp:408] conv5_32/x2 -> conv5_32/x2
I1129 21:36:27.011425 13963 net.cpp:150] Setting up conv5_32/x2
I1129 21:36:27.011446 13963 net.cpp:157] Top shape: 8 32 8 8 (16384)
I1129 21:36:27.011451 13963 net.cpp:165] Memory required for data: 4851671136
I1129 21:36:27.011458 13963 layer_factory.hpp:77] Creating layer concat_5_32
I1129 21:36:27.011471 13963 net.cpp:100] Creating Layer concat_5_32
I1129 21:36:27.011478 13963 net.cpp:434] concat_5_32 <- concat_5_31_concat_5_31_0_split_1
I1129 21:36:27.011487 13963 net.cpp:434] concat_5_32 <- conv5_32/x2
I1129 21:36:27.011513 13963 net.cpp:408] concat_5_32 -> concat_5_32
I1129 21:36:27.011575 13963 net.cpp:150] Setting up concat_5_32
I1129 21:36:27.011584 13963 net.cpp:157] Top shape: 8 1920 8 8 (983040)
I1129 21:36:27.011589 13963 net.cpp:165] Memory required for data: 4855603296
I1129 21:36:27.011592 13963 layer_factory.hpp:77] Creating layer conv5_32/blk/bn
I1129 21:36:27.011600 13963 net.cpp:100] Creating Layer conv5_32/blk/bn
I1129 21:36:27.011605 13963 net.cpp:434] conv5_32/blk/bn <- concat_5_32
I1129 21:36:27.011620 13963 net.cpp:408] conv5_32/blk/bn -> conv5_32/blk/bn
I1129 21:36:27.012048 13963 net.cpp:150] Setting up conv5_32/blk/bn
I1129 21:36:27.012058 13963 net.cpp:157] Top shape: 8 1920 8 8 (983040)
I1129 21:36:27.012061 13963 net.cpp:165] Memory required for data: 4859535456
I1129 21:36:27.012073 13963 layer_factory.hpp:77] Creating layer conv5_32/blk/scale
I1129 21:36:27.012079 13963 net.cpp:100] Creating Layer conv5_32/blk/scale
I1129 21:36:27.012085 13963 net.cpp:434] conv5_32/blk/scale <- conv5_32/blk/bn
I1129 21:36:27.012091 13963 net.cpp:395] conv5_32/blk/scale -> conv5_32/blk/bn (in-place)
I1129 21:36:27.012187 13963 layer_factory.hpp:77] Creating layer conv5_32/blk/scale
I1129 21:36:27.012449 13963 net.cpp:150] Setting up conv5_32/blk/scale
I1129 21:36:27.012459 13963 net.cpp:157] Top shape: 8 1920 8 8 (983040)
I1129 21:36:27.012464 13963 net.cpp:165] Memory required for data: 4863467616
I1129 21:36:27.012471 13963 layer_factory.hpp:77] Creating layer relu5_32/blk
I1129 21:36:27.012481 13963 net.cpp:100] Creating Layer relu5_32/blk
I1129 21:36:27.012486 13963 net.cpp:434] relu5_32/blk <- conv5_32/blk/bn
I1129 21:36:27.012491 13963 net.cpp:395] relu5_32/blk -> conv5_32/blk/bn (in-place)
I1129 21:36:27.012763 13963 net.cpp:150] Setting up relu5_32/blk
I1129 21:36:27.012780 13963 net.cpp:157] Top shape: 8 1920 8 8 (983040)
I1129 21:36:27.012784 13963 net.cpp:165] Memory required for data: 4867399776
I1129 21:36:27.012789 13963 layer_factory.hpp:77] Creating layer pool5
I1129 21:36:27.012801 13963 net.cpp:100] Creating Layer pool5
I1129 21:36:27.012807 13963 net.cpp:434] pool5 <- conv5_32/blk/bn
I1129 21:36:27.012814 13963 net.cpp:408] pool5 -> pool5
I1129 21:36:27.015983 13963 net.cpp:150] Setting up pool5
I1129 21:36:27.016007 13963 net.cpp:157] Top shape: 8 1920 1 1 (15360)
I1129 21:36:27.016012 13963 net.cpp:165] Memory required for data: 4867461216
I1129 21:36:27.016018 13963 layer_factory.hpp:77] Creating layer fc6_my
I1129 21:36:27.016052 13963 net.cpp:100] Creating Layer fc6_my
I1129 21:36:27.016060 13963 net.cpp:434] fc6_my <- pool5
I1129 21:36:27.016070 13963 net.cpp:408] fc6_my -> fc6_my
I1129 21:36:27.019158 13963 net.cpp:150] Setting up fc6_my
I1129 21:36:27.019178 13963 net.cpp:157] Top shape: 8 80 1 1 (640)
I1129 21:36:27.019182 13963 net.cpp:165] Memory required for data: 4867463776
I1129 21:36:27.019191 13963 layer_factory.hpp:77] Creating layer fc6_my_fc6_my_0_split
I1129 21:36:27.019201 13963 net.cpp:100] Creating Layer fc6_my_fc6_my_0_split
I1129 21:36:27.019207 13963 net.cpp:434] fc6_my_fc6_my_0_split <- fc6_my
I1129 21:36:27.019217 13963 net.cpp:408] fc6_my_fc6_my_0_split -> fc6_my_fc6_my_0_split_0
I1129 21:36:27.019227 13963 net.cpp:408] fc6_my_fc6_my_0_split -> fc6_my_fc6_my_0_split_1
I1129 21:36:27.019549 13963 net.cpp:150] Setting up fc6_my_fc6_my_0_split
I1129 21:36:27.019657 13963 net.cpp:157] Top shape: 8 80 1 1 (640)
I1129 21:36:27.019709 13963 net.cpp:157] Top shape: 8 80 1 1 (640)
I1129 21:36:27.019744 13963 net.cpp:165] Memory required for data: 4867468896
I1129 21:36:27.019784 13963 layer_factory.hpp:77] Creating layer loss
I1129 21:36:27.019832 13963 net.cpp:100] Creating Layer loss
I1129 21:36:27.019876 13963 net.cpp:434] loss <- fc6_my_fc6_my_0_split_0
I1129 21:36:27.019919 13963 net.cpp:434] loss <- label_data_1_split_0
I1129 21:36:27.019965 13963 net.cpp:408] loss -> loss
…
