…
I1126 11:19:54.151872  1604 net.cpp:322] The NetState phase (0) differed from the phase (1) specified by a rule in layer accuracy
I1126 11:19:54.156610  1604 net.cpp:58] Initializing net from parameters: 
state {
  phase: TRAIN
  level: 0
  stage: ""
}
layer {
  name: "data"
  type: "ImageData"
  top: "data"
  top: "label"
  include {
    phase: TRAIN
  }
  transform_param {
    scale: 0.017
    mirror: true
    crop_size: 224
  }
  image_data_param {
    source: "../aichallenger_train_treated/all_treated_tra_val_label.txt"
    batch_size: 16
    shuffle: true
  }
}
layer {
  name: "conv1"
  type: "Convolution"
  bottom: "data"
  top: "conv1"
  convolution_param {
    num_output: 64
    bias_term: false
    pad: 3
    kernel_size: 7
    stride: 2
  }
}
layer {
  name: "conv1/bn"
  type: "BatchNorm"
  bottom: "conv1"
  top: "conv1/bn"
  batch_norm_param {
    eps: 1e-05
  }
}
layer {
  name: "conv1/scale"
  type: "Scale"
  bottom: "conv1/bn"
  top: "conv1/bn"
  scale_param {
    bias_term: true
  }
}
layer {
  name: "relu1"
  type: "ReLU"
  bottom: "conv1/bn"
  top: "conv1/bn"
}
layer {
  name: "pool1"
  type: "Pooling"
  bottom: "conv1/bn"
  top: "pool1"
  pooling_param {
    pool: MAX
    kernel_size: 3
    stride: 2
    pad: 1
  }
}
layer {
  name: "conv2_1/x1/bn"
  type: "BatchNorm"
  bottom: "pool1"
  top: "conv2_1/x1/bn"
  batch_norm_param {
    eps: 1e-05
  }
}
layer {
  name: "conv2_1/x1/scale"
  type: "Scale"
  bottom: "conv2_1/x1/bn"
  top: "conv2_1/x1/bn"
  scale_param {
    bias_term: true
  }
}
layer {
  name: "relu2_1/x1"
  type: "ReLU"
  bottom: "conv2_1/x1/bn"
  top: "conv2_1/x1/bn"
}
layer {
  name: "conv2_1/x1"
  type: "Convolution"
  bottom: "conv2_1/x1/bn"
  top: "conv2_1/x1"
  convolution_param {
    num_output: 128
    bias_term: false
    kernel_size: 1
  }
}
layer {
  name: "conv2_1/x2/bn"
  type: "BatchNorm"
  bottom: "conv2_1/x1"
  top: "conv2_1/x2/bn"
  batch_norm_param {
    eps: 1e-05
  }
}
layer {
  name: "conv2_1/x2/scale"
  type: "Scale"
  bottom: "conv2_1/x2/bn"
  top: "conv2_1/x2/bn"
  scale_param {
    bias_term: true
  }
}
layer {
  name: "relu2_1/x2"
  type: "ReLU"
  bottom: "conv2_1/x2/bn"
  top: "conv2_1/x2/bn"
}
layer {
  name: "conv2_1/x2"
  type: "Convolution"
  bottom: "conv2_1/x2/bn"
  top: "conv2_1/x2"
  convolution_param {
    num_output: 32
    bias_term: false
    pad: 1
    kernel_size: 3
  }
}
layer {
  name: "concat_2_1"
  type: "Concat"
  bottom: "pool1"
  bottom: "conv2_1/x2"
  top: "concat_2_1"
}
layer {
  name: "conv2_2/x1/bn"
  type: "BatchNorm"
  bottom: "concat_2_1"
  top: "conv2_2/x1/bn"
  batch_norm_param {
    eps: 1e-05
  }
}
layer {
  name: "conv2_2/x1/scale"
  type: "Scale"
  bottom: "conv2_2/x1/bn"
  top: "conv2_2/x1/bn"
  scale_param {
    bias_term: true
  }
}
layer {
  name: "relu2_2/x1"
  type: "ReLU"
  bottom: "conv2_2/x1/bn"
  top: "conv2_2/x1/bn"
}
layer {
  name: "conv2_2/x1"
  type: "Convolution"
  bottom: "conv2_2/x1/bn"
  top: "conv2_2/x1"
  convolution_param {
    num_output: 128
    bias_term: false
    kernel_size: 1
  }
}
layer {
  name: "conv2_2/x2/bn"
  type: "BatchNorm"
  bottom: "conv2_2/x1"
  top: "conv2_2/x2/bn"
  batch_norm_param {
    eps: 1e-05
  }
}
layer {
  name: "conv2_2/x2/scale"
  type: "Scale"
  bottom: "conv2_2/x2/bn"
  top: "conv2_2/x2/bn"
  scale_param {
    bias_term: true
  }
}
layer {
  name: "relu2_2/x2"
  type: "ReLU"
  bottom: "conv2_2/x2/bn"
  top: "conv2_2/x2/bn"
}
layer {
  name: "conv2_2/x2"
  type: "Convolution"
  bottom: "conv2_2/x2/bn"
  top: "conv2_2/x2"
  convolution_param {
    num_output: 32
    bias_term: false
    pad: 1
    kernel_size: 3
  }
}
layer {
  name: "concat_2_2"
  type: "Concat"
  bottom: "concat_2_1"
  bottom: "conv2_2/x2"
  top: "concat_2_2"
}
layer {
  name: "conv2_3/x1/bn"
  type: "BatchNorm"
  bottom: "concat_2_2"
  top: "conv2_3/x1/bn"
  batch_norm_param {
    eps: 1e-05
  }
}
layer {
  name: "conv2_3/x1/scale"
  type: "Scale"
  bottom: "conv2_3/x1/bn"
  top: "conv2_3/x1/bn"
  scale_param {
    bias_term: true
  }
}
layer {
  name: "relu2_3/x1"
  type: "ReLU"
  bottom: "conv2_3/x1/bn"
  top: "conv2_3/x1/bn"
}
layer {
  name: "conv2_3/x1"
  type: "Convolution"
  bottom: "conv2_3/x1/bn"
  top: "conv2_3/x1"
  convolution_param {
    num_output: 128
    bias_term: false
    kernel_size: 1
  }
}
layer {
  name: "conv2_3/x2/bn"
  type: "BatchNorm"
  bottom: "conv2_3/x1"
  top: "conv2_3/x2/bn"
  batch_norm_param {
    eps: 1e-05
  }
}
layer {
  name: "conv2_3/x2/scale"
  type: "Scale"
  bottom: "conv2_3/x2/bn"
  top: "conv2_3/x2/bn"
  scale_param {
    bias_term: true
  }
}
layer {
  name: "relu2_3/x2"
  type: "ReLU"
  bottom: "conv2_3/x2/bn"
  top: "conv2_3/x2/bn"
}
layer {
  name: "conv2_3/x2"
  type: "Convolution"
  bottom: "conv2_3/x2/bn"
  top: "conv2_3/x2"
  convolution_param {
    num_output: 32
    bias_term: false
    pad: 1
    kernel_size: 3
  }
}
layer {
  name: "concat_2_3"
  type: "Concat"
  bottom: "concat_2_2"
  bottom: "conv2_3/x2"
  top: "concat_2_3"
}
layer {
  name: "conv2_4/x1/bn"
  type: "BatchNorm"
  bottom: "concat_2_3"
  top: "conv2_4/x1/bn"
  batch_norm_param {
    eps: 1e-05
  }
}
layer {
  name: "conv2_4/x1/scale"
  type: "Scale"
  bottom: "conv2_4/x1/bn"
  top: "conv2_4/x1/bn"
  scale_param {
    bias_term: true
  }
}
layer {
  name: "relu2_4/x1"
  type: "ReLU"
  bottom: "conv2_4/x1/bn"
  top: "conv2_4/x1/bn"
}
layer {
  name: "conv2_4/x1"
  type: "Convolution"
  bottom: "conv2_4/x1/bn"
  top: "conv2_4/x1"
  convolution_param {
    num_output: 128
    bias_term: false
    kernel_size: 1
  }
}
layer {
  name: "conv2_4/x2/bn"
  type: "BatchNorm"
  bottom: "conv2_4/x1"
  top: "conv2_4/x2/bn"
  batch_norm_param {
    eps: 1e-05
  }
}
layer {
  name: "conv2_4/x2/scale"
  type: "Scale"
  bottom: "conv2_4/x2/bn"
  top: "conv2_4/x2/bn"
  scale_param {
    bias_term: true
  }
}
layer {
  name: "relu2_4/x2"
  type: "ReLU"
  bottom: "conv2_4/x2/bn"
  top: "conv2_4/x2/bn"
}
layer {
  name: "conv2_4/x2"
  type: "Convolution"
  bottom: "conv2_4/x2/bn"
  top: "conv2_4/x2"
  convolution_param {
    num_output: 32
    bias_term: false
    pad: 1
    kernel_size: 3
  }
}
layer {
  name: "concat_2_4"
  type: "Concat"
  bottom: "concat_2_3"
  bottom: "conv2_4/x2"
  top: "concat_2_4"
}
layer {
  name: "conv2_5/x1/bn"
  type: "BatchNorm"
  bottom: "concat_2_4"
  top: "conv2_5/x1/bn"
  batch_norm_param {
    eps: 1e-05
  }
}
layer {
  name: "conv2_5/x1/scale"
  type: "Scale"
  bottom: "conv2_5/x1/bn"
  top: "conv2_5/x1/bn"
  scale_param {
    bias_term: true
  }
}
layer {
  name: "relu2_5/x1"
  type: "ReLU"
  bottom: "conv2_5/x1/bn"
  top: "conv2_5/x1/bn"
}
layer {
  name: "conv2_5/x1"
  type: "Convolution"
  bottom: "conv2_5/x1/bn"
  top: "conv2_5/x1"
  convolution_param {
    num_output: 128
    bias_term: false
    kernel_size: 1
  }
}
layer {
  name: "conv2_5/x2/bn"
  type: "BatchNorm"
  bottom: "conv2_5/x1"
  top: "conv2_5/x2/bn"
  batch_norm_param {
    eps: 1e-05
  }
}
layer {
  name: "conv2_5/x2/scale"
  type: "Scale"
  bottom: "conv2_5/x2/bn"
  top: "conv2_5/x2/bn"
  scale_param {
    bias_term: true
  }
}
layer {
  name: "relu2_5/x2"
  type: "ReLU"
  bottom: "conv2_5/x2/bn"
  top: "conv2_5/x2/bn"
}
layer {
  name: "conv2_5/x2"
  type: "Convolution"
  bottom: "conv2_5/x2/bn"
  top: "conv2_5/x2"
  convolution_param {
    num_output: 32
    bias_term: false
    pad: 1
    kernel_size: 3
  }
}
layer {
  name: "concat_2_5"
  type: "Concat"
  bottom: "concat_2_4"
  bottom: "conv2_5/x2"
  top: "concat_2_5"
}
layer {
  name: "conv2_6/x1/bn"
  type: "BatchNorm"
  bottom: "concat_2_5"
  top: "conv2_6/x1/bn"
  batch_norm_param {
    eps: 1e-05
  }
}
layer {
  name: "conv2_6/x1/scale"
  type: "Scale"
  bottom: "conv2_6/x1/bn"
  top: "conv2_6/x1/bn"
  scale_param {
    bias_term: true
  }
}
layer {
  name: "relu2_6/x1"
  type: "ReLU"
  bottom: "conv2_6/x1/bn"
  top: "conv2_6/x1/bn"
}
layer {
  name: "conv2_6/x1"
  type: "Convolution"
  bottom: "conv2_6/x1/bn"
  top: "conv2_6/x1"
  convolution_param {
    num_output: 128
    bias_term: false
    kernel_size: 1
  }
}
layer {
  name: "conv2_6/x2/bn"
  type: "BatchNorm"
  bottom: "conv2_6/x1"
  top: "conv2_6/x2/bn"
  batch_norm_param {
    eps: 1e-05
  }
}
layer {
  name: "conv2_6/x2/scale"
  type: "Scale"
  bottom: "conv2_6/x2/bn"
  top: "conv2_6/x2/bn"
  scale_param {
    bias_term: true
  }
}
layer {
  name: "relu2_6/x2"
  type: "ReLU"
  bottom: "conv2_6/x2/bn"
  top: "conv2_6/x2/bn"
}
layer {
  name: "conv2_6/x2"
  type: "Convolution"
  bottom: "conv2_6/x2/bn"
  top: "conv2_6/x2"
  convolution_param {
    num_output: 32
    bias_term: false
    pad: 1
    kernel_size: 3
  }
}
layer {
  name: "concat_2_6"
  type: "Concat"
  bottom: "concat_2_5"
  bottom: "conv2_6/x2"
  top: "concat_2_6"
}
layer {
  name: "conv2_6/blk/bn"
  type: "BatchNorm"
  bottom: "concat_2_6"
  top: "conv2_6/blk/bn"
  batch_norm_param {
    eps: 1e-05
  }
}
layer {
  name: "conv2_6/blk/scale"
  type: "Scale"
  bottom: "conv2_6/blk/bn"
  top: "conv2_6/blk/bn"
  scale_param {
    bias_term: true
  }
}
layer {
  name: "relu2_6/blk"
  type: "ReLU"
  bottom: "conv2_6/blk/bn"
  top: "conv2_6/blk/bn"
}
layer {
  name: "conv2_6/blk"
  type: "Convolution"
  bottom: "conv2_6/blk/bn"
  top: "conv2_6/blk"
  convolution_param {
    num_output: 128
    bias_term: false
    kernel_size: 1
  }
}
layer {
  name: "pool2_6"
  type: "Pooling"
  bottom: "conv2_6/blk"
  top: "pool2_6"
  pooling_param {
    pool: AVE
    kernel_size: 2
    stride: 2
  }
}
layer {
  name: "conv3_1/x1/bn"
  type: "BatchNorm"
  bottom: "pool2_6"
  top: "conv3_1/x1/bn"
  batch_norm_param {
    eps: 1e-05
  }
}
layer {
  name: "conv3_1/x1/scale"
  type: "Scale"
  bottom: "conv3_1/x1/bn"
  top: "conv3_1/x1/bn"
  scale_param {
    bias_term: true
  }
}
layer {
  name: "relu3_1/x1"
  type: "ReLU"
  bottom: "conv3_1/x1/bn"
  top: "conv3_1/x1/bn"
}
layer {
  name: "conv3_1/x1"
  type: "Convolution"
  bottom: "conv3_1/x1/bn"
  top: "conv3_1/x1"
  convolution_param {
    num_output: 128
    bias_term: false
    kernel_size: 1
  }
}
layer {
  name: "conv3_1/x2/bn"
  type: "BatchNorm"
  bottom: "conv3_1/x1"
  top: "conv3_1/x2/bn"
  batch_norm_param {
    eps: 1e-05
  }
}
layer {
  name: "conv3_1/x2/scale"
  type: "Scale"
  bottom: "conv3_1/x2/bn"
  top: "conv3_1/x2/bn"
  scale_param {
    bias_term: true
  }
}
layer {
  name: "relu3_1/x2"
  type: "ReLU"
  bottom: "conv3_1/x2/bn"
  top: "conv3_1/x2/bn"
}
layer {
  name: "conv3_1/x2"
  type: "Convolution"
  bottom: "conv3_1/x2/bn"
  top: "conv3_1/x2"
  convolution_param {
    num_output: 32
    bias_term: false
    pad: 1
    kernel_size: 3
  }
}
layer {
  name: "concat_3_1"
  type: "Concat"
  bottom: "pool2_6"
  bottom: "conv3_1/x2"
  top: "concat_3_1"
}
layer {
  name: "conv3_2/x1/bn"
  type: "BatchNorm"
  bottom: "concat_3_1"
  top: "conv3_2/x1/bn"
  batch_norm_param {
    eps: 1e-05
  }
}
layer {
  name: "conv3_2/x1/scale"
  type: "Scale"
  bottom: "conv3_2/x1/bn"
  top: "conv3_2/x1/bn"
  scale_param {
    bias_term: true
  }
}
layer {
  name: "relu3_2/x1"
  type: "ReLU"
  bottom: "conv3_2/x1/bn"
  top: "conv3_2/x1/bn"
}
layer {
  name: "conv3_2/x1"
  type: "Convolution"
  bottom: "conv3_2/x1/bn"
  top: "conv3_2/x1"
  convolution_param {
    num_output: 128
    bias_term: false
    kernel_size: 1
  }
}
layer {
  name: "conv3_2/x2/bn"
  type: "BatchNorm"
  bottom: "conv3_2/x1"
  top: "conv3_2/x2/bn"
  batch_norm_param {
    eps: 1e-05
  }
}
layer {
  name: "conv3_2/x2/scale"
  type: "Scale"
  bottom: "conv3_2/x2/bn"
  top: "conv3_2/x2/bn"
  scale_param {
    bias_term: true
  }
}
layer {
  name: "relu3_2/x2"
  type: "ReLU"
  bottom: "conv3_2/x2/bn"
  top: "conv3_2/x2/bn"
}
layer {
  name: "conv3_2/x2"
  type: "Convolution"
  bottom: "conv3_2/x2/bn"
  top: "conv3_2/x2"
  convolution_param {
    num_output: 32
    bias_term: false
    pad: 1
    kernel_size: 3
  }
}
layer {
  name: "concat_3_2"
  type: "Concat"
  bottom: "concat_3_1"
  bottom: "conv3_2/x2"
  top: "concat_3_2"
}
layer {
  name: "conv3_3/x1/bn"
  type: "BatchNorm"
  bottom: "concat_3_2"
  top: "conv3_3/x1/bn"
  batch_norm_param {
    eps: 1e-05
  }
}
layer {
  name: "conv3_3/x1/scale"
  type: "Scale"
  bottom: "conv3_3/x1/bn"
  top: "conv3_3/x1/bn"
  scale_param {
    bias_term: true
  }
}
layer {
  name: "relu3_3/x1"
  type: "ReLU"
  bottom: "conv3_3/x1/bn"
  top: "conv3_3/x1/bn"
}
layer {
  name: "conv3_3/x1"
  type: "Convolution"
  bottom: "conv3_3/x1/bn"
  top: "conv3_3/x1"
  convolution_param {
    num_output: 128
    bias_term: false
    kernel_size: 1
  }
}
layer {
  name: "conv3_3/x2/bn"
  type: "BatchNorm"
  bottom: "conv3_3/x1"
  top: "conv3_3/x2/bn"
  batch_norm_param {
    eps: 1e-05
  }
}
layer {
  name: "conv3_3/x2/scale"
  type: "Scale"
  bottom: "conv3_3/x2/bn"
  top: "conv3_3/x2/bn"
  scale_param {
    bias_term: true
  }
}
layer {
  name: "relu3_3/x2"
  type: "ReLU"
  bottom: "conv3_3/x2/bn"
  top: "conv3_3/x2/bn"
}
layer {
  name: "conv3_3/x2"
  type: "Convolution"
  bottom: "conv3_3/x2/bn"
  top: "conv3_3/x2"
  convolution_param {
    num_output: 32
    bias_term: false
    pad: 1
    kernel_size: 3
  }
}
layer {
  name: "concat_3_3"
  type: "Concat"
  bottom: "concat_3_2"
  bottom: "conv3_3/x2"
  top: "concat_3_3"
}
layer {
  name: "conv3_4/x1/bn"
  type: "BatchNorm"
  bottom: "concat_3_3"
  top: "conv3_4/x1/bn"
  batch_norm_param {
    eps: 1e-05
  }
}
layer {
  name: "conv3_4/x1/scale"
  type: "Scale"
  bottom: "conv3_4/x1/bn"
  top: "conv3_4/x1/bn"
  scale_param {
    bias_term: true
  }
}
layer {
  name: "relu3_4/x1"
  type: "ReLU"
  bottom: "conv3_4/x1/bn"
  top: "conv3_4/x1/bn"
}
layer {
  name: "conv3_4/x1"
  type: "Convolution"
  bottom: "conv3_4/x1/bn"
  top: "conv3_4/x1"
  convolution_param {
    num_output: 128
    bias_term: false
    kernel_size: 1
  }
}
layer {
  name: "conv3_4/x2/bn"
  type: "BatchNorm"
  bottom: "conv3_4/x1"
  top: "conv3_4/x2/bn"
  batch_norm_param {
    eps: 1e-05
  }
}
layer {
  name: "conv3_4/x2/scale"
  type: "Scale"
  bottom: "conv3_4/x2/bn"
  top: "conv3_4/x2/bn"
  scale_param {
    bias_term: true
  }
}
layer {
  name: "relu3_4/x2"
  type: "ReLU"
  bottom: "conv3_4/x2/bn"
  top: "conv3_4/x2/bn"
}
layer {
  name: "conv3_4/x2"
  type: "Convolution"
  bottom: "conv3_4/x2/bn"
  top: "conv3_4/x2"
  convolution_param {
    num_output: 32
    bias_term: false
    pad: 1
    kernel_size: 3
  }
}
layer {
  name: "concat_3_4"
  type: "Concat"
  bottom: "concat_3_3"
  bottom: "conv3_4/x2"
  top: "concat_3_4"
}
layer {
  name: "conv3_5/x1/bn"
  type: "BatchNorm"
  bottom: "concat_3_4"
  top: "conv3_5/x1/bn"
  batch_norm_param {
    eps: 1e-05
  }
}
layer {
  name: "conv3_5/x1/scale"
  type: "Scale"
  bottom: "conv3_5/x1/bn"
  top: "conv3_5/x1/bn"
  scale_param {
    bias_term: true
  }
}
layer {
  name: "relu3_5/x1"
  type: "ReLU"
  bottom: "conv3_5/x1/bn"
  top: "conv3_5/x1/bn"
}
layer {
  name: "conv3_5/x1"
  type: "Convolution"
  bottom: "conv3_5/x1/bn"
  top: "conv3_5/x1"
  convolution_param {
    num_output: 128
    bias_term: false
    kernel_size: 1
  }
}
layer {
  name: "conv3_5/x2/bn"
  type: "BatchNorm"
  bottom: "conv3_5/x1"
  top: "conv3_5/x2/bn"
  batch_norm_param {
    eps: 1e-05
  }
}
layer {
  name: "conv3_5/x2/scale"
  type: "Scale"
  bottom: "conv3_5/x2/bn"
  top: "conv3_5/x2/bn"
  scale_param {
    bias_term: true
  }
}
layer {
  name: "relu3_5/x2"
  type: "ReLU"
  bottom: "conv3_5/x2/bn"
  top: "conv3_5/x2/bn"
}
layer {
  name: "conv3_5/x2"
  type: "Convolution"
  bottom: "conv3_5/x2/bn"
  top: "conv3_5/x2"
  convolution_param {
    num_output: 32
    bias_term: false
    pad: 1
    kernel_size: 3
  }
}
layer {
  name: "concat_3_5"
  type: "Concat"
  bottom: "concat_3_4"
  bottom: "conv3_5/x2"
  top: "concat_3_5"
}
layer {
  name: "conv3_6/x1/bn"
  type: "BatchNorm"
  bottom: "concat_3_5"
  top: "conv3_6/x1/bn"
  batch_norm_param {
    eps: 1e-05
  }
}
layer {
  name: "conv3_6/x1/scale"
  type: "Scale"
  bottom: "conv3_6/x1/bn"
  top: "conv3_6/x1/bn"
  scale_param {
    bias_term: true
  }
}
layer {
  name: "relu3_6/x1"
  type: "ReLU"
  bottom: "conv3_6/x1/bn"
  top: "conv3_6/x1/bn"
}
layer {
  name: "conv3_6/x1"
  type: "Convolution"
  bottom: "conv3_6/x1/bn"
  top: "conv3_6/x1"
  convolution_param {
    num_output: 128
    bias_term: false
    kernel_size: 1
  }
}
layer {
  name: "conv3_6/x2/bn"
  type: "BatchNorm"
  bottom: "conv3_6/x1"
  top: "conv3_6/x2/bn"
  batch_norm_param {
    eps: 1e-05
  }
}
layer {
  name: "conv3_6/x2/scale"
  type: "Scale"
  bottom: "conv3_6/x2/bn"
  top: "conv3_6/x2/bn"
  scale_param {
    bias_term: true
  }
}
layer {
  name: "relu3_6/x2"
  type: "ReLU"
  bottom: "conv3_6/x2/bn"
  top: "conv3_6/x2/bn"
}
layer {
  name: "conv3_6/x2"
  type: "Convolution"
  bottom: "conv3_6/x2/bn"
  top: "conv3_6/x2"
  convolution_param {
    num_output: 32
    bias_term: false
    pad: 1
    kernel_size: 3
  }
}
layer {
  name: "concat_3_6"
  type: "Concat"
  bottom: "concat_3_5"
  bottom: "conv3_6/x2"
  top: "concat_3_6"
}
layer {
  name: "conv3_7/x1/bn"
  type: "BatchNorm"
  bottom: "concat_3_6"
  top: "conv3_7/x1/bn"
  batch_norm_param {
    eps: 1e-05
  }
}
layer {
  name: "conv3_7/x1/scale"
  type: "Scale"
  bottom: "conv3_7/x1/bn"
  top: "conv3_7/x1/bn"
  scale_param {
    bias_term: true
  }
}
layer {
  name: "relu3_7/x1"
  type: "ReLU"
  bottom: "conv3_7/x1/bn"
  top: "conv3_7/x1/bn"
}
layer {
  name: "conv3_7/x1"
  type: "Convolution"
  bottom: "conv3_7/x1/bn"
  top: "conv3_7/x1"
  convolution_param {
    num_output: 128
    bias_term: false
    kernel_size: 1
  }
}
layer {
  name: "conv3_7/x2/bn"
  type: "BatchNorm"
  bottom: "conv3_7/x1"
  top: "conv3_7/x2/bn"
  batch_norm_param {
    eps: 1e-05
  }
}
layer {
  name: "conv3_7/x2/scale"
  type: "Scale"
  bottom: "conv3_7/x2/bn"
  top: "conv3_7/x2/bn"
  scale_param {
    bias_term: true
  }
}
layer {
  name: "relu3_7/x2"
  type: "ReLU"
  bottom: "conv3_7/x2/bn"
  top: "conv3_7/x2/bn"
}
layer {
  name: "conv3_7/x2"
  type: "Convolution"
  bottom: "conv3_7/x2/bn"
  top: "conv3_7/x2"
  convolution_param {
    num_output: 32
    bias_term: false
    pad: 1
    kernel_size: 3
  }
}
layer {
  name: "concat_3_7"
  type: "Concat"
  bottom: "concat_3_6"
  bottom: "conv3_7/x2"
  top: "concat_3_7"
}
layer {
  name: "conv3_8/x1/bn"
  type: "BatchNorm"
  bottom: "concat_3_7"
  top: "conv3_8/x1/bn"
  batch_norm_param {
    eps: 1e-05
  }
}
layer {
  name: "conv3_8/x1/scale"
  type: "Scale"
  bottom: "conv3_8/x1/bn"
  top: "conv3_8/x1/bn"
  scale_param {
    bias_term: true
  }
}
layer {
  name: "relu3_8/x1"
  type: "ReLU"
  bottom: "conv3_8/x1/bn"
  top: "conv3_8/x1/bn"
}
layer {
  name: "conv3_8/x1"
  type: "Convolution"
  bottom: "conv3_8/x1/bn"
  top: "conv3_8/x1"
  convolution_param {
    num_output: 128
    bias_term: false
    kernel_size: 1
  }
}
layer {
  name: "conv3_8/x2/bn"
  type: "BatchNorm"
  bottom: "conv3_8/x1"
  top: "conv3_8/x2/bn"
  batch_norm_param {
    eps: 1e-05
  }
}
layer {
  name: "conv3_8/x2/scale"
  type: "Scale"
  bottom: "conv3_8/x2/bn"
  top: "conv3_8/x2/bn"
  scale_param {
    bias_term: true
  }
}
layer {
  name: "relu3_8/x2"
  type: "ReLU"
  bottom: "conv3_8/x2/bn"
  top: "conv3_8/x2/bn"
}
layer {
  name: "conv3_8/x2"
  type: "Convolution"
  bottom: "conv3_8/x2/bn"
  top: "conv3_8/x2"
  convolution_param {
    num_output: 32
    bias_term: false
    pad: 1
    kernel_size: 3
  }
}
layer {
  name: "concat_3_8"
  type: "Concat"
  bottom: "concat_3_7"
  bottom: "conv3_8/x2"
  top: "concat_3_8"
}
layer {
  name: "conv3_9/x1/bn"
  type: "BatchNorm"
  bottom: "concat_3_8"
  top: "conv3_9/x1/bn"
  batch_norm_param {
    eps: 1e-05
  }
}
layer {
  name: "conv3_9/x1/scale"
  type: "Scale"
  bottom: "conv3_9/x1/bn"
  top: "conv3_9/x1/bn"
  scale_param {
    bias_term: true
  }
}
layer {
  name: "relu3_9/x1"
  type: "ReLU"
  bottom: "conv3_9/x1/bn"
  top: "conv3_9/x1/bn"
}
layer {
  name: "conv3_9/x1"
  type: "Convolution"
  bottom: "conv3_9/x1/bn"
  top: "conv3_9/x1"
  convolution_param {
    num_output: 128
    bias_term: false
    kernel_size: 1
  }
}
layer {
  name: "conv3_9/x2/bn"
  type: "BatchNorm"
  bottom: "conv3_9/x1"
  top: "conv3_9/x2/bn"
  batch_norm_param {
    eps: 1e-05
  }
}
layer {
  name: "conv3_9/x2/scale"
  type: "Scale"
  bottom: "conv3_9/x2/bn"
  top: "conv3_9/x2/bn"
  scale_param {
    bias_term: true
  }
}
layer {
  name: "relu3_9/x2"
  type: "ReLU"
  bottom: "conv3_9/x2/bn"
  top: "conv3_9/x2/bn"
}
layer {
  name: "conv3_9/x2"
  type: "Convolution"
  bottom: "conv3_9/x2/bn"
  top: "conv3_9/x2"
  convolution_param {
    num_output: 32
    bias_term: false
    pad: 1
    kernel_size: 3
  }
}
layer {
  name: "concat_3_9"
  type: "Concat"
  bottom: "concat_3_8"
  bottom: "conv3_9/x2"
  top: "concat_3_9"
}
layer {
  name: "conv3_10/x1/bn"
  type: "BatchNorm"
  bottom: "concat_3_9"
  top: "conv3_10/x1/bn"
  batch_norm_param {
    eps: 1e-05
  }
}
layer {
  name: "conv3_10/x1/scale"
  type: "Scale"
  bottom: "conv3_10/x1/bn"
  top: "conv3_10/x1/bn"
  scale_param {
    bias_term: true
  }
}
layer {
  name: "relu3_10/x1"
  type: "ReLU"
  bottom: "conv3_10/x1/bn"
  top: "conv3_10/x1/bn"
}
layer {
  name: "conv3_10/x1"
  type: "Convolution"
  bottom: "conv3_10/x1/bn"
  top: "conv3_10/x1"
  convolution_param {
    num_output: 128
    bias_term: false
    kernel_size: 1
  }
}
layer {
  name: "conv3_10/x2/bn"
  type: "BatchNorm"
  bottom: "conv3_10/x1"
  top: "conv3_10/x2/bn"
  batch_norm_param {
    eps: 1e-05
  }
}
layer {
  name: "conv3_10/x2/scale"
  type: "Scale"
  bottom: "conv3_10/x2/bn"
  top: "conv3_10/x2/bn"
  scale_param {
    bias_term: true
  }
}
layer {
  name: "relu3_10/x2"
  type: "ReLU"
  bottom: "conv3_10/x2/bn"
  top: "conv3_10/x2/bn"
}
layer {
  name: "conv3_10/x2"
  type: "Convolution"
  bottom: "conv3_10/x2/bn"
  top: "conv3_10/x2"
  convolution_param {
    num_output: 32
    bias_term: false
    pad: 1
    kernel_size: 3
  }
}
layer {
  name: "concat_3_10"
  type: "Concat"
  bottom: "concat_3_9"
  bottom: "conv3_10/x2"
  top: "concat_3_10"
}
layer {
  name: "conv3_11/x1/bn"
  type: "BatchNorm"
  bottom: "concat_3_10"
  top: "conv3_11/x1/bn"
  batch_norm_param {
    eps: 1e-05
  }
}
layer {
  name: "conv3_11/x1/scale"
  type: "Scale"
  bottom: "conv3_11/x1/bn"
  top: "conv3_11/x1/bn"
  scale_param {
    bias_term: true
  }
}
layer {
  name: "relu3_11/x1"
  type: "ReLU"
  bottom: "conv3_11/x1/bn"
  top: "conv3_11/x1/bn"
}
layer {
  name: "conv3_11/x1"
  type: "Convolution"
  bottom: "conv3_11/x1/bn"
  top: "conv3_11/x1"
  convolution_param {
    num_output: 128
    bias_term: false
    kernel_size: 1
  }
}
layer {
  name: "conv3_11/x2/bn"
  type: "BatchNorm"
  bottom: "conv3_11/x1"
  top: "conv3_11/x2/bn"
  batch_norm_param {
    eps: 1e-05
  }
}
layer {
  name: "conv3_11/x2/scale"
  type: "Scale"
  bottom: "conv3_11/x2/bn"
  top: "conv3_11/x2/bn"
  scale_param {
    bias_term: true
  }
}
layer {
  name: "relu3_11/x2"
  type: "ReLU"
  bottom: "conv3_11/x2/bn"
  top: "conv3_11/x2/bn"
}
layer {
  name: "conv3_11/x2"
  type: "Convolution"
  bottom: "conv3_11/x2/bn"
  top: "conv3_11/x2"
  convolution_param {
    num_output: 32
    bias_term: false
    pad: 1
    kernel_size: 3
  }
}
layer {
  name: "concat_3_11"
  type: "Concat"
  bottom: "concat_3_10"
  bottom: "conv3_11/x2"
  top: "concat_3_11"
}
layer {
  name: "conv3_12/x1/bn"
  type: "BatchNorm"
  bottom: "concat_3_11"
  top: "conv3_12/x1/bn"
  batch_norm_param {
    eps: 1e-05
  }
}
layer {
  name: "conv3_12/x1/scale"
  type: "Scale"
  bottom: "conv3_12/x1/bn"
  top: "conv3_12/x1/bn"
  scale_param {
    bias_term: true
  }
}
layer {
  name: "relu3_12/x1"
  type: "ReLU"
  bottom: "conv3_12/x1/bn"
  top: "conv3_12/x1/bn"
}
layer {
  name: "conv3_12/x1"
  type: "Convolution"
  bottom: "conv3_12/x1/bn"
  top: "conv3_12/x1"
  convolution_param {
    num_output: 128
    bias_term: false
    kernel_size: 1
  }
}
layer {
  name: "conv3_12/x2/bn"
  type: "BatchNorm"
  bottom: "conv3_12/x1"
  top: "conv3_12/x2/bn"
  batch_norm_param {
    eps: 1e-05
  }
}
layer {
  name: "conv3_12/x2/scale"
  type: "Scale"
  bottom: "conv3_12/x2/bn"
  top: "conv3_12/x2/bn"
  scale_param {
    bias_term: true
  }
}
layer {
  name: "relu3_12/x2"
  type: "ReLU"
  bottom: "conv3_12/x2/bn"
  top: "conv3_12/x2/bn"
}
layer {
  name: "conv3_12/x2"
  type: "Convolution"
  bottom: "conv3_12/x2/bn"
  top: "conv3_12/x2"
  convolution_param {
    num_output: 32
    bias_term: false
    pad: 1
    kernel_size: 3
  }
}
layer {
  name: "concat_3_12"
  type: "Concat"
  bottom: "concat_3_11"
  bottom: "conv3_12/x2"
  top: "concat_3_12"
}
layer {
  name: "conv3_12/blk/bn"
  type: "BatchNorm"
  bottom: "concat_3_12"
  top: "conv3_12/blk/bn"
  batch_norm_param {
    eps: 1e-05
  }
}
layer {
  name: "conv3_12/blk/scale"
  type: "Scale"
  bottom: "conv3_12/blk/bn"
  top: "conv3_12/blk/bn"
  scale_param {
    bias_term: true
  }
}
layer {
  name: "relu3_12/blk"
  type: "ReLU"
  bottom: "conv3_12/blk/bn"
  top: "conv3_12/blk/bn"
}
layer {
  name: "conv3_12/blk"
  type: "Convolution"
  bottom: "conv3_12/blk/bn"
  top: "conv3_12/blk"
  convolution_param {
    num_output: 256
    bias_term: false
    kernel_size: 1
  }
}
layer {
  name: "pool3_12"
  type: "Pooling"
  bottom: "conv3_12/blk"
  top: "pool3_12"
  pooling_param {
    pool: AVE
    kernel_size: 2
    stride: 2
  }
}
layer {
  name: "conv4_1/x1/bn"
  type: "BatchNorm"
  bottom: "pool3_12"
  top: "conv4_1/x1/bn"
  batch_norm_param {
    eps: 1e-05
  }
}
layer {
  name: "conv4_1/x1/scale"
  type: "Scale"
  bottom: "conv4_1/x1/bn"
  top: "conv4_1/x1/bn"
  scale_param {
    bias_term: true
  }
}
layer {
  name: "relu4_1/x1"
  type: "ReLU"
  bottom: "conv4_1/x1/bn"
  top: "conv4_1/x1/bn"
}
layer {
  name: "conv4_1/x1"
  type: "Convolution"
  bottom: "conv4_1/x1/bn"
  top: "conv4_1/x1"
  convolution_param {
    num_output: 128
    bias_term: false
    kernel_size: 1
  }
}
layer {
  name: "conv4_1/x2/bn"
  type: "BatchNorm"
  bottom: "conv4_1/x1"
  top: "conv4_1/x2/bn"
  batch_norm_param {
    eps: 1e-05
  }
}
layer {
  name: "conv4_1/x2/scale"
  type: "Scale"
  bottom: "conv4_1/x2/bn"
  top: "conv4_1/x2/bn"
  scale_param {
    bias_term: true
  }
}
layer {
  name: "relu4_1/x2"
  type: "ReLU"
  bottom: "conv4_1/x2/bn"
  top: "conv4_1/x2/bn"
}
layer {
  name: "conv4_1/x2"
  type: "Convolution"
  bottom: "conv4_1/x2/bn"
  top: "conv4_1/x2"
  convolution_param {
    num_output: 32
    bias_term: false
    pad: 1
    kernel_size: 3
  }
}
layer {
  name: "concat_4_1"
  type: "Concat"
  bottom: "pool3_12"
  bottom: "conv4_1/x2"
  top: "concat_4_1"
}
layer {
  name: "conv4_2/x1/bn"
  type: "BatchNorm"
  bottom: "concat_4_1"
  top: "conv4_2/x1/bn"
  batch_norm_param {
    eps: 1e-05
  }
}
layer {
  name: "conv4_2/x1/scale"
  type: "Scale"
  bottom: "conv4_2/x1/bn"
  top: "conv4_2/x1/bn"
  scale_param {
    bias_term: true
  }
}
layer {
  name: "relu4_2/x1"
  type: "ReLU"
  bottom: "conv4_2/x1/bn"
  top: "conv4_2/x1/bn"
}
layer {
  name: "conv4_2/x1"
  type: "Convolution"
  bottom: "conv4_2/x1/bn"
  top: "conv4_2/x1"
  convolution_param {
    num_output: 128
    bias_term: false
    kernel_size: 1
  }
}
layer {
  name: "conv4_2/x2/bn"
  type: "BatchNorm"
  bottom: "conv4_2/x1"
  top: "conv4_2/x2/bn"
  batch_norm_param {
    eps: 1e-05
  }
}
layer {
  name: "conv4_2/x2/scale"
  type: "Scale"
  bottom: "conv4_2/x2/bn"
  top: "conv4_2/x2/bn"
  scale_param {
    bias_term: true
  }
}
layer {
  name: "relu4_2/x2"
  type: "ReLU"
  bottom: "conv4_2/x2/bn"
  top: "conv4_2/x2/bn"
}
layer {
  name: "conv4_2/x2"
  type: "Convolution"
  bottom: "conv4_2/x2/bn"
  top: "conv4_2/x2"
  convolution_param {
    num_output: 32
    bias_term: false
    pad: 1
    kernel_size: 3
  }
}
layer {
  name: "concat_4_2"
  type: "Concat"
  bottom: "concat_4_1"
  bottom: "conv4_2/x2"
  top: "concat_4_2"
}
layer {
  name: "conv4_3/x1/bn"
  type: "BatchNorm"
  bottom: "concat_4_2"
  top: "conv4_3/x1/bn"
  batch_norm_param {
    eps: 1e-05
  }
}
layer {
  name: "conv4_3/x1/scale"
  type: "Scale"
  bottom: "conv4_3/x1/bn"
  top: "conv4_3/x1/bn"
  scale_param {
    bias_term: true
  }
}
layer {
  name: "relu4_3/x1"
  type: "ReLU"
  bottom: "conv4_3/x1/bn"
  top: "conv4_3/x1/bn"
}
layer {
  name: "conv4_3/x1"
  type: "Convolution"
  bottom: "conv4_3/x1/bn"
  top: "conv4_3/x1"
  convolution_param {
    num_output: 128
    bias_term: false
    kernel_size: 1
  }
}
layer {
  name: "conv4_3/x2/bn"
  type: "BatchNorm"
  bottom: "conv4_3/x1"
  top: "conv4_3/x2/bn"
  batch_norm_param {
    eps: 1e-05
  }
}
layer {
  name: "conv4_3/x2/scale"
  type: "Scale"
  bottom: "conv4_3/x2/bn"
  top: "conv4_3/x2/bn"
  scale_param {
    bias_term: true
  }
}
layer {
  name: "relu4_3/x2"
  type: "ReLU"
  bottom: "conv4_3/x2/bn"
  top: "conv4_3/x2/bn"
}
layer {
  name: "conv4_3/x2"
  type: "Convolution"
  bottom: "conv4_3/x2/bn"
  top: "conv4_3/x2"
  convolution_param {
    num_output: 32
    bias_term: false
    pad: 1
    kernel_size: 3
  }
}
layer {
  name: "concat_4_3"
  type: "Concat"
  bottom: "concat_4_2"
  bottom: "conv4_3/x2"
  top: "concat_4_3"
}
layer {
  name: "conv4_4/x1/bn"
  type: "BatchNorm"
  bottom: "concat_4_3"
  top: "conv4_4/x1/bn"
  batch_norm_param {
    eps: 1e-05
  }
}
layer {
  name: "conv4_4/x1/scale"
  type: "Scale"
  bottom: "conv4_4/x1/bn"
  top: "conv4_4/x1/bn"
  scale_param {
    bias_term: true
  }
}
layer {
  name: "relu4_4/x1"
  type: "ReLU"
  bottom: "conv4_4/x1/bn"
  top: "conv4_4/x1/bn"
}
layer {
  name: "conv4_4/x1"
  type: "Convolution"
  bottom: "conv4_4/x1/bn"
  top: "conv4_4/x1"
  convolution_param {
    num_output: 128
    bias_term: false
    kernel_size: 1
  }
}
layer {
  name: "conv4_4/x2/bn"
  type: "BatchNorm"
  bottom: "conv4_4/x1"
  top: "conv4_4/x2/bn"
  batch_norm_param {
    eps: 1e-05
  }
}
layer {
  name: "conv4_4/x2/scale"
  type: "Scale"
  bottom: "conv4_4/x2/bn"
  top: "conv4_4/x2/bn"
  scale_param {
    bias_term: true
  }
}
layer {
  name: "relu4_4/x2"
  type: "ReLU"
  bottom: "conv4_4/x2/bn"
  top: "conv4_4/x2/bn"
}
layer {
  name: "conv4_4/x2"
  type: "Convolution"
  bottom: "conv4_4/x2/bn"
  top: "conv4_4/x2"
  convolution_param {
    num_output: 32
    bias_term: false
    pad: 1
    kernel_size: 3
  
I1126 11:19:54.164798  1604 layer_factory.hpp:77] Creating layer data
I1126 11:19:54.166163  1604 net.cpp:100] Creating Layer data
I1126 11:19:54.166239  1604 net.cpp:408] data -> data
I1126 11:19:54.167914  1604 net.cpp:408] data -> label
I1126 11:19:54.168880  1604 image_data_layer.cpp:38] Opening file ../aichallenger_train_treated/all_treated_tra_val_label.txt
I1126 11:19:54.234655  1604 image_data_layer.cpp:53] Shuffling data
I1126 11:19:54.242298  1604 image_data_layer.cpp:58] A total of 60999 images.
I1126 11:19:54.406497  1604 image_data_layer.cpp:85] output data size: 16,3,224,224
I1126 11:19:54.459939  1604 net.cpp:150] Setting up data
I1126 11:19:54.460044  1604 net.cpp:157] Top shape: 16 3 224 224 (2408448)
I1126 11:19:54.460079  1604 net.cpp:157] Top shape: 16 (16)
I1126 11:19:54.460100  1604 net.cpp:165] Memory required for data: 9633856
I1126 11:19:54.460117  1604 layer_factory.hpp:77] Creating layer conv1
I1126 11:19:54.460165  1604 net.cpp:100] Creating Layer conv1
I1126 11:19:54.460214  1604 net.cpp:434] conv1 <- data
I1126 11:19:54.460248  1604 net.cpp:408] conv1 -> conv1
I1126 11:19:55.688329  1604 net.cpp:150] Setting up conv1
I1126 11:19:55.689430  1604 net.cpp:157] Top shape: 16 64 112 112 (12845056)
I1126 11:19:55.689476  1604 net.cpp:165] Memory required for data: 61014080
I1126 11:19:55.690065  1604 layer_factory.hpp:77] Creating layer conv1/bn
I1126 11:19:55.690513  1604 net.cpp:100] Creating Layer conv1/bn
I1126 11:19:55.690559  1604 net.cpp:434] conv1/bn <- conv1
I1126 11:19:55.690692  1604 net.cpp:408] conv1/bn -> conv1/bn
I1126 11:19:55.692281  1604 net.cpp:150] Setting up conv1/bn
I1126 11:19:55.692335  1604 net.cpp:157] Top shape: 16 64 112 112 (12845056)
I1126 11:19:55.692360  1604 net.cpp:165] Memory required for data: 112394304
I1126 11:19:55.692407  1604 layer_factory.hpp:77] Creating layer conv1/scale
I1126 11:19:55.692538  1604 net.cpp:100] Creating Layer conv1/scale
I1126 11:19:55.692566  1604 net.cpp:434] conv1/scale <- conv1/bn
I1126 11:19:55.692595  1604 net.cpp:395] conv1/scale -> conv1/bn (in-place)
I1126 11:19:55.692982  1604 layer_factory.hpp:77] Creating layer conv1/scale
I1126 11:19:55.694017  1604 net.cpp:150] Setting up conv1/scale
I1126 11:19:55.694061  1604 net.cpp:157] Top shape: 16 64 112 112 (12845056)
I1126 11:19:55.694083  1604 net.cpp:165] Memory required for data: 163774528
I1126 11:19:55.694118  1604 layer_factory.hpp:77] Creating layer relu1
I1126 11:19:55.694255  1604 net.cpp:100] Creating Layer relu1
I1126 11:19:55.694288  1604 net.cpp:434] relu1 <- conv1/bn
I1126 11:19:55.694344  1604 net.cpp:395] relu1 -> conv1/bn (in-place)
I1126 11:19:55.694798  1604 net.cpp:150] Setting up relu1
I1126 11:19:55.694841  1604 net.cpp:157] Top shape: 16 64 112 112 (12845056)
I1126 11:19:55.694862  1604 net.cpp:165] Memory required for data: 215154752
I1126 11:19:55.694883  1604 layer_factory.hpp:77] Creating layer pool1
I1126 11:19:55.695153  1604 net.cpp:100] Creating Layer pool1
I1126 11:19:55.695184  1604 net.cpp:434] pool1 <- conv1/bn
I1126 11:19:55.695210  1604 net.cpp:408] pool1 -> pool1
I1126 11:19:55.697008  1604 net.cpp:150] Setting up pool1
I1126 11:19:55.697072  1604 net.cpp:157] Top shape: 16 64 57 57 (3326976)
I1126 11:19:55.697098  1604 net.cpp:165] Memory required for data: 228462656
I1126 11:19:55.697121  1604 layer_factory.hpp:77] Creating layer pool1_pool1_0_split
I1126 11:19:55.697298  1604 net.cpp:100] Creating Layer pool1_pool1_0_split
I1126 11:19:55.697327  1604 net.cpp:434] pool1_pool1_0_split <- pool1
I1126 11:19:55.697355  1604 net.cpp:408] pool1_pool1_0_split -> pool1_pool1_0_split_0
I1126 11:19:55.697386  1604 net.cpp:408] pool1_pool1_0_split -> pool1_pool1_0_split_1
I1126 11:19:55.697520  1604 net.cpp:150] Setting up pool1_pool1_0_split
I1126 11:19:55.697552  1604 net.cpp:157] Top shape: 16 64 57 57 (3326976)
I1126 11:19:55.697576  1604 net.cpp:157] Top shape: 16 64 57 57 (3326976)
I1126 11:19:55.697594  1604 net.cpp:165] Memory required for data: 255078464
I1126 11:19:55.697615  1604 layer_factory.hpp:77] Creating layer conv2_1/x1/bn
I1126 11:19:55.697715  1604 net.cpp:100] Creating Layer conv2_1/x1/bn
I1126 11:19:55.697741  1604 net.cpp:434] conv2_1/x1/bn <- pool1_pool1_0_split_0
I1126 11:19:55.697765  1604 net.cpp:408] conv2_1/x1/bn -> conv2_1/x1/bn
I1126 11:19:55.702095  1604 net.cpp:150] Setting up conv2_1/x1/bn
I1126 11:19:55.702155  1604 net.cpp:157] Top shape: 16 64 57 57 (3326976)
I1126 11:19:55.702179  1604 net.cpp:165] Memory required for data: 268386368
I1126 11:19:55.702217  1604 layer_factory.hpp:77] Creating layer conv2_1/x1/scale
I1126 11:19:55.702330  1604 net.cpp:100] Creating Layer conv2_1/x1/scale
I1126 11:19:55.702358  1604 net.cpp:434] conv2_1/x1/scale <- conv2_1/x1/bn
I1126 11:19:55.702384  1604 net.cpp:395] conv2_1/x1/scale -> conv2_1/x1/bn (in-place)
I1126 11:19:55.702487  1604 layer_factory.hpp:77] Creating layer conv2_1/x1/scale
I1126 11:19:55.702734  1604 net.cpp:150] Setting up conv2_1/x1/scale
I1126 11:19:55.702769  1604 net.cpp:157] Top shape: 16 64 57 57 (3326976)
I1126 11:19:55.702788  1604 net.cpp:165] Memory required for data: 281694272
I1126 11:19:55.702816  1604 layer_factory.hpp:77] Creating layer relu2_1/x1
I1126 11:19:55.702939  1604 net.cpp:100] Creating Layer relu2_1/x1
I1126 11:19:55.702971  1604 net.cpp:434] relu2_1/x1 <- conv2_1/x1/bn
I1126 11:19:55.702997  1604 net.cpp:395] relu2_1/x1 -> conv2_1/x1/bn (in-place)
I1126 11:19:55.705246  1604 net.cpp:150] Setting up relu2_1/x1
I1126 11:19:55.705322  1604 net.cpp:157] Top shape: 16 64 57 57 (3326976)
I1126 11:19:55.705346  1604 net.cpp:165] Memory required for data: 295002176
I1126 11:19:55.705387  1604 layer_factory.hpp:77] Creating layer conv2_1/x1
I1126 11:19:55.705490  1604 net.cpp:100] Creating Layer conv2_1/x1
I1126 11:19:55.705516  1604 net.cpp:434] conv2_1/x1 <- conv2_1/x1/bn
I1126 11:19:55.705570  1604 net.cpp:408] conv2_1/x1 -> conv2_1/x1
I1126 11:19:55.710095  1604 net.cpp:150] Setting up conv2_1/x1
I1126 11:19:55.710157  1604 net.cpp:157] Top shape: 16 128 57 57 (6653952)
I1126 11:19:55.710170  1604 net.cpp:165] Memory required for data: 321617984
I1126 11:19:55.710202  1604 layer_factory.hpp:77] Creating layer conv2_1/x2/bn
I1126 11:19:55.710296  1604 net.cpp:100] Creating Layer conv2_1/x2/bn
I1126 11:19:55.710316  1604 net.cpp:434] conv2_1/x2/bn <- conv2_1/x1
I1126 11:19:55.710327  1604 net.cpp:408] conv2_1/x2/bn -> conv2_1/x2/bn
I1126 11:19:55.710729  1604 net.cpp:150] Setting up conv2_1/x2/bn
I1126 11:19:55.710775  1604 net.cpp:157] Top shape: 16 128 57 57 (6653952)
I1126 11:19:55.710784  1604 net.cpp:165] Memory required for data: 348233792
I1126 11:19:55.710813  1604 layer_factory.hpp:77] Creating layer conv2_1/x2/scale
I1126 11:19:55.710849  1604 net.cpp:100] Creating Layer conv2_1/x2/scale
I1126 11:19:55.710871  1604 net.cpp:434] conv2_1/x2/scale <- conv2_1/x2/bn
I1126 11:19:55.710889  1604 net.cpp:395] conv2_1/x2/scale -> conv2_1/x2/bn (in-place)
I1126 11:19:55.711064  1604 layer_factory.hpp:77] Creating layer conv2_1/x2/scale
I1126 11:19:55.711479  1604 net.cpp:150] Setting up conv2_1/x2/scale
I1126 11:19:55.711530  1604 net.cpp:157] Top shape: 16 128 57 57 (6653952)
I1126 11:19:55.711557  1604 net.cpp:165] Memory required for data: 374849600
I1126 11:19:55.711647  1604 layer_factory.hpp:77] Creating layer relu2_1/x2
I1126 11:19:55.711704  1604 net.cpp:100] Creating Layer relu2_1/x2
I1126 11:19:55.711735  1604 net.cpp:434] relu2_1/x2 <- conv2_1/x2/bn
I1126 11:19:55.711776  1604 net.cpp:395] relu2_1/x2 -> conv2_1/x2/bn (in-place)
I1126 11:19:55.712298  1604 net.cpp:150] Setting up relu2_1/x2
I1126 11:19:55.712352  1604 net.cpp:157] Top shape: 16 128 57 57 (6653952)
I1126 11:19:55.712379  1604 net.cpp:165] Memory required for data: 401465408
I1126 11:19:55.712416  1604 layer_factory.hpp:77] Creating layer conv2_1/x2
I1126 11:19:55.712559  1604 net.cpp:100] Creating Layer conv2_1/x2
I1126 11:19:55.712596  1604 net.cpp:434] conv2_1/x2 <- conv2_1/x2/bn
I1126 11:19:55.712631  1604 net.cpp:408] conv2_1/x2 -> conv2_1/x2
I1126 11:19:55.721493  1604 net.cpp:150] Setting up conv2_1/x2
I1126 11:19:55.721565  1604 net.cpp:157] Top shape: 16 32 57 57 (1663488)
I1126 11:19:55.721595  1604 net.cpp:165] Memory required for data: 408119360
I1126 11:19:55.721626  1604 layer_factory.hpp:77] Creating layer concat_2_1
I1126 11:19:55.721683  1604 net.cpp:100] Creating Layer concat_2_1
I1126 11:19:55.721714  1604 net.cpp:434] concat_2_1 <- pool1_pool1_0_split_1
I1126 11:19:55.721742  1604 net.cpp:434] concat_2_1 <- conv2_1/x2
I1126 11:19:55.721784  1604 net.cpp:408] concat_2_1 -> concat_2_1
I1126 11:19:55.721892  1604 net.cpp:150] Setting up concat_2_1
I1126 11:19:55.721932  1604 net.cpp:157] Top shape: 16 96 57 57 (4990464)
I1126 11:19:55.721956  1604 net.cpp:165] Memory required for data: 428081216
I1126 11:19:55.721982  1604 layer_factory.hpp:77] Creating layer concat_2_1_concat_2_1_0_split
I1126 11:19:55.722028  1604 net.cpp:100] Creating Layer concat_2_1_concat_2_1_0_split
I1126 11:19:55.722057  1604 net.cpp:434] concat_2_1_concat_2_1_0_split <- concat_2_1
I1126 11:19:55.722097  1604 net.cpp:408] concat_2_1_concat_2_1_0_split -> concat_2_1_concat_2_1_0_split_0
I1126 11:19:55.722133  1604 net.cpp:408] concat_2_1_concat_2_1_0_split -> concat_2_1_concat_2_1_0_split_1
I1126 11:19:55.722263  1604 net.cpp:150] Setting up concat_2_1_concat_2_1_0_split
I1126 11:19:55.722303  1604 net.cpp:157] Top shape: 16 96 57 57 (4990464)
I1126 11:19:55.722344  1604 net.cpp:157] Top shape: 16 96 57 57 (4990464)
I1126 11:19:55.722368  1604 net.cpp:165] Memory required for data: 468004928
I1126 11:19:55.722431  1604 layer_factory.hpp:77] Creating layer conv2_2/x1/bn
I1126 11:19:55.722467  1604 net.cpp:100] Creating Layer conv2_2/x1/bn
I1126 11:19:55.722518  1604 net.cpp:434] conv2_2/x1/bn <- concat_2_1_concat_2_1_0_split_0
I1126 11:19:55.722550  1604 net.cpp:408] conv2_2/x1/bn -> conv2_2/x1/bn
I1126 11:19:55.723124  1604 net.cpp:150] Setting up conv2_2/x1/bn
I1126 11:19:55.723175  1604 net.cpp:157] Top shape: 16 96 57 57 (4990464)
I1126 11:19:55.723199  1604 net.cpp:165] Memory required for data: 487966784
I1126 11:19:55.723253  1604 layer_factory.hpp:77] Creating layer conv2_2/x1/scale
I1126 11:19:55.723335  1604 net.cpp:100] Creating Layer conv2_2/x1/scale
I1126 11:19:55.723367  1604 net.cpp:434] conv2_2/x1/scale <- conv2_2/x1/bn
I1126 11:19:55.723407  1604 net.cpp:395] conv2_2/x1/scale -> conv2_2/x1/bn (in-place)
I1126 11:19:55.723543  1604 layer_factory.hpp:77] Creating layer conv2_2/x1/scale
I1126 11:19:55.723912  1604 net.cpp:150] Setting up conv2_2/x1/scale
I1126 11:19:55.723956  1604 net.cpp:157] Top shape: 16 96 57 57 (4990464)
I1126 11:19:55.723980  1604 net.cpp:165] Memory required for data: 507928640
I1126 11:19:55.724014  1604 layer_factory.hpp:77] Creating layer relu2_2/x1
I1126 11:19:55.724053  1604 net.cpp:100] Creating Layer relu2_2/x1
I1126 11:19:55.724079  1604 net.cpp:434] relu2_2/x1 <- conv2_2/x1/bn
I1126 11:19:55.724117  1604 net.cpp:395] relu2_2/x1 -> conv2_2/x1/bn (in-place)
I1126 11:19:55.724565  1604 net.cpp:150] Setting up relu2_2/x1
I1126 11:19:55.724613  1604 net.cpp:157] Top shape: 16 96 57 57 (4990464)
I1126 11:19:55.724638  1604 net.cpp:165] Memory required for data: 527890496
I1126 11:19:55.724663  1604 layer_factory.hpp:77] Creating layer conv2_2/x1
I1126 11:19:55.724748  1604 net.cpp:100] Creating Layer conv2_2/x1
I1126 11:19:55.724782  1604 net.cpp:434] conv2_2/x1 <- conv2_2/x1/bn
I1126 11:19:55.724820  1604 net.cpp:408] conv2_2/x1 -> conv2_2/x1
I1126 11:19:55.728616  1604 net.cpp:150] Setting up conv2_2/x1
I1126 11:19:55.728688  1604 net.cpp:157] Top shape: 16 128 57 57 (6653952)
I1126 11:19:55.728716  1604 net.cpp:165] Memory required for data: 554506304
I1126 11:19:55.728749  1604 layer_factory.hpp:77] Creating layer conv2_2/x2/bn
I1126 11:19:55.728801  1604 net.cpp:100] Creating Layer conv2_2/x2/bn
I1126 11:19:55.728832  1604 net.cpp:434] conv2_2/x2/bn <- conv2_2/x1
I1126 11:19:55.728863  1604 net.cpp:408] conv2_2/x2/bn -> conv2_2/x2/bn
I1126 11:19:55.729430  1604 net.cpp:150] Setting up conv2_2/x2/bn
I1126 11:19:55.729477  1604 net.cpp:157] Top shape: 16 128 57 57 (6653952)
I1126 11:19:55.729501  1604 net.cpp:165] Memory required for data: 581122112
I1126 11:19:55.729538  1604 layer_factory.hpp:77] Creating layer conv2_2/x2/scale
I1126 11:19:55.729571  1604 net.cpp:100] Creating Layer conv2_2/x2/scale
I1126 11:19:55.729598  1604 net.cpp:434] conv2_2/x2/scale <- conv2_2/x2/bn
I1126 11:19:55.729638  1604 net.cpp:395] conv2_2/x2/scale -> conv2_2/x2/bn (in-place)
I1126 11:19:55.729775  1604 layer_factory.hpp:77] Creating layer conv2_2/x2/scale
I1126 11:19:55.730118  1604 net.cpp:150] Setting up conv2_2/x2/scale
I1126 11:19:55.730193  1604 net.cpp:157] Top shape: 16 128 57 57 (6653952)
I1126 11:19:55.730245  1604 net.cpp:165] Memory required for data: 607737920
I1126 11:19:55.730284  1604 layer_factory.hpp:77] Creating layer relu2_2/x2
I1126 11:19:55.730317  1604 net.cpp:100] Creating Layer relu2_2/x2
I1126 11:19:55.730372  1604 net.cpp:434] relu2_2/x2 <- conv2_2/x2/bn
I1126 11:19:55.730404  1604 net.cpp:395] relu2_2/x2 -> conv2_2/x2/bn (in-place)
I1126 11:19:55.730955  1604 net.cpp:150] Setting up relu2_2/x2
I1126 11:19:55.731007  1604 net.cpp:157] Top shape: 16 128 57 57 (6653952)
I1126 11:19:55.731032  1604 net.cpp:165] Memory required for data: 634353728
I1126 11:19:55.731057  1604 layer_factory.hpp:77] Creating layer conv2_2/x2
I1126 11:19:55.731180  1604 net.cpp:100] Creating Layer conv2_2/x2
I1126 11:19:55.731215  1604 net.cpp:434] conv2_2/x2 <- conv2_2/x2/bn
I1126 11:19:55.731271  1604 net.cpp:408] conv2_2/x2 -> conv2_2/x2
I1126 11:19:55.734757  1604 net.cpp:150] Setting up conv2_2/x2
I1126 11:19:55.734822  1604 net.cpp:157] Top shape: 16 32 57 57 (1663488)
I1126 11:19:55.734848  1604 net.cpp:165] Memory required for data: 641007680
I1126 11:19:55.734906  1604 layer_factory.hpp:77] Creating layer concat_2_2
I1126 11:19:55.734988  1604 net.cpp:100] Creating Layer concat_2_2
I1126 11:19:55.735025  1604 net.cpp:434] concat_2_2 <- concat_2_1_concat_2_1_0_split_1
I1126 11:19:55.735055  1604 net.cpp:434] concat_2_2 <- conv2_2/x2
I1126 11:19:55.735085  1604 net.cpp:408] concat_2_2 -> concat_2_2
I1126 11:19:55.735183  1604 net.cpp:150] Setting up concat_2_2
I1126 11:19:55.735221  1604 net.cpp:157] Top shape: 16 128 57 57 (6653952)
I1126 11:19:55.735261  1604 net.cpp:165] Memory required for data: 667623488
I1126 11:19:55.735285  1604 layer_factory.hpp:77] Creating layer concat_2_2_concat_2_2_0_split
I1126 11:19:55.735316  1604 net.cpp:100] Creating Layer concat_2_2_concat_2_2_0_split
I1126 11:19:55.735342  1604 net.cpp:434] concat_2_2_concat_2_2_0_split <- concat_2_2
I1126 11:19:55.735385  1604 net.cpp:408] concat_2_2_concat_2_2_0_split -> concat_2_2_concat_2_2_0_split_0
I1126 11:19:55.735421  1604 net.cpp:408] concat_2_2_concat_2_2_0_split -> concat_2_2_concat_2_2_0_split_1
I1126 11:19:55.735569  1604 net.cpp:150] Setting up concat_2_2_concat_2_2_0_split
I1126 11:19:55.735618  1604 net.cpp:157] Top shape: 16 128 57 57 (6653952)
I1126 11:19:55.735647  1604 net.cpp:157] Top shape: 16 128 57 57 (6653952)
I1126 11:19:55.735669  1604 net.cpp:165] Memory required for data: 720855104
I1126 11:19:55.735693  1604 layer_factory.hpp:77] Creating layer conv2_3/x1/bn
I1126 11:19:55.735723  1604 net.cpp:100] Creating Layer conv2_3/x1/bn
I1126 11:19:55.735747  1604 net.cpp:434] conv2_3/x1/bn <- concat_2_2_concat_2_2_0_split_0
I1126 11:19:55.735785  1604 net.cpp:408] conv2_3/x1/bn -> conv2_3/x1/bn
I1126 11:19:55.736274  1604 net.cpp:150] Setting up conv2_3/x1/bn
I1126 11:19:55.736317  1604 net.cpp:157] Top shape: 16 128 57 57 (6653952)
I1126 11:19:55.736340  1604 net.cpp:165] Memory required for data: 747470912
I1126 11:19:55.736382  1604 layer_factory.hpp:77] Creating layer conv2_3/x1/scale
I1126 11:19:55.736460  1604 net.cpp:100] Creating Layer conv2_3/x1/scale
I1126 11:19:55.736490  1604 net.cpp:434] conv2_3/x1/scale <- conv2_3/x1/bn
I1126 11:19:55.736519  1604 net.cpp:395] conv2_3/x1/scale -> conv2_3/x1/bn (in-place)
I1126 11:19:55.736654  1604 layer_factory.hpp:77] Creating layer conv2_3/x1/scale
I1126 11:19:55.736971  1604 net.cpp:150] Setting up conv2_3/x1/scale
I1126 11:19:55.737012  1604 net.cpp:157] Top shape: 16 128 57 57 (6653952)
I1126 11:19:55.737035  1604 net.cpp:165] Memory required for data: 774086720
I1126 11:19:55.737066  1604 layer_factory.hpp:77] Creating layer relu2_3/x1
I1126 11:19:55.737095  1604 net.cpp:100] Creating Layer relu2_3/x1
I1126 11:19:55.737120  1604 net.cpp:434] relu2_3/x1 <- conv2_3/x1/bn
I1126 11:19:55.737156  1604 net.cpp:395] relu2_3/x1 -> conv2_3/x1/bn (in-place)
I1126 11:19:55.737591  1604 net.cpp:150] Setting up relu2_3/x1
I1126 11:19:55.737638  1604 net.cpp:157] Top shape: 16 128 57 57 (6653952)
I1126 11:19:55.737663  1604 net.cpp:165] Memory required for data: 800702528
I1126 11:19:55.737686  1604 layer_factory.hpp:77] Creating layer conv2_3/x1
I1126 11:19:55.737727  1604 net.cpp:100] Creating Layer conv2_3/x1
I1126 11:19:55.737756  1604 net.cpp:434] conv2_3/x1 <- conv2_3/x1/bn
I1126 11:19:55.737785  1604 net.cpp:408] conv2_3/x1 -> conv2_3/x1
I1126 11:19:55.741361  1604 net.cpp:150] Setting up conv2_3/x1
I1126 11:19:55.741425  1604 net.cpp:157] Top shape: 16 128 57 57 (6653952)
I1126 11:19:55.741451  1604 net.cpp:165] Memory required for data: 827318336
I1126 11:19:55.741489  1604 layer_factory.hpp:77] Creating layer conv2_3/x2/bn
I1126 11:19:55.741564  1604 net.cpp:100] Creating Layer conv2_3/x2/bn
I1126 11:19:55.741597  1604 net.cpp:434] conv2_3/x2/bn <- conv2_3/x1
I1126 11:19:55.741626  1604 net.cpp:408] conv2_3/x2/bn -> conv2_3/x2/bn
I1126 11:19:55.742116  1604 net.cpp:150] Setting up conv2_3/x2/bn
I1126 11:19:55.742180  1604 net.cpp:157] Top shape: 16 128 57 57 (6653952)
I1126 11:19:55.742205  1604 net.cpp:165] Memory required for data: 853934144
I1126 11:19:55.742254  1604 layer_factory.hpp:77] Creating layer conv2_3/x2/scale
I1126 11:19:55.742316  1604 net.cpp:100] Creating Layer conv2_3/x2/scale
I1126 11:19:55.742343  1604 net.cpp:434] conv2_3/x2/scale <- conv2_3/x2/bn
I1126 11:19:55.742370  1604 net.cpp:395] conv2_3/x2/scale -> conv2_3/x2/bn (in-place)
I1126 11:19:55.742499  1604 layer_factory.hpp:77] Creating layer conv2_3/x2/scale
I1126 11:19:55.742805  1604 net.cpp:150] Setting up conv2_3/x2/scale
I1126 11:19:55.742846  1604 net.cpp:157] Top shape: 16 128 57 57 (6653952)
I1126 11:19:55.742867  1604 net.cpp:165] Memory required for data: 880549952
I1126 11:19:55.742897  1604 layer_factory.hpp:77] Creating layer relu2_3/x2
I1126 11:19:55.742945  1604 net.cpp:100] Creating Layer relu2_3/x2
I1126 11:19:55.742974  1604 net.cpp:434] relu2_3/x2 <- conv2_3/x2/bn
I1126 11:19:55.743011  1604 net.cpp:395] relu2_3/x2 -> conv2_3/x2/bn (in-place)
I1126 11:19:55.743432  1604 net.cpp:150] Setting up relu2_3/x2
I1126 11:19:55.743476  1604 net.cpp:157] Top shape: 16 128 57 57 (6653952)
I1126 11:19:55.743499  1604 net.cpp:165] Memory required for data: 907165760
I1126 11:19:55.743521  1604 layer_factory.hpp:77] Creating layer conv2_3/x2
I1126 11:19:55.743561  1604 net.cpp:100] Creating Layer conv2_3/x2
I1126 11:19:55.743588  1604 net.cpp:434] conv2_3/x2 <- conv2_3/x2/bn
I1126 11:19:55.743624  1604 net.cpp:408] conv2_3/x2 -> conv2_3/x2
I1126 11:19:55.746982  1604 net.cpp:150] Setting up conv2_3/x2
I1126 11:19:55.747045  1604 net.cpp:157] Top shape: 16 32 57 57 (1663488)
I1126 11:19:55.747071  1604 net.cpp:165] Memory required for data: 913819712
I1126 11:19:55.747100  1604 layer_factory.hpp:77] Creating layer concat_2_3
I1126 11:19:55.747130  1604 net.cpp:100] Creating Layer concat_2_3
I1126 11:19:55.747154  1604 net.cpp:434] concat_2_3 <- concat_2_2_concat_2_2_0_split_1
I1126 11:19:55.747180  1604 net.cpp:434] concat_2_3 <- conv2_3/x2
I1126 11:19:55.747218  1604 net.cpp:408] concat_2_3 -> concat_2_3
I1126 11:19:55.747324  1604 net.cpp:150] Setting up concat_2_3
I1126 11:19:55.747370  1604 net.cpp:157] Top shape: 16 160 57 57 (8317440)
I1126 11:19:55.747395  1604 net.cpp:165] Memory required for data: 947089472
I1126 11:19:55.747416  1604 layer_factory.hpp:77] Creating layer concat_2_3_concat_2_3_0_split
I1126 11:19:55.747443  1604 net.cpp:100] Creating Layer concat_2_3_concat_2_3_0_split
I1126 11:19:55.747467  1604 net.cpp:434] concat_2_3_concat_2_3_0_split <- concat_2_3
I1126 11:19:55.747493  1604 net.cpp:408] concat_2_3_concat_2_3_0_split -> concat_2_3_concat_2_3_0_split_0
I1126 11:19:55.747522  1604 net.cpp:408] concat_2_3_concat_2_3_0_split -> concat_2_3_concat_2_3_0_split_1
I1126 11:19:55.747635  1604 net.cpp:150] Setting up concat_2_3_concat_2_3_0_split
I1126 11:19:55.747670  1604 net.cpp:157] Top shape: 16 160 57 57 (8317440)
I1126 11:19:55.747694  1604 net.cpp:157] Top shape: 16 160 57 57 (8317440)
I1126 11:19:55.747714  1604 net.cpp:165] Memory required for data: 1013628992
I1126 11:19:55.747735  1604 layer_factory.hpp:77] Creating layer conv2_4/x1/bn
I1126 11:19:55.747772  1604 net.cpp:100] Creating Layer conv2_4/x1/bn
I1126 11:19:55.747798  1604 net.cpp:434] conv2_4/x1/bn <- concat_2_3_concat_2_3_0_split_0
I1126 11:19:55.747824  1604 net.cpp:408] conv2_4/x1/bn -> conv2_4/x1/bn
I1126 11:19:55.748316  1604 net.cpp:150] Setting up conv2_4/x1/bn
I1126 11:19:55.748358  1604 net.cpp:157] Top shape: 16 160 57 57 (8317440)
I1126 11:19:55.748379  1604 net.cpp:165] Memory required for data: 1046898752
I1126 11:19:55.748411  1604 layer_factory.hpp:77] Creating layer conv2_4/x1/scale
I1126 11:19:55.748440  1604 net.cpp:100] Creating Layer conv2_4/x1/scale
I1126 11:19:55.748464  1604 net.cpp:434] conv2_4/x1/scale <- conv2_4/x1/bn
I1126 11:19:55.748492  1604 net.cpp:395] conv2_4/x1/scale -> conv2_4/x1/bn (in-place)
I1126 11:19:55.748641  1604 layer_factory.hpp:77] Creating layer conv2_4/x1/scale
I1126 11:19:55.748927  1604 net.cpp:150] Setting up conv2_4/x1/scale
I1126 11:19:55.748994  1604 net.cpp:157] Top shape: 16 160 57 57 (8317440)
I1126 11:19:55.749020  1604 net.cpp:165] Memory required for data: 1080168512
I1126 11:19:55.749070  1604 layer_factory.hpp:77] Creating layer relu2_4/x1
I1126 11:19:55.749099  1604 net.cpp:100] Creating Layer relu2_4/x1
I1126 11:19:55.749124  1604 net.cpp:434] relu2_4/x1 <- conv2_4/x1/bn
I1126 11:19:55.749148  1604 net.cpp:395] relu2_4/x1 -> conv2_4/x1/bn (in-place)
I1126 11:19:55.751216  1604 net.cpp:150] Setting up relu2_4/x1
I1126 11:19:55.751289  1604 net.cpp:157] Top shape: 16 160 57 57 (8317440)
I1126 11:19:55.751314  1604 net.cpp:165] Memory required for data: 1113438272
I1126 11:19:55.751336  1604 layer_factory.hpp:77] Creating layer conv2_4/x1
I1126 11:19:55.751376  1604 net.cpp:100] Creating Layer conv2_4/x1
I1126 11:19:55.751410  1604 net.cpp:434] conv2_4/x1 <- conv2_4/x1/bn
I1126 11:19:55.751437  1604 net.cpp:408] conv2_4/x1 -> conv2_4/x1
I1126 11:19:55.754515  1604 net.cpp:150] Setting up conv2_4/x1
I1126 11:19:55.754573  1604 net.cpp:157] Top shape: 16 128 57 57 (6653952)
I1126 11:19:55.754597  1604 net.cpp:165] Memory required for data: 1140054080
I1126 11:19:55.754623  1604 layer_factory.hpp:77] Creating layer conv2_4/x2/bn
I1126 11:19:55.754663  1604 net.cpp:100] Creating Layer conv2_4/x2/bn
I1126 11:19:55.754690  1604 net.cpp:434] conv2_4/x2/bn <- conv2_4/x1
I1126 11:19:55.754717  1604 net.cpp:408] conv2_4/x2/bn -> conv2_4/x2/bn
I1126 11:19:55.755239  1604 net.cpp:150] Setting up conv2_4/x2/bn
I1126 11:19:55.755287  1604 net.cpp:157] Top shape: 16 128 57 57 (6653952)
I1126 11:19:55.755308  1604 net.cpp:165] Memory required for data: 1166669888
I1126 11:19:55.755339  1604 layer_factory.hpp:77] Creating layer conv2_4/x2/scale
I1126 11:19:55.755367  1604 net.cpp:100] Creating Layer conv2_4/x2/scale
I1126 11:19:55.755389  1604 net.cpp:434] conv2_4/x2/scale <- conv2_4/x2/bn
I1126 11:19:55.755429  1604 net.cpp:395] conv2_4/x2/scale -> conv2_4/x2/bn (in-place)
I1126 11:19:55.755548  1604 layer_factory.hpp:77] Creating layer conv2_4/x2/scale
I1126 11:19:55.755831  1604 net.cpp:150] Setting up conv2_4/x2/scale
I1126 11:19:55.755868  1604 net.cpp:157] Top shape: 16 128 57 57 (6653952)
I1126 11:19:55.755888  1604 net.cpp:165] Memory required for data: 1193285696
I1126 11:19:55.755915  1604 layer_factory.hpp:77] Creating layer relu2_4/x2
I1126 11:19:55.755951  1604 net.cpp:100] Creating Layer relu2_4/x2
I1126 11:19:55.755976  1604 net.cpp:434] relu2_4/x2 <- conv2_4/x2/bn
I1126 11:19:55.756001  1604 net.cpp:395] relu2_4/x2 -> conv2_4/x2/bn (in-place)
I1126 11:19:55.756407  1604 net.cpp:150] Setting up relu2_4/x2
I1126 11:19:55.756450  1604 net.cpp:157] Top shape: 16 128 57 57 (6653952)
I1126 11:19:55.756472  1604 net.cpp:165] Memory required for data: 1219901504
I1126 11:19:55.756494  1604 layer_factory.hpp:77] Creating layer conv2_4/x2
I1126 11:19:55.756531  1604 net.cpp:100] Creating Layer conv2_4/x2
I1126 11:19:55.756556  1604 net.cpp:434] conv2_4/x2 <- conv2_4/x2/bn
I1126 11:19:55.756590  1604 net.cpp:408] conv2_4/x2 -> conv2_4/x2
I1126 11:19:55.761237  1604 net.cpp:150] Setting up conv2_4/x2
I1126 11:19:55.761294  1604 net.cpp:157] Top shape: 16 32 57 57 (1663488)
I1126 11:19:55.761317  1604 net.cpp:165] Memory required for data: 1226555456
I1126 11:19:55.761343  1604 layer_factory.hpp:77] Creating layer concat_2_4
I1126 11:19:55.761381  1604 net.cpp:100] Creating Layer concat_2_4
I1126 11:19:55.761407  1604 net.cpp:434] concat_2_4 <- concat_2_3_concat_2_3_0_split_1
I1126 11:19:55.761432  1604 net.cpp:434] concat_2_4 <- conv2_4/x2
I1126 11:19:55.761456  1604 net.cpp:408] concat_2_4 -> concat_2_4
I1126 11:19:55.761548  1604 net.cpp:150] Setting up concat_2_4
I1126 11:19:55.761582  1604 net.cpp:157] Top shape: 16 192 57 57 (9980928)
I1126 11:19:55.761601  1604 net.cpp:165] Memory required for data: 1266479168
I1126 11:19:55.761620  1604 layer_factory.hpp:77] Creating layer concat_2_4_concat_2_4_0_split
I1126 11:19:55.761653  1604 net.cpp:100] Creating Layer concat_2_4_concat_2_4_0_split
I1126 11:19:55.761677  1604 net.cpp:434] concat_2_4_concat_2_4_0_split <- concat_2_4
I1126 11:19:55.761724  1604 net.cpp:408] concat_2_4_concat_2_4_0_split -> concat_2_4_concat_2_4_0_split_0
I1126 11:19:55.761773  1604 net.cpp:408] concat_2_4_concat_2_4_0_split -> concat_2_4_concat_2_4_0_split_1
I1126 11:19:55.761880  1604 net.cpp:150] Setting up concat_2_4_concat_2_4_0_split
I1126 11:19:55.761914  1604 net.cpp:157] Top shape: 16 192 57 57 (9980928)
I1126 11:19:55.761934  1604 net.cpp:157] Top shape: 16 192 57 57 (9980928)
I1126 11:19:55.761951  1604 net.cpp:165] Memory required for data: 1346326592
I1126 11:19:55.761971  1604 layer_factory.hpp:77] Creating layer conv2_5/x1/bn
I1126 11:19:55.761996  1604 net.cpp:100] Creating Layer conv2_5/x1/bn
I1126 11:19:55.762017  1604 net.cpp:434] conv2_5/x1/bn <- concat_2_4_concat_2_4_0_split_0
I1126 11:19:55.762048  1604 net.cpp:408] conv2_5/x1/bn -> conv2_5/x1/bn
I1126 11:19:55.762501  1604 net.cpp:150] Setting up conv2_5/x1/bn
I1126 11:19:55.762539  1604 net.cpp:157] Top shape: 16 192 57 57 (9980928)
I1126 11:19:55.762558  1604 net.cpp:165] Memory required for data: 1386250304
I1126 11:19:55.762588  1604 layer_factory.hpp:77] Creating layer conv2_5/x1/scale
I1126 11:19:55.762614  1604 net.cpp:100] Creating Layer conv2_5/x1/scale
I1126 11:19:55.762635  1604 net.cpp:434] conv2_5/x1/scale <- conv2_5/x1/bn
I1126 11:19:55.762660  1604 net.cpp:395] conv2_5/x1/scale -> conv2_5/x1/bn (in-place)
I1126 11:19:55.762771  1604 layer_factory.hpp:77] Creating layer conv2_5/x1/scale
I1126 11:19:55.763087  1604 net.cpp:150] Setting up conv2_5/x1/scale
I1126 11:19:55.763128  1604 net.cpp:157] Top shape: 16 192 57 57 (9980928)
I1126 11:19:55.763146  1604 net.cpp:165] Memory required for data: 1426174016
I1126 11:19:55.763172  1604 layer_factory.hpp:77] Creating layer relu2_5/x1
I1126 11:19:55.763206  1604 net.cpp:100] Creating Layer relu2_5/x1
I1126 11:19:55.763244  1604 net.cpp:434] relu2_5/x1 <- conv2_5/x1/bn
I1126 11:19:55.763272  1604 net.cpp:395] relu2_5/x1 -> conv2_5/x1/bn (in-place)
I1126 11:19:55.763638  1604 net.cpp:150] Setting up relu2_5/x1
I1126 11:19:55.763677  1604 net.cpp:157] Top shape: 16 192 57 57 (9980928)
I1126 11:19:55.763697  1604 net.cpp:165] Memory required for data: 1466097728
I1126 11:19:55.763717  1604 layer_factory.hpp:77] Creating layer conv2_5/x1
I1126 11:19:55.763756  1604 net.cpp:100] Creating Layer conv2_5/x1
I1126 11:19:55.763780  1604 net.cpp:434] conv2_5/x1 <- conv2_5/x1/bn
I1126 11:19:55.763813  1604 net.cpp:408] conv2_5/x1 -> conv2_5/x1
I1126 11:19:55.766741  1604 net.cpp:150] Setting up conv2_5/x1
I1126 11:19:55.766794  1604 net.cpp:157] Top shape: 16 128 57 57 (6653952)
I1126 11:19:55.766818  1604 net.cpp:165] Memory required for data: 1492713536
I1126 11:19:55.766842  1604 layer_factory.hpp:77] Creating layer conv2_5/x2/bn
I1126 11:19:55.766870  1604 net.cpp:100] Creating Layer conv2_5/x2/bn
I1126 11:19:55.766891  1604 net.cpp:434] conv2_5/x2/bn <- conv2_5/x1
I1126 11:19:55.766944  1604 net.cpp:408] conv2_5/x2/bn -> conv2_5/x2/bn
I1126 11:19:55.767412  1604 net.cpp:150] Setting up conv2_5/x2/bn
I1126 11:19:55.767453  1604 net.cpp:157] Top shape: 16 128 57 57 (6653952)
I1126 11:19:55.767473  1604 net.cpp:165] Memory required for data: 1519329344
I1126 11:19:55.767503  1604 layer_factory.hpp:77] Creating layer conv2_5/x2/scale
I1126 11:19:55.767539  1604 net.cpp:100] Creating Layer conv2_5/x2/scale
I1126 11:19:55.767562  1604 net.cpp:434] conv2_5/x2/scale <- conv2_5/x2/bn
I1126 11:19:55.767587  1604 net.cpp:395] conv2_5/x2/scale -> conv2_5/x2/bn (in-place)
I1126 11:19:55.767695  1604 layer_factory.hpp:77] Creating layer conv2_5/x2/scale
I1126 11:19:55.767976  1604 net.cpp:150] Setting up conv2_5/x2/scale
I1126 11:19:55.768012  1604 net.cpp:157] Top shape: 16 128 57 57 (6653952)
I1126 11:19:55.768030  1604 net.cpp:165] Memory required for data: 1545945152
I1126 11:19:55.768082  1604 layer_factory.hpp:77] Creating layer relu2_5/x2
I1126 11:19:55.768113  1604 net.cpp:100] Creating Layer relu2_5/x2
I1126 11:19:55.768134  1604 net.cpp:434] relu2_5/x2 <- conv2_5/x2/bn
I1126 11:19:55.768187  1604 net.cpp:395] relu2_5/x2 -> conv2_5/x2/bn (in-place)
I1126 11:19:55.768553  1604 net.cpp:150] Setting up relu2_5/x2
I1126 11:19:55.768592  1604 net.cpp:157] Top shape: 16 128 57 57 (6653952)
I1126 11:19:55.768637  1604 net.cpp:165] Memory required for data: 1572560960
I1126 11:19:55.768659  1604 layer_factory.hpp:77] Creating layer conv2_5/x2
I1126 11:19:55.768697  1604 net.cpp:100] Creating Layer conv2_5/x2
I1126 11:19:55.768721  1604 net.cpp:434] conv2_5/x2 <- conv2_5/x2/bn
I1126 11:19:55.768754  1604 net.cpp:408] conv2_5/x2 -> conv2_5/x2
I1126 11:19:55.771679  1604 net.cpp:150] Setting up conv2_5/x2
I1126 11:19:55.771733  1604 net.cpp:157] Top shape: 16 32 57 57 (1663488)
I1126 11:19:55.771754  1604 net.cpp:165] Memory required for data: 1579214912
I1126 11:19:55.771778  1604 layer_factory.hpp:77] Creating layer concat_2_5
I1126 11:19:55.771803  1604 net.cpp:100] Creating Layer concat_2_5
I1126 11:19:55.771824  1604 net.cpp:434] concat_2_5 <- concat_2_4_concat_2_4_0_split_1
I1126 11:19:55.771845  1604 net.cpp:434] concat_2_5 <- conv2_5/x2
I1126 11:19:55.771878  1604 net.cpp:408] concat_2_5 -> concat_2_5
I1126 11:19:55.771982  1604 net.cpp:150] Setting up concat_2_5
I1126 11:19:55.772016  1604 net.cpp:157] Top shape: 16 224 57 57 (11644416)
I1126 11:19:55.772033  1604 net.cpp:165] Memory required for data: 1625792576
I1126 11:19:55.772053  1604 layer_factory.hpp:77] Creating layer concat_2_5_concat_2_5_0_split
I1126 11:19:55.772083  1604 net.cpp:100] Creating Layer concat_2_5_concat_2_5_0_split
I1126 11:19:55.772106  1604 net.cpp:434] concat_2_5_concat_2_5_0_split <- concat_2_5
I1126 11:19:55.772135  1604 net.cpp:408] concat_2_5_concat_2_5_0_split -> concat_2_5_concat_2_5_0_split_0
I1126 11:19:55.772161  1604 net.cpp:408] concat_2_5_concat_2_5_0_split -> concat_2_5_concat_2_5_0_split_1
I1126 11:19:55.772277  1604 net.cpp:150] Setting up concat_2_5_concat_2_5_0_split
I1126 11:19:55.772310  1604 net.cpp:157] Top shape: 16 224 57 57 (11644416)
I1126 11:19:55.772330  1604 net.cpp:157] Top shape: 16 224 57 57 (11644416)
I1126 11:19:55.772346  1604 net.cpp:165] Memory required for data: 1718947904
I1126 11:19:55.772364  1604 layer_factory.hpp:77] Creating layer conv2_6/x1/bn
I1126 11:19:55.772397  1604 net.cpp:100] Creating Layer conv2_6/x1/bn
I1126 11:19:55.772418  1604 net.cpp:434] conv2_6/x1/bn <- concat_2_5_concat_2_5_0_split_0
I1126 11:19:55.772441  1604 net.cpp:408] conv2_6/x1/bn -> conv2_6/x1/bn
I1126 11:19:55.772848  1604 net.cpp:150] Setting up conv2_6/x1/bn
I1126 11:19:55.772882  1604 net.cpp:157] Top shape: 16 224 57 57 (11644416)
I1126 11:19:55.772902  1604 net.cpp:165] Memory required for data: 1765525568
I1126 11:19:55.772928  1604 layer_factory.hpp:77] Creating layer conv2_6/x1/scale
I1126 11:19:55.772961  1604 net.cpp:100] Creating Layer conv2_6/x1/scale
I1126 11:19:55.772984  1604 net.cpp:434] conv2_6/x1/scale <- conv2_6/x1/bn
I1126 11:19:55.773006  1604 net.cpp:395] conv2_6/x1/scale -> conv2_6/x1/bn (in-place)
I1126 11:19:55.773118  1604 layer_factory.hpp:77] Creating layer conv2_6/x1/scale
I1126 11:19:55.773413  1604 net.cpp:150] Setting up conv2_6/x1/scale
I1126 11:19:55.773448  1604 net.cpp:157] Top shape: 16 224 57 57 (11644416)
I1126 11:19:55.773466  1604 net.cpp:165] Memory required for data: 1812103232
I1126 11:19:55.773490  1604 layer_factory.hpp:77] Creating layer relu2_6/x1
I1126 11:19:55.773526  1604 net.cpp:100] Creating Layer relu2_6/x1
I1126 11:19:55.773550  1604 net.cpp:434] relu2_6/x1 <- conv2_6/x1/bn
I1126 11:19:55.773572  1604 net.cpp:395] relu2_6/x1 -> conv2_6/x1/bn (in-place)
I1126 11:19:55.773908  1604 net.cpp:150] Setting up relu2_6/x1
I1126 11:19:55.773946  1604 net.cpp:157] Top shape: 16 224 57 57 (11644416)
I1126 11:19:55.773964  1604 net.cpp:165] Memory required for data: 1858680896
I1126 11:19:55.773983  1604 layer_factory.hpp:77] Creating layer conv2_6/x1
I1126 11:19:55.774016  1604 net.cpp:100] Creating Layer conv2_6/x1
I1126 11:19:55.774044  1604 net.cpp:434] conv2_6/x1 <- conv2_6/x1/bn
I1126 11:19:55.774075  1604 net.cpp:408] conv2_6/x1 -> conv2_6/x1
I1126 11:19:55.776844  1604 net.cpp:150] Setting up conv2_6/x1
I1126 11:19:55.776898  1604 net.cpp:157] Top shape: 16 128 57 57 (6653952)
I1126 11:19:55.776921  1604 net.cpp:165] Memory required for data: 1885296704
I1126 11:19:55.776969  1604 layer_factory.hpp:77] Creating layer conv2_6/x2/bn
I1126 11:19:55.777004  1604 net.cpp:100] Creating Layer conv2_6/x2/bn
I1126 11:19:55.777029  1604 net.cpp:434] conv2_6/x2/bn <- conv2_6/x1
I1126 11:19:55.777053  1604 net.cpp:408] conv2_6/x2/bn -> conv2_6/x2/bn
I1126 11:19:55.777480  1604 net.cpp:150] Setting up conv2_6/x2/bn
I1126 11:19:55.777516  1604 net.cpp:157] Top shape: 16 128 57 57 (6653952)
I1126 11:19:55.777535  1604 net.cpp:165] Memory required for data: 1911912512
I1126 11:19:55.777562  1604 layer_factory.hpp:77] Creating layer conv2_6/x2/scale
I1126 11:19:55.777587  1604 net.cpp:100] Creating Layer conv2_6/x2/scale
I1126 11:19:55.777608  1604 net.cpp:434] conv2_6/x2/scale <- conv2_6/x2/bn
I1126 11:19:55.777638  1604 net.cpp:395] conv2_6/x2/scale -> conv2_6/x2/bn (in-place)
I1126 11:19:55.777751  1604 layer_factory.hpp:77] Creating layer conv2_6/x2/scale
I1126 11:19:55.778012  1604 net.cpp:150] Setting up conv2_6/x2/scale
I1126 11:19:55.778048  1604 net.cpp:157] Top shape: 16 128 57 57 (6653952)
I1126 11:19:55.778065  1604 net.cpp:165] Memory required for data: 1938528320
I1126 11:19:55.778090  1604 layer_factory.hpp:77] Creating layer relu2_6/x2
I1126 11:19:55.778113  1604 net.cpp:100] Creating Layer relu2_6/x2
I1126 11:19:55.778146  1604 net.cpp:434] relu2_6/x2 <- conv2_6/x2/bn
I1126 11:19:55.778168  1604 net.cpp:395] relu2_6/x2 -> conv2_6/x2/bn (in-place)
I1126 11:19:55.778529  1604 net.cpp:150] Setting up relu2_6/x2
I1126 11:19:55.778575  1604 net.cpp:157] Top shape: 16 128 57 57 (6653952)
I1126 11:19:55.778596  1604 net.cpp:165] Memory required for data: 1965144128
I1126 11:19:55.778616  1604 layer_factory.hpp:77] Creating layer conv2_6/x2
I1126 11:19:55.778658  1604 net.cpp:100] Creating Layer conv2_6/x2
I1126 11:19:55.778683  1604 net.cpp:434] conv2_6/x2 <- conv2_6/x2/bn
I1126 11:19:55.778715  1604 net.cpp:408] conv2_6/x2 -> conv2_6/x2
I1126 11:19:55.785390  1604 net.cpp:150] Setting up conv2_6/x2
I1126 11:19:55.785444  1604 net.cpp:157] Top shape: 16 32 57 57 (1663488)
I1126 11:19:55.785465  1604 net.cpp:165] Memory required for data: 1971798080
I1126 11:19:55.785490  1604 layer_factory.hpp:77] Creating layer concat_2_6
I1126 11:19:55.785516  1604 net.cpp:100] Creating Layer concat_2_6
I1126 11:19:55.785537  1604 net.cpp:434] concat_2_6 <- concat_2_5_concat_2_5_0_split_1
I1126 11:19:55.785558  1604 net.cpp:434] concat_2_6 <- conv2_6/x2
I1126 11:19:55.785591  1604 net.cpp:408] concat_2_6 -> concat_2_6
I1126 11:19:55.785666  1604 net.cpp:150] Setting up concat_2_6
I1126 11:19:55.785696  1604 net.cpp:157] Top shape: 16 256 57 57 (13307904)
I1126 11:19:55.785712  1604 net.cpp:165] Memory required for data: 2025029696
I1126 11:19:55.785732  1604 layer_factory.hpp:77] Creating layer conv2_6/blk/bn
I1126 11:19:55.785765  1604 net.cpp:100] Creating Layer conv2_6/blk/bn
I1126 11:19:55.785787  1604 net.cpp:434] conv2_6/blk/bn <- concat_2_6
I1126 11:19:55.785817  1604 net.cpp:408] conv2_6/blk/bn -> conv2_6/blk/bn
I1126 11:19:55.786262  1604 net.cpp:150] Setting up conv2_6/blk/bn
I1126 11:19:55.786298  1604 net.cpp:157] Top shape: 16 256 57 57 (13307904)
I1126 11:19:55.786316  1604 net.cpp:165] Memory required for data: 2078261312
I1126 11:19:55.786343  1604 layer_factory.hpp:77] Creating layer conv2_6/blk/scale
I1126 11:19:55.786368  1604 net.cpp:100] Creating Layer conv2_6/blk/scale
I1126 11:19:55.786389  1604 net.cpp:434] conv2_6/blk/scale <- conv2_6/blk/bn
I1126 11:19:55.786412  1604 net.cpp:395] conv2_6/blk/scale -> conv2_6/blk/bn (in-place)
I1126 11:19:55.786522  1604 layer_factory.hpp:77] Creating layer conv2_6/blk/scale
I1126 11:19:55.786787  1604 net.cpp:150] Setting up conv2_6/blk/scale
I1126 11:19:55.786820  1604 net.cpp:157] Top shape: 16 256 57 57 (13307904)
I1126 11:19:55.786839  1604 net.cpp:165] Memory required for data: 2131492928
I1126 11:19:55.786862  1604 layer_factory.hpp:77] Creating layer relu2_6/blk
I1126 11:19:55.786913  1604 net.cpp:100] Creating Layer relu2_6/blk
I1126 11:19:55.786957  1604 net.cpp:434] relu2_6/blk <- conv2_6/blk/bn
I1126 11:19:55.787009  1604 net.cpp:395] relu2_6/blk -> conv2_6/blk/bn (in-place)
I1126 11:19:55.788684  1604 net.cpp:150] Setting up relu2_6/blk
I1126 11:19:55.788733  1604 net.cpp:157] Top shape: 16 256 57 57 (13307904)
I1126 11:19:55.788753  1604 net.cpp:165] Memory required for data: 2184724544
I1126 11:19:55.788772  1604 layer_factory.hpp:77] Creating layer conv2_6/blk
I1126 11:19:55.788806  1604 net.cpp:100] Creating Layer conv2_6/blk
I1126 11:19:55.788830  1604 net.cpp:434] conv2_6/blk <- conv2_6/blk/bn
I1126 11:19:55.788856  1604 net.cpp:408] conv2_6/blk -> conv2_6/blk
I1126 11:19:55.791474  1604 net.cpp:150] Setting up conv2_6/blk
I1126 11:19:55.791525  1604 net.cpp:157] Top shape: 16 128 57 57 (6653952)
I1126 11:19:55.791545  1604 net.cpp:165] Memory required for data: 2211340352
I1126 11:19:55.791568  1604 layer_factory.hpp:77] Creating layer pool2_6
I1126 11:19:55.791594  1604 net.cpp:100] Creating Layer pool2_6
I1126 11:19:55.791613  1604 net.cpp:434] pool2_6 <- conv2_6/blk
I1126 11:19:55.791642  1604 net.cpp:408] pool2_6 -> pool2_6
I1126 11:19:55.792049  1604 net.cpp:150] Setting up pool2_6
I1126 11:19:55.792088  1604 net.cpp:157] Top shape: 16 128 29 29 (1722368)
I1126 11:19:55.792105  1604 net.cpp:165] Memory required for data: 2218229824
I1126 11:19:55.792124  1604 layer_factory.hpp:77] Creating layer pool2_6_pool2_6_0_split
I1126 11:19:55.792146  1604 net.cpp:100] Creating Layer pool2_6_pool2_6_0_split
I1126 11:19:55.792165  1604 net.cpp:434] pool2_6_pool2_6_0_split <- pool2_6
I1126 11:19:55.792186  1604 net.cpp:408] pool2_6_pool2_6_0_split -> pool2_6_pool2_6_0_split_0
I1126 11:19:55.792210  1604 net.cpp:408] pool2_6_pool2_6_0_split -> pool2_6_pool2_6_0_split_1
I1126 11:19:55.792312  1604 net.cpp:150] Setting up pool2_6_pool2_6_0_split
I1126 11:19:55.792341  1604 net.cpp:157] Top shape: 16 128 29 29 (1722368)
I1126 11:19:55.792361  1604 net.cpp:157] Top shape: 16 128 29 29 (1722368)
I1126 11:19:55.792376  1604 net.cpp:165] Memory required for data: 2232008768
I1126 11:19:55.792394  1604 layer_factory.hpp:77] Creating layer conv3_1/x1/bn
I1126 11:19:55.792419  1604 net.cpp:100] Creating Layer conv3_1/x1/bn
I1126 11:19:55.792439  1604 net.cpp:434] conv3_1/x1/bn <- pool2_6_pool2_6_0_split_0
I1126 11:19:55.792461  1604 net.cpp:408] conv3_1/x1/bn -> conv3_1/x1/bn
I1126 11:19:55.794765  1604 net.cpp:150] Setting up conv3_1/x1/bn
I1126 11:19:55.794812  1604 net.cpp:157] Top shape: 16 128 29 29 (1722368)
I1126 11:19:55.794832  1604 net.cpp:165] Memory required for data: 2238898240
I1126 11:19:55.794859  1604 layer_factory.hpp:77] Creating layer conv3_1/x1/scale
I1126 11:19:55.794884  1604 net.cpp:100] Creating Layer conv3_1/x1/scale
I1126 11:19:55.794903  1604 net.cpp:434] conv3_1/x1/scale <- conv3_1/x1/bn
I1126 11:19:55.794953  1604 net.cpp:395] conv3_1/x1/scale -> conv3_1/x1/bn (in-place)
I1126 11:19:55.795066  1604 layer_factory.hpp:77] Creating layer conv3_1/x1/scale
I1126 11:19:55.795343  1604 net.cpp:150] Setting up conv3_1/x1/scale
I1126 11:19:55.795384  1604 net.cpp:157] Top shape: 16 128 29 29 (1722368)
I1126 11:19:55.795404  1604 net.cpp:165] Memory required for data: 2245787712
I1126 11:19:55.795428  1604 layer_factory.hpp:77] Creating layer relu3_1/x1
I1126 11:19:55.795451  1604 net.cpp:100] Creating Layer relu3_1/x1
I1126 11:19:55.795469  1604 net.cpp:434] relu3_1/x1 <- conv3_1/x1/bn
I1126 11:19:55.795490  1604 net.cpp:395] relu3_1/x1 -> conv3_1/x1/bn (in-place)
I1126 11:19:55.795852  1604 net.cpp:150] Setting up relu3_1/x1
I1126 11:19:55.795888  1604 net.cpp:157] Top shape: 16 128 29 29 (1722368)
I1126 11:19:55.795905  1604 net.cpp:165] Memory required for data: 2252677184
I1126 11:19:55.795924  1604 layer_factory.hpp:77] Creating layer conv3_1/x1
I1126 11:19:55.795949  1604 net.cpp:100] Creating Layer conv3_1/x1
I1126 11:19:55.795969  1604 net.cpp:434] conv3_1/x1 <- conv3_1/x1/bn
I1126 11:19:55.795989  1604 net.cpp:408] conv3_1/x1 -> conv3_1/x1
I1126 11:19:55.798660  1604 net.cpp:150] Setting up conv3_1/x1
I1126 11:19:55.798707  1604 net.cpp:157] Top shape: 16 128 29 29 (1722368)
I1126 11:19:55.798748  1604 net.cpp:165] Memory required for data: 2259566656
I1126 11:19:55.798774  1604 layer_factory.hpp:77] Creating layer conv3_1/x2/bn
I1126 11:19:55.798805  1604 net.cpp:100] Creating Layer conv3_1/x2/bn
I1126 11:19:55.798828  1604 net.cpp:434] conv3_1/x2/bn <- conv3_1/x1
I1126 11:19:55.798851  1604 net.cpp:408] conv3_1/x2/bn -> conv3_1/x2/bn
I1126 11:19:55.799314  1604 net.cpp:150] Setting up conv3_1/x2/bn
I1126 11:19:55.799353  1604 net.cpp:157] Top shape: 16 128 29 29 (1722368)
I1126 11:19:55.799372  1604 net.cpp:165] Memory required for data: 2266456128
I1126 11:19:55.799405  1604 layer_factory.hpp:77] Creating layer conv3_1/x2/scale
I1126 11:19:55.799433  1604 net.cpp:100] Creating Layer conv3_1/x2/scale
I1126 11:19:55.799453  1604 net.cpp:434] conv3_1/x2/scale <- conv3_1/x2/bn
I1126 11:19:55.799480  1604 net.cpp:395] conv3_1/x2/scale -> conv3_1/x2/bn (in-place)
I1126 11:19:55.799582  1604 layer_factory.hpp:77] Creating layer conv3_1/x2/scale
I1126 11:19:55.799829  1604 net.cpp:150] Setting up conv3_1/x2/scale
I1126 11:19:55.799860  1604 net.cpp:157] Top shape: 16 128 29 29 (1722368)
I1126 11:19:55.799876  1604 net.cpp:165] Memory required for data: 2273345600
I1126 11:19:55.799899  1604 layer_factory.hpp:77] Creating layer relu3_1/x2
I1126 11:19:55.799929  1604 net.cpp:100] Creating Layer relu3_1/x2
I1126 11:19:55.799950  1604 net.cpp:434] relu3_1/x2 <- conv3_1/x2/bn
I1126 11:19:55.799976  1604 net.cpp:395] relu3_1/x2 -> conv3_1/x2/bn (in-place)
I1126 11:19:55.800328  1604 net.cpp:150] Setting up relu3_1/x2
I1126 11:19:55.800365  1604 net.cpp:157] Top shape: 16 128 29 29 (1722368)
I1126 11:19:55.800384  1604 net.cpp:165] Memory required for data: 2280235072
I1126 11:19:55.800405  1604 layer_factory.hpp:77] Creating layer conv3_1/x2
I1126 11:19:55.800451  1604 net.cpp:100] Creating Layer conv3_1/x2
I1126 11:19:55.800473  1604 net.cpp:434] conv3_1/x2 <- conv3_1/x2/bn
I1126 11:19:55.800494  1604 net.cpp:408] conv3_1/x2 -> conv3_1/x2
I1126 11:19:55.803043  1604 net.cpp:150] Setting up conv3_1/x2
I1126 11:19:55.803092  1604 net.cpp:157] Top shape: 16 32 29 29 (430592)
I1126 11:19:55.803112  1604 net.cpp:165] Memory required for data: 2281957440
I1126 11:19:55.803133  1604 layer_factory.hpp:77] Creating layer concat_3_1
I1126 11:19:55.803164  1604 net.cpp:100] Creating Layer concat_3_1
I1126 11:19:55.803185  1604 net.cpp:434] concat_3_1 <- pool2_6_pool2_6_0_split_1
I1126 11:19:55.803210  1604 net.cpp:434] concat_3_1 <- conv3_1/x2
I1126 11:19:55.803246  1604 net.cpp:408] concat_3_1 -> concat_3_1
I1126 11:19:55.803323  1604 net.cpp:150] Setting up concat_3_1
I1126 11:19:55.803351  1604 net.cpp:157] Top shape: 16 160 29 29 (2152960)
I1126 11:19:55.803366  1604 net.cpp:165] Memory required for data: 2290569280
I1126 11:19:55.803383  1604 layer_factory.hpp:77] Creating layer concat_3_1_concat_3_1_0_split
I1126 11:19:55.803405  1604 net.cpp:100] Creating Layer concat_3_1_concat_3_1_0_split
I1126 11:19:55.803422  1604 net.cpp:434] concat_3_1_concat_3_1_0_split <- concat_3_1
I1126 11:19:55.803449  1604 net.cpp:408] concat_3_1_concat_3_1_0_split -> concat_3_1_concat_3_1_0_split_0
I1126 11:19:55.803475  1604 net.cpp:408] concat_3_1_concat_3_1_0_split -> concat_3_1_concat_3_1_0_split_1
I1126 11:19:55.803560  1604 net.cpp:150] Setting up concat_3_1_concat_3_1_0_split
I1126 11:19:55.803591  1604 net.cpp:157] Top shape: 16 160 29 29 (2152960)
I1126 11:19:55.803612  1604 net.cpp:157] Top shape: 16 160 29 29 (2152960)
I1126 11:19:55.803627  1604 net.cpp:165] Memory required for data: 2307792960
I1126 11:19:55.803644  1604 layer_factory.hpp:77] Creating layer conv3_2/x1/bn
I1126 11:19:55.803665  1604 net.cpp:100] Creating Layer conv3_2/x1/bn
I1126 11:19:55.803683  1604 net.cpp:434] conv3_2/x1/bn <- concat_3_1_concat_3_1_0_split_0
I1126 11:19:55.803714  1604 net.cpp:408] conv3_2/x1/bn -> conv3_2/x1/bn
I1126 11:19:55.804085  1604 net.cpp:150] Setting up conv3_2/x1/bn
I1126 11:19:55.804139  1604 net.cpp:157] Top shape: 16 160 29 29 (2152960)
I1126 11:19:55.804158  1604 net.cpp:165] Memory required for data: 2316404800
I1126 11:19:55.804204  1604 layer_factory.hpp:77] Creating layer conv3_2/x1/scale
I1126 11:19:55.804242  1604 net.cpp:100] Creating Layer conv3_2/x1/scale
I1126 11:19:55.804263  1604 net.cpp:434] conv3_2/x1/scale <- conv3_2/x1/bn
I1126 11:19:55.804283  1604 net.cpp:395] conv3_2/x1/scale -> conv3_2/x1/bn (in-place)
I1126 11:19:55.804400  1604 layer_factory.hpp:77] Creating layer conv3_2/x1/scale
I1126 11:19:55.804656  1604 net.cpp:150] Setting up conv3_2/x1/scale
I1126 11:19:55.804685  1604 net.cpp:157] Top shape: 16 160 29 29 (2152960)
I1126 11:19:55.804702  1604 net.cpp:165] Memory required for data: 2325016640
I1126 11:19:55.804724  1604 layer_factory.hpp:77] Creating layer relu3_2/x1
I1126 11:19:55.804745  1604 net.cpp:100] Creating Layer relu3_2/x1
I1126 11:19:55.804762  1604 net.cpp:434] relu3_2/x1 <- conv3_2/x1/bn
I1126 11:19:55.804791  1604 net.cpp:395] relu3_2/x1 -> conv3_2/x1/bn (in-place)
I1126 11:19:55.805096  1604 net.cpp:150] Setting up relu3_2/x1
I1126 11:19:55.805130  1604 net.cpp:157] Top shape: 16 160 29 29 (2152960)
I1126 11:19:55.805146  1604 net.cpp:165] Memory required for data: 2333628480
I1126 11:19:55.805162  1604 layer_factory.hpp:77] Creating layer conv3_2/x1
I1126 11:19:55.805192  1604 net.cpp:100] Creating Layer conv3_2/x1
I1126 11:19:55.805213  1604 net.cpp:434] conv3_2/x1 <- conv3_2/x1/bn
I1126 11:19:55.805248  1604 net.cpp:408] conv3_2/x1 -> conv3_2/x1
I1126 11:19:55.807744  1604 net.cpp:150] Setting up conv3_2/x1
I1126 11:19:55.807793  1604 net.cpp:157] Top shape: 16 128 29 29 (1722368)
I1126 11:19:55.807812  1604 net.cpp:165] Memory required for data: 2340517952
I1126 11:19:55.807833  1604 layer_factory.hpp:77] Creating layer conv3_2/x2/bn
I1126 11:19:55.807865  1604 net.cpp:100] Creating Layer conv3_2/x2/bn
I1126 11:19:55.807886  1604 net.cpp:434] conv3_2/x2/bn <- conv3_2/x1
I1126 11:19:55.807914  1604 net.cpp:408] conv3_2/x2/bn -> conv3_2/x2/bn
I1126 11:19:55.808316  1604 net.cpp:150] Setting up conv3_2/x2/bn
I1126 11:19:55.808351  1604 net.cpp:157] Top shape: 16 128 29 29 (1722368)
I1126 11:19:55.808367  1604 net.cpp:165] Memory required for data: 2347407424
I1126 11:19:55.808392  1604 layer_factory.hpp:77] Creating layer conv3_2/x2/scale
I1126 11:19:55.808414  1604 net.cpp:100] Creating Layer conv3_2/x2/scale
I1126 11:19:55.808432  1604 net.cpp:434] conv3_2/x2/scale <- conv3_2/x2/bn
I1126 11:19:55.808459  1604 net.cpp:395] conv3_2/x2/scale -> conv3_2/x2/bn (in-place)
I1126 11:19:55.808559  1604 layer_factory.hpp:77] Creating layer conv3_2/x2/scale
I1126 11:19:55.808799  1604 net.cpp:150] Setting up conv3_2/x2/scale
I1126 11:19:55.808830  1604 net.cpp:157] Top shape: 16 128 29 29 (1722368)
I1126 11:19:55.808845  1604 net.cpp:165] Memory required for data: 2354296896
I1126 11:19:55.808867  1604 layer_factory.hpp:77] Creating layer relu3_2/x2
I1126 11:19:55.808888  1604 net.cpp:100] Creating Layer relu3_2/x2
I1126 11:19:55.808907  1604 net.cpp:434] relu3_2/x2 <- conv3_2/x2/bn
I1126 11:19:55.808930  1604 net.cpp:395] relu3_2/x2 -> conv3_2/x2/bn (in-place)
I1126 11:19:55.810503  1604 net.cpp:150] Setting up relu3_2/x2
I1126 11:19:55.810546  1604 net.cpp:157] Top shape: 16 128 29 29 (1722368)
I1126 11:19:55.810565  1604 net.cpp:165] Memory required for data: 2361186368
I1126 11:19:55.810582  1604 layer_factory.hpp:77] Creating layer conv3_2/x2
I1126 11:19:55.810614  1604 net.cpp:100] Creating Layer conv3_2/x2
I1126 11:19:55.810636  1604 net.cpp:434] conv3_2/x2 <- conv3_2/x2/bn
I1126 11:19:55.810657  1604 net.cpp:408] conv3_2/x2 -> conv3_2/x2
I1126 11:19:55.813084  1604 net.cpp:150] Setting up conv3_2/x2
I1126 11:19:55.813129  1604 net.cpp:157] Top shape: 16 32 29 29 (430592)
I1126 11:19:55.813148  1604 net.cpp:165] Memory required for data: 2362908736
I1126 11:19:55.813169  1604 layer_factory.hpp:77] Creating layer concat_3_2
I1126 11:19:55.813189  1604 net.cpp:100] Creating Layer concat_3_2
I1126 11:19:55.813208  1604 net.cpp:434] concat_3_2 <- concat_3_1_concat_3_1_0_split_1
I1126 11:19:55.813259  1604 net.cpp:434] concat_3_2 <- conv3_2/x2
I1126 11:19:55.813284  1604 net.cpp:408] concat_3_2 -> concat_3_2
I1126 11:19:55.813375  1604 net.cpp:150] Setting up concat_3_2
I1126 11:19:55.813402  1604 net.cpp:157] Top shape: 16 192 29 29 (2583552)
I1126 11:19:55.813418  1604 net.cpp:165] Memory required for data: 2373242944
I1126 11:19:55.813434  1604 layer_factory.hpp:77] Creating layer concat_3_2_concat_3_2_0_split
I1126 11:19:55.813460  1604 net.cpp:100] Creating Layer concat_3_2_concat_3_2_0_split
I1126 11:19:55.813480  1604 net.cpp:434] concat_3_2_concat_3_2_0_split <- concat_3_2
I1126 11:19:55.813500  1604 net.cpp:408] concat_3_2_concat_3_2_0_split -> concat_3_2_concat_3_2_0_split_0
I1126 11:19:55.813535  1604 net.cpp:408] concat_3_2_concat_3_2_0_split -> concat_3_2_concat_3_2_0_split_1
I1126 11:19:55.813625  1604 net.cpp:150] Setting up concat_3_2_concat_3_2_0_split
I1126 11:19:55.813659  1604 net.cpp:157] Top shape: 16 192 29 29 (2583552)
I1126 11:19:55.813679  1604 net.cpp:157] Top shape: 16 192 29 29 (2583552)
I1126 11:19:55.813694  1604 net.cpp:165] Memory required for data: 2393911360
I1126 11:19:55.813710  1604 layer_factory.hpp:77] Creating layer conv3_3/x1/bn
I1126 11:19:55.813730  1604 net.cpp:100] Creating Layer conv3_3/x1/bn
I1126 11:19:55.813747  1604 net.cpp:434] conv3_3/x1/bn <- concat_3_2_concat_3_2_0_split_0
I1126 11:19:55.813774  1604 net.cpp:408] conv3_3/x1/bn -> conv3_3/x1/bn
I1126 11:19:55.814142  1604 net.cpp:150] Setting up conv3_3/x1/bn
I1126 11:19:55.814172  1604 net.cpp:157] Top shape: 16 192 29 29 (2583552)
I1126 11:19:55.814188  1604 net.cpp:165] Memory required for data: 2404245568
I1126 11:19:55.814210  1604 layer_factory.hpp:77] Creating layer conv3_3/x1/scale
I1126 11:19:55.814244  1604 net.cpp:100] Creating Layer conv3_3/x1/scale
I1126 11:19:55.814265  1604 net.cpp:434] conv3_3/x1/scale <- conv3_3/x1/bn
I1126 11:19:55.814296  1604 net.cpp:395] conv3_3/x1/scale -> conv3_3/x1/bn (in-place)
I1126 11:19:55.814414  1604 layer_factory.hpp:77] Creating layer conv3_3/x1/scale
I1126 11:19:55.814635  1604 net.cpp:150] Setting up conv3_3/x1/scale
I1126 11:19:55.814663  1604 net.cpp:157] Top shape: 16 192 29 29 (2583552)
I1126 11:19:55.814678  1604 net.cpp:165] Memory required for data: 2414579776
I1126 11:19:55.814699  1604 layer_factory.hpp:77] Creating layer relu3_3/x1
I1126 11:19:55.814719  1604 net.cpp:100] Creating Layer relu3_3/x1
I1126 11:19:55.814736  1604 net.cpp:434] relu3_3/x1 <- conv3_3/x1/bn
I1126 11:19:55.814761  1604 net.cpp:395] relu3_3/x1 -> conv3_3/x1/bn (in-place)
I1126 11:19:55.816244  1604 net.cpp:150] Setting up relu3_3/x1
I1126 11:19:55.816289  1604 net.cpp:157] Top shape: 16 192 29 29 (2583552)
I1126 11:19:55.816308  1604 net.cpp:165] Memory required for data: 2424913984
I1126 11:19:55.816324  1604 layer_factory.hpp:77] Creating layer conv3_3/x1
I1126 11:19:55.816355  1604 net.cpp:100] Creating Layer conv3_3/x1
I1126 11:19:55.816375  1604 net.cpp:434] conv3_3/x1 <- conv3_3/x1/bn
I1126 11:19:55.816402  1604 net.cpp:408] conv3_3/x1 -> conv3_3/x1
I1126 11:19:55.818786  1604 net.cpp:150] Setting up conv3_3/x1
I1126 11:19:55.818830  1604 net.cpp:157] Top shape: 16 128 29 29 (1722368)
I1126 11:19:55.818848  1604 net.cpp:165] Memory required for data: 2431803456
I1126 11:19:55.818868  1604 layer_factory.hpp:77] Creating layer conv3_3/x2/bn
I1126 11:19:55.818891  1604 net.cpp:100] Creating Layer conv3_3/x2/bn
I1126 11:19:55.818909  1604 net.cpp:434] conv3_3/x2/bn <- conv3_3/x1
I1126 11:19:55.818970  1604 net.cpp:408] conv3_3/x2/bn -> conv3_3/x2/bn
I1126 11:19:55.819375  1604 net.cpp:150] Setting up conv3_3/x2/bn
I1126 11:19:55.819406  1604 net.cpp:157] Top shape: 16 128 29 29 (1722368)
I1126 11:19:55.819422  1604 net.cpp:165] Memory required for data: 2438692928
I1126 11:19:55.819445  1604 layer_factory.hpp:77] Creating layer conv3_3/x2/scale
I1126 11:19:55.819474  1604 net.cpp:100] Creating Layer conv3_3/x2/scale
I1126 11:19:55.819494  1604 net.cpp:434] conv3_3/x2/scale <- conv3_3/x2/bn
I1126 11:19:55.819514  1604 net.cpp:395] conv3_3/x2/scale -> conv3_3/x2/bn (in-place)
I1126 11:19:55.819627  1604 layer_factory.hpp:77] Creating layer conv3_3/x2/scale
I1126 11:19:55.819855  1604 net.cpp:150] Setting up conv3_3/x2/scale
I1126 11:19:55.819900  1604 net.cpp:157] Top shape: 16 128 29 29 (1722368)
I1126 11:19:55.819916  1604 net.cpp:165] Memory required for data: 2445582400
I1126 11:19:55.819937  1604 layer_factory.hpp:77] Creating layer relu3_3/x2
I1126 11:19:55.819958  1604 net.cpp:100] Creating Layer relu3_3/x2
I1126 11:19:55.819975  1604 net.cpp:434] relu3_3/x2 <- conv3_3/x2/bn
I1126 11:19:55.820001  1604 net.cpp:395] relu3_3/x2 -> conv3_3/x2/bn (in-place)
I1126 11:19:55.820308  1604 net.cpp:150] Setting up relu3_3/x2
I1126 11:19:55.820341  1604 net.cpp:157] Top shape: 16 128 29 29 (1722368)
I1126 11:19:55.820358  1604 net.cpp:165] Memory required for data: 2452471872
I1126 11:19:55.820374  1604 layer_factory.hpp:77] Creating layer conv3_3/x2
I1126 11:19:55.820407  1604 net.cpp:100] Creating Layer conv3_3/x2
I1126 11:19:55.820428  1604 net.cpp:434] conv3_3/x2 <- conv3_3/x2/bn
I1126 11:19:55.820456  1604 net.cpp:408] conv3_3/x2 -> conv3_3/x2
I1126 11:19:55.822808  1604 net.cpp:150] Setting up conv3_3/x2
I1126 11:19:55.822849  1604 net.cpp:157] Top shape: 16 32 29 29 (430592)
I1126 11:19:55.822867  1604 net.cpp:165] Memory required for data: 2454194240
I1126 11:19:55.822886  1604 layer_factory.hpp:77] Creating layer concat_3_3
I1126 11:19:55.822914  1604 net.cpp:100] Creating Layer concat_3_3
I1126 11:19:55.822950  1604 net.cpp:434] concat_3_3 <- concat_3_2_concat_3_2_0_split_1
I1126 11:19:55.822970  1604 net.cpp:434] concat_3_3 <- conv3_3/x2
I1126 11:19:55.823001  1604 net.cpp:408] concat_3_3 -> concat_3_3
I1126 11:19:55.823067  1604 net.cpp:150] Setting up concat_3_3
I1126 11:19:55.823091  1604 net.cpp:157] Top shape: 16 224 29 29 (3014144)
I1126 11:19:55.823106  1604 net.cpp:165] Memory required for data: 2466250816
I1126 11:19:55.823120  1604 layer_factory.hpp:77] Creating layer concat_3_3_concat_3_3_0_split
I1126 11:19:55.823148  1604 net.cpp:100] Creating Layer concat_3_3_concat_3_3_0_split
I1126 11:19:55.823166  1604 net.cpp:434] concat_3_3_concat_3_3_0_split <- concat_3_3
I1126 11:19:55.823185  1604 net.cpp:408] concat_3_3_concat_3_3_0_split -> concat_3_3_concat_3_3_0_split_0
I1126 11:19:55.823205  1604 net.cpp:408] concat_3_3_concat_3_3_0_split -> concat_3_3_concat_3_3_0_split_1
I1126 11:19:55.823302  1604 net.cpp:150] Setting up concat_3_3_concat_3_3_0_split
I1126 11:19:55.823328  1604 net.cpp:157] Top shape: 16 224 29 29 (3014144)
I1126 11:19:55.823344  1604 net.cpp:157] Top shape: 16 224 29 29 (3014144)
I1126 11:19:55.823359  1604 net.cpp:165] Memory required for data: 2490363968
I1126 11:19:55.823374  1604 layer_factory.hpp:77] Creating layer conv3_4/x1/bn
I1126 11:19:55.823400  1604 net.cpp:100] Creating Layer conv3_4/x1/bn
I1126 11:19:55.823418  1604 net.cpp:434] conv3_4/x1/bn <- concat_3_3_concat_3_3_0_split_0
I1126 11:19:55.823437  1604 net.cpp:408] conv3_4/x1/bn -> conv3_4/x1/bn
I1126 11:19:55.823782  1604 net.cpp:150] Setting up conv3_4/x1/bn
I1126 11:19:55.823810  1604 net.cpp:157] Top shape: 16 224 29 29 (3014144)
I1126 11:19:55.823825  1604 net.cpp:165] Memory required for data: 2502420544
I1126 11:19:55.823848  1604 layer_factory.hpp:77] Creating layer conv3_4/x1/scale
I1126 11:19:55.823875  1604 net.cpp:100] Creating Layer conv3_4/x1/scale
I1126 11:19:55.823894  1604 net.cpp:434] conv3_4/x1/scale <- conv3_4/x1/bn
I1126 11:19:55.823912  1604 net.cpp:395] conv3_4/x1/scale -> conv3_4/x1/bn (in-place)
I1126 11:19:55.824008  1604 layer_factory.hpp:77] Creating layer conv3_4/x1/scale
I1126 11:19:55.824252  1604 net.cpp:150] Setting up conv3_4/x1/scale
I1126 11:19:55.824280  1604 net.cpp:157] Top shape: 16 224 29 29 (3014144)
I1126 11:19:55.824295  1604 net.cpp:165] Memory required for data: 2514477120
I1126 11:19:55.824316  1604 layer_factory.hpp:77] Creating layer relu3_4/x1
I1126 11:19:55.824344  1604 net.cpp:100] Creating Layer relu3_4/x1
I1126 11:19:55.824364  1604 net.cpp:434] relu3_4/x1 <- conv3_4/x1/bn
I1126 11:19:55.824404  1604 net.cpp:395] relu3_4/x1 -> conv3_4/x1/bn (in-place)
I1126 11:19:55.824679  1604 net.cpp:150] Setting up relu3_4/x1
I1126 11:19:55.824712  1604 net.cpp:157] Top shape: 16 224 29 29 (3014144)
I1126 11:19:55.824772  1604 net.cpp:165] Memory required for data: 2526533696
I1126 11:19:55.824801  1604 layer_factory.hpp:77] Creating layer conv3_4/x1
I1126 11:19:55.824859  1604 net.cpp:100] Creating Layer conv3_4/x1
I1126 11:19:55.824895  1604 net.cpp:434] conv3_4/x1 <- conv3_4/x1/bn
I1126 11:19:55.824947  1604 net.cpp:408] conv3_4/x1 -> conv3_4/x1
I1126 11:19:55.828408  1604 net.cpp:150] Setting up conv3_4/x1
I1126 11:19:55.828454  1604 net.cpp:157] Top shape: 16 128 29 29 (1722368)
I1126 11:19:55.828471  1604 net.cpp:165] Memory required for data: 2533423168
I1126 11:19:55.828491  1604 layer_factory.hpp:77] Creating layer conv3_4/x2/bn
I1126 11:19:55.828519  1604 net.cpp:100] Creating Layer conv3_4/x2/bn
I1126 11:19:55.828539  1604 net.cpp:434] conv3_4/x2/bn <- conv3_4/x1
I1126 11:19:55.828559  1604 net.cpp:408] conv3_4/x2/bn -> conv3_4/x2/bn
I1126 11:19:55.828920  1604 net.cpp:150] Setting up conv3_4/x2/bn
I1126 11:19:55.828948  1604 net.cpp:157] Top shape: 16 128 29 29 (1722368)
I1126 11:19:55.828963  1604 net.cpp:165] Memory required for data: 2540312640
I1126 11:19:55.829015  1604 layer_factory.hpp:77] Creating layer conv3_4/x2/scale
I1126 11:19:55.829046  1604 net.cpp:100] Creating Layer conv3_4/x2/scale
I1126 11:19:55.829064  1604 net.cpp:434] conv3_4/x2/scale <- conv3_4/x2/bn
I1126 11:19:55.829083  1604 net.cpp:395] conv3_4/x2/scale -> conv3_4/x2/bn (in-place)
I1126 11:19:55.829177  1604 layer_factory.hpp:77] Creating layer conv3_4/x2/scale
I1126 11:19:55.829452  1604 net.cpp:150] Setting up conv3_4/x2/scale
I1126 11:19:55.829486  1604 net.cpp:157] Top shape: 16 128 29 29 (1722368)
I1126 11:19:55.829501  1604 net.cpp:165] Memory required for data: 2547202112
I1126 11:19:55.829521  1604 layer_factory.hpp:77] Creating layer relu3_4/x2
I1126 11:19:55.829540  1604 net.cpp:100] Creating Layer relu3_4/x2
I1126 11:19:55.829557  1604 net.cpp:434] relu3_4/x2 <- conv3_4/x2/bn
I1126 11:19:55.829574  1604 net.cpp:395] relu3_4/x2 -> conv3_4/x2/bn (in-place)
I1126 11:19:55.829855  1604 net.cpp:150] Setting up relu3_4/x2
I1126 11:19:55.829885  1604 net.cpp:157] Top shape: 16 128 29 29 (1722368)
I1126 11:19:55.829900  1604 net.cpp:165] Memory required for data: 2554091584
I1126 11:19:55.829916  1604 layer_factory.hpp:77] Creating layer conv3_4/x2
I1126 11:19:55.829944  1604 net.cpp:100] Creating Layer conv3_4/x2
I1126 11:19:55.829963  1604 net.cpp:434] conv3_4/x2 <- conv3_4/x2/bn
I1126 11:19:55.829982  1604 net.cpp:408] conv3_4/x2 -> conv3_4/x2
I1126 11:19:55.835748  1604 net.cpp:150] Setting up conv3_4/x2
I1126 11:19:55.835793  1604 net.cpp:157] Top shape: 16 32 29 29 (430592)
I1126 11:19:55.835811  1604 net.cpp:165] Memory required for data: 2555813952
I1126 11:19:55.835831  1604 layer_factory.hpp:77] Creating layer concat_3_4
I1126 11:19:55.835851  1604 net.cpp:100] Creating Layer concat_3_4
I1126 11:19:55.835868  1604 net.cpp:434] concat_3_4 <- concat_3_3_concat_3_3_0_split_1
I1126 11:19:55.835887  1604 net.cpp:434] concat_3_4 <- conv3_4/x2
I1126 11:19:55.835906  1604 net.cpp:408] concat_3_4 -> concat_3_4
I1126 11:19:55.836000  1604 net.cpp:150] Setting up concat_3_4
I1126 11:19:55.836032  1604 net.cpp:157] Top shape: 16 256 29 29 (3444736)
I1126 11:19:55.836050  1604 net.cpp:165] Memory required for data: 2569592896
I1126 11:19:55.836064  1604 layer_factory.hpp:77] Creating layer concat_3_4_concat_3_4_0_split
I1126 11:19:55.836083  1604 net.cpp:100] Creating Layer concat_3_4_concat_3_4_0_split
I1126 11:19:55.836099  1604 net.cpp:434] concat_3_4_concat_3_4_0_split <- concat_3_4
I1126 11:19:55.836118  1604 net.cpp:408] concat_3_4_concat_3_4_0_split -> concat_3_4_concat_3_4_0_split_0
I1126 11:19:55.836138  1604 net.cpp:408] concat_3_4_concat_3_4_0_split -> concat_3_4_concat_3_4_0_split_1
I1126 11:19:55.836225  1604 net.cpp:150] Setting up concat_3_4_concat_3_4_0_split
I1126 11:19:55.836262  1604 net.cpp:157] Top shape: 16 256 29 29 (3444736)
I1126 11:19:55.836305  1604 net.cpp:157] Top shape: 16 256 29 29 (3444736)
I1126 11:19:55.836323  1604 net.cpp:165] Memory required for data: 2597150784
I1126 11:19:55.836351  1604 layer_factory.hpp:77] Creating layer conv3_5/x1/bn
I1126 11:19:55.836378  1604 net.cpp:100] Creating Layer conv3_5/x1/bn
I1126 11:19:55.836397  1604 net.cpp:434] conv3_5/x1/bn <- concat_3_4_concat_3_4_0_split_0
I1126 11:19:55.836416  1604 net.cpp:408] conv3_5/x1/bn -> conv3_5/x1/bn
I1126 11:19:55.836776  1604 net.cpp:150] Setting up conv3_5/x1/bn
I1126 11:19:55.836805  1604 net.cpp:157] Top shape: 16 256 29 29 (3444736)
I1126 11:19:55.836820  1604 net.cpp:165] Memory required for data: 2610929728
I1126 11:19:55.836848  1604 layer_factory.hpp:77] Creating layer conv3_5/x1/scale
I1126 11:19:55.836875  1604 net.cpp:100] Creating Layer conv3_5/x1/scale
I1126 11:19:55.836894  1604 net.cpp:434] conv3_5/x1/scale <- conv3_5/x1/bn
I1126 11:19:55.836912  1604 net.cpp:395] conv3_5/x1/scale -> conv3_5/x1/bn (in-place)
I1126 11:19:55.837002  1604 layer_factory.hpp:77] Creating layer conv3_5/x1/scale
I1126 11:19:55.837222  1604 net.cpp:150] Setting up conv3_5/x1/scale
I1126 11:19:55.837261  1604 net.cpp:157] Top shape: 16 256 29 29 (3444736)
I1126 11:19:55.837276  1604 net.cpp:165] Memory required for data: 2624708672
I1126 11:19:55.837296  1604 layer_factory.hpp:77] Creating layer relu3_5/x1
I1126 11:19:55.837322  1604 net.cpp:100] Creating Layer relu3_5/x1
I1126 11:19:55.837342  1604 net.cpp:434] relu3_5/x1 <- conv3_5/x1/bn
I1126 11:19:55.837359  1604 net.cpp:395] relu3_5/x1 -> conv3_5/x1/bn (in-place)
I1126 11:19:55.837637  1604 net.cpp:150] Setting up relu3_5/x1
I1126 11:19:55.837667  1604 net.cpp:157] Top shape: 16 256 29 29 (3444736)
I1126 11:19:55.837682  1604 net.cpp:165] Memory required for data: 2638487616
I1126 11:19:55.837697  1604 layer_factory.hpp:77] Creating layer conv3_5/x1
I1126 11:19:55.837725  1604 net.cpp:100] Creating Layer conv3_5/x1
I1126 11:19:55.837744  1604 net.cpp:434] conv3_5/x1 <- conv3_5/x1/bn
I1126 11:19:55.837770  1604 net.cpp:408] conv3_5/x1 -> conv3_5/x1
I1126 11:19:55.840138  1604 net.cpp:150] Setting up conv3_5/x1
I1126 11:19:55.840181  1604 net.cpp:157] Top shape: 16 128 29 29 (1722368)
I1126 11:19:55.840199  1604 net.cpp:165] Memory required for data: 2645377088
I1126 11:19:55.840219  1604 layer_factory.hpp:77] Creating layer conv3_5/x2/bn
I1126 11:19:55.840261  1604 net.cpp:100] Creating Layer conv3_5/x2/bn
I1126 11:19:55.840282  1604 net.cpp:434] conv3_5/x2/bn <- conv3_5/x1
I1126 11:19:55.840302  1604 net.cpp:408] conv3_5/x2/bn -> conv3_5/x2/bn
I1126 11:19:55.840669  1604 net.cpp:150] Setting up conv3_5/x2/bn
I1126 11:19:55.840698  1604 net.cpp:157] Top shape: 16 128 29 29 (1722368)
I1126 11:19:55.840713  1604 net.cpp:165] Memory required for data: 2652266560
I1126 11:19:55.840735  1604 layer_factory.hpp:77] Creating layer conv3_5/x2/scale
I1126 11:19:55.840755  1604 net.cpp:100] Creating Layer conv3_5/x2/scale
I1126 11:19:55.840771  1604 net.cpp:434] conv3_5/x2/scale <- conv3_5/x2/bn
I1126 11:19:55.840790  1604 net.cpp:395] conv3_5/x2/scale -> conv3_5/x2/bn (in-place)
I1126 11:19:55.840883  1604 layer_factory.hpp:77] Creating layer conv3_5/x2/scale
I1126 11:19:55.841104  1604 net.cpp:150] Setting up conv3_5/x2/scale
I1126 11:19:55.841131  1604 net.cpp:157] Top shape: 16 128 29 29 (1722368)
I1126 11:19:55.841145  1604 net.cpp:165] Memory required for data: 2659156032
I1126 11:19:55.841166  1604 layer_factory.hpp:77] Creating layer relu3_5/x2
I1126 11:19:55.841192  1604 net.cpp:100] Creating Layer relu3_5/x2
I1126 11:19:55.841210  1604 net.cpp:434] relu3_5/x2 <- conv3_5/x2/bn
I1126 11:19:55.841243  1604 net.cpp:395] relu3_5/x2 -> conv3_5/x2/bn (in-place)
I1126 11:19:55.842645  1604 net.cpp:150] Setting up relu3_5/x2
I1126 11:19:55.842684  1604 net.cpp:157] Top shape: 16 128 29 29 (1722368)
I1126 11:19:55.842701  1604 net.cpp:165] Memory required for data: 2666045504
I1126 11:19:55.842717  1604 layer_factory.hpp:77] Creating layer conv3_5/x2
I1126 11:19:55.842749  1604 net.cpp:100] Creating Layer conv3_5/x2
I1126 11:19:55.842792  1604 net.cpp:434] conv3_5/x2 <- conv3_5/x2/bn
I1126 11:19:55.842815  1604 net.cpp:408] conv3_5/x2 -> conv3_5/x2
I1126 11:19:55.844029  1604 net.cpp:150] Setting up conv3_5/x2
I1126 11:19:55.844069  1604 net.cpp:157] Top shape: 16 32 29 29 (430592)
I1126 11:19:55.844085  1604 net.cpp:165] Memory required for data: 2667767872
I1126 11:19:55.844105  1604 layer_factory.hpp:77] Creating layer concat_3_5
I1126 11:19:55.844125  1604 net.cpp:100] Creating Layer concat_3_5
I1126 11:19:55.844141  1604 net.cpp:434] concat_3_5 <- concat_3_4_concat_3_4_0_split_1
I1126 11:19:55.844161  1604 net.cpp:434] concat_3_5 <- conv3_5/x2
I1126 11:19:55.844187  1604 net.cpp:408] concat_3_5 -> concat_3_5
I1126 11:19:55.844269  1604 net.cpp:150] Setting up concat_3_5
I1126 11:19:55.844295  1604 net.cpp:157] Top shape: 16 288 29 29 (3875328)
I1126 11:19:55.844310  1604 net.cpp:165] Memory required for data: 2683269184
I1126 11:19:55.844326  1604 layer_factory.hpp:77] Creating layer concat_3_5_concat_3_5_0_split
I1126 11:19:55.844343  1604 net.cpp:100] Creating Layer concat_3_5_concat_3_5_0_split
I1126 11:19:55.844359  1604 net.cpp:434] concat_3_5_concat_3_5_0_split <- concat_3_5
I1126 11:19:55.844378  1604 net.cpp:408] concat_3_5_concat_3_5_0_split -> concat_3_5_concat_3_5_0_split_0
I1126 11:19:55.844406  1604 net.cpp:408] concat_3_5_concat_3_5_0_split -> concat_3_5_concat_3_5_0_split_1
I1126 11:19:55.844516  1604 net.cpp:150] Setting up concat_3_5_concat_3_5_0_split
I1126 11:19:55.844540  1604 net.cpp:157] Top shape: 16 288 29 29 (3875328)
I1126 11:19:55.844558  1604 net.cpp:157] Top shape: 16 288 29 29 (3875328)
I1126 11:19:55.844570  1604 net.cpp:165] Memory required for data: 2714271808
I1126 11:19:55.844586  1604 layer_factory.hpp:77] Creating layer conv3_6/x1/bn
I1126 11:19:55.844612  1604 net.cpp:100] Creating Layer conv3_6/x1/bn
I1126 11:19:55.844631  1604 net.cpp:434] conv3_6/x1/bn <- concat_3_5_concat_3_5_0_split_0
I1126 11:19:55.844660  1604 net.cpp:408] conv3_6/x1/bn -> conv3_6/x1/bn
I1126 11:19:55.844991  1604 net.cpp:150] Setting up conv3_6/x1/bn
I1126 11:19:55.845018  1604 net.cpp:157] Top shape: 16 288 29 29 (3875328)
I1126 11:19:55.845033  1604 net.cpp:165] Memory required for data: 2729773120
I1126 11:19:55.845054  1604 layer_factory.hpp:77] Creating layer conv3_6/x1/scale
I1126 11:19:55.845075  1604 net.cpp:100] Creating Layer conv3_6/x1/scale
I1126 11:19:55.845091  1604 net.cpp:434] conv3_6/x1/scale <- conv3_6/x1/bn
I1126 11:19:55.845109  1604 net.cpp:395] conv3_6/x1/scale -> conv3_6/x1/bn (in-place)
I1126 11:19:55.845206  1604 layer_factory.hpp:77] Creating layer conv3_6/x1/scale
I1126 11:19:55.845453  1604 net.cpp:150] Setting up conv3_6/x1/scale
I1126 11:19:55.845481  1604 net.cpp:157] Top shape: 16 288 29 29 (3875328)
I1126 11:19:55.845495  1604 net.cpp:165] Memory required for data: 2745274432
I1126 11:19:55.845515  1604 layer_factory.hpp:77] Creating layer relu3_6/x1
I1126 11:19:55.845535  1604 net.cpp:100] Creating Layer relu3_6/x1
I1126 11:19:55.845551  1604 net.cpp:434] relu3_6/x1 <- conv3_6/x1/bn
I1126 11:19:55.845567  1604 net.cpp:395] relu3_6/x1 -> conv3_6/x1/bn (in-place)
I1126 11:19:55.846989  1604 net.cpp:150] Setting up relu3_6/x1
I1126 11:19:55.847017  1604 net.cpp:157] Top shape: 16 288 29 29 (3875328)
I1126 11:19:55.847021  1604 net.cpp:165] Memory required for data: 2760775744
I1126 11:19:55.847028  1604 layer_factory.hpp:77] Creating layer conv3_6/x1
I1126 11:19:55.847044  1604 net.cpp:100] Creating Layer conv3_6/x1
I1126 11:19:55.847074  1604 net.cpp:434] conv3_6/x1 <- conv3_6/x1/bn
I1126 11:19:55.847095  1604 net.cpp:408] conv3_6/x1 -> conv3_6/x1
I1126 11:19:55.849400  1604 net.cpp:150] Setting up conv3_6/x1
I1126 11:19:55.849442  1604 net.cpp:157] Top shape: 16 128 29 29 (1722368)
I1126 11:19:55.849459  1604 net.cpp:165] Memory required for data: 2767665216
I1126 11:19:55.849478  1604 layer_factory.hpp:77] Creating layer conv3_6/x2/bn
I1126 11:19:55.849506  1604 net.cpp:100] Creating Layer conv3_6/x2/bn
I1126 11:19:55.849526  1604 net.cpp:434] conv3_6/x2/bn <- conv3_6/x1
I1126 11:19:55.849563  1604 net.cpp:408] conv3_6/x2/bn -> conv3_6/x2/bn
I1126 11:19:55.849931  1604 net.cpp:150] Setting up conv3_6/x2/bn
I1126 11:19:55.849959  1604 net.cpp:157] Top shape: 16 128 29 29 (1722368)
I1126 11:19:55.849990  1604 net.cpp:165] Memory required for data: 2774554688
I1126 11:19:55.850014  1604 layer_factory.hpp:77] Creating layer conv3_6/x2/scale
I1126 11:19:55.850035  1604 net.cpp:100] Creating Layer conv3_6/x2/scale
I1126 11:19:55.850051  1604 net.cpp:434] conv3_6/x2/scale <- conv3_6/x2/bn
I1126 11:19:55.850076  1604 net.cpp:395] conv3_6/x2/scale -> conv3_6/x2/bn (in-place)
I1126 11:19:55.850169  1604 layer_factory.hpp:77] Creating layer conv3_6/x2/scale
I1126 11:19:55.850409  1604 net.cpp:150] Setting up conv3_6/x2/scale
I1126 11:19:55.850438  1604 net.cpp:157] Top shape: 16 128 29 29 (1722368)
I1126 11:19:55.850453  1604 net.cpp:165] Memory required for data: 2781444160
I1126 11:19:55.850472  1604 layer_factory.hpp:77] Creating layer relu3_6/x2
I1126 11:19:55.850518  1604 net.cpp:100] Creating Layer relu3_6/x2
I1126 11:19:55.850539  1604 net.cpp:434] relu3_6/x2 <- conv3_6/x2/bn
I1126 11:19:55.850558  1604 net.cpp:395] relu3_6/x2 -> conv3_6/x2/bn (in-place)
I1126 11:19:55.850837  1604 net.cpp:150] Setting up relu3_6/x2
I1126 11:19:55.850867  1604 net.cpp:157] Top shape: 16 128 29 29 (1722368)
I1126 11:19:55.850883  1604 net.cpp:165] Memory required for data: 2788333632
I1126 11:19:55.850898  1604 layer_factory.hpp:77] Creating layer conv3_6/x2
I1126 11:19:55.850939  1604 net.cpp:100] Creating Layer conv3_6/x2
I1126 11:19:55.850961  1604 net.cpp:434] conv3_6/x2 <- conv3_6/x2/bn
I1126 11:19:55.850987  1604 net.cpp:408] conv3_6/x2 -> conv3_6/x2
I1126 11:19:55.854403  1604 net.cpp:150] Setting up conv3_6/x2
I1126 11:19:55.854445  1604 net.cpp:157] Top shape: 16 32 29 29 (430592)
I1126 11:19:55.854462  1604 net.cpp:165] Memory required for data: 2790056000
I1126 11:19:55.854482  1604 layer_factory.hpp:77] Creating layer concat_3_6
I1126 11:19:55.854502  1604 net.cpp:100] Creating Layer concat_3_6
I1126 11:19:55.854519  1604 net.cpp:434] concat_3_6 <- concat_3_5_concat_3_5_0_split_1
I1126 11:19:55.854549  1604 net.cpp:434] concat_3_6 <- conv3_6/x2
I1126 11:19:55.854573  1604 net.cpp:408] concat_3_6 -> concat_3_6
I1126 11:19:55.854637  1604 net.cpp:150] Setting up concat_3_6
I1126 11:19:55.854661  1604 net.cpp:157] Top shape: 16 320 29 29 (4305920)
I1126 11:19:55.854676  1604 net.cpp:165] Memory required for data: 2807279680
I1126 11:19:55.854691  1604 layer_factory.hpp:77] Creating layer concat_3_6_concat_3_6_0_split
I1126 11:19:55.854718  1604 net.cpp:100] Creating Layer concat_3_6_concat_3_6_0_split
I1126 11:19:55.854737  1604 net.cpp:434] concat_3_6_concat_3_6_0_split <- concat_3_6
I1126 11:19:55.854756  1604 net.cpp:408] concat_3_6_concat_3_6_0_split -> concat_3_6_concat_3_6_0_split_0
I1126 11:19:55.854782  1604 net.cpp:408] concat_3_6_concat_3_6_0_split -> concat_3_6_concat_3_6_0_split_1
I1126 11:19:55.854887  1604 net.cpp:150] Setting up concat_3_6_concat_3_6_0_split
I1126 11:19:55.854912  1604 net.cpp:157] Top shape: 16 320 29 29 (4305920)
I1126 11:19:55.854945  1604 net.cpp:157] Top shape: 16 320 29 29 (4305920)
I1126 11:19:55.854961  1604 net.cpp:165] Memory required for data: 2841727040
I1126 11:19:55.854976  1604 layer_factory.hpp:77] Creating layer conv3_7/x1/bn
I1126 11:19:55.855006  1604 net.cpp:100] Creating Layer conv3_7/x1/bn
I1126 11:19:55.855026  1604 net.cpp:434] conv3_7/x1/bn <- concat_3_6_concat_3_6_0_split_0
I1126 11:19:55.855046  1604 net.cpp:408] conv3_7/x1/bn -> conv3_7/x1/bn
I1126 11:19:55.855404  1604 net.cpp:150] Setting up conv3_7/x1/bn
I1126 11:19:55.855433  1604 net.cpp:157] Top shape: 16 320 29 29 (4305920)
I1126 11:19:55.855448  1604 net.cpp:165] Memory required for data: 2858950720
I1126 11:19:55.855470  1604 layer_factory.hpp:77] Creating layer conv3_7/x1/scale
I1126 11:19:55.855497  1604 net.cpp:100] Creating Layer conv3_7/x1/scale
I1126 11:19:55.855516  1604 net.cpp:434] conv3_7/x1/scale <- conv3_7/x1/bn
I1126 11:19:55.855535  1604 net.cpp:395] conv3_7/x1/scale -> conv3_7/x1/bn (in-place)
I1126 11:19:55.855650  1604 layer_factory.hpp:77] Creating layer conv3_7/x1/scale
I1126 11:19:55.855885  1604 net.cpp:150] Setting up conv3_7/x1/scale
I1126 11:19:55.855924  1604 net.cpp:157] Top shape: 16 320 29 29 (4305920)
I1126 11:19:55.855940  1604 net.cpp:165] Memory required for data: 2876174400
I1126 11:19:55.855960  1604 layer_factory.hpp:77] Creating layer relu3_7/x1
I1126 11:19:55.855986  1604 net.cpp:100] Creating Layer relu3_7/x1
I1126 11:19:55.856006  1604 net.cpp:434] relu3_7/x1 <- conv3_7/x1/bn
I1126 11:19:55.856024  1604 net.cpp:395] relu3_7/x1 -> conv3_7/x1/bn (in-place)
I1126 11:19:55.856322  1604 net.cpp:150] Setting up relu3_7/x1
I1126 11:19:55.856353  1604 net.cpp:157] Top shape: 16 320 29 29 (4305920)
I1126 11:19:55.856367  1604 net.cpp:165] Memory required for data: 2893398080
I1126 11:19:55.856384  1604 layer_factory.hpp:77] Creating layer conv3_7/x1
I1126 11:19:55.856415  1604 net.cpp:100] Creating Layer conv3_7/x1
I1126 11:19:55.856436  1604 net.cpp:434] conv3_7/x1 <- conv3_7/x1/bn
I1126 11:19:55.856456  1604 net.cpp:408] conv3_7/x1 -> conv3_7/x1
I1126 11:19:55.859947  1604 net.cpp:150] Setting up conv3_7/x1
I1126 11:19:55.859992  1604 net.cpp:157] Top shape: 16 128 29 29 (1722368)
I1126 11:19:55.860010  1604 net.cpp:165] Memory required for data: 2900287552
I1126 11:19:55.860029  1604 layer_factory.hpp:77] Creating layer conv3_7/x2/bn
I1126 11:19:55.860059  1604 net.cpp:100] Creating Layer conv3_7/x2/bn
I1126 11:19:55.860080  1604 net.cpp:434] conv3_7/x2/bn <- conv3_7/x1
I1126 11:19:55.860106  1604 net.cpp:408] conv3_7/x2/bn -> conv3_7/x2/bn
I1126 11:19:55.860471  1604 net.cpp:150] Setting up conv3_7/x2/bn
I1126 11:19:55.860500  1604 net.cpp:157] Top shape: 16 128 29 29 (1722368)
I1126 11:19:55.860515  1604 net.cpp:165] Memory required for data: 2907177024
I1126 11:19:55.860538  1604 layer_factory.hpp:77] Creating layer conv3_7/x2/scale
I1126 11:19:55.860558  1604 net.cpp:100] Creating Layer conv3_7/x2/scale
I1126 11:19:55.860575  1604 net.cpp:434] conv3_7/x2/scale <- conv3_7/x2/bn
I1126 11:19:55.860594  1604 net.cpp:395] conv3_7/x2/scale -> conv3_7/x2/bn (in-place)
I1126 11:19:55.860710  1604 layer_factory.hpp:77] Creating layer conv3_7/x2/scale
I1126 11:19:55.860916  1604 net.cpp:150] Setting up conv3_7/x2/scale
I1126 11:19:55.860942  1604 net.cpp:157] Top shape: 16 128 29 29 (1722368)
I1126 11:19:55.860956  1604 net.cpp:165] Memory required for data: 2914066496
I1126 11:19:55.860976  1604 layer_factory.hpp:77] Creating layer relu3_7/x2
I1126 11:19:55.860996  1604 net.cpp:100] Creating Layer relu3_7/x2
I1126 11:19:55.861011  1604 net.cpp:434] relu3_7/x2 <- conv3_7/x2/bn
I1126 11:19:55.861038  1604 net.cpp:395] relu3_7/x2 -> conv3_7/x2/bn (in-place)
I1126 11:19:55.861335  1604 net.cpp:150] Setting up relu3_7/x2
I1126 11:19:55.861366  1604 net.cpp:157] Top shape: 16 128 29 29 (1722368)
I1126 11:19:55.861382  1604 net.cpp:165] Memory required for data: 2920955968
I1126 11:19:55.861397  1604 layer_factory.hpp:77] Creating layer conv3_7/x2
I1126 11:19:55.861424  1604 net.cpp:100] Creating Layer conv3_7/x2
I1126 11:19:55.861443  1604 net.cpp:434] conv3_7/x2 <- conv3_7/x2/bn
I1126 11:19:55.861462  1604 net.cpp:408] conv3_7/x2 -> conv3_7/x2
I1126 11:19:55.863793  1604 net.cpp:150] Setting up conv3_7/x2
I1126 11:19:55.863837  1604 net.cpp:157] Top shape: 16 32 29 29 (430592)
I1126 11:19:55.863853  1604 net.cpp:165] Memory required for data: 2922678336
I1126 11:19:55.863873  1604 layer_factory.hpp:77] Creating layer concat_3_7
I1126 11:19:55.863900  1604 net.cpp:100] Creating Layer concat_3_7
I1126 11:19:55.863920  1604 net.cpp:434] concat_3_7 <- concat_3_6_concat_3_6_0_split_1
I1126 11:19:55.863940  1604 net.cpp:434] concat_3_7 <- conv3_7/x2
I1126 11:19:55.863958  1604 net.cpp:408] concat_3_7 -> concat_3_7
I1126 11:19:55.864028  1604 net.cpp:150] Setting up concat_3_7
I1126 11:19:55.864053  1604 net.cpp:157] Top shape: 16 352 29 29 (4736512)
I1126 11:19:55.864068  1604 net.cpp:165] Memory required for data: 2941624384
I1126 11:19:55.864082  1604 layer_factory.hpp:77] Creating layer concat_3_7_concat_3_7_0_split
I1126 11:19:55.864120  1604 net.cpp:100] Creating Layer concat_3_7_concat_3_7_0_split
I1126 11:19:55.864138  1604 net.cpp:434] concat_3_7_concat_3_7_0_split <- concat_3_7
I1126 11:19:55.864177  1604 net.cpp:408] concat_3_7_concat_3_7_0_split -> concat_3_7_concat_3_7_0_split_0
I1126 11:19:55.864200  1604 net.cpp:408] concat_3_7_concat_3_7_0_split -> concat_3_7_concat_3_7_0_split_1
I1126 11:19:55.864295  1604 net.cpp:150] Setting up concat_3_7_concat_3_7_0_split
I1126 11:19:55.864326  1604 net.cpp:157] Top shape: 16 352 29 29 (4736512)
I1126 11:19:55.864346  1604 net.cpp:157] Top shape: 16 352 29 29 (4736512)
I1126 11:19:55.864359  1604 net.cpp:165] Memory required for data: 2979516480
I1126 11:19:55.864374  1604 layer_factory.hpp:77] Creating layer conv3_8/x1/bn
I1126 11:19:55.864394  1604 net.cpp:100] Creating Layer conv3_8/x1/bn
I1126 11:19:55.864410  1604 net.cpp:434] conv3_8/x1/bn <- concat_3_7_concat_3_7_0_split_0
I1126 11:19:55.864435  1604 net.cpp:408] conv3_8/x1/bn -> conv3_8/x1/bn
I1126 11:19:55.864805  1604 net.cpp:150] Setting up conv3_8/x1/bn
I1126 11:19:55.864832  1604 net.cpp:157] Top shape: 16 352 29 29 (4736512)
I1126 11:19:55.864847  1604 net.cpp:165] Memory required for data: 2998462528
I1126 11:19:55.864876  1604 layer_factory.hpp:77] Creating layer conv3_8/x1/scale
I1126 11:19:55.864898  1604 net.cpp:100] Creating Layer conv3_8/x1/scale
I1126 11:19:55.864915  1604 net.cpp:434] conv3_8/x1/scale <- conv3_8/x1/bn
I1126 11:19:55.864933  1604 net.cpp:395] conv3_8/x1/scale -> conv3_8/x1/bn (in-place)
I1126 11:19:55.865025  1604 layer_factory.hpp:77] Creating layer conv3_8/x1/scale
I1126 11:19:55.865269  1604 net.cpp:150] Setting up conv3_8/x1/scale
I1126 11:19:55.865298  1604 net.cpp:157] Top shape: 16 352 29 29 (4736512)
I1126 11:19:55.865312  1604 net.cpp:165] Memory required for data: 3017408576
I1126 11:19:55.865332  1604 layer_factory.hpp:77] Creating layer relu3_8/x1
I1126 11:19:55.865352  1604 net.cpp:100] Creating Layer relu3_8/x1
I1126 11:19:55.865370  1604 net.cpp:434] relu3_8/x1 <- conv3_8/x1/bn
I1126 11:19:55.865401  1604 net.cpp:395] relu3_8/x1 -> conv3_8/x1/bn (in-place)
I1126 11:19:55.865677  1604 net.cpp:150] Setting up relu3_8/x1
I1126 11:19:55.865707  1604 net.cpp:157] Top shape: 16 352 29 29 (4736512)
I1126 11:19:55.865722  1604 net.cpp:165] Memory required for data: 3036354624
I1126 11:19:55.865737  1604 layer_factory.hpp:77] Creating layer conv3_8/x1
I1126 11:19:55.865764  1604 net.cpp:100] Creating Layer conv3_8/x1
I1126 11:19:55.865783  1604 net.cpp:434] conv3_8/x1 <- conv3_8/x1/bn
I1126 11:19:55.865803  1604 net.cpp:408] conv3_8/x1 -> conv3_8/x1
I1126 11:19:55.868134  1604 net.cpp:150] Setting up conv3_8/x1
I1126 11:19:55.868178  1604 net.cpp:157] Top shape: 16 128 29 29 (1722368)
I1126 11:19:55.868196  1604 net.cpp:165] Memory required for data: 3043244096
I1126 11:19:55.868216  1604 layer_factory.hpp:77] Creating layer conv3_8/x2/bn
I1126 11:19:55.868248  1604 net.cpp:100] Creating Layer conv3_8/x2/bn
I1126 11:19:55.868268  1604 net.cpp:434] conv3_8/x2/bn <- conv3_8/x1
I1126 11:19:55.868297  1604 net.cpp:408] conv3_8/x2/bn -> conv3_8/x2/bn
I1126 11:19:55.868671  1604 net.cpp:150] Setting up conv3_8/x2/bn
I1126 11:19:55.868700  1604 net.cpp:157] Top shape: 16 128 29 29 (1722368)
I1126 11:19:55.868716  1604 net.cpp:165] Memory required for data: 3050133568
I1126 11:19:55.868737  1604 layer_factory.hpp:77] Creating layer conv3_8/x2/scale
I1126 11:19:55.868764  1604 net.cpp:100] Creating Layer conv3_8/x2/scale
I1126 11:19:55.868783  1604 net.cpp:434] conv3_8/x2/scale <- conv3_8/x2/bn
I1126 11:19:55.868803  1604 net.cpp:395] conv3_8/x2/scale -> conv3_8/x2/bn (in-place)
I1126 11:19:55.868909  1604 layer_factory.hpp:77] Creating layer conv3_8/x2/scale
I1126 11:19:55.869117  1604 net.cpp:150] Setting up conv3_8/x2/scale
I1126 11:19:55.869143  1604 net.cpp:157] Top shape: 16 128 29 29 (1722368)
I1126 11:19:55.869156  1604 net.cpp:165] Memory required for data: 3057023040
I1126 11:19:55.869176  1604 layer_factory.hpp:77] Creating layer relu3_8/x2
I1126 11:19:55.869213  1604 net.cpp:100] Creating Layer relu3_8/x2
I1126 11:19:55.869242  1604 net.cpp:434] relu3_8/x2 <- conv3_8/x2/bn
I1126 11:19:55.869272  1604 net.cpp:395] relu3_8/x2 -> conv3_8/x2/bn (in-place)
I1126 11:19:55.870707  1604 net.cpp:150] Setting up relu3_8/x2
I1126 11:19:55.870748  1604 net.cpp:157] Top shape: 16 128 29 29 (1722368)
I1126 11:19:55.870764  1604 net.cpp:165] Memory required for data: 3063912512
I1126 11:19:55.870780  1604 layer_factory.hpp:77] Creating layer conv3_8/x2
I1126 11:19:55.870808  1604 net.cpp:100] Creating Layer conv3_8/x2
I1126 11:19:55.870828  1604 net.cpp:434] conv3_8/x2 <- conv3_8/x2/bn
I1126 11:19:55.870853  1604 net.cpp:408] conv3_8/x2 -> conv3_8/x2
I1126 11:19:55.873266  1604 net.cpp:150] Setting up conv3_8/x2
I1126 11:19:55.873309  1604 net.cpp:157] Top shape: 16 32 29 29 (430592)
I1126 11:19:55.873327  1604 net.cpp:165] Memory required for data: 3065634880
I1126 11:19:55.873345  1604 layer_factory.hpp:77] Creating layer concat_3_8
I1126 11:19:55.873366  1604 net.cpp:100] Creating Layer concat_3_8
I1126 11:19:55.873383  1604 net.cpp:434] concat_3_8 <- concat_3_7_concat_3_7_0_split_1
I1126 11:19:55.873407  1604 net.cpp:434] concat_3_8 <- conv3_8/x2
I1126 11:19:55.873430  1604 net.cpp:408] concat_3_8 -> concat_3_8
I1126 11:19:55.873502  1604 net.cpp:150] Setting up concat_3_8
I1126 11:19:55.873528  1604 net.cpp:157] Top shape: 16 384 29 29 (5167104)
I1126 11:19:55.873543  1604 net.cpp:165] Memory required for data: 3086303296
I1126 11:19:55.873558  1604 layer_factory.hpp:77] Creating layer concat_3_8_concat_3_8_0_split
I1126 11:19:55.873582  1604 net.cpp:100] Creating Layer concat_3_8_concat_3_8_0_split
I1126 11:19:55.873600  1604 net.cpp:434] concat_3_8_concat_3_8_0_split <- concat_3_8
I1126 11:19:55.873620  1604 net.cpp:408] concat_3_8_concat_3_8_0_split -> concat_3_8_concat_3_8_0_split_0
I1126 11:19:55.873641  1604 net.cpp:408] concat_3_8_concat_3_8_0_split -> concat_3_8_concat_3_8_0_split_1
I1126 11:19:55.873726  1604 net.cpp:150] Setting up concat_3_8_concat_3_8_0_split
I1126 11:19:55.873751  1604 net.cpp:157] Top shape: 16 384 29 29 (5167104)
I1126 11:19:55.873769  1604 net.cpp:157] Top shape: 16 384 29 29 (5167104)
I1126 11:19:55.873782  1604 net.cpp:165] Memory required for data: 3127640128
I1126 11:19:55.873797  1604 layer_factory.hpp:77] Creating layer conv3_9/x1/bn
I1126 11:19:55.873816  1604 net.cpp:100] Creating Layer conv3_9/x1/bn
I1126 11:19:55.873832  1604 net.cpp:434] conv3_9/x1/bn <- concat_3_8_concat_3_8_0_split_0
I1126 11:19:55.873860  1604 net.cpp:408] conv3_9/x1/bn -> conv3_9/x1/bn
I1126 11:19:55.874219  1604 net.cpp:150] Setting up conv3_9/x1/bn
I1126 11:19:55.874258  1604 net.cpp:157] Top shape: 16 384 29 29 (5167104)
I1126 11:19:55.874274  1604 net.cpp:165] Memory required for data: 3148308544
I1126 11:19:55.874295  1604 layer_factory.hpp:77] Creating layer conv3_9/x1/scale
I1126 11:19:55.874323  1604 net.cpp:100] Creating Layer conv3_9/x1/scale
I1126 11:19:55.874342  1604 net.cpp:434] conv3_9/x1/scale <- conv3_9/x1/bn
I1126 11:19:55.874361  1604 net.cpp:395] conv3_9/x1/scale -> conv3_9/x1/bn (in-place)
I1126 11:19:55.874455  1604 layer_factory.hpp:77] Creating layer conv3_9/x1/scale
I1126 11:19:55.874686  1604 net.cpp:150] Setting up conv3_9/x1/scale
I1126 11:19:55.874713  1604 net.cpp:157] Top shape: 16 384 29 29 (5167104)
I1126 11:19:55.874728  1604 net.cpp:165] Memory required for data: 3168976960
I1126 11:19:55.874747  1604 layer_factory.hpp:77] Creating layer relu3_9/x1
I1126 11:19:55.874768  1604 net.cpp:100] Creating Layer relu3_9/x1
I1126 11:19:55.874783  1604 net.cpp:434] relu3_9/x1 <- conv3_9/x1/bn
I1126 11:19:55.874810  1604 net.cpp:395] relu3_9/x1 -> conv3_9/x1/bn (in-place)
I1126 11:19:55.876217  1604 net.cpp:150] Setting up relu3_9/x1
I1126 11:19:55.876269  1604 net.cpp:157] Top shape: 16 384 29 29 (5167104)
I1126 11:19:55.876288  1604 net.cpp:165] Memory required for data: 3189645376
I1126 11:19:55.876303  1604 layer_factory.hpp:77] Creating layer conv3_9/x1
I1126 11:19:55.876332  1604 net.cpp:100] Creating Layer conv3_9/x1
I1126 11:19:55.876368  1604 net.cpp:434] conv3_9/x1 <- conv3_9/x1/bn
I1126 11:19:55.876396  1604 net.cpp:408] conv3_9/x1 -> conv3_9/x1
I1126 11:19:55.878739  1604 net.cpp:150] Setting up conv3_9/x1
I1126 11:19:55.878795  1604 net.cpp:157] Top shape: 16 128 29 29 (1722368)
I1126 11:19:55.878813  1604 net.cpp:165] Memory required for data: 3196534848
I1126 11:19:55.878834  1604 layer_factory.hpp:77] Creating layer conv3_9/x2/bn
I1126 11:19:55.878854  1604 net.cpp:100] Creating Layer conv3_9/x2/bn
I1126 11:19:55.878871  1604 net.cpp:434] conv3_9/x2/bn <- conv3_9/x1
I1126 11:19:55.878898  1604 net.cpp:408] conv3_9/x2/bn -> conv3_9/x2/bn
I1126 11:19:55.879325  1604 net.cpp:150] Setting up conv3_9/x2/bn
I1126 11:19:55.879359  1604 net.cpp:157] Top shape: 16 128 29 29 (1722368)
I1126 11:19:55.879374  1604 net.cpp:165] Memory required for data: 3203424320
I1126 11:19:55.879397  1604 layer_factory.hpp:77] Creating layer conv3_9/x2/scale
I1126 11:19:55.879429  1604 net.cpp:100] Creating Layer conv3_9/x2/scale
I1126 11:19:55.879448  1604 net.cpp:434] conv3_9/x2/scale <- conv3_9/x2/bn
I1126 11:19:55.879472  1604 net.cpp:395] conv3_9/x2/scale -> conv3_9/x2/bn (in-place)
I1126 11:19:55.879565  1604 layer_factory.hpp:77] Creating layer conv3_9/x2/scale
I1126 11:19:55.879798  1604 net.cpp:150] Setting up conv3_9/x2/scale
I1126 11:19:55.879825  1604 net.cpp:157] Top shape: 16 128 29 29 (1722368)
I1126 11:19:55.879840  1604 net.cpp:165] Memory required for data: 3210313792
I1126 11:19:55.879864  1604 layer_factory.hpp:77] Creating layer relu3_9/x2
I1126 11:19:55.879885  1604 net.cpp:100] Creating Layer relu3_9/x2
I1126 11:19:55.879902  1604 net.cpp:434] relu3_9/x2 <- conv3_9/x2/bn
I1126 11:19:55.879928  1604 net.cpp:395] relu3_9/x2 -> conv3_9/x2/bn (in-place)
I1126 11:19:55.880211  1604 net.cpp:150] Setting up relu3_9/x2
I1126 11:19:55.880255  1604 net.cpp:157] Top shape: 16 128 29 29 (1722368)
I1126 11:19:55.880272  1604 net.cpp:165] Memory required for data: 3217203264
I1126 11:19:55.880292  1604 layer_factory.hpp:77] Creating layer conv3_9/x2
I1126 11:19:55.880321  1604 net.cpp:100] Creating Layer conv3_9/x2
I1126 11:19:55.880340  1604 net.cpp:434] conv3_9/x2 <- conv3_9/x2/bn
I1126 11:19:55.880365  1604 net.cpp:408] conv3_9/x2 -> conv3_9/x2
I1126 11:19:55.882690  1604 net.cpp:150] Setting up conv3_9/x2
I1126 11:19:55.882732  1604 net.cpp:157] Top shape: 16 32 29 29 (430592)
I1126 11:19:55.882750  1604 net.cpp:165] Memory required for data: 3218925632
I1126 11:19:55.882769  1604 layer_factory.hpp:77] Creating layer concat_3_9
I1126 11:19:55.882789  1604 net.cpp:100] Creating Layer concat_3_9
I1126 11:19:55.882817  1604 net.cpp:434] concat_3_9 <- concat_3_8_concat_3_8_0_split_1
I1126 11:19:55.882839  1604 net.cpp:434] concat_3_9 <- conv3_9/x2
I1126 11:19:55.882860  1604 net.cpp:408] concat_3_9 -> concat_3_9
I1126 11:19:55.882941  1604 net.cpp:150] Setting up concat_3_9
I1126 11:19:55.882966  1604 net.cpp:157] Top shape: 16 416 29 29 (5597696)
I1126 11:19:55.882980  1604 net.cpp:165] Memory required for data: 3241316416
I1126 11:19:55.882998  1604 layer_factory.hpp:77] Creating layer concat_3_9_concat_3_9_0_split
I1126 11:19:55.883029  1604 net.cpp:100] Creating Layer concat_3_9_concat_3_9_0_split
I1126 11:19:55.883049  1604 net.cpp:434] concat_3_9_concat_3_9_0_split <- concat_3_9
I1126 11:19:55.883067  1604 net.cpp:408] concat_3_9_concat_3_9_0_split -> concat_3_9_concat_3_9_0_split_0
I1126 11:19:55.883098  1604 net.cpp:408] concat_3_9_concat_3_9_0_split -> concat_3_9_concat_3_9_0_split_1
I1126 11:19:55.883183  1604 net.cpp:150] Setting up concat_3_9_concat_3_9_0_split
I1126 11:19:55.883206  1604 net.cpp:157] Top shape: 16 416 29 29 (5597696)
I1126 11:19:55.883224  1604 net.cpp:157] Top shape: 16 416 29 29 (5597696)
I1126 11:19:55.883250  1604 net.cpp:165] Memory required for data: 3286097984
I1126 11:19:55.883266  1604 layer_factory.hpp:77] Creating layer conv3_10/x1/bn
I1126 11:19:55.883297  1604 net.cpp:100] Creating Layer conv3_10/x1/bn
I1126 11:19:55.883316  1604 net.cpp:434] conv3_10/x1/bn <- concat_3_9_concat_3_9_0_split_0
I1126 11:19:55.883353  1604 net.cpp:408] conv3_10/x1/bn -> conv3_10/x1/bn
I1126 11:19:55.883731  1604 net.cpp:150] Setting up conv3_10/x1/bn
I1126 11:19:55.883759  1604 net.cpp:157] Top shape: 16 416 29 29 (5597696)
I1126 11:19:55.883790  1604 net.cpp:165] Memory required for data: 3308488768
I1126 11:19:55.883813  1604 layer_factory.hpp:77] Creating layer conv3_10/x1/scale
I1126 11:19:55.883841  1604 net.cpp:100] Creating Layer conv3_10/x1/scale
I1126 11:19:55.883860  1604 net.cpp:434] conv3_10/x1/scale <- conv3_10/x1/bn
I1126 11:19:55.883878  1604 net.cpp:395] conv3_10/x1/scale -> conv3_10/x1/bn (in-place)
I1126 11:19:55.883980  1604 layer_factory.hpp:77] Creating layer conv3_10/x1/scale
I1126 11:19:55.884222  1604 net.cpp:150] Setting up conv3_10/x1/scale
I1126 11:19:55.884261  1604 net.cpp:157] Top shape: 16 416 29 29 (5597696)
I1126 11:19:55.884277  1604 net.cpp:165] Memory required for data: 3330879552
I1126 11:19:55.884301  1604 layer_factory.hpp:77] Creating layer relu3_10/x1
I1126 11:19:55.884330  1604 net.cpp:100] Creating Layer relu3_10/x1
I1126 11:19:55.884347  1604 net.cpp:434] relu3_10/x1 <- conv3_10/x1/bn
I1126 11:19:55.884366  1604 net.cpp:395] relu3_10/x1 -> conv3_10/x1/bn (in-place)
I1126 11:19:55.884642  1604 net.cpp:150] Setting up relu3_10/x1
I1126 11:19:55.884677  1604 net.cpp:157] Top shape: 16 416 29 29 (5597696)
I1126 11:19:55.884696  1604 net.cpp:165] Memory required for data: 3353270336
I1126 11:19:55.884711  1604 layer_factory.hpp:77] Creating layer conv3_10/x1
I1126 11:19:55.884737  1604 net.cpp:100] Creating Layer conv3_10/x1
I1126 11:19:55.884757  1604 net.cpp:434] conv3_10/x1 <- conv3_10/x1/bn
I1126 11:19:55.884775  1604 net.cpp:408] conv3_10/x1 -> conv3_10/x1
I1126 11:19:55.887207  1604 net.cpp:150] Setting up conv3_10/x1
I1126 11:19:55.887261  1604 net.cpp:157] Top shape: 16 128 29 29 (1722368)
I1126 11:19:55.887280  1604 net.cpp:165] Memory required for data: 3360159808
I1126 11:19:55.887300  1604 layer_factory.hpp:77] Creating layer conv3_10/x2/bn
I1126 11:19:55.887328  1604 net.cpp:100] Creating Layer conv3_10/x2/bn
I1126 11:19:55.887348  1604 net.cpp:434] conv3_10/x2/bn <- conv3_10/x1
I1126 11:19:55.887373  1604 net.cpp:408] conv3_10/x2/bn -> conv3_10/x2/bn
I1126 11:19:55.887754  1604 net.cpp:150] Setting up conv3_10/x2/bn
I1126 11:19:55.887783  1604 net.cpp:157] Top shape: 16 128 29 29 (1722368)
I1126 11:19:55.887797  1604 net.cpp:165] Memory required for data: 3367049280
I1126 11:19:55.887820  1604 layer_factory.hpp:77] Creating layer conv3_10/x2/scale
I1126 11:19:55.887840  1604 net.cpp:100] Creating Layer conv3_10/x2/scale
I1126 11:19:55.887856  1604 net.cpp:434] conv3_10/x2/scale <- conv3_10/x2/bn
I1126 11:19:55.887874  1604 net.cpp:395] conv3_10/x2/scale -> conv3_10/x2/bn (in-place)
I1126 11:19:55.887972  1604 layer_factory.hpp:77] Creating layer conv3_10/x2/scale
I1126 11:19:55.888203  1604 net.cpp:150] Setting up conv3_10/x2/scale
I1126 11:19:55.888242  1604 net.cpp:157] Top shape: 16 128 29 29 (1722368)
I1126 11:19:55.888258  1604 net.cpp:165] Memory required for data: 3373938752
I1126 11:19:55.888279  1604 layer_factory.hpp:77] Creating layer relu3_10/x2
I1126 11:19:55.888309  1604 net.cpp:100] Creating Layer relu3_10/x2
I1126 11:19:55.888329  1604 net.cpp:434] relu3_10/x2 <- conv3_10/x2/bn
I1126 11:19:55.888346  1604 net.cpp:395] relu3_10/x2 -> conv3_10/x2/bn (in-place)
I1126 11:19:55.888639  1604 net.cpp:150] Setting up relu3_10/x2
I1126 11:19:55.888669  1604 net.cpp:157] Top shape: 16 128 29 29 (1722368)
I1126 11:19:55.888684  1604 net.cpp:165] Memory required for data: 3380828224
I1126 11:19:55.888700  1604 layer_factory.hpp:77] Creating layer conv3_10/x2
I1126 11:19:55.888720  1604 net.cpp:100] Creating Layer conv3_10/x2
I1126 11:19:55.888737  1604 net.cpp:434] conv3_10/x2 <- conv3_10/x2/bn
I1126 11:19:55.888767  1604 net.cpp:408] conv3_10/x2 -> conv3_10/x2
I1126 11:19:55.892202  1604 net.cpp:150] Setting up conv3_10/x2
I1126 11:19:55.892257  1604 net.cpp:157] Top shape: 16 32 29 29 (430592)
I1126 11:19:55.892277  1604 net.cpp:165] Memory required for data: 3382550592
I1126 11:19:55.892316  1604 layer_factory.hpp:77] Creating layer concat_3_10
I1126 11:19:55.892346  1604 net.cpp:100] Creating Layer concat_3_10
I1126 11:19:55.892366  1604 net.cpp:434] concat_3_10 <- concat_3_9_concat_3_9_0_split_1
I1126 11:19:55.892400  1604 net.cpp:434] concat_3_10 <- conv3_10/x2
I1126 11:19:55.892421  1604 net.cpp:408] concat_3_10 -> concat_3_10
I1126 11:19:55.892496  1604 net.cpp:150] Setting up concat_3_10
I1126 11:19:55.892521  1604 net.cpp:157] Top shape: 16 448 29 29 (6028288)
I1126 11:19:55.892535  1604 net.cpp:165] Memory required for data: 3406663744
I1126 11:19:55.892551  1604 layer_factory.hpp:77] Creating layer concat_3_10_concat_3_10_0_split
I1126 11:19:55.892570  1604 net.cpp:100] Creating Layer concat_3_10_concat_3_10_0_split
I1126 11:19:55.892585  1604 net.cpp:434] concat_3_10_concat_3_10_0_split <- concat_3_10
I1126 11:19:55.892611  1604 net.cpp:408] concat_3_10_concat_3_10_0_split -> concat_3_10_concat_3_10_0_split_0
I1126 11:19:55.892633  1604 net.cpp:408] concat_3_10_concat_3_10_0_split -> concat_3_10_concat_3_10_0_split_1
I1126 11:19:55.892719  1604 net.cpp:150] Setting up concat_3_10_concat_3_10_0_split
I1126 11:19:55.892747  1604 net.cpp:157] Top shape: 16 448 29 29 (6028288)
I1126 11:19:55.892765  1604 net.cpp:157] Top shape: 16 448 29 29 (6028288)
I1126 11:19:55.892777  1604 net.cpp:165] Memory required for data: 3454890048
I1126 11:19:55.892792  1604 layer_factory.hpp:77] Creating layer conv3_11/x1/bn
I1126 11:19:55.892812  1604 net.cpp:100] Creating Layer conv3_11/x1/bn
I1126 11:19:55.892827  1604 net.cpp:434] conv3_11/x1/bn <- concat_3_10_concat_3_10_0_split_0
I1126 11:19:55.892856  1604 net.cpp:408] conv3_11/x1/bn -> conv3_11/x1/bn
I1126 11:19:55.893242  1604 net.cpp:150] Setting up conv3_11/x1/bn
I1126 11:19:55.893272  1604 net.cpp:157] Top shape: 16 448 29 29 (6028288)
I1126 11:19:55.893287  1604 net.cpp:165] Memory required for data: 3479003200
I1126 11:19:55.893318  1604 layer_factory.hpp:77] Creating layer conv3_11/x1/scale
I1126 11:19:55.893342  1604 net.cpp:100] Creating Layer conv3_11/x1/scale
I1126 11:19:55.893358  1604 net.cpp:434] conv3_11/x1/scale <- conv3_11/x1/bn
I1126 11:19:55.893376  1604 net.cpp:395] conv3_11/x1/scale -> conv3_11/x1/bn (in-place)
I1126 11:19:55.893471  1604 layer_factory.hpp:77] Creating layer conv3_11/x1/scale
I1126 11:19:55.893687  1604 net.cpp:150] Setting up conv3_11/x1/scale
I1126 11:19:55.893713  1604 net.cpp:157] Top shape: 16 448 29 29 (6028288)
I1126 11:19:55.893728  1604 net.cpp:165] Memory required for data: 3503116352
I1126 11:19:55.893748  1604 layer_factory.hpp:77] Creating layer relu3_11/x1
I1126 11:19:55.893766  1604 net.cpp:100] Creating Layer relu3_11/x1
I1126 11:19:55.893784  1604 net.cpp:434] relu3_11/x1 <- conv3_11/x1/bn
I1126 11:19:55.893810  1604 net.cpp:395] relu3_11/x1 -> conv3_11/x1/bn (in-place)
I1126 11:19:55.894105  1604 net.cpp:150] Setting up relu3_11/x1
I1126 11:19:55.894135  1604 net.cpp:157] Top shape: 16 448 29 29 (6028288)
I1126 11:19:55.894150  1604 net.cpp:165] Memory required for data: 3527229504
I1126 11:19:55.894165  1604 layer_factory.hpp:77] Creating layer conv3_11/x1
I1126 11:19:55.894193  1604 net.cpp:100] Creating Layer conv3_11/x1
I1126 11:19:55.894213  1604 net.cpp:434] conv3_11/x1 <- conv3_11/x1/bn
I1126 11:19:55.894243  1604 net.cpp:408] conv3_11/x1 -> conv3_11/x1
I1126 11:19:55.900125  1604 net.cpp:150] Setting up conv3_11/x1
I1126 11:19:55.900265  1604 net.cpp:157] Top shape: 16 128 29 29 (1722368)
I1126 11:19:55.900295  1604 net.cpp:165] Memory required for data: 3534118976
I1126 11:19:55.900331  1604 layer_factory.hpp:77] Creating layer conv3_11/x2/bn
I1126 11:19:55.900378  1604 net.cpp:100] Creating Layer conv3_11/x2/bn
I1126 11:19:55.900408  1604 net.cpp:434] conv3_11/x2/bn <- conv3_11/x1
I1126 11:19:55.900441  1604 net.cpp:408] conv3_11/x2/bn -> conv3_11/x2/bn
I1126 11:19:55.901105  1604 net.cpp:150] Setting up conv3_11/x2/bn
I1126 11:19:55.901144  1604 net.cpp:157] Top shape: 16 128 29 29 (1722368)
I1126 11:19:55.901165  1604 net.cpp:165] Memory required for data: 3541008448
I1126 11:19:55.901247  1604 layer_factory.hpp:77] Creating layer conv3_11/x2/scale
I1126 11:19:55.901376  1604 net.cpp:100] Creating Layer conv3_11/x2/scale
I1126 11:19:55.901438  1604 net.cpp:434] conv3_11/x2/scale <- conv3_11/x2/bn
I1126 11:19:55.901490  1604 net.cpp:395] conv3_11/x2/scale -> conv3_11/x2/bn (in-place)
I1126 11:19:55.901675  1604 layer_factory.hpp:77] Creating layer conv3_11/x2/scale
I1126 11:19:55.901943  1604 net.cpp:150] Setting up conv3_11/x2/scale
I1126 11:19:55.901973  1604 net.cpp:157] Top shape: 16 128 29 29 (1722368)
I1126 11:19:55.901988  1604 net.cpp:165] Memory required for data: 3547897920
I1126 11:19:55.902009  1604 layer_factory.hpp:77] Creating layer relu3_11/x2
I1126 11:19:55.902036  1604 net.cpp:100] Creating Layer relu3_11/x2
I1126 11:19:55.902055  1604 net.cpp:434] relu3_11/x2 <- conv3_11/x2/bn
I1126 11:19:55.902073  1604 net.cpp:395] relu3_11/x2 -> conv3_11/x2/bn (in-place)
I1126 11:19:55.903550  1604 net.cpp:150] Setting up relu3_11/x2
I1126 11:19:55.903594  1604 net.cpp:157] Top shape: 16 128 29 29 (1722368)
I1126 11:19:55.903611  1604 net.cpp:165] Memory required for data: 3554787392
I1126 11:19:55.903627  1604 layer_factory.hpp:77] Creating layer conv3_11/x2
I1126 11:19:55.903656  1604 net.cpp:100] Creating Layer conv3_11/x2
I1126 11:19:55.903677  1604 net.cpp:434] conv3_11/x2 <- conv3_11/x2/bn
I1126 11:19:55.903703  1604 net.cpp:408] conv3_11/x2 -> conv3_11/x2
I1126 11:19:55.904933  1604 net.cpp:150] Setting up conv3_11/x2
I1126 11:19:55.904973  1604 net.cpp:157] Top shape: 16 32 29 29 (430592)
I1126 11:19:55.904989  1604 net.cpp:165] Memory required for data: 3556509760
I1126 11:19:55.905009  1604 layer_factory.hpp:77] Creating layer concat_3_11
I1126 11:19:55.905028  1604 net.cpp:100] Creating Layer concat_3_11
I1126 11:19:55.905045  1604 net.cpp:434] concat_3_11 <- concat_3_10_concat_3_10_0_split_1
I1126 11:19:55.905064  1604 net.cpp:434] concat_3_11 <- conv3_11/x2
I1126 11:19:55.905083  1604 net.cpp:408] concat_3_11 -> concat_3_11
I1126 11:19:55.905158  1604 net.cpp:150] Setting up concat_3_11
I1126 11:19:55.905182  1604 net.cpp:157] Top shape: 16 480 29 29 (6458880)
I1126 11:19:55.905205  1604 net.cpp:165] Memory required for data: 3582345280
I1126 11:19:55.905221  1604 layer_factory.hpp:77] Creating layer concat_3_11_concat_3_11_0_split
I1126 11:19:55.905251  1604 net.cpp:100] Creating Layer concat_3_11_concat_3_11_0_split
I1126 11:19:55.905269  1604 net.cpp:434] concat_3_11_concat_3_11_0_split <- concat_3_11
I1126 11:19:55.905288  1604 net.cpp:408] concat_3_11_concat_3_11_0_split -> concat_3_11_concat_3_11_0_split_0
I1126 11:19:55.905310  1604 net.cpp:408] concat_3_11_concat_3_11_0_split -> concat_3_11_concat_3_11_0_split_1
I1126 11:19:55.905413  1604 net.cpp:150] Setting up concat_3_11_concat_3_11_0_split
I1126 11:19:55.905444  1604 net.cpp:157] Top shape: 16 480 29 29 (6458880)
I1126 11:19:55.905464  1604 net.cpp:157] Top shape: 16 480 29 29 (6458880)
I1126 11:19:55.905478  1604 net.cpp:165] Memory required for data: 3634016320
I1126 11:19:55.905498  1604 layer_factory.hpp:77] Creating layer conv3_12/x1/bn
I1126 11:19:55.905519  1604 net.cpp:100] Creating Layer conv3_12/x1/bn
I1126 11:19:55.905536  1604 net.cpp:434] conv3_12/x1/bn <- concat_3_11_concat_3_11_0_split_0
I1126 11:19:55.905561  1604 net.cpp:408] conv3_12/x1/bn -> conv3_12/x1/bn
I1126 11:19:55.905944  1604 net.cpp:150] Setting up conv3_12/x1/bn
I1126 11:19:55.905972  1604 net.cpp:157] Top shape: 16 480 29 29 (6458880)
I1126 11:19:55.905987  1604 net.cpp:165] Memory required for data: 3659851840
I1126 11:19:55.906008  1604 layer_factory.hpp:77] Creating layer conv3_12/x1/scale
I1126 11:19:55.906028  1604 net.cpp:100] Creating Layer conv3_12/x1/scale
I1126 11:19:55.906045  1604 net.cpp:434] conv3_12/x1/scale <- conv3_12/x1/bn
I1126 11:19:55.906064  1604 net.cpp:395] conv3_12/x1/scale -> conv3_12/x1/bn (in-place)
I1126 11:19:55.906165  1604 layer_factory.hpp:77] Creating layer conv3_12/x1/scale
I1126 11:19:55.906399  1604 net.cpp:150] Setting up conv3_12/x1/scale
I1126 11:19:55.906426  1604 net.cpp:157] Top shape: 16 480 29 29 (6458880)
I1126 11:19:55.906460  1604 net.cpp:165] Memory required for data: 3685687360
I1126 11:19:55.906482  1604 layer_factory.hpp:77] Creating layer relu3_12/x1
I1126 11:19:55.906522  1604 net.cpp:100] Creating Layer relu3_12/x1
I1126 11:19:55.906540  1604 net.cpp:434] relu3_12/x1 <- conv3_12/x1/bn
I1126 11:19:55.906559  1604 net.cpp:395] relu3_12/x1 -> conv3_12/x1/bn (in-place)
I1126 11:19:55.907990  1604 net.cpp:150] Setting up relu3_12/x1
I1126 11:19:55.908032  1604 net.cpp:157] Top shape: 16 480 29 29 (6458880)
I1126 11:19:55.908049  1604 net.cpp:165] Memory required for data: 3711522880
I1126 11:19:55.908066  1604 layer_factory.hpp:77] Creating layer conv3_12/x1
I1126 11:19:55.908093  1604 net.cpp:100] Creating Layer conv3_12/x1
I1126 11:19:55.908114  1604 net.cpp:434] conv3_12/x1 <- conv3_12/x1/bn
I1126 11:19:55.908140  1604 net.cpp:408] conv3_12/x1 -> conv3_12/x1
I1126 11:19:55.910531  1604 net.cpp:150] Setting up conv3_12/x1
I1126 11:19:55.910573  1604 net.cpp:157] Top shape: 16 128 29 29 (1722368)
I1126 11:19:55.910589  1604 net.cpp:165] Memory required for data: 3718412352
I1126 11:19:55.910609  1604 layer_factory.hpp:77] Creating layer conv3_12/x2/bn
I1126 11:19:55.910641  1604 net.cpp:100] Creating Layer conv3_12/x2/bn
I1126 11:19:55.910661  1604 net.cpp:434] conv3_12/x2/bn <- conv3_12/x1
I1126 11:19:55.910681  1604 net.cpp:408] conv3_12/x2/bn -> conv3_12/x2/bn
I1126 11:19:55.911144  1604 net.cpp:150] Setting up conv3_12/x2/bn
I1126 11:19:55.911196  1604 net.cpp:157] Top shape: 16 128 29 29 (1722368)
I1126 11:19:55.911212  1604 net.cpp:165] Memory required for data: 3725301824
I1126 11:19:55.911244  1604 layer_factory.hpp:77] Creating layer conv3_12/x2/scale
I1126 11:19:55.911268  1604 net.cpp:100] Creating Layer conv3_12/x2/scale
I1126 11:19:55.911285  1604 net.cpp:434] conv3_12/x2/scale <- conv3_12/x2/bn
I1126 11:19:55.911303  1604 net.cpp:395] conv3_12/x2/scale -> conv3_12/x2/bn (in-place)
I1126 11:19:55.911406  1604 layer_factory.hpp:77] Creating layer conv3_12/x2/scale
I1126 11:19:55.911640  1604 net.cpp:150] Setting up conv3_12/x2/scale
I1126 11:19:55.911669  1604 net.cpp:157] Top shape: 16 128 29 29 (1722368)
I1126 11:19:55.911682  1604 net.cpp:165] Memory required for data: 3732191296
I1126 11:19:55.911702  1604 layer_factory.hpp:77] Creating layer relu3_12/x2
I1126 11:19:55.911721  1604 net.cpp:100] Creating Layer relu3_12/x2
I1126 11:19:55.911746  1604 net.cpp:434] relu3_12/x2 <- conv3_12/x2/bn
I1126 11:19:55.911768  1604 net.cpp:395] relu3_12/x2 -> conv3_12/x2/bn (in-place)
I1126 11:19:55.912061  1604 net.cpp:150] Setting up relu3_12/x2
I1126 11:19:55.912097  1604 net.cpp:157] Top shape: 16 128 29 29 (1722368)
I1126 11:19:55.912114  1604 net.cpp:165] Memory required for data: 3739080768
I1126 11:19:55.912130  1604 layer_factory.hpp:77] Creating layer conv3_12/x2
I1126 11:19:55.912151  1604 net.cpp:100] Creating Layer conv3_12/x2
I1126 11:19:55.912168  1604 net.cpp:434] conv3_12/x2 <- conv3_12/x2/bn
I1126 11:19:55.912194  1604 net.cpp:408] conv3_12/x2 -> conv3_12/x2
I1126 11:19:55.915685  1604 net.cpp:150] Setting up conv3_12/x2
I1126 11:19:55.915729  1604 net.cpp:157] Top shape: 16 32 29 29 (430592)
I1126 11:19:55.915746  1604 net.cpp:165] Memory required for data: 3740803136
I1126 11:19:55.915766  1604 layer_factory.hpp:77] Creating layer concat_3_12
I1126 11:19:55.915786  1604 net.cpp:100] Creating Layer concat_3_12
I1126 11:19:55.915804  1604 net.cpp:434] concat_3_12 <- concat_3_11_concat_3_11_0_split_1
I1126 11:19:55.915823  1604 net.cpp:434] concat_3_12 <- conv3_12/x2
I1126 11:19:55.915850  1604 net.cpp:408] concat_3_12 -> concat_3_12
I1126 11:19:55.915947  1604 net.cpp:150] Setting up concat_3_12
I1126 11:19:55.915974  1604 net.cpp:157] Top shape: 16 512 29 29 (6889472)
I1126 11:19:55.915989  1604 net.cpp:165] Memory required for data: 3768361024
I1126 11:19:55.916008  1604 layer_factory.hpp:77] Creating layer conv3_12/blk/bn
I1126 11:19:55.916035  1604 net.cpp:100] Creating Layer conv3_12/blk/bn
I1126 11:19:55.916055  1604 net.cpp:434] conv3_12/blk/bn <- concat_3_12
I1126 11:19:55.916080  1604 net.cpp:408] conv3_12/blk/bn -> conv3_12/blk/bn
I1126 11:19:55.916468  1604 net.cpp:150] Setting up conv3_12/blk/bn
I1126 11:19:55.916498  1604 net.cpp:157] Top shape: 16 512 29 29 (6889472)
I1126 11:19:55.916530  1604 net.cpp:165] Memory required for data: 3795918912
I1126 11:19:55.916553  1604 layer_factory.hpp:77] Creating layer conv3_12/blk/scale
I1126 11:19:55.916574  1604 net.cpp:100] Creating Layer conv3_12/blk/scale
I1126 11:19:55.916590  1604 net.cpp:434] conv3_12/blk/scale <- conv3_12/blk/bn
I1126 11:19:55.916609  1604 net.cpp:395] conv3_12/blk/scale -> conv3_12/blk/bn (in-place)
I1126 11:19:55.916713  1604 layer_factory.hpp:77] Creating layer conv3_12/blk/scale
I1126 11:19:55.916949  1604 net.cpp:150] Setting up conv3_12/blk/scale
I1126 11:19:55.916977  1604 net.cpp:157] Top shape: 16 512 29 29 (6889472)
I1126 11:19:55.916991  1604 net.cpp:165] Memory required for data: 3823476800
I1126 11:19:55.917011  1604 layer_factory.hpp:77] Creating layer relu3_12/blk
I1126 11:19:55.917037  1604 net.cpp:100] Creating Layer relu3_12/blk
I1126 11:19:55.917057  1604 net.cpp:434] relu3_12/blk <- conv3_12/blk/bn
I1126 11:19:55.917079  1604 net.cpp:395] relu3_12/blk -> conv3_12/blk/bn (in-place)
I1126 11:19:55.917389  1604 net.cpp:150] Setting up relu3_12/blk
I1126 11:19:55.917420  1604 net.cpp:157] Top shape: 16 512 29 29 (6889472)
I1126 11:19:55.917436  1604 net.cpp:165] Memory required for data: 3851034688
I1126 11:19:55.917451  1604 layer_factory.hpp:77] Creating layer conv3_12/blk
I1126 11:19:55.917479  1604 net.cpp:100] Creating Layer conv3_12/blk
I1126 11:19:55.917498  1604 net.cpp:434] conv3_12/blk <- conv3_12/blk/bn
I1126 11:19:55.917518  1604 net.cpp:408] conv3_12/blk -> conv3_12/blk
I1126 11:19:55.922318  1604 net.cpp:150] Setting up conv3_12/blk
I1126 11:19:55.922363  1604 net.cpp:157] Top shape: 16 256 29 29 (3444736)
I1126 11:19:55.922380  1604 net.cpp:165] Memory required for data: 3864813632
I1126 11:19:55.922399  1604 layer_factory.hpp:77] Creating layer pool3_12
I1126 11:19:55.922432  1604 net.cpp:100] Creating Layer pool3_12
I1126 11:19:55.922453  1604 net.cpp:434] pool3_12 <- conv3_12/blk
I1126 11:19:55.922479  1604 net.cpp:408] pool3_12 -> pool3_12
I1126 11:19:55.922816  1604 net.cpp:150] Setting up pool3_12
I1126 11:19:55.922847  1604 net.cpp:157] Top shape: 16 256 15 15 (921600)
I1126 11:19:55.922863  1604 net.cpp:165] Memory required for data: 3868500032
I1126 11:19:55.922879  1604 layer_factory.hpp:77] Creating layer pool3_12_pool3_12_0_split
I1126 11:19:55.922899  1604 net.cpp:100] Creating Layer pool3_12_pool3_12_0_split
I1126 11:19:55.922914  1604 net.cpp:434] pool3_12_pool3_12_0_split <- pool3_12
I1126 11:19:55.922960  1604 net.cpp:408] pool3_12_pool3_12_0_split -> pool3_12_pool3_12_0_split_0
I1126 11:19:55.922984  1604 net.cpp:408] pool3_12_pool3_12_0_split -> pool3_12_pool3_12_0_split_1
I1126 11:19:55.923081  1604 net.cpp:150] Setting up pool3_12_pool3_12_0_split
I1126 11:19:55.923106  1604 net.cpp:157] Top shape: 16 256 15 15 (921600)
I1126 11:19:55.923123  1604 net.cpp:157] Top shape: 16 256 15 15 (921600)
I1126 11:19:55.923137  1604 net.cpp:165] Memory required for data: 3875872832
I1126 11:19:55.923152  1604 layer_factory.hpp:77] Creating layer conv4_1/x1/bn
I1126 11:19:55.923178  1604 net.cpp:100] Creating Layer conv4_1/x1/bn
I1126 11:19:55.923197  1604 net.cpp:434] conv4_1/x1/bn <- pool3_12_pool3_12_0_split_0
I1126 11:19:55.923216  1604 net.cpp:408] conv4_1/x1/bn -> conv4_1/x1/bn
I1126 11:19:55.923594  1604 net.cpp:150] Setting up conv4_1/x1/bn
I1126 11:19:55.923624  1604 net.cpp:157] Top shape: 16 256 15 15 (921600)
I1126 11:19:55.923637  1604 net.cpp:165] Memory required for data: 3879559232
I1126 11:19:55.923660  1604 layer_factory.hpp:77] Creating layer conv4_1/x1/scale
I1126 11:19:55.923681  1604 net.cpp:100] Creating Layer conv4_1/x1/scale
I1126 11:19:55.923696  1604 net.cpp:434] conv4_1/x1/scale <- conv4_1/x1/bn
I1126 11:19:55.923714  1604 net.cpp:395] conv4_1/x1/scale -> conv4_1/x1/bn (in-place)
I1126 11:19:55.923833  1604 layer_factory.hpp:77] Creating layer conv4_1/x1/scale
I1126 11:19:55.924080  1604 net.cpp:150] Setting up conv4_1/x1/scale
I1126 11:19:55.924108  1604 net.cpp:157] Top shape: 16 256 15 15 (921600)
I1126 11:19:55.924123  1604 net.cpp:165] Memory required for data: 3883245632
I1126 11:19:55.924159  1604 layer_factory.hpp:77] Creating layer relu4_1/x1
I1126 11:19:55.924178  1604 net.cpp:100] Creating Layer relu4_1/x1
I1126 11:19:55.924203  1604 net.cpp:434] relu4_1/x1 <- conv4_1/x1/bn
I1126 11:19:55.924222  1604 net.cpp:395] relu4_1/x1 -> conv4_1/x1/bn (in-place)
I1126 11:19:55.924527  1604 net.cpp:150] Setting up relu4_1/x1
I1126 11:19:55.924558  1604 net.cpp:157] Top shape: 16 256 15 15 (921600)
I1126 11:19:55.924573  1604 net.cpp:165] Memory required for data: 3886932032
I1126 11:19:55.924593  1604 layer_factory.hpp:77] Creating layer conv4_1/x1
I1126 11:19:55.924623  1604 net.cpp:100] Creating Layer conv4_1/x1
I1126 11:19:55.924641  1604 net.cpp:434] conv4_1/x1 <- conv4_1/x1/bn
I1126 11:19:55.924667  1604 net.cpp:408] conv4_1/x1 -> conv4_1/x1
I1126 11:19:55.928194  1604 net.cpp:150] Setting up conv4_1/x1
I1126 11:19:55.928246  1604 net.cpp:157] Top shape: 16 128 15 15 (460800)
I1126 11:19:55.928267  1604 net.cpp:165] Memory required for data: 3888775232
I1126 11:19:55.928287  1604 layer_factory.hpp:77] Creating layer conv4_1/x2/bn
I1126 11:19:55.928314  1604 net.cpp:100] Creating Layer conv4_1/x2/bn
I1126 11:19:55.928334  1604 net.cpp:434] conv4_1/x2/bn <- conv4_1/x1
I1126 11:19:55.928354  1604 net.cpp:408] conv4_1/x2/bn -> conv4_1/x2/bn
I1126 11:19:55.928740  1604 net.cpp:150] Setting up conv4_1/x2/bn
I1126 11:19:55.928767  1604 net.cpp:157] Top shape: 16 128 15 15 (460800)
I1126 11:19:55.928782  1604 net.cpp:165] Memory required for data: 3890618432
I1126 11:19:55.928803  1604 layer_factory.hpp:77] Creating layer conv4_1/x2/scale
I1126 11:19:55.928823  1604 net.cpp:100] Creating Layer conv4_1/x2/scale
I1126 11:19:55.928840  1604 net.cpp:434] conv4_1/x2/scale <- conv4_1/x2/bn
I1126 11:19:55.928858  1604 net.cpp:395] conv4_1/x2/scale -> conv4_1/x2/bn (in-place)
I1126 11:19:55.928957  1604 layer_factory.hpp:77] Creating layer conv4_1/x2/scale
I1126 11:19:55.929183  1604 net.cpp:150] Setting up conv4_1/x2/scale
I1126 11:19:55.929209  1604 net.cpp:157] Top shape: 16 128 15 15 (460800)
I1126 11:19:55.929224  1604 net.cpp:165] Memory required for data: 3892461632
I1126 11:19:55.929257  1604 layer_factory.hpp:77] Creating layer relu4_1/x2
I1126 11:19:55.929286  1604 net.cpp:100] Creating Layer relu4_1/x2
I1126 11:19:55.929304  1604 net.cpp:434] relu4_1/x2 <- conv4_1/x2/bn
I1126 11:19:55.929322  1604 net.cpp:395] relu4_1/x2 -> conv4_1/x2/bn (in-place)
I1126 11:19:55.930734  1604 net.cpp:150] Setting up relu4_1/x2
I1126 11:19:55.930773  1604 net.cpp:157] Top shape: 16 128 15 15 (460800)
I1126 11:19:55.930790  1604 net.cpp:165] Memory required for data: 3894304832
I1126 11:19:55.930806  1604 layer_factory.hpp:77] Creating layer conv4_1/x2
I1126 11:19:55.930837  1604 net.cpp:100] Creating Layer conv4_1/x2
I1126 11:19:55.930857  1604 net.cpp:434] conv4_1/x2 <- conv4_1/x2/bn
I1126 11:19:55.930883  1604 net.cpp:408] conv4_1/x2 -> conv4_1/x2
I1126 11:19:55.933384  1604 net.cpp:150] Setting up conv4_1/x2
I1126 11:19:55.933429  1604 net.cpp:157] Top shape: 16 32 15 15 (115200)
I1126 11:19:55.933446  1604 net.cpp:165] Memory required for data: 3894765632
I1126 11:19:55.933470  1604 layer_factory.hpp:77] Creating layer concat_4_1
I1126 11:19:55.933498  1604 net.cpp:100] Creating Layer concat_4_1
I1126 11:19:55.933517  1604 net.cpp:434] concat_4_1 <- pool3_12_pool3_12_0_split_1
I1126 11:19:55.933537  1604 net.cpp:434] concat_4_1 <- conv4_1/x2
I1126 11:19:55.933557  1604 net.cpp:408] concat_4_1 -> concat_4_1
I1126 11:19:55.933631  1604 net.cpp:150] Setting up concat_4_1
I1126 11:19:55.933655  1604 net.cpp:157] Top shape: 16 288 15 15 (1036800)
I1126 11:19:55.933670  1604 net.cpp:165] Memory required for data: 3898912832
I1126 11:19:55.933684  1604 layer_factory.hpp:77] Creating layer concat_4_1_concat_4_1_0_split
I1126 11:19:55.933702  1604 net.cpp:100] Creating Layer concat_4_1_concat_4_1_0_split
I1126 11:19:55.933745  1604 net.cpp:434] concat_4_1_concat_4_1_0_split <- concat_4_1
I1126 11:19:55.933773  1604 net.cpp:408] concat_4_1_concat_4_1_0_split -> concat_4_1_concat_4_1_0_split_0
I1126 11:19:55.933809  1604 net.cpp:408] concat_4_1_concat_4_1_0_split -> concat_4_1_concat_4_1_0_split_1
I1126 11:19:55.933905  1604 net.cpp:150] Setting up concat_4_1_concat_4_1_0_split
I1126 11:19:55.933930  1604 net.cpp:157] Top shape: 16 288 15 15 (1036800)
I1126 11:19:55.933946  1604 net.cpp:157] Top shape: 16 288 15 15 (1036800)
I1126 11:19:55.933960  1604 net.cpp:165] Memory required for data: 3907207232
I1126 11:19:55.933974  1604 layer_factory.hpp:77] Creating layer conv4_2/x1/bn
I1126 11:19:55.934000  1604 net.cpp:100] Creating Layer conv4_2/x1/bn
I1126 11:19:55.934018  1604 net.cpp:434] conv4_2/x1/bn <- concat_4_1_concat_4_1_0_split_0
I1126 11:19:55.934037  1604 net.cpp:408] conv4_2/x1/bn -> conv4_2/x1/bn
I1126 11:19:55.934427  1604 net.cpp:150] Setting up conv4_2/x1/bn
I1126 11:19:55.934456  1604 net.cpp:157] Top shape: 16 288 15 15 (1036800)
I1126 11:19:55.934471  1604 net.cpp:165] Memory required for data: 3911354432
I1126 11:19:55.934492  1604 layer_factory.hpp:77] Creating layer conv4_2/x1/scale
I1126 11:19:55.934512  1604 net.cpp:100] Creating Layer conv4_2/x1/scale
I1126 11:19:55.934528  1604 net.cpp:434] conv4_2/x1/scale <- conv4_2/x1/bn
I1126 11:19:55.934553  1604 net.cpp:395] conv4_2/x1/scale -> conv4_2/x1/bn (in-place)
I1126 11:19:55.934654  1604 layer_factory.hpp:77] Creating layer conv4_2/x1/scale
I1126 11:19:55.934900  1604 net.cpp:150] Setting up conv4_2/x1/scale
I1126 11:19:55.934949  1604 net.cpp:157] Top shape: 16 288 15 15 (1036800)
I1126 11:19:55.934967  1604 net.cpp:165] Memory required for data: 3915501632
I1126 11:19:55.934993  1604 layer_factory.hpp:77] Creating layer relu4_2/x1
I1126 11:19:55.935017  1604 net.cpp:100] Creating Layer relu4_2/x1
I1126 11:19:55.935035  1604 net.cpp:434] relu4_2/x1 <- conv4_2/x1/bn
I1126 11:19:55.935062  1604 net.cpp:395] relu4_2/x1 -> conv4_2/x1/bn (in-place)
I1126 11:19:55.936486  1604 net.cpp:150] Setting up relu4_2/x1
I1126 11:19:55.936532  1604 net.cpp:157] Top shape: 16 288 15 15 (1036800)
I1126 11:19:55.936552  1604 net.cpp:165] Memory required for data: 3919648832
I1126 11:19:55.936568  1604 layer_factory.hpp:77] Creating layer conv4_2/x1
I1126 11:19:55.936589  1604 net.cpp:100] Creating Layer conv4_2/x1
I1126 11:19:55.936606  1604 net.cpp:434] conv4_2/x1 <- conv4_2/x1/bn
I1126 11:19:55.936632  1604 net.cpp:408] conv4_2/x1 -> conv4_2/x1
I1126 11:19:55.939052  1604 net.cpp:150] Setting up conv4_2/x1
I1126 11:19:55.939097  1604 net.cpp:157] Top shape: 16 128 15 15 (460800)
I1126 11:19:55.939115  1604 net.cpp:165] Memory required for data: 3921492032
I1126 11:19:55.939133  1604 layer_factory.hpp:77] Creating layer conv4_2/x2/bn
I1126 11:19:55.939162  1604 net.cpp:100] Creating Layer conv4_2/x2/bn
I1126 11:19:55.939182  1604 net.cpp:434] conv4_2/x2/bn <- conv4_2/x1
I1126 11:19:55.939201  1604 net.cpp:408] conv4_2/x2/bn -> conv4_2/x2/bn
I1126 11:19:55.939594  1604 net.cpp:150] Setting up conv4_2/x2/bn
I1126 11:19:55.939623  1604 net.cpp:157] Top shape: 16 128 15 15 (460800)
I1126 11:19:55.939638  1604 net.cpp:165] Memory required for data: 3923335232
I1126 11:19:55.939661  1604 layer_factory.hpp:77] Creating layer conv4_2/x2/scale
I1126 11:19:55.939680  1604 net.cpp:100] Creating Layer conv4_2/x2/scale
I1126 11:19:55.939697  1604 net.cpp:434] conv4_2/x2/scale <- conv4_2/x2/bn
I1126 11:19:55.939715  1604 net.cpp:395] conv4_2/x2/scale -> conv4_2/x2/bn (in-place)
I1126 11:19:55.939813  1604 layer_factory.hpp:77] Creating layer conv4_2/x2/scale
I1126 11:19:55.940057  1604 net.cpp:150] Setting up conv4_2/x2/scale
…
I1126 11:20:08.390261  1604 net.cpp:408] conv5_24/x2 -> conv5_24/x2
I1126 11:20:08.392980  1604 net.cpp:150] Setting up conv5_24/x2
I1126 11:20:08.393025  1604 net.cpp:157] Top shape: 8 32 8 8 (16384)
I1126 11:20:08.393040  1604 net.cpp:165] Memory required for data: 4668170336
I1126 11:20:08.393074  1604 layer_factory.hpp:77] Creating layer concat_5_24
I1126 11:20:08.393095  1604 net.cpp:100] Creating Layer concat_5_24
I1126 11:20:08.393110  1604 net.cpp:434] concat_5_24 <- concat_5_23_concat_5_23_0_split_1
I1126 11:20:08.393128  1604 net.cpp:434] concat_5_24 <- conv5_24/x2
I1126 11:20:08.393146  1604 net.cpp:408] concat_5_24 -> concat_5_24
I1126 11:20:08.393225  1604 net.cpp:150] Setting up concat_5_24
I1126 11:20:08.393246  1604 net.cpp:157] Top shape: 8 1664 8 8 (851968)
I1126 11:20:08.393260  1604 net.cpp:165] Memory required for data: 4671578208
I1126 11:20:08.393273  1604 layer_factory.hpp:77] Creating layer concat_5_24_concat_5_24_0_split
I1126 11:20:08.393296  1604 net.cpp:100] Creating Layer concat_5_24_concat_5_24_0_split
I1126 11:20:08.393324  1604 net.cpp:434] concat_5_24_concat_5_24_0_split <- concat_5_24
I1126 11:20:08.393342  1604 net.cpp:408] concat_5_24_concat_5_24_0_split -> concat_5_24_concat_5_24_0_split_0
I1126 11:20:08.393362  1604 net.cpp:408] concat_5_24_concat_5_24_0_split -> concat_5_24_concat_5_24_0_split_1
I1126 11:20:08.393461  1604 net.cpp:150] Setting up concat_5_24_concat_5_24_0_split
I1126 11:20:08.393483  1604 net.cpp:157] Top shape: 8 1664 8 8 (851968)
I1126 11:20:08.393497  1604 net.cpp:157] Top shape: 8 1664 8 8 (851968)
I1126 11:20:08.393509  1604 net.cpp:165] Memory required for data: 4678393952
I1126 11:20:08.393523  1604 layer_factory.hpp:77] Creating layer conv5_25/x1/bn
I1126 11:20:08.393540  1604 net.cpp:100] Creating Layer conv5_25/x1/bn
I1126 11:20:08.393554  1604 net.cpp:434] conv5_25/x1/bn <- concat_5_24_concat_5_24_0_split_0
I1126 11:20:08.393579  1604 net.cpp:408] conv5_25/x1/bn -> conv5_25/x1/bn
I1126 11:20:08.394032  1604 net.cpp:150] Setting up conv5_25/x1/bn
I1126 11:20:08.394057  1604 net.cpp:157] Top shape: 8 1664 8 8 (851968)
I1126 11:20:08.394069  1604 net.cpp:165] Memory required for data: 4681801824
I1126 11:20:08.394089  1604 layer_factory.hpp:77] Creating layer conv5_25/x1/scale
I1126 11:20:08.394112  1604 net.cpp:100] Creating Layer conv5_25/x1/scale
I1126 11:20:08.394130  1604 net.cpp:434] conv5_25/x1/scale <- conv5_25/x1/bn
I1126 11:20:08.394146  1604 net.cpp:395] conv5_25/x1/scale -> conv5_25/x1/bn (in-place)
I1126 11:20:08.394268  1604 layer_factory.hpp:77] Creating layer conv5_25/x1/scale
I1126 11:20:08.394544  1604 net.cpp:150] Setting up conv5_25/x1/scale
I1126 11:20:08.394568  1604 net.cpp:157] Top shape: 8 1664 8 8 (851968)
I1126 11:20:08.394582  1604 net.cpp:165] Memory required for data: 4685209696
I1126 11:20:08.394598  1604 layer_factory.hpp:77] Creating layer relu5_25/x1
I1126 11:20:08.394621  1604 net.cpp:100] Creating Layer relu5_25/x1
I1126 11:20:08.394637  1604 net.cpp:434] relu5_25/x1 <- conv5_25/x1/bn
I1126 11:20:08.394654  1604 net.cpp:395] relu5_25/x1 -> conv5_25/x1/bn (in-place)
I1126 11:20:08.394984  1604 net.cpp:150] Setting up relu5_25/x1
I1126 11:20:08.395015  1604 net.cpp:157] Top shape: 8 1664 8 8 (851968)
I1126 11:20:08.395027  1604 net.cpp:165] Memory required for data: 4688617568
I1126 11:20:08.395041  1604 layer_factory.hpp:77] Creating layer conv5_25/x1
I1126 11:20:08.395066  1604 net.cpp:100] Creating Layer conv5_25/x1
I1126 11:20:08.395082  1604 net.cpp:434] conv5_25/x1 <- conv5_25/x1/bn
I1126 11:20:08.395105  1604 net.cpp:408] conv5_25/x1 -> conv5_25/x1
I1126 11:20:08.401837  1604 net.cpp:150] Setting up conv5_25/x1
I1126 11:20:08.401880  1604 net.cpp:157] Top shape: 8 128 8 8 (65536)
I1126 11:20:08.401903  1604 net.cpp:165] Memory required for data: 4688879712
I1126 11:20:08.401921  1604 layer_factory.hpp:77] Creating layer conv5_25/x2/bn
I1126 11:20:08.401938  1604 net.cpp:100] Creating Layer conv5_25/x2/bn
I1126 11:20:08.401955  1604 net.cpp:434] conv5_25/x2/bn <- conv5_25/x1
I1126 11:20:08.401973  1604 net.cpp:408] conv5_25/x2/bn -> conv5_25/x2/bn
I1126 11:20:08.402380  1604 net.cpp:150] Setting up conv5_25/x2/bn
I1126 11:20:08.402405  1604 net.cpp:157] Top shape: 8 128 8 8 (65536)
I1126 11:20:08.402417  1604 net.cpp:165] Memory required for data: 4689141856
I1126 11:20:08.402436  1604 layer_factory.hpp:77] Creating layer conv5_25/x2/scale
I1126 11:20:08.402472  1604 net.cpp:100] Creating Layer conv5_25/x2/scale
I1126 11:20:08.402489  1604 net.cpp:434] conv5_25/x2/scale <- conv5_25/x2/bn
I1126 11:20:08.402511  1604 net.cpp:395] conv5_25/x2/scale -> conv5_25/x2/bn (in-place)
I1126 11:20:08.402619  1604 layer_factory.hpp:77] Creating layer conv5_25/x2/scale
I1126 11:20:08.402875  1604 net.cpp:150] Setting up conv5_25/x2/scale
I1126 11:20:08.402900  1604 net.cpp:157] Top shape: 8 128 8 8 (65536)
I1126 11:20:08.402914  1604 net.cpp:165] Memory required for data: 4689404000
I1126 11:20:08.402958  1604 layer_factory.hpp:77] Creating layer relu5_25/x2
I1126 11:20:08.402977  1604 net.cpp:100] Creating Layer relu5_25/x2
I1126 11:20:08.402992  1604 net.cpp:434] relu5_25/x2 <- conv5_25/x2/bn
I1126 11:20:08.403025  1604 net.cpp:395] relu5_25/x2 -> conv5_25/x2/bn (in-place)
I1126 11:20:08.403333  1604 net.cpp:150] Setting up relu5_25/x2
I1126 11:20:08.403360  1604 net.cpp:157] Top shape: 8 128 8 8 (65536)
I1126 11:20:08.403373  1604 net.cpp:165] Memory required for data: 4689666144
I1126 11:20:08.403386  1604 layer_factory.hpp:77] Creating layer conv5_25/x2
I1126 11:20:08.403411  1604 net.cpp:100] Creating Layer conv5_25/x2
I1126 11:20:08.403429  1604 net.cpp:434] conv5_25/x2 <- conv5_25/x2/bn
I1126 11:20:08.403446  1604 net.cpp:408] conv5_25/x2 -> conv5_25/x2
I1126 11:20:08.407348  1604 net.cpp:150] Setting up conv5_25/x2
I1126 11:20:08.407387  1604 net.cpp:157] Top shape: 8 32 8 8 (16384)
I1126 11:20:08.407402  1604 net.cpp:165] Memory required for data: 4689731680
I1126 11:20:08.407418  1604 layer_factory.hpp:77] Creating layer concat_5_25
I1126 11:20:08.407446  1604 net.cpp:100] Creating Layer concat_5_25
I1126 11:20:08.407464  1604 net.cpp:434] concat_5_25 <- concat_5_24_concat_5_24_0_split_1
I1126 11:20:08.407482  1604 net.cpp:434] concat_5_25 <- conv5_25/x2
I1126 11:20:08.407500  1604 net.cpp:408] concat_5_25 -> concat_5_25
I1126 11:20:08.407582  1604 net.cpp:150] Setting up concat_5_25
I1126 11:20:08.407603  1604 net.cpp:157] Top shape: 8 1696 8 8 (868352)
I1126 11:20:08.407615  1604 net.cpp:165] Memory required for data: 4693205088
I1126 11:20:08.407629  1604 layer_factory.hpp:77] Creating layer concat_5_25_concat_5_25_0_split
I1126 11:20:08.407645  1604 net.cpp:100] Creating Layer concat_5_25_concat_5_25_0_split
I1126 11:20:08.407672  1604 net.cpp:434] concat_5_25_concat_5_25_0_split <- concat_5_25
I1126 11:20:08.407698  1604 net.cpp:408] concat_5_25_concat_5_25_0_split -> concat_5_25_concat_5_25_0_split_0
I1126 11:20:08.407719  1604 net.cpp:408] concat_5_25_concat_5_25_0_split -> concat_5_25_concat_5_25_0_split_1
I1126 11:20:08.407815  1604 net.cpp:150] Setting up concat_5_25_concat_5_25_0_split
I1126 11:20:08.407862  1604 net.cpp:157] Top shape: 8 1696 8 8 (868352)
I1126 11:20:08.407881  1604 net.cpp:157] Top shape: 8 1696 8 8 (868352)
I1126 11:20:08.407892  1604 net.cpp:165] Memory required for data: 4700151904
I1126 11:20:08.407905  1604 layer_factory.hpp:77] Creating layer conv5_26/x1/bn
I1126 11:20:08.407922  1604 net.cpp:100] Creating Layer conv5_26/x1/bn
I1126 11:20:08.407938  1604 net.cpp:434] conv5_26/x1/bn <- concat_5_25_concat_5_25_0_split_0
I1126 11:20:08.407954  1604 net.cpp:408] conv5_26/x1/bn -> conv5_26/x1/bn
I1126 11:20:08.408397  1604 net.cpp:150] Setting up conv5_26/x1/bn
I1126 11:20:08.408421  1604 net.cpp:157] Top shape: 8 1696 8 8 (868352)
I1126 11:20:08.408434  1604 net.cpp:165] Memory required for data: 4703625312
I1126 11:20:08.408453  1604 layer_factory.hpp:77] Creating layer conv5_26/x1/scale
I1126 11:20:08.408478  1604 net.cpp:100] Creating Layer conv5_26/x1/scale
I1126 11:20:08.408494  1604 net.cpp:434] conv5_26/x1/scale <- conv5_26/x1/bn
I1126 11:20:08.408510  1604 net.cpp:395] conv5_26/x1/scale -> conv5_26/x1/bn (in-place)
I1126 11:20:08.408649  1604 layer_factory.hpp:77] Creating layer conv5_26/x1/scale
I1126 11:20:08.408951  1604 net.cpp:150] Setting up conv5_26/x1/scale
I1126 11:20:08.408975  1604 net.cpp:157] Top shape: 8 1696 8 8 (868352)
I1126 11:20:08.408987  1604 net.cpp:165] Memory required for data: 4707098720
I1126 11:20:08.409021  1604 layer_factory.hpp:77] Creating layer relu5_26/x1
I1126 11:20:08.409049  1604 net.cpp:100] Creating Layer relu5_26/x1
I1126 11:20:08.409066  1604 net.cpp:434] relu5_26/x1 <- conv5_26/x1/bn
I1126 11:20:08.409082  1604 net.cpp:395] relu5_26/x1 -> conv5_26/x1/bn (in-place)
I1126 11:20:08.409389  1604 net.cpp:150] Setting up relu5_26/x1
I1126 11:20:08.409415  1604 net.cpp:157] Top shape: 8 1696 8 8 (868352)
I1126 11:20:08.409430  1604 net.cpp:165] Memory required for data: 4710572128
I1126 11:20:08.409442  1604 layer_factory.hpp:77] Creating layer conv5_26/x1
I1126 11:20:08.409472  1604 net.cpp:100] Creating Layer conv5_26/x1
I1126 11:20:08.409490  1604 net.cpp:434] conv5_26/x1 <- conv5_26/x1/bn
I1126 11:20:08.409523  1604 net.cpp:408] conv5_26/x1 -> conv5_26/x1
I1126 11:20:08.412427  1604 net.cpp:150] Setting up conv5_26/x1
I1126 11:20:08.412473  1604 net.cpp:157] Top shape: 8 128 8 8 (65536)
I1126 11:20:08.412490  1604 net.cpp:165] Memory required for data: 4710834272
I1126 11:20:08.412508  1604 layer_factory.hpp:77] Creating layer conv5_26/x2/bn
I1126 11:20:08.412525  1604 net.cpp:100] Creating Layer conv5_26/x2/bn
I1126 11:20:08.412541  1604 net.cpp:434] conv5_26/x2/bn <- conv5_26/x1
I1126 11:20:08.412559  1604 net.cpp:408] conv5_26/x2/bn -> conv5_26/x2/bn
I1126 11:20:08.412981  1604 net.cpp:150] Setting up conv5_26/x2/bn
I1126 11:20:08.413005  1604 net.cpp:157] Top shape: 8 128 8 8 (65536)
I1126 11:20:08.413017  1604 net.cpp:165] Memory required for data: 4711096416
I1126 11:20:08.413038  1604 layer_factory.hpp:77] Creating layer conv5_26/x2/scale
I1126 11:20:08.413063  1604 net.cpp:100] Creating Layer conv5_26/x2/scale
I1126 11:20:08.413080  1604 net.cpp:434] conv5_26/x2/scale <- conv5_26/x2/bn
I1126 11:20:08.413096  1604 net.cpp:395] conv5_26/x2/scale -> conv5_26/x2/bn (in-place)
I1126 11:20:08.413208  1604 layer_factory.hpp:77] Creating layer conv5_26/x2/scale
I1126 11:20:08.413451  1604 net.cpp:150] Setting up conv5_26/x2/scale
I1126 11:20:08.413475  1604 net.cpp:157] Top shape: 8 128 8 8 (65536)
I1126 11:20:08.413487  1604 net.cpp:165] Memory required for data: 4711358560
I1126 11:20:08.413504  1604 layer_factory.hpp:77] Creating layer relu5_26/x2
I1126 11:20:08.413522  1604 net.cpp:100] Creating Layer relu5_26/x2
I1126 11:20:08.413535  1604 net.cpp:434] relu5_26/x2 <- conv5_26/x2/bn
I1126 11:20:08.413550  1604 net.cpp:395] relu5_26/x2 -> conv5_26/x2/bn (in-place)
I1126 11:20:08.413862  1604 net.cpp:150] Setting up relu5_26/x2
I1126 11:20:08.413889  1604 net.cpp:157] Top shape: 8 128 8 8 (65536)
I1126 11:20:08.413903  1604 net.cpp:165] Memory required for data: 4711620704
I1126 11:20:08.413916  1604 layer_factory.hpp:77] Creating layer conv5_26/x2
I1126 11:20:08.413945  1604 net.cpp:100] Creating Layer conv5_26/x2
I1126 11:20:08.413964  1604 net.cpp:434] conv5_26/x2 <- conv5_26/x2/bn
I1126 11:20:08.413981  1604 net.cpp:408] conv5_26/x2 -> conv5_26/x2
I1126 11:20:08.416646  1604 net.cpp:150] Setting up conv5_26/x2
I1126 11:20:08.416697  1604 net.cpp:157] Top shape: 8 32 8 8 (16384)
I1126 11:20:08.416713  1604 net.cpp:165] Memory required for data: 4711686240
I1126 11:20:08.416730  1604 layer_factory.hpp:77] Creating layer concat_5_26
I1126 11:20:08.416755  1604 net.cpp:100] Creating Layer concat_5_26
I1126 11:20:08.416774  1604 net.cpp:434] concat_5_26 <- concat_5_25_concat_5_25_0_split_1
I1126 11:20:08.416791  1604 net.cpp:434] concat_5_26 <- conv5_26/x2
I1126 11:20:08.416810  1604 net.cpp:408] concat_5_26 -> concat_5_26
I1126 11:20:08.416890  1604 net.cpp:150] Setting up concat_5_26
I1126 11:20:08.416913  1604 net.cpp:157] Top shape: 8 1728 8 8 (884736)
I1126 11:20:08.416924  1604 net.cpp:165] Memory required for data: 4715225184
I1126 11:20:08.416939  1604 layer_factory.hpp:77] Creating layer concat_5_26_concat_5_26_0_split
I1126 11:20:08.416954  1604 net.cpp:100] Creating Layer concat_5_26_concat_5_26_0_split
I1126 11:20:08.416970  1604 net.cpp:434] concat_5_26_concat_5_26_0_split <- concat_5_26
I1126 11:20:08.416992  1604 net.cpp:408] concat_5_26_concat_5_26_0_split -> concat_5_26_concat_5_26_0_split_0
I1126 11:20:08.417029  1604 net.cpp:408] concat_5_26_concat_5_26_0_split -> concat_5_26_concat_5_26_0_split_1
I1126 11:20:08.417132  1604 net.cpp:150] Setting up concat_5_26_concat_5_26_0_split
I1126 11:20:08.417155  1604 net.cpp:157] Top shape: 8 1728 8 8 (884736)
I1126 11:20:08.417168  1604 net.cpp:157] Top shape: 8 1728 8 8 (884736)
I1126 11:20:08.417181  1604 net.cpp:165] Memory required for data: 4722303072
I1126 11:20:08.417193  1604 layer_factory.hpp:77] Creating layer conv5_27/x1/bn
I1126 11:20:08.417217  1604 net.cpp:100] Creating Layer conv5_27/x1/bn
I1126 11:20:08.417234  1604 net.cpp:434] conv5_27/x1/bn <- concat_5_26_concat_5_26_0_split_0
I1126 11:20:08.417258  1604 net.cpp:408] conv5_27/x1/bn -> conv5_27/x1/bn
I1126 11:20:08.417732  1604 net.cpp:150] Setting up conv5_27/x1/bn
I1126 11:20:08.417757  1604 net.cpp:157] Top shape: 8 1728 8 8 (884736)
I1126 11:20:08.417769  1604 net.cpp:165] Memory required for data: 4725842016
I1126 11:20:08.417788  1604 layer_factory.hpp:77] Creating layer conv5_27/x1/scale
I1126 11:20:08.417806  1604 net.cpp:100] Creating Layer conv5_27/x1/scale
I1126 11:20:08.417822  1604 net.cpp:434] conv5_27/x1/scale <- conv5_27/x1/bn
I1126 11:20:08.417845  1604 net.cpp:395] conv5_27/x1/scale -> conv5_27/x1/bn (in-place)
I1126 11:20:08.417982  1604 layer_factory.hpp:77] Creating layer conv5_27/x1/scale
I1126 11:20:08.418277  1604 net.cpp:150] Setting up conv5_27/x1/scale
I1126 11:20:08.418299  1604 net.cpp:157] Top shape: 8 1728 8 8 (884736)
I1126 11:20:08.418313  1604 net.cpp:165] Memory required for data: 4729380960
I1126 11:20:08.418329  1604 layer_factory.hpp:77] Creating layer relu5_27/x1
I1126 11:20:08.418346  1604 net.cpp:100] Creating Layer relu5_27/x1
I1126 11:20:08.418361  1604 net.cpp:434] relu5_27/x1 <- conv5_27/x1/bn
I1126 11:20:08.418382  1604 net.cpp:395] relu5_27/x1 -> conv5_27/x1/bn (in-place)
I1126 11:20:08.418715  1604 net.cpp:150] Setting up relu5_27/x1
I1126 11:20:08.418743  1604 net.cpp:157] Top shape: 8 1728 8 8 (884736)
I1126 11:20:08.418756  1604 net.cpp:165] Memory required for data: 4732919904
I1126 11:20:08.418771  1604 layer_factory.hpp:77] Creating layer conv5_27/x1
I1126 11:20:08.418794  1604 net.cpp:100] Creating Layer conv5_27/x1
I1126 11:20:08.418812  1604 net.cpp:434] conv5_27/x1 <- conv5_27/x1/bn
I1126 11:20:08.418835  1604 net.cpp:408] conv5_27/x1 -> conv5_27/x1
I1126 11:20:08.423502  1604 net.cpp:150] Setting up conv5_27/x1
I1126 11:20:08.423542  1604 net.cpp:157] Top shape: 8 128 8 8 (65536)
I1126 11:20:08.423557  1604 net.cpp:165] Memory required for data: 4733182048
I1126 11:20:08.423574  1604 layer_factory.hpp:77] Creating layer conv5_27/x2/bn
I1126 11:20:08.423593  1604 net.cpp:100] Creating Layer conv5_27/x2/bn
I1126 11:20:08.423609  1604 net.cpp:434] conv5_27/x2/bn <- conv5_27/x1
I1126 11:20:08.423635  1604 net.cpp:408] conv5_27/x2/bn -> conv5_27/x2/bn
I1126 11:20:08.424058  1604 net.cpp:150] Setting up conv5_27/x2/bn
I1126 11:20:08.424082  1604 net.cpp:157] Top shape: 8 128 8 8 (65536)
I1126 11:20:08.424096  1604 net.cpp:165] Memory required for data: 4733444192
I1126 11:20:08.424115  1604 layer_factory.hpp:77] Creating layer conv5_27/x2/scale
I1126 11:20:08.424139  1604 net.cpp:100] Creating Layer conv5_27/x2/scale
I1126 11:20:08.424157  1604 net.cpp:434] conv5_27/x2/scale <- conv5_27/x2/bn
I1126 11:20:08.424173  1604 net.cpp:395] conv5_27/x2/scale -> conv5_27/x2/bn (in-place)
I1126 11:20:08.424278  1604 layer_factory.hpp:77] Creating layer conv5_27/x2/scale
I1126 11:20:08.424523  1604 net.cpp:150] Setting up conv5_27/x2/scale
I1126 11:20:08.424546  1604 net.cpp:157] Top shape: 8 128 8 8 (65536)
I1126 11:20:08.424558  1604 net.cpp:165] Memory required for data: 4733706336
I1126 11:20:08.424576  1604 layer_factory.hpp:77] Creating layer relu5_27/x2
I1126 11:20:08.424592  1604 net.cpp:100] Creating Layer relu5_27/x2
I1126 11:20:08.424607  1604 net.cpp:434] relu5_27/x2 <- conv5_27/x2/bn
I1126 11:20:08.424630  1604 net.cpp:395] relu5_27/x2 -> conv5_27/x2/bn (in-place)
I1126 11:20:08.426268  1604 net.cpp:150] Setting up relu5_27/x2
I1126 11:20:08.426319  1604 net.cpp:157] Top shape: 8 128 8 8 (65536)
I1126 11:20:08.426337  1604 net.cpp:165] Memory required for data: 4733968480
I1126 11:20:08.426350  1604 layer_factory.hpp:77] Creating layer conv5_27/x2
I1126 11:20:08.426376  1604 net.cpp:100] Creating Layer conv5_27/x2
I1126 11:20:08.426394  1604 net.cpp:434] conv5_27/x2 <- conv5_27/x2/bn
I1126 11:20:08.426419  1604 net.cpp:408] conv5_27/x2 -> conv5_27/x2
I1126 11:20:08.430454  1604 net.cpp:150] Setting up conv5_27/x2
I1126 11:20:08.430493  1604 net.cpp:157] Top shape: 8 32 8 8 (16384)
I1126 11:20:08.430508  1604 net.cpp:165] Memory required for data: 4734034016
I1126 11:20:08.430526  1604 layer_factory.hpp:77] Creating layer concat_5_27
I1126 11:20:08.430543  1604 net.cpp:100] Creating Layer concat_5_27
I1126 11:20:08.430580  1604 net.cpp:434] concat_5_27 <- concat_5_26_concat_5_26_0_split_1
I1126 11:20:08.430605  1604 net.cpp:434] concat_5_27 <- conv5_27/x2
I1126 11:20:08.430626  1604 net.cpp:408] concat_5_27 -> concat_5_27
I1126 11:20:08.430713  1604 net.cpp:150] Setting up concat_5_27
I1126 11:20:08.430735  1604 net.cpp:157] Top shape: 8 1760 8 8 (901120)
I1126 11:20:08.430748  1604 net.cpp:165] Memory required for data: 4737638496
I1126 11:20:08.430761  1604 layer_factory.hpp:77] Creating layer concat_5_27_concat_5_27_0_split
I1126 11:20:08.430785  1604 net.cpp:100] Creating Layer concat_5_27_concat_5_27_0_split
I1126 11:20:08.430804  1604 net.cpp:434] concat_5_27_concat_5_27_0_split <- concat_5_27
I1126 11:20:08.430820  1604 net.cpp:408] concat_5_27_concat_5_27_0_split -> concat_5_27_concat_5_27_0_split_0
I1126 11:20:08.430846  1604 net.cpp:408] concat_5_27_concat_5_27_0_split -> concat_5_27_concat_5_27_0_split_1
I1126 11:20:08.430975  1604 net.cpp:150] Setting up concat_5_27_concat_5_27_0_split
I1126 11:20:08.431001  1604 net.cpp:157] Top shape: 8 1760 8 8 (901120)
I1126 11:20:08.431020  1604 net.cpp:157] Top shape: 8 1760 8 8 (901120)
I1126 11:20:08.431038  1604 net.cpp:165] Memory required for data: 4744847456
I1126 11:20:08.431061  1604 layer_factory.hpp:77] Creating layer conv5_28/x1/bn
I1126 11:20:08.431084  1604 net.cpp:100] Creating Layer conv5_28/x1/bn
I1126 11:20:08.431102  1604 net.cpp:434] conv5_28/x1/bn <- concat_5_27_concat_5_27_0_split_0
I1126 11:20:08.431119  1604 net.cpp:408] conv5_28/x1/bn -> conv5_28/x1/bn
I1126 11:20:08.431586  1604 net.cpp:150] Setting up conv5_28/x1/bn
I1126 11:20:08.431608  1604 net.cpp:157] Top shape: 8 1760 8 8 (901120)
I1126 11:20:08.431622  1604 net.cpp:165] Memory required for data: 4748451936
I1126 11:20:08.431640  1604 layer_factory.hpp:77] Creating layer conv5_28/x1/scale
I1126 11:20:08.431675  1604 net.cpp:100] Creating Layer conv5_28/x1/scale
I1126 11:20:08.431695  1604 net.cpp:434] conv5_28/x1/scale <- conv5_28/x1/bn
I1126 11:20:08.431712  1604 net.cpp:395] conv5_28/x1/scale -> conv5_28/x1/bn (in-place)
I1126 11:20:08.431856  1604 layer_factory.hpp:77] Creating layer conv5_28/x1/scale
I1126 11:20:08.432152  1604 net.cpp:150] Setting up conv5_28/x1/scale
I1126 11:20:08.432176  1604 net.cpp:157] Top shape: 8 1760 8 8 (901120)
I1126 11:20:08.432189  1604 net.cpp:165] Memory required for data: 4752056416
I1126 11:20:08.432206  1604 layer_factory.hpp:77] Creating layer relu5_28/x1
I1126 11:20:08.432232  1604 net.cpp:100] Creating Layer relu5_28/x1
I1126 11:20:08.432250  1604 net.cpp:434] relu5_28/x1 <- conv5_28/x1/bn
I1126 11:20:08.432266  1604 net.cpp:395] relu5_28/x1 -> conv5_28/x1/bn (in-place)
I1126 11:20:08.432569  1604 net.cpp:150] Setting up relu5_28/x1
I1126 11:20:08.432601  1604 net.cpp:157] Top shape: 8 1760 8 8 (901120)
I1126 11:20:08.432617  1604 net.cpp:165] Memory required for data: 4755660896
I1126 11:20:08.432631  1604 layer_factory.hpp:77] Creating layer conv5_28/x1
I1126 11:20:08.432654  1604 net.cpp:100] Creating Layer conv5_28/x1
I1126 11:20:08.432684  1604 net.cpp:434] conv5_28/x1 <- conv5_28/x1/bn
I1126 11:20:08.432703  1604 net.cpp:408] conv5_28/x1 -> conv5_28/x1
I1126 11:20:08.435652  1604 net.cpp:150] Setting up conv5_28/x1
I1126 11:20:08.435724  1604 net.cpp:157] Top shape: 8 128 8 8 (65536)
I1126 11:20:08.435742  1604 net.cpp:165] Memory required for data: 4755923040
I1126 11:20:08.435760  1604 layer_factory.hpp:77] Creating layer conv5_28/x2/bn
I1126 11:20:08.435778  1604 net.cpp:100] Creating Layer conv5_28/x2/bn
I1126 11:20:08.435794  1604 net.cpp:434] conv5_28/x2/bn <- conv5_28/x1
I1126 11:20:08.435813  1604 net.cpp:408] conv5_28/x2/bn -> conv5_28/x2/bn
I1126 11:20:08.436233  1604 net.cpp:150] Setting up conv5_28/x2/bn
I1126 11:20:08.436257  1604 net.cpp:157] Top shape: 8 128 8 8 (65536)
I1126 11:20:08.436270  1604 net.cpp:165] Memory required for data: 4756185184
I1126 11:20:08.436290  1604 layer_factory.hpp:77] Creating layer conv5_28/x2/scale
I1126 11:20:08.436313  1604 net.cpp:100] Creating Layer conv5_28/x2/scale
I1126 11:20:08.436344  1604 net.cpp:434] conv5_28/x2/scale <- conv5_28/x2/bn
I1126 11:20:08.436362  1604 net.cpp:395] conv5_28/x2/scale -> conv5_28/x2/bn (in-place)
I1126 11:20:08.436476  1604 layer_factory.hpp:77] Creating layer conv5_28/x2/scale
I1126 11:20:08.436738  1604 net.cpp:150] Setting up conv5_28/x2/scale
I1126 11:20:08.436761  1604 net.cpp:157] Top shape: 8 128 8 8 (65536)
I1126 11:20:08.436774  1604 net.cpp:165] Memory required for data: 4756447328
I1126 11:20:08.436791  1604 layer_factory.hpp:77] Creating layer relu5_28/x2
I1126 11:20:08.436807  1604 net.cpp:100] Creating Layer relu5_28/x2
I1126 11:20:08.436822  1604 net.cpp:434] relu5_28/x2 <- conv5_28/x2/bn
I1126 11:20:08.436837  1604 net.cpp:395] relu5_28/x2 -> conv5_28/x2/bn (in-place)
I1126 11:20:08.437142  1604 net.cpp:150] Setting up relu5_28/x2
I1126 11:20:08.437168  1604 net.cpp:157] Top shape: 8 128 8 8 (65536)
I1126 11:20:08.437181  1604 net.cpp:165] Memory required for data: 4756709472
I1126 11:20:08.437196  1604 layer_factory.hpp:77] Creating layer conv5_28/x2
I1126 11:20:08.437222  1604 net.cpp:100] Creating Layer conv5_28/x2
I1126 11:20:08.437240  1604 net.cpp:434] conv5_28/x2 <- conv5_28/x2/bn
I1126 11:20:08.437258  1604 net.cpp:408] conv5_28/x2 -> conv5_28/x2
I1126 11:20:08.440071  1604 net.cpp:150] Setting up conv5_28/x2
I1126 11:20:08.440111  1604 net.cpp:157] Top shape: 8 32 8 8 (16384)
I1126 11:20:08.440126  1604 net.cpp:165] Memory required for data: 4756775008
I1126 11:20:08.440145  1604 layer_factory.hpp:77] Creating layer concat_5_28
I1126 11:20:08.440161  1604 net.cpp:100] Creating Layer concat_5_28
I1126 11:20:08.440177  1604 net.cpp:434] concat_5_28 <- concat_5_27_concat_5_27_0_split_1
I1126 11:20:08.440196  1604 net.cpp:434] concat_5_28 <- conv5_28/x2
I1126 11:20:08.440219  1604 net.cpp:408] concat_5_28 -> concat_5_28
I1126 11:20:08.440304  1604 net.cpp:150] Setting up concat_5_28
I1126 11:20:08.440325  1604 net.cpp:157] Top shape: 8 1792 8 8 (917504)
I1126 11:20:08.440338  1604 net.cpp:165] Memory required for data: 4760445024
I1126 11:20:08.440351  1604 layer_factory.hpp:77] Creating layer concat_5_28_concat_5_28_0_split
I1126 11:20:08.440368  1604 net.cpp:100] Creating Layer concat_5_28_concat_5_28_0_split
I1126 11:20:08.440382  1604 net.cpp:434] concat_5_28_concat_5_28_0_split <- concat_5_28
I1126 11:20:08.440399  1604 net.cpp:408] concat_5_28_concat_5_28_0_split -> concat_5_28_concat_5_28_0_split_0
I1126 11:20:08.440424  1604 net.cpp:408] concat_5_28_concat_5_28_0_split -> concat_5_28_concat_5_28_0_split_1
I1126 11:20:08.440526  1604 net.cpp:150] Setting up concat_5_28_concat_5_28_0_split
I1126 11:20:08.440546  1604 net.cpp:157] Top shape: 8 1792 8 8 (917504)
I1126 11:20:08.440560  1604 net.cpp:157] Top shape: 8 1792 8 8 (917504)
I1126 11:20:08.440572  1604 net.cpp:165] Memory required for data: 4767785056
I1126 11:20:08.440587  1604 layer_factory.hpp:77] Creating layer conv5_29/x1/bn
I1126 11:20:08.440609  1604 net.cpp:100] Creating Layer conv5_29/x1/bn
I1126 11:20:08.440626  1604 net.cpp:434] conv5_29/x1/bn <- concat_5_28_concat_5_28_0_split_0
I1126 11:20:08.440649  1604 net.cpp:408] conv5_29/x1/bn -> conv5_29/x1/bn
I1126 11:20:08.441102  1604 net.cpp:150] Setting up conv5_29/x1/bn
I1126 11:20:08.441125  1604 net.cpp:157] Top shape: 8 1792 8 8 (917504)
I1126 11:20:08.441155  1604 net.cpp:165] Memory required for data: 4771455072
I1126 11:20:08.441177  1604 layer_factory.hpp:77] Creating layer conv5_29/x1/scale
I1126 11:20:08.441195  1604 net.cpp:100] Creating Layer conv5_29/x1/scale
I1126 11:20:08.441211  1604 net.cpp:434] conv5_29/x1/scale <- conv5_29/x1/bn
I1126 11:20:08.441227  1604 net.cpp:395] conv5_29/x1/scale -> conv5_29/x1/bn (in-place)
I1126 11:20:08.441355  1604 layer_factory.hpp:77] Creating layer conv5_29/x1/scale
I1126 11:20:08.441639  1604 net.cpp:150] Setting up conv5_29/x1/scale
I1126 11:20:08.441673  1604 net.cpp:157] Top shape: 8 1792 8 8 (917504)
I1126 11:20:08.441689  1604 net.cpp:165] Memory required for data: 4775125088
I1126 11:20:08.441707  1604 layer_factory.hpp:77] Creating layer relu5_29/x1
I1126 11:20:08.441741  1604 net.cpp:100] Creating Layer relu5_29/x1
I1126 11:20:08.441757  1604 net.cpp:434] relu5_29/x1 <- conv5_29/x1/bn
I1126 11:20:08.441778  1604 net.cpp:395] relu5_29/x1 -> conv5_29/x1/bn (in-place)
I1126 11:20:08.442108  1604 net.cpp:150] Setting up relu5_29/x1
I1126 11:20:08.442136  1604 net.cpp:157] Top shape: 8 1792 8 8 (917504)
I1126 11:20:08.442149  1604 net.cpp:165] Memory required for data: 4778795104
I1126 11:20:08.442163  1604 layer_factory.hpp:77] Creating layer conv5_29/x1
I1126 11:20:08.442188  1604 net.cpp:100] Creating Layer conv5_29/x1
I1126 11:20:08.442204  1604 net.cpp:434] conv5_29/x1 <- conv5_29/x1/bn
I1126 11:20:08.442221  1604 net.cpp:408] conv5_29/x1 -> conv5_29/x1
I1126 11:20:08.447685  1604 net.cpp:150] Setting up conv5_29/x1
I1126 11:20:08.447726  1604 net.cpp:157] Top shape: 8 128 8 8 (65536)
I1126 11:20:08.447741  1604 net.cpp:165] Memory required for data: 4779057248
I1126 11:20:08.447757  1604 layer_factory.hpp:77] Creating layer conv5_29/x2/bn
I1126 11:20:08.447783  1604 net.cpp:100] Creating Layer conv5_29/x2/bn
I1126 11:20:08.447800  1604 net.cpp:434] conv5_29/x2/bn <- conv5_29/x1
I1126 11:20:08.447819  1604 net.cpp:408] conv5_29/x2/bn -> conv5_29/x2/bn
I1126 11:20:08.448240  1604 net.cpp:150] Setting up conv5_29/x2/bn
I1126 11:20:08.448263  1604 net.cpp:157] Top shape: 8 128 8 8 (65536)
I1126 11:20:08.448276  1604 net.cpp:165] Memory required for data: 4779319392
I1126 11:20:08.448295  1604 layer_factory.hpp:77] Creating layer conv5_29/x2/scale
I1126 11:20:08.448313  1604 net.cpp:100] Creating Layer conv5_29/x2/scale
I1126 11:20:08.448328  1604 net.cpp:434] conv5_29/x2/scale <- conv5_29/x2/bn
I1126 11:20:08.448350  1604 net.cpp:395] conv5_29/x2/scale -> conv5_29/x2/bn (in-place)
I1126 11:20:08.448459  1604 layer_factory.hpp:77] Creating layer conv5_29/x2/scale
I1126 11:20:08.448717  1604 net.cpp:150] Setting up conv5_29/x2/scale
I1126 11:20:08.448742  1604 net.cpp:157] Top shape: 8 128 8 8 (65536)
I1126 11:20:08.448755  1604 net.cpp:165] Memory required for data: 4779581536
I1126 11:20:08.448772  1604 layer_factory.hpp:77] Creating layer relu5_29/x2
I1126 11:20:08.448796  1604 net.cpp:100] Creating Layer relu5_29/x2
I1126 11:20:08.448812  1604 net.cpp:434] relu5_29/x2 <- conv5_29/x2/bn
I1126 11:20:08.448827  1604 net.cpp:395] relu5_29/x2 -> conv5_29/x2/bn (in-place)
I1126 11:20:08.449131  1604 net.cpp:150] Setting up relu5_29/x2
I1126 11:20:08.449163  1604 net.cpp:157] Top shape: 8 128 8 8 (65536)
I1126 11:20:08.449178  1604 net.cpp:165] Memory required for data: 4779843680
I1126 11:20:08.449193  1604 layer_factory.hpp:77] Creating layer conv5_29/x2
I1126 11:20:08.449210  1604 net.cpp:100] Creating Layer conv5_29/x2
I1126 11:20:08.449225  1604 net.cpp:434] conv5_29/x2 <- conv5_29/x2/bn
I1126 11:20:08.449249  1604 net.cpp:408] conv5_29/x2 -> conv5_29/x2
I1126 11:20:08.453274  1604 net.cpp:150] Setting up conv5_29/x2
I1126 11:20:08.453315  1604 net.cpp:157] Top shape: 8 32 8 8 (16384)
I1126 11:20:08.453330  1604 net.cpp:165] Memory required for data: 4779909216
I1126 11:20:08.453347  1604 layer_factory.hpp:77] Creating layer concat_5_29
I1126 11:20:08.453366  1604 net.cpp:100] Creating Layer concat_5_29
I1126 11:20:08.453382  1604 net.cpp:434] concat_5_29 <- concat_5_28_concat_5_28_0_split_1
I1126 11:20:08.453416  1604 net.cpp:434] concat_5_29 <- conv5_29/x2
I1126 11:20:08.453443  1604 net.cpp:408] concat_5_29 -> concat_5_29
I1126 11:20:08.453519  1604 net.cpp:150] Setting up concat_5_29
I1126 11:20:08.453541  1604 net.cpp:157] Top shape: 8 1824 8 8 (933888)
I1126 11:20:08.453553  1604 net.cpp:165] Memory required for data: 4783644768
I1126 11:20:08.453567  1604 layer_factory.hpp:77] Creating layer concat_5_29_concat_5_29_0_split
I1126 11:20:08.453590  1604 net.cpp:100] Creating Layer concat_5_29_concat_5_29_0_split
I1126 11:20:08.453608  1604 net.cpp:434] concat_5_29_concat_5_29_0_split <- concat_5_29
I1126 11:20:08.453624  1604 net.cpp:408] concat_5_29_concat_5_29_0_split -> concat_5_29_concat_5_29_0_split_0
I1126 11:20:08.453649  1604 net.cpp:408] concat_5_29_concat_5_29_0_split -> concat_5_29_concat_5_29_0_split_1
I1126 11:20:08.453776  1604 net.cpp:150] Setting up concat_5_29_concat_5_29_0_split
I1126 11:20:08.453799  1604 net.cpp:157] Top shape: 8 1824 8 8 (933888)
I1126 11:20:08.453812  1604 net.cpp:157] Top shape: 8 1824 8 8 (933888)
I1126 11:20:08.453824  1604 net.cpp:165] Memory required for data: 4791115872
I1126 11:20:08.453837  1604 layer_factory.hpp:77] Creating layer conv5_30/x1/bn
I1126 11:20:08.453860  1604 net.cpp:100] Creating Layer conv5_30/x1/bn
I1126 11:20:08.453877  1604 net.cpp:434] conv5_30/x1/bn <- concat_5_29_concat_5_29_0_split_0
I1126 11:20:08.453896  1604 net.cpp:408] conv5_30/x1/bn -> conv5_30/x1/bn
I1126 11:20:08.454344  1604 net.cpp:150] Setting up conv5_30/x1/bn
I1126 11:20:08.454368  1604 net.cpp:157] Top shape: 8 1824 8 8 (933888)
I1126 11:20:08.454380  1604 net.cpp:165] Memory required for data: 4794851424
I1126 11:20:08.454399  1604 layer_factory.hpp:77] Creating layer conv5_30/x1/scale
I1126 11:20:08.454417  1604 net.cpp:100] Creating Layer conv5_30/x1/scale
I1126 11:20:08.454432  1604 net.cpp:434] conv5_30/x1/scale <- conv5_30/x1/bn
I1126 11:20:08.454457  1604 net.cpp:395] conv5_30/x1/scale -> conv5_30/x1/bn (in-place)
I1126 11:20:08.454594  1604 layer_factory.hpp:77] Creating layer conv5_30/x1/scale
I1126 11:20:08.454906  1604 net.cpp:150] Setting up conv5_30/x1/scale
I1126 11:20:08.454965  1604 net.cpp:157] Top shape: 8 1824 8 8 (933888)
I1126 11:20:08.454982  1604 net.cpp:165] Memory required for data: 4798586976
I1126 11:20:08.454999  1604 layer_factory.hpp:77] Creating layer relu5_30/x1
I1126 11:20:08.455018  1604 net.cpp:100] Creating Layer relu5_30/x1
I1126 11:20:08.455032  1604 net.cpp:434] relu5_30/x1 <- conv5_30/x1/bn
I1126 11:20:08.455057  1604 net.cpp:395] relu5_30/x1 -> conv5_30/x1/bn (in-place)
I1126 11:20:08.455379  1604 net.cpp:150] Setting up relu5_30/x1
I1126 11:20:08.455405  1604 net.cpp:157] Top shape: 8 1824 8 8 (933888)
I1126 11:20:08.455418  1604 net.cpp:165] Memory required for data: 4802322528
I1126 11:20:08.455432  1604 layer_factory.hpp:77] Creating layer conv5_30/x1
I1126 11:20:08.455457  1604 net.cpp:100] Creating Layer conv5_30/x1
I1126 11:20:08.455476  1604 net.cpp:434] conv5_30/x1 <- conv5_30/x1/bn
I1126 11:20:08.455498  1604 net.cpp:408] conv5_30/x1 -> conv5_30/x1
I1126 11:20:08.458402  1604 net.cpp:150] Setting up conv5_30/x1
I1126 11:20:08.458441  1604 net.cpp:157] Top shape: 8 128 8 8 (65536)
I1126 11:20:08.458456  1604 net.cpp:165] Memory required for data: 4802584672
I1126 11:20:08.458473  1604 layer_factory.hpp:77] Creating layer conv5_30/x2/bn
I1126 11:20:08.458499  1604 net.cpp:100] Creating Layer conv5_30/x2/bn
I1126 11:20:08.458518  1604 net.cpp:434] conv5_30/x2/bn <- conv5_30/x1
I1126 11:20:08.458535  1604 net.cpp:408] conv5_30/x2/bn -> conv5_30/x2/bn
I1126 11:20:08.459003  1604 net.cpp:150] Setting up conv5_30/x2/bn
I1126 11:20:08.459033  1604 net.cpp:157] Top shape: 8 128 8 8 (65536)
I1126 11:20:08.459046  1604 net.cpp:165] Memory required for data: 4802846816
I1126 11:20:08.459066  1604 layer_factory.hpp:77] Creating layer conv5_30/x2/scale
I1126 11:20:08.459084  1604 net.cpp:100] Creating Layer conv5_30/x2/scale
I1126 11:20:08.459100  1604 net.cpp:434] conv5_30/x2/scale <- conv5_30/x2/bn
I1126 11:20:08.459121  1604 net.cpp:395] conv5_30/x2/scale -> conv5_30/x2/bn (in-place)
I1126 11:20:08.459249  1604 layer_factory.hpp:77] Creating layer conv5_30/x2/scale
I1126 11:20:08.459499  1604 net.cpp:150] Setting up conv5_30/x2/scale
I1126 11:20:08.459527  1604 net.cpp:157] Top shape: 8 128 8 8 (65536)
I1126 11:20:08.459542  1604 net.cpp:165] Memory required for data: 4803108960
I1126 11:20:08.459559  1604 layer_factory.hpp:77] Creating layer relu5_30/x2
I1126 11:20:08.459575  1604 net.cpp:100] Creating Layer relu5_30/x2
I1126 11:20:08.459590  1604 net.cpp:434] relu5_30/x2 <- conv5_30/x2/bn
I1126 11:20:08.459605  1604 net.cpp:395] relu5_30/x2 -> conv5_30/x2/bn (in-place)
I1126 11:20:08.461258  1604 net.cpp:150] Setting up relu5_30/x2
I1126 11:20:08.461294  1604 net.cpp:157] Top shape: 8 128 8 8 (65536)
I1126 11:20:08.461325  1604 net.cpp:165] Memory required for data: 4803371104
I1126 11:20:08.461340  1604 layer_factory.hpp:77] Creating layer conv5_30/x2
I1126 11:20:08.461369  1604 net.cpp:100] Creating Layer conv5_30/x2
I1126 11:20:08.461391  1604 net.cpp:434] conv5_30/x2 <- conv5_30/x2/bn
I1126 11:20:08.461410  1604 net.cpp:408] conv5_30/x2 -> conv5_30/x2
I1126 11:20:08.464140  1604 net.cpp:150] Setting up conv5_30/x2
I1126 11:20:08.464180  1604 net.cpp:157] Top shape: 8 32 8 8 (16384)
I1126 11:20:08.464195  1604 net.cpp:165] Memory required for data: 4803436640
I1126 11:20:08.464212  1604 layer_factory.hpp:77] Creating layer concat_5_30
I1126 11:20:08.464236  1604 net.cpp:100] Creating Layer concat_5_30
I1126 11:20:08.464256  1604 net.cpp:434] concat_5_30 <- concat_5_29_concat_5_29_0_split_1
I1126 11:20:08.464272  1604 net.cpp:434] concat_5_30 <- conv5_30/x2
I1126 11:20:08.464290  1604 net.cpp:408] concat_5_30 -> concat_5_30
I1126 11:20:08.464363  1604 net.cpp:150] Setting up concat_5_30
I1126 11:20:08.464383  1604 net.cpp:157] Top shape: 8 1856 8 8 (950272)
I1126 11:20:08.464396  1604 net.cpp:165] Memory required for data: 4807237728
I1126 11:20:08.464409  1604 layer_factory.hpp:77] Creating layer concat_5_30_concat_5_30_0_split
I1126 11:20:08.464432  1604 net.cpp:100] Creating Layer concat_5_30_concat_5_30_0_split
I1126 11:20:08.464449  1604 net.cpp:434] concat_5_30_concat_5_30_0_split <- concat_5_30
I1126 11:20:08.464473  1604 net.cpp:408] concat_5_30_concat_5_30_0_split -> concat_5_30_concat_5_30_0_split_0
I1126 11:20:08.464493  1604 net.cpp:408] concat_5_30_concat_5_30_0_split -> concat_5_30_concat_5_30_0_split_1
I1126 11:20:08.464589  1604 net.cpp:150] Setting up concat_5_30_concat_5_30_0_split
I1126 11:20:08.464612  1604 net.cpp:157] Top shape: 8 1856 8 8 (950272)
I1126 11:20:08.464625  1604 net.cpp:157] Top shape: 8 1856 8 8 (950272)
I1126 11:20:08.464637  1604 net.cpp:165] Memory required for data: 4814839904
I1126 11:20:08.464650  1604 layer_factory.hpp:77] Creating layer conv5_31/x1/bn
I1126 11:20:08.464686  1604 net.cpp:100] Creating Layer conv5_31/x1/bn
I1126 11:20:08.464704  1604 net.cpp:434] conv5_31/x1/bn <- concat_5_30_concat_5_30_0_split_0
I1126 11:20:08.464722  1604 net.cpp:408] conv5_31/x1/bn -> conv5_31/x1/bn
I1126 11:20:08.465193  1604 net.cpp:150] Setting up conv5_31/x1/bn
I1126 11:20:08.465217  1604 net.cpp:157] Top shape: 8 1856 8 8 (950272)
I1126 11:20:08.465230  1604 net.cpp:165] Memory required for data: 4818640992
I1126 11:20:08.465250  1604 layer_factory.hpp:77] Creating layer conv5_31/x1/scale
I1126 11:20:08.465273  1604 net.cpp:100] Creating Layer conv5_31/x1/scale
I1126 11:20:08.465291  1604 net.cpp:434] conv5_31/x1/scale <- conv5_31/x1/bn
I1126 11:20:08.465306  1604 net.cpp:395] conv5_31/x1/scale -> conv5_31/x1/bn (in-place)
I1126 11:20:08.465458  1604 layer_factory.hpp:77] Creating layer conv5_31/x1/scale
I1126 11:20:08.465772  1604 net.cpp:150] Setting up conv5_31/x1/scale
I1126 11:20:08.465797  1604 net.cpp:157] Top shape: 8 1856 8 8 (950272)
I1126 11:20:08.465809  1604 net.cpp:165] Memory required for data: 4822442080
I1126 11:20:08.465827  1604 layer_factory.hpp:77] Creating layer relu5_31/x1
I1126 11:20:08.465850  1604 net.cpp:100] Creating Layer relu5_31/x1
I1126 11:20:08.465867  1604 net.cpp:434] relu5_31/x1 <- conv5_31/x1/bn
I1126 11:20:08.465903  1604 net.cpp:395] relu5_31/x1 -> conv5_31/x1/bn (in-place)
I1126 11:20:08.466214  1604 net.cpp:150] Setting up relu5_31/x1
I1126 11:20:08.466240  1604 net.cpp:157] Top shape: 8 1856 8 8 (950272)
I1126 11:20:08.466253  1604 net.cpp:165] Memory required for data: 4826243168
I1126 11:20:08.466267  1604 layer_factory.hpp:77] Creating layer conv5_31/x1
I1126 11:20:08.466291  1604 net.cpp:100] Creating Layer conv5_31/x1
I1126 11:20:08.466308  1604 net.cpp:434] conv5_31/x1 <- conv5_31/x1/bn
I1126 11:20:08.466326  1604 net.cpp:408] conv5_31/x1 -> conv5_31/x1
I1126 11:20:08.471837  1604 net.cpp:150] Setting up conv5_31/x1
I1126 11:20:08.471877  1604 net.cpp:157] Top shape: 8 128 8 8 (65536)
I1126 11:20:08.471894  1604 net.cpp:165] Memory required for data: 4826505312
I1126 11:20:08.471927  1604 layer_factory.hpp:77] Creating layer conv5_31/x2/bn
I1126 11:20:08.471952  1604 net.cpp:100] Creating Layer conv5_31/x2/bn
I1126 11:20:08.471971  1604 net.cpp:434] conv5_31/x2/bn <- conv5_31/x1
I1126 11:20:08.471995  1604 net.cpp:408] conv5_31/x2/bn -> conv5_31/x2/bn
I1126 11:20:08.472419  1604 net.cpp:150] Setting up conv5_31/x2/bn
I1126 11:20:08.472442  1604 net.cpp:157] Top shape: 8 128 8 8 (65536)
I1126 11:20:08.472456  1604 net.cpp:165] Memory required for data: 4826767456
I1126 11:20:08.472476  1604 layer_factory.hpp:77] Creating layer conv5_31/x2/scale
I1126 11:20:08.472493  1604 net.cpp:100] Creating Layer conv5_31/x2/scale
I1126 11:20:08.472508  1604 net.cpp:434] conv5_31/x2/scale <- conv5_31/x2/bn
I1126 11:20:08.472525  1604 net.cpp:395] conv5_31/x2/scale -> conv5_31/x2/bn (in-place)
I1126 11:20:08.472636  1604 layer_factory.hpp:77] Creating layer conv5_31/x2/scale
I1126 11:20:08.472901  1604 net.cpp:150] Setting up conv5_31/x2/scale
I1126 11:20:08.472926  1604 net.cpp:157] Top shape: 8 128 8 8 (65536)
I1126 11:20:08.472939  1604 net.cpp:165] Memory required for data: 4827029600
I1126 11:20:08.472956  1604 layer_factory.hpp:77] Creating layer relu5_31/x2
I1126 11:20:08.472972  1604 net.cpp:100] Creating Layer relu5_31/x2
I1126 11:20:08.472987  1604 net.cpp:434] relu5_31/x2 <- conv5_31/x2/bn
I1126 11:20:08.473008  1604 net.cpp:395] relu5_31/x2 -> conv5_31/x2/bn (in-place)
I1126 11:20:08.473312  1604 net.cpp:150] Setting up relu5_31/x2
I1126 11:20:08.473338  1604 net.cpp:157] Top shape: 8 128 8 8 (65536)
I1126 11:20:08.473351  1604 net.cpp:165] Memory required for data: 4827291744
I1126 11:20:08.473366  1604 layer_factory.hpp:77] Creating layer conv5_31/x2
I1126 11:20:08.473389  1604 net.cpp:100] Creating Layer conv5_31/x2
I1126 11:20:08.473407  1604 net.cpp:434] conv5_31/x2 <- conv5_31/x2/bn
I1126 11:20:08.473423  1604 net.cpp:408] conv5_31/x2 -> conv5_31/x2
I1126 11:20:08.477478  1604 net.cpp:150] Setting up conv5_31/x2
I1126 11:20:08.477517  1604 net.cpp:157] Top shape: 8 32 8 8 (16384)
I1126 11:20:08.477533  1604 net.cpp:165] Memory required for data: 4827357280
I1126 11:20:08.477556  1604 layer_factory.hpp:77] Creating layer concat_5_31
I1126 11:20:08.477576  1604 net.cpp:100] Creating Layer concat_5_31
I1126 11:20:08.477592  1604 net.cpp:434] concat_5_31 <- concat_5_30_concat_5_30_0_split_1
I1126 11:20:08.477610  1604 net.cpp:434] concat_5_31 <- conv5_31/x2
I1126 11:20:08.477634  1604 net.cpp:408] concat_5_31 -> concat_5_31
I1126 11:20:08.477722  1604 net.cpp:150] Setting up concat_5_31
I1126 11:20:08.477746  1604 net.cpp:157] Top shape: 8 1888 8 8 (966656)
I1126 11:20:08.477758  1604 net.cpp:165] Memory required for data: 4831223904
I1126 11:20:08.477771  1604 layer_factory.hpp:77] Creating layer concat_5_31_concat_5_31_0_split
I1126 11:20:08.477795  1604 net.cpp:100] Creating Layer concat_5_31_concat_5_31_0_split
I1126 11:20:08.477813  1604 net.cpp:434] concat_5_31_concat_5_31_0_split <- concat_5_31
I1126 11:20:08.477829  1604 net.cpp:408] concat_5_31_concat_5_31_0_split -> concat_5_31_concat_5_31_0_split_0
I1126 11:20:08.477849  1604 net.cpp:408] concat_5_31_concat_5_31_0_split -> concat_5_31_concat_5_31_0_split_1
I1126 11:20:08.477957  1604 net.cpp:150] Setting up concat_5_31_concat_5_31_0_split
I1126 11:20:08.477993  1604 net.cpp:157] Top shape: 8 1888 8 8 (966656)
I1126 11:20:08.478008  1604 net.cpp:157] Top shape: 8 1888 8 8 (966656)
I1126 11:20:08.478020  1604 net.cpp:165] Memory required for data: 4838957152
I1126 11:20:08.478034  1604 layer_factory.hpp:77] Creating layer conv5_32/x1/bn
I1126 11:20:08.478056  1604 net.cpp:100] Creating Layer conv5_32/x1/bn
I1126 11:20:08.478073  1604 net.cpp:434] conv5_32/x1/bn <- concat_5_31_concat_5_31_0_split_0
I1126 11:20:08.478091  1604 net.cpp:408] conv5_32/x1/bn -> conv5_32/x1/bn
I1126 11:20:08.478550  1604 net.cpp:150] Setting up conv5_32/x1/bn
I1126 11:20:08.478574  1604 net.cpp:157] Top shape: 8 1888 8 8 (966656)
I1126 11:20:08.478586  1604 net.cpp:165] Memory required for data: 4842823776
I1126 11:20:08.478628  1604 layer_factory.hpp:77] Creating layer conv5_32/x1/scale
I1126 11:20:08.478647  1604 net.cpp:100] Creating Layer conv5_32/x1/scale
I1126 11:20:08.478674  1604 net.cpp:434] conv5_32/x1/scale <- conv5_32/x1/bn
I1126 11:20:08.478699  1604 net.cpp:395] conv5_32/x1/scale -> conv5_32/x1/bn (in-place)
I1126 11:20:08.478848  1604 layer_factory.hpp:77] Creating layer conv5_32/x1/scale
I1126 11:20:08.479184  1604 net.cpp:150] Setting up conv5_32/x1/scale
I1126 11:20:08.479212  1604 net.cpp:157] Top shape: 8 1888 8 8 (966656)
I1126 11:20:08.479225  1604 net.cpp:165] Memory required for data: 4846690400
I1126 11:20:08.479243  1604 layer_factory.hpp:77] Creating layer relu5_32/x1
I1126 11:20:08.479266  1604 net.cpp:100] Creating Layer relu5_32/x1
I1126 11:20:08.479282  1604 net.cpp:434] relu5_32/x1 <- conv5_32/x1/bn
I1126 11:20:08.479298  1604 net.cpp:395] relu5_32/x1 -> conv5_32/x1/bn (in-place)
I1126 11:20:08.479611  1604 net.cpp:150] Setting up relu5_32/x1
I1126 11:20:08.479638  1604 net.cpp:157] Top shape: 8 1888 8 8 (966656)
I1126 11:20:08.479652  1604 net.cpp:165] Memory required for data: 4850557024
I1126 11:20:08.479678  1604 layer_factory.hpp:77] Creating layer conv5_32/x1
I1126 11:20:08.479703  1604 net.cpp:100] Creating Layer conv5_32/x1
I1126 11:20:08.479722  1604 net.cpp:434] conv5_32/x1 <- conv5_32/x1/bn
I1126 11:20:08.479745  1604 net.cpp:408] conv5_32/x1 -> conv5_32/x1
I1126 11:20:08.482712  1604 net.cpp:150] Setting up conv5_32/x1
I1126 11:20:08.482749  1604 net.cpp:157] Top shape: 8 128 8 8 (65536)
I1126 11:20:08.482764  1604 net.cpp:165] Memory required for data: 4850819168
I1126 11:20:08.482781  1604 layer_factory.hpp:77] Creating layer conv5_32/x2/bn
I1126 11:20:08.482806  1604 net.cpp:100] Creating Layer conv5_32/x2/bn
I1126 11:20:08.482825  1604 net.cpp:434] conv5_32/x2/bn <- conv5_32/x1
I1126 11:20:08.482842  1604 net.cpp:408] conv5_32/x2/bn -> conv5_32/x2/bn
I1126 11:20:08.483299  1604 net.cpp:150] Setting up conv5_32/x2/bn
I1126 11:20:08.483327  1604 net.cpp:157] Top shape: 8 128 8 8 (65536)
I1126 11:20:08.483341  1604 net.cpp:165] Memory required for data: 4851081312
I1126 11:20:08.483361  1604 layer_factory.hpp:77] Creating layer conv5_32/x2/scale
I1126 11:20:08.483378  1604 net.cpp:100] Creating Layer conv5_32/x2/scale
I1126 11:20:08.483394  1604 net.cpp:434] conv5_32/x2/scale <- conv5_32/x2/bn
I1126 11:20:08.483417  1604 net.cpp:395] conv5_32/x2/scale -> conv5_32/x2/bn (in-place)
I1126 11:20:08.483530  1604 layer_factory.hpp:77] Creating layer conv5_32/x2/scale
I1126 11:20:08.483795  1604 net.cpp:150] Setting up conv5_32/x2/scale
I1126 11:20:08.483825  1604 net.cpp:157] Top shape: 8 128 8 8 (65536)
I1126 11:20:08.483839  1604 net.cpp:165] Memory required for data: 4851343456
I1126 11:20:08.483856  1604 layer_factory.hpp:77] Creating layer relu5_32/x2
I1126 11:20:08.483873  1604 net.cpp:100] Creating Layer relu5_32/x2
I1126 11:20:08.483887  1604 net.cpp:434] relu5_32/x2 <- conv5_32/x2/bn
I1126 11:20:08.483902  1604 net.cpp:395] relu5_32/x2 -> conv5_32/x2/bn (in-place)
I1126 11:20:08.484211  1604 net.cpp:150] Setting up relu5_32/x2
I1126 11:20:08.484242  1604 net.cpp:157] Top shape: 8 128 8 8 (65536)
I1126 11:20:08.484256  1604 net.cpp:165] Memory required for data: 4851605600
I1126 11:20:08.484269  1604 layer_factory.hpp:77] Creating layer conv5_32/x2
I1126 11:20:08.484307  1604 net.cpp:100] Creating Layer conv5_32/x2
I1126 11:20:08.484323  1604 net.cpp:434] conv5_32/x2 <- conv5_32/x2/bn
I1126 11:20:08.484347  1604 net.cpp:408] conv5_32/x2 -> conv5_32/x2
I1126 11:20:08.487092  1604 net.cpp:150] Setting up conv5_32/x2
I1126 11:20:08.487130  1604 net.cpp:157] Top shape: 8 32 8 8 (16384)
I1126 11:20:08.487145  1604 net.cpp:165] Memory required for data: 4851671136
I1126 11:20:08.487162  1604 layer_factory.hpp:77] Creating layer concat_5_32
I1126 11:20:08.487180  1604 net.cpp:100] Creating Layer concat_5_32
I1126 11:20:08.487196  1604 net.cpp:434] concat_5_32 <- concat_5_31_concat_5_31_0_split_1
I1126 11:20:08.487213  1604 net.cpp:434] concat_5_32 <- conv5_32/x2
I1126 11:20:08.487258  1604 net.cpp:408] concat_5_32 -> concat_5_32
I1126 11:20:08.487336  1604 net.cpp:150] Setting up concat_5_32
I1126 11:20:08.487365  1604 net.cpp:157] Top shape: 8 1920 8 8 (983040)
I1126 11:20:08.487380  1604 net.cpp:165] Memory required for data: 4855603296
I1126 11:20:08.487393  1604 layer_factory.hpp:77] Creating layer conv5_32/blk/bn
I1126 11:20:08.487411  1604 net.cpp:100] Creating Layer conv5_32/blk/bn
I1126 11:20:08.487426  1604 net.cpp:434] conv5_32/blk/bn <- concat_5_32
I1126 11:20:08.487443  1604 net.cpp:408] conv5_32/blk/bn -> conv5_32/blk/bn
I1126 11:20:08.487933  1604 net.cpp:150] Setting up conv5_32/blk/bn
I1126 11:20:08.487959  1604 net.cpp:157] Top shape: 8 1920 8 8 (983040)
I1126 11:20:08.487972  1604 net.cpp:165] Memory required for data: 4859535456
I1126 11:20:08.487992  1604 layer_factory.hpp:77] Creating layer conv5_32/blk/scale
I1126 11:20:08.488015  1604 net.cpp:100] Creating Layer conv5_32/blk/scale
I1126 11:20:08.488032  1604 net.cpp:434] conv5_32/blk/scale <- conv5_32/blk/bn
I1126 11:20:08.488049  1604 net.cpp:395] conv5_32/blk/scale -> conv5_32/blk/bn (in-place)
I1126 11:20:08.488178  1604 layer_factory.hpp:77] Creating layer conv5_32/blk/scale
I1126 11:20:08.488474  1604 net.cpp:150] Setting up conv5_32/blk/scale
I1126 11:20:08.488498  1604 net.cpp:157] Top shape: 8 1920 8 8 (983040)
I1126 11:20:08.488510  1604 net.cpp:165] Memory required for data: 4863467616
I1126 11:20:08.488528  1604 layer_factory.hpp:77] Creating layer relu5_32/blk
I1126 11:20:08.488544  1604 net.cpp:100] Creating Layer relu5_32/blk
I1126 11:20:08.488559  1604 net.cpp:434] relu5_32/blk <- conv5_32/blk/bn
I1126 11:20:08.488580  1604 net.cpp:395] relu5_32/blk -> conv5_32/blk/bn (in-place)
I1126 11:20:08.488901  1604 net.cpp:150] Setting up relu5_32/blk
I1126 11:20:08.488929  1604 net.cpp:157] Top shape: 8 1920 8 8 (983040)
I1126 11:20:08.488943  1604 net.cpp:165] Memory required for data: 4867399776
I1126 11:20:08.488956  1604 layer_factory.hpp:77] Creating layer pool5
I1126 11:20:08.488976  1604 net.cpp:100] Creating Layer pool5
I1126 11:20:08.488991  1604 net.cpp:434] pool5 <- conv5_32/blk/bn
I1126 11:20:08.489014  1604 net.cpp:408] pool5 -> pool5
I1126 11:20:08.491642  1604 net.cpp:150] Setting up pool5
I1126 11:20:08.491685  1604 net.cpp:157] Top shape: 8 1920 1 1 (15360)
I1126 11:20:08.491698  1604 net.cpp:165] Memory required for data: 4867461216
I1126 11:20:08.491709  1604 layer_factory.hpp:77] Creating layer fc6_my
I1126 11:20:08.491731  1604 net.cpp:100] Creating Layer fc6_my
I1126 11:20:08.491745  1604 net.cpp:434] fc6_my <- pool5
I1126 11:20:08.491765  1604 net.cpp:408] fc6_my -> fc6_my
I1126 11:20:08.494246  1604 net.cpp:150] Setting up fc6_my
I1126 11:20:08.494282  1604 net.cpp:157] Top shape: 8 80 1 1 (640)
I1126 11:20:08.494295  1604 net.cpp:165] Memory required for data: 4867463776
I1126 11:20:08.494310  1604 layer_factory.hpp:77] Creating layer fc6_my_fc6_my_0_split
I1126 11:20:08.494324  1604 net.cpp:100] Creating Layer fc6_my_fc6_my_0_split
I1126 11:20:08.494336  1604 net.cpp:434] fc6_my_fc6_my_0_split <- fc6_my
I1126 11:20:08.494350  1604 net.cpp:408] fc6_my_fc6_my_0_split -> fc6_my_fc6_my_0_split_0
I1126 11:20:08.494366  1604 net.cpp:408] fc6_my_fc6_my_0_split -> fc6_my_fc6_my_0_split_1
I1126 11:20:08.494459  1604 net.cpp:150] Setting up fc6_my_fc6_my_0_split
I1126 11:20:08.494489  1604 net.cpp:157] Top shape: 8 80 1 1 (640)
I1126 11:20:08.494503  1604 net.cpp:157] Top shape: 8 80 1 1 (640)
I1126 11:20:08.494511  1604 net.cpp:165] Memory required for data: 4867468896
I1126 11:20:08.494523  1604 layer_factory.hpp:77] Creating layer loss
I1126 11:20:08.494542  1604 net.cpp:100] Creating Layer loss
I1126 11:20:08.494555  1604 net.cpp:434] loss <- fc6_my_fc6_my_0_split_0
I1126 11:20:08.494570  1604 net.cpp:434] loss <- label_data_1_split_0
I1126 11:20:08.494582  1604 net.cpp:408] loss -> loss
…
