…
I1127 20:14:28.981272 13057 net.cpp:322] The NetState phase (0) differed from the phase (1) specified by a rule in layer accuracy
I1127 20:14:28.984091 13057 net.cpp:58] Initializing net from parameters: 
state {
  phase: TRAIN
  level: 0
  stage: ""
}
layer {
  name: "data"
  type: "ImageData"
  top: "data"
  top: "label"
  include {
    phase: TRAIN
  }
  transform_param {
    scale: 0.017
    mirror: true
    crop_size: 224
  }
  image_data_param {
    source: "../aichallenger_train_treated/all_treated_tra_val_label.txt"
    batch_size: 16
    shuffle: true
  }
}
layer {
  name: "conv1"
  type: "Convolution"
  bottom: "data"
  top: "conv1"
  convolution_param {
    num_output: 64
    bias_term: false
    pad: 3
    kernel_size: 7
    stride: 2
  }
}
layer {
  name: "conv1/bn"
  type: "BatchNorm"
  bottom: "conv1"
  top: "conv1/bn"
  batch_norm_param {
    eps: 1e-05
  }
}
layer {
  name: "conv1/scale"
  type: "Scale"
  bottom: "conv1/bn"
  top: "conv1/bn"
  scale_param {
    bias_term: true
  }
}
layer {
  name: "relu1"
  type: "ReLU"
  bottom: "conv1/bn"
  top: "conv1/bn"
}
layer {
  name: "pool1"
  type: "Pooling"
  bottom: "conv1/bn"
  top: "pool1"
  pooling_param {
    pool: MAX
    kernel_size: 3
    stride: 2
    pad: 1
  }
}
layer {
  name: "conv2_1/x1/bn"
  type: "BatchNorm"
  bottom: "pool1"
  top: "conv2_1/x1/bn"
  batch_norm_param {
    eps: 1e-05
  }
}
layer {
  name: "conv2_1/x1/scale"
  type: "Scale"
  bottom: "conv2_1/x1/bn"
  top: "conv2_1/x1/bn"
  scale_param {
    bias_term: true
  }
}
layer {
  name: "relu2_1/x1"
  type: "ReLU"
  bottom: "conv2_1/x1/bn"
  top: "conv2_1/x1/bn"
}
layer {
  name: "conv2_1/x1"
  type: "Convolution"
  bottom: "conv2_1/x1/bn"
  top: "conv2_1/x1"
  convolution_param {
    num_output: 128
    bias_term: false
    kernel_size: 1
  }
}
layer {
  name: "conv2_1/x2/bn"
  type: "BatchNorm"
  bottom: "conv2_1/x1"
  top: "conv2_1/x2/bn"
  batch_norm_param {
    eps: 1e-05
  }
}
layer {
  name: "conv2_1/x2/scale"
  type: "Scale"
  bottom: "conv2_1/x2/bn"
  top: "conv2_1/x2/bn"
  scale_param {
    bias_term: true
  }
}
layer {
  name: "relu2_1/x2"
  type: "ReLU"
  bottom: "conv2_1/x2/bn"
  top: "conv2_1/x2/bn"
}
layer {
  name: "conv2_1/x2"
  type: "Convolution"
  bottom: "conv2_1/x2/bn"
  top: "conv2_1/x2"
  convolution_param {
    num_output: 32
    bias_term: false
    pad: 1
    kernel_size: 3
  }
}
layer {
  name: "concat_2_1"
  type: "Concat"
  bottom: "pool1"
  bottom: "conv2_1/x2"
  top: "concat_2_1"
}
layer {
  name: "conv2_2/x1/bn"
  type: "BatchNorm"
  bottom: "concat_2_1"
  top: "conv2_2/x1/bn"
  batch_norm_param {
    eps: 1e-05
  }
}
layer {
  name: "conv2_2/x1/scale"
  type: "Scale"
  bottom: "conv2_2/x1/bn"
  top: "conv2_2/x1/bn"
  scale_param {
    bias_term: true
  }
}
layer {
  name: "relu2_2/x1"
  type: "ReLU"
  bottom: "conv2_2/x1/bn"
  top: "conv2_2/x1/bn"
}
layer {
  name: "conv2_2/x1"
  type: "Convolution"
  bottom: "conv2_2/x1/bn"
  top: "conv2_2/x1"
  convolution_param {
    num_output: 128
    bias_term: false
    kernel_size: 1
  }
}
layer {
  name: "conv2_2/x2/bn"
  type: "BatchNorm"
  bottom: "conv2_2/x1"
  top: "conv2_2/x2/bn"
  batch_norm_param {
    eps: 1e-05
  }
}
layer {
  name: "conv2_2/x2/scale"
  type: "Scale"
  bottom: "conv2_2/x2/bn"
  top: "conv2_2/x2/bn"
  scale_param {
    bias_term: true
  }
}
layer {
  name: "relu2_2/x2"
  type: "ReLU"
  bottom: "conv2_2/x2/bn"
  top: "conv2_2/x2/bn"
}
layer {
  name: "conv2_2/x2"
  type: "Convolution"
  bottom: "conv2_2/x2/bn"
  top: "conv2_2/x2"
  convolution_param {
    num_output: 32
    bias_term: false
    pad: 1
    kernel_size: 3
  }
}
layer {
  name: "concat_2_2"
  type: "Concat"
  bottom: "concat_2_1"
  bottom: "conv2_2/x2"
  top: "concat_2_2"
}
layer {
  name: "conv2_3/x1/bn"
  type: "BatchNorm"
  bottom: "concat_2_2"
  top: "conv2_3/x1/bn"
  batch_norm_param {
    eps: 1e-05
  }
}
layer {
  name: "conv2_3/x1/scale"
  type: "Scale"
  bottom: "conv2_3/x1/bn"
  top: "conv2_3/x1/bn"
  scale_param {
    bias_term: true
  }
}
layer {
  name: "relu2_3/x1"
  type: "ReLU"
  bottom: "conv2_3/x1/bn"
  top: "conv2_3/x1/bn"
}
layer {
  name: "conv2_3/x1"
  type: "Convolution"
  bottom: "conv2_3/x1/bn"
  top: "conv2_3/x1"
  convolution_param {
    num_output: 128
    bias_term: false
    kernel_size: 1
  }
}
layer {
  name: "conv2_3/x2/bn"
  type: "BatchNorm"
  bottom: "conv2_3/x1"
  top: "conv2_3/x2/bn"
  batch_norm_param {
    eps: 1e-05
  }
}
layer {
  name: "conv2_3/x2/scale"
  type: "Scale"
  bottom: "conv2_3/x2/bn"
  top: "conv2_3/x2/bn"
  scale_param {
    bias_term: true
  }
}
layer {
  name: "relu2_3/x2"
  type: "ReLU"
  bottom: "conv2_3/x2/bn"
  top: "conv2_3/x2/bn"
}
layer {
  name: "conv2_3/x2"
  type: "Convolution"
  bottom: "conv2_3/x2/bn"
  top: "conv2_3/x2"
  convolution_param {
    num_output: 32
    bias_term: false
    pad: 1
    kernel_size: 3
  }
}
layer {
  name: "concat_2_3"
  type: "Concat"
  bottom: "concat_2_2"
  bottom: "conv2_3/x2"
  top: "concat_2_3"
}
layer {
  name: "conv2_4/x1/bn"
  type: "BatchNorm"
  bottom: "concat_2_3"
  top: "conv2_4/x1/bn"
  batch_norm_param {
    eps: 1e-05
  }
}
layer {
  name: "conv2_4/x1/scale"
  type: "Scale"
  bottom: "conv2_4/x1/bn"
  top: "conv2_4/x1/bn"
  scale_param {
    bias_term: true
  }
}
layer {
  name: "relu2_4/x1"
  type: "ReLU"
  bottom: "conv2_4/x1/bn"
  top: "conv2_4/x1/bn"
}
layer {
  name: "conv2_4/x1"
  type: "Convolution"
  bottom: "conv2_4/x1/bn"
  top: "conv2_4/x1"
  convolution_param {
    num_output: 128
    bias_term: false
    kernel_size: 1
  }
}
layer {
  name: "conv2_4/x2/bn"
  type: "BatchNorm"
  bottom: "conv2_4/x1"
  top: "conv2_4/x2/bn"
  batch_norm_param {
    eps: 1e-05
  }
}
layer {
  name: "conv2_4/x2/scale"
  type: "Scale"
  bottom: "conv2_4/x2/bn"
  top: "conv2_4/x2/bn"
  scale_param {
    bias_term: true
  }
}
layer {
  name: "relu2_4/x2"
  type: "ReLU"
  bottom: "conv2_4/x2/bn"
  top: "conv2_4/x2/bn"
}
layer {
  name: "conv2_4/x2"
  type: "Convolution"
  bottom: "conv2_4/x2/bn"
  top: "conv2_4/x2"
  convolution_param {
    num_output: 32
    bias_term: false
    pad: 1
    kernel_size: 3
  }
}
layer {
  name: "concat_2_4"
  type: "Concat"
  bottom: "concat_2_3"
  bottom: "conv2_4/x2"
  top: "concat_2_4"
}
layer {
  name: "conv2_5/x1/bn"
  type: "BatchNorm"
  bottom: "concat_2_4"
  top: "conv2_5/x1/bn"
  batch_norm_param {
    eps: 1e-05
  }
}
layer {
  name: "conv2_5/x1/scale"
  type: "Scale"
  bottom: "conv2_5/x1/bn"
  top: "conv2_5/x1/bn"
  scale_param {
    bias_term: true
  }
}
layer {
  name: "relu2_5/x1"
  type: "ReLU"
  bottom: "conv2_5/x1/bn"
  top: "conv2_5/x1/bn"
}
layer {
  name: "conv2_5/x1"
  type: "Convolution"
  bottom: "conv2_5/x1/bn"
  top: "conv2_5/x1"
  convolution_param {
    num_output: 128
    bias_term: false
    kernel_size: 1
  }
}
layer {
  name: "conv2_5/x2/bn"
  type: "BatchNorm"
  bottom: "conv2_5/x1"
  top: "conv2_5/x2/bn"
  batch_norm_param {
    eps: 1e-05
  }
}
layer {
  name: "conv2_5/x2/scale"
  type: "Scale"
  bottom: "conv2_5/x2/bn"
  top: "conv2_5/x2/bn"
  scale_param {
    bias_term: true
  }
}
layer {
  name: "relu2_5/x2"
  type: "ReLU"
  bottom: "conv2_5/x2/bn"
  top: "conv2_5/x2/bn"
}
layer {
  name: "conv2_5/x2"
  type: "Convolution"
  bottom: "conv2_5/x2/bn"
  top: "conv2_5/x2"
  convolution_param {
    num_output: 32
    bias_term: false
    pad: 1
    kernel_size: 3
  }
}
layer {
  name: "concat_2_5"
  type: "Concat"
  bottom: "concat_2_4"
  bottom: "conv2_5/x2"
  top: "concat_2_5"
}
layer {
  name: "conv2_6/x1/bn"
  type: "BatchNorm"
  bottom: "concat_2_5"
  top: "conv2_6/x1/bn"
  batch_norm_param {
    eps: 1e-05
  }
}
layer {
  name: "conv2_6/x1/scale"
  type: "Scale"
  bottom: "conv2_6/x1/bn"
  top: "conv2_6/x1/bn"
  scale_param {
    bias_term: true
  }
}
layer {
  name: "relu2_6/x1"
  type: "ReLU"
  bottom: "conv2_6/x1/bn"
  top: "conv2_6/x1/bn"
}
layer {
  name: "conv2_6/x1"
  type: "Convolution"
  bottom: "conv2_6/x1/bn"
  top: "conv2_6/x1"
  convolution_param {
    num_output: 128
    bias_term: false
    kernel_size: 1
  }
}
layer {
  name: "conv2_6/x2/bn"
  type: "BatchNorm"
  bottom: "conv2_6/x1"
  top: "conv2_6/x2/bn"
  batch_norm_param {
    eps: 1e-05
  }
}
layer {
  name: "conv2_6/x2/scale"
  type: "Scale"
  bottom: "conv2_6/x2/bn"
  top: "conv2_6/x2/bn"
  scale_param {
    bias_term: true
  }
}
layer {
  name: "relu2_6/x2"
  type: "ReLU"
  bottom: "conv2_6/x2/bn"
  top: "conv2_6/x2/bn"
}
layer {
  name: "conv2_6/x2"
  type: "Convolution"
  bottom: "conv2_6/x2/bn"
  top: "conv2_6/x2"
  convolution_param {
    num_output: 32
    bias_term: false
    pad: 1
    kernel_size: 3
  }
}
layer {
  name: "concat_2_6"
  type: "Concat"
  bottom: "concat_2_5"
  bottom: "conv2_6/x2"
  top: "concat_2_6"
}
layer {
  name: "conv2_6/blk/bn"
  type: "BatchNorm"
  bottom: "concat_2_6"
  top: "conv2_6/blk/bn"
  batch_norm_param {
    eps: 1e-05
  }
}
layer {
  name: "conv2_6/blk/scale"
  type: "Scale"
  bottom: "conv2_6/blk/bn"
  top: "conv2_6/blk/bn"
  scale_param {
    bias_term: true
  }
}
layer {
  name: "relu2_6/blk"
  type: "ReLU"
  bottom: "conv2_6/blk/bn"
  top: "conv2_6/blk/bn"
}
layer {
  name: "conv2_6/blk"
  type: "Convolution"
  bottom: "conv2_6/blk/bn"
  top: "conv2_6/blk"
  convolution_param {
    num_output: 128
    bias_term: false
    kernel_size: 1
  }
}
layer {
  name: "pool2_6"
  type: "Pooling"
  bottom: "conv2_6/blk"
  top: "pool2_6"
  pooling_param {
    pool: AVE
    kernel_size: 2
    stride: 2
  }
}
layer {
  name: "conv3_1/x1/bn"
  type: "BatchNorm"
  bottom: "pool2_6"
  top: "conv3_1/x1/bn"
  batch_norm_param {
    eps: 1e-05
  }
}
layer {
  name: "conv3_1/x1/scale"
  type: "Scale"
  bottom: "conv3_1/x1/bn"
  top: "conv3_1/x1/bn"
  scale_param {
    bias_term: true
  }
}
layer {
  name: "relu3_1/x1"
  type: "ReLU"
  bottom: "conv3_1/x1/bn"
  top: "conv3_1/x1/bn"
}
layer {
  name: "conv3_1/x1"
  type: "Convolution"
  bottom: "conv3_1/x1/bn"
  top: "conv3_1/x1"
  convolution_param {
    num_output: 128
    bias_term: false
    kernel_size: 1
  }
}
layer {
  name: "conv3_1/x2/bn"
  type: "BatchNorm"
  bottom: "conv3_1/x1"
  top: "conv3_1/x2/bn"
  batch_norm_param {
    eps: 1e-05
  }
}
layer {
  name: "conv3_1/x2/scale"
  type: "Scale"
  bottom: "conv3_1/x2/bn"
  top: "conv3_1/x2/bn"
  scale_param {
    bias_term: true
  }
}
layer {
  name: "relu3_1/x2"
  type: "ReLU"
  bottom: "conv3_1/x2/bn"
  top: "conv3_1/x2/bn"
}
layer {
  name: "conv3_1/x2"
  type: "Convolution"
  bottom: "conv3_1/x2/bn"
  top: "conv3_1/x2"
  convolution_param {
    num_output: 32
    bias_term: false
    pad: 1
    kernel_size: 3
  }
}
layer {
  name: "concat_3_1"
  type: "Concat"
  bottom: "pool2_6"
  bottom: "conv3_1/x2"
  top: "concat_3_1"
}
layer {
  name: "conv3_2/x1/bn"
  type: "BatchNorm"
  bottom: "concat_3_1"
  top: "conv3_2/x1/bn"
  batch_norm_param {
    eps: 1e-05
  }
}
layer {
  name: "conv3_2/x1/scale"
  type: "Scale"
  bottom: "conv3_2/x1/bn"
  top: "conv3_2/x1/bn"
  scale_param {
    bias_term: true
  }
}
layer {
  name: "relu3_2/x1"
  type: "ReLU"
  bottom: "conv3_2/x1/bn"
  top: "conv3_2/x1/bn"
}
layer {
  name: "conv3_2/x1"
  type: "Convolution"
  bottom: "conv3_2/x1/bn"
  top: "conv3_2/x1"
  convolution_param {
    num_output: 128
    bias_term: false
    kernel_size: 1
  }
}
layer {
  name: "conv3_2/x2/bn"
  type: "BatchNorm"
  bottom: "conv3_2/x1"
  top: "conv3_2/x2/bn"
  batch_norm_param {
    eps: 1e-05
  }
}
layer {
  name: "conv3_2/x2/scale"
  type: "Scale"
  bottom: "conv3_2/x2/bn"
  top: "conv3_2/x2/bn"
  scale_param {
    bias_term: true
  }
}
layer {
  name: "relu3_2/x2"
  type: "ReLU"
  bottom: "conv3_2/x2/bn"
  top: "conv3_2/x2/bn"
}
layer {
  name: "conv3_2/x2"
  type: "Convolution"
  bottom: "conv3_2/x2/bn"
  top: "conv3_2/x2"
  convolution_param {
    num_output: 32
    bias_term: false
    pad: 1
    kernel_size: 3
  }
}
layer {
  name: "concat_3_2"
  type: "Concat"
  bottom: "concat_3_1"
  bottom: "conv3_2/x2"
  top: "concat_3_2"
}
layer {
  name: "conv3_3/x1/bn"
  type: "BatchNorm"
  bottom: "concat_3_2"
  top: "conv3_3/x1/bn"
  batch_norm_param {
    eps: 1e-05
  }
}
layer {
  name: "conv3_3/x1/scale"
  type: "Scale"
  bottom: "conv3_3/x1/bn"
  top: "conv3_3/x1/bn"
  scale_param {
    bias_term: true
  }
}
layer {
  name: "relu3_3/x1"
  type: "ReLU"
  bottom: "conv3_3/x1/bn"
  top: "conv3_3/x1/bn"
}
layer {
  name: "conv3_3/x1"
  type: "Convolution"
  bottom: "conv3_3/x1/bn"
  top: "conv3_3/x1"
  convolution_param {
    num_output: 128
    bias_term: false
    kernel_size: 1
  }
}
layer {
  name: "conv3_3/x2/bn"
  type: "BatchNorm"
  bottom: "conv3_3/x1"
  top: "conv3_3/x2/bn"
  batch_norm_param {
    eps: 1e-05
  }
}
layer {
  name: "conv3_3/x2/scale"
  type: "Scale"
  bottom: "conv3_3/x2/bn"
  top: "conv3_3/x2/bn"
  scale_param {
    bias_term: true
  }
}
layer {
  name: "relu3_3/x2"
  type: "ReLU"
  bottom: "conv3_3/x2/bn"
  top: "conv3_3/x2/bn"
}
layer {
  name: "conv3_3/x2"
  type: "Convolution"
  bottom: "conv3_3/x2/bn"
  top: "conv3_3/x2"
  convolution_param {
    num_output: 32
    bias_term: false
    pad: 1
    kernel_size: 3
  }
}
layer {
  name: "concat_3_3"
  type: "Concat"
  bottom: "concat_3_2"
  bottom: "conv3_3/x2"
  top: "concat_3_3"
}
layer {
  name: "conv3_4/x1/bn"
  type: "BatchNorm"
  bottom: "concat_3_3"
  top: "conv3_4/x1/bn"
  batch_norm_param {
    eps: 1e-05
  }
}
layer {
  name: "conv3_4/x1/scale"
  type: "Scale"
  bottom: "conv3_4/x1/bn"
  top: "conv3_4/x1/bn"
  scale_param {
    bias_term: true
  }
}
layer {
  name: "relu3_4/x1"
  type: "ReLU"
  bottom: "conv3_4/x1/bn"
  top: "conv3_4/x1/bn"
}
layer {
  name: "conv3_4/x1"
  type: "Convolution"
  bottom: "conv3_4/x1/bn"
  top: "conv3_4/x1"
  convolution_param {
    num_output: 128
    bias_term: false
    kernel_size: 1
  }
}
layer {
  name: "conv3_4/x2/bn"
  type: "BatchNorm"
  bottom: "conv3_4/x1"
  top: "conv3_4/x2/bn"
  batch_norm_param {
    eps: 1e-05
  }
}
layer {
  name: "conv3_4/x2/scale"
  type: "Scale"
  bottom: "conv3_4/x2/bn"
  top: "conv3_4/x2/bn"
  scale_param {
    bias_term: true
  }
}
layer {
  name: "relu3_4/x2"
  type: "ReLU"
  bottom: "conv3_4/x2/bn"
  top: "conv3_4/x2/bn"
}
layer {
  name: "conv3_4/x2"
  type: "Convolution"
  bottom: "conv3_4/x2/bn"
  top: "conv3_4/x2"
  convolution_param {
    num_output: 32
    bias_term: false
    pad: 1
    kernel_size: 3
  }
}
layer {
  name: "concat_3_4"
  type: "Concat"
  bottom: "concat_3_3"
  bottom: "conv3_4/x2"
  top: "concat_3_4"
}
layer {
  name: "conv3_5/x1/bn"
  type: "BatchNorm"
  bottom: "concat_3_4"
  top: "conv3_5/x1/bn"
  batch_norm_param {
    eps: 1e-05
  }
}
layer {
  name: "conv3_5/x1/scale"
  type: "Scale"
  bottom: "conv3_5/x1/bn"
  top: "conv3_5/x1/bn"
  scale_param {
    bias_term: true
  }
}
layer {
  name: "relu3_5/x1"
  type: "ReLU"
  bottom: "conv3_5/x1/bn"
  top: "conv3_5/x1/bn"
}
layer {
  name: "conv3_5/x1"
  type: "Convolution"
  bottom: "conv3_5/x1/bn"
  top: "conv3_5/x1"
  convolution_param {
    num_output: 128
    bias_term: false
    kernel_size: 1
  }
}
layer {
  name: "conv3_5/x2/bn"
  type: "BatchNorm"
  bottom: "conv3_5/x1"
  top: "conv3_5/x2/bn"
  batch_norm_param {
    eps: 1e-05
  }
}
layer {
  name: "conv3_5/x2/scale"
  type: "Scale"
  bottom: "conv3_5/x2/bn"
  top: "conv3_5/x2/bn"
  scale_param {
    bias_term: true
  }
}
layer {
  name: "relu3_5/x2"
  type: "ReLU"
  bottom: "conv3_5/x2/bn"
  top: "conv3_5/x2/bn"
}
layer {
  name: "conv3_5/x2"
  type: "Convolution"
  bottom: "conv3_5/x2/bn"
  top: "conv3_5/x2"
  convolution_param {
    num_output: 32
    bias_term: false
    pad: 1
    kernel_size: 3
  }
}
layer {
  name: "concat_3_5"
  type: "Concat"
  bottom: "concat_3_4"
  bottom: "conv3_5/x2"
  top: "concat_3_5"
}
layer {
  name: "conv3_6/x1/bn"
  type: "BatchNorm"
  bottom: "concat_3_5"
  top: "conv3_6/x1/bn"
  batch_norm_param {
    eps: 1e-05
  }
}
layer {
  name: "conv3_6/x1/scale"
  type: "Scale"
  bottom: "conv3_6/x1/bn"
  top: "conv3_6/x1/bn"
  scale_param {
    bias_term: true
  }
}
layer {
  name: "relu3_6/x1"
  type: "ReLU"
  bottom: "conv3_6/x1/bn"
  top: "conv3_6/x1/bn"
}
layer {
  name: "conv3_6/x1"
  type: "Convolution"
  bottom: "conv3_6/x1/bn"
  top: "conv3_6/x1"
  convolution_param {
    num_output: 128
    bias_term: false
    kernel_size: 1
  }
}
layer {
  name: "conv3_6/x2/bn"
  type: "BatchNorm"
  bottom: "conv3_6/x1"
  top: "conv3_6/x2/bn"
  batch_norm_param {
    eps: 1e-05
  }
}
layer {
  name: "conv3_6/x2/scale"
  type: "Scale"
  bottom: "conv3_6/x2/bn"
  top: "conv3_6/x2/bn"
  scale_param {
    bias_term: true
  }
}
layer {
  name: "relu3_6/x2"
  type: "ReLU"
  bottom: "conv3_6/x2/bn"
  top: "conv3_6/x2/bn"
}
layer {
  name: "conv3_6/x2"
  type: "Convolution"
  bottom: "conv3_6/x2/bn"
  top: "conv3_6/x2"
  convolution_param {
    num_output: 32
    bias_term: false
    pad: 1
    kernel_size: 3
  }
}
layer {
  name: "concat_3_6"
  type: "Concat"
  bottom: "concat_3_5"
  bottom: "conv3_6/x2"
  top: "concat_3_6"
}
layer {
  name: "conv3_7/x1/bn"
  type: "BatchNorm"
  bottom: "concat_3_6"
  top: "conv3_7/x1/bn"
  batch_norm_param {
    eps: 1e-05
  }
}
layer {
  name: "conv3_7/x1/scale"
  type: "Scale"
  bottom: "conv3_7/x1/bn"
  top: "conv3_7/x1/bn"
  scale_param {
    bias_term: true
  }
}
layer {
  name: "relu3_7/x1"
  type: "ReLU"
  bottom: "conv3_7/x1/bn"
  top: "conv3_7/x1/bn"
}
layer {
  name: "conv3_7/x1"
  type: "Convolution"
  bottom: "conv3_7/x1/bn"
  top: "conv3_7/x1"
  convolution_param {
    num_output: 128
    bias_term: false
    kernel_size: 1
  }
}
layer {
  name: "conv3_7/x2/bn"
  type: "BatchNorm"
  bottom: "conv3_7/x1"
  top: "conv3_7/x2/bn"
  batch_norm_param {
    eps: 1e-05
  }
}
layer {
  name: "conv3_7/x2/scale"
  type: "Scale"
  bottom: "conv3_7/x2/bn"
  top: "conv3_7/x2/bn"
  scale_param {
    bias_term: true
  }
}
layer {
  name: "relu3_7/x2"
  type: "ReLU"
  bottom: "conv3_7/x2/bn"
  top: "conv3_7/x2/bn"
}
layer {
  name: "conv3_7/x2"
  type: "Convolution"
  bottom: "conv3_7/x2/bn"
  top: "conv3_7/x2"
  convolution_param {
    num_output: 32
    bias_term: false
    pad: 1
    kernel_size: 3
  }
}
layer {
  name: "concat_3_7"
  type: "Concat"
  bottom: "concat_3_6"
  bottom: "conv3_7/x2"
  top: "concat_3_7"
}
layer {
  name: "conv3_8/x1/bn"
  type: "BatchNorm"
  bottom: "concat_3_7"
  top: "conv3_8/x1/bn"
  batch_norm_param {
    eps: 1e-05
  }
}
layer {
  name: "conv3_8/x1/scale"
  type: "Scale"
  bottom: "conv3_8/x1/bn"
  top: "conv3_8/x1/bn"
  scale_param {
    bias_term: true
  }
}
layer {
  name: "relu3_8/x1"
  type: "ReLU"
  bottom: "conv3_8/x1/bn"
  top: "conv3_8/x1/bn"
}
layer {
  name: "conv3_8/x1"
  type: "Convolution"
  bottom: "conv3_8/x1/bn"
  top: "conv3_8/x1"
  convolution_param {
    num_output: 128
    bias_term: false
    kernel_size: 1
  }
}
layer {
  name: "conv3_8/x2/bn"
  type: "BatchNorm"
  bottom: "conv3_8/x1"
  top: "conv3_8/x2/bn"
  batch_norm_param {
    eps: 1e-05
  }
}
layer {
  name: "conv3_8/x2/scale"
  type: "Scale"
  bottom: "conv3_8/x2/bn"
  top: "conv3_8/x2/bn"
  scale_param {
    bias_term: true
  }
}
layer {
  name: "relu3_8/x2"
  type: "ReLU"
  bottom: "conv3_8/x2/bn"
  top: "conv3_8/x2/bn"
}
layer {
  name: "conv3_8/x2"
  type: "Convolution"
  bottom: "conv3_8/x2/bn"
  top: "conv3_8/x2"
  convolution_param {
    num_output: 32
    bias_term: false
    pad: 1
    kernel_size: 3
  }
}
layer {
  name: "concat_3_8"
  type: "Concat"
  bottom: "concat_3_7"
  bottom: "conv3_8/x2"
  top: "concat_3_8"
}
layer {
  name: "conv3_9/x1/bn"
  type: "BatchNorm"
  bottom: "concat_3_8"
  top: "conv3_9/x1/bn"
  batch_norm_param {
    eps: 1e-05
  }
}
layer {
  name: "conv3_9/x1/scale"
  type: "Scale"
  bottom: "conv3_9/x1/bn"
  top: "conv3_9/x1/bn"
  scale_param {
    bias_term: true
  }
}
layer {
  name: "relu3_9/x1"
  type: "ReLU"
  bottom: "conv3_9/x1/bn"
  top: "conv3_9/x1/bn"
}
layer {
  name: "conv3_9/x1"
  type: "Convolution"
  bottom: "conv3_9/x1/bn"
  top: "conv3_9/x1"
  convolution_param {
    num_output: 128
    bias_term: false
    kernel_size: 1
  }
}
layer {
  name: "conv3_9/x2/bn"
  type: "BatchNorm"
  bottom: "conv3_9/x1"
  top: "conv3_9/x2/bn"
  batch_norm_param {
    eps: 1e-05
  }
}
layer {
  name: "conv3_9/x2/scale"
  type: "Scale"
  bottom: "conv3_9/x2/bn"
  top: "conv3_9/x2/bn"
  scale_param {
    bias_term: true
  }
}
layer {
  name: "relu3_9/x2"
  type: "ReLU"
  bottom: "conv3_9/x2/bn"
  top: "conv3_9/x2/bn"
}
layer {
  name: "conv3_9/x2"
  type: "Convolution"
  bottom: "conv3_9/x2/bn"
  top: "conv3_9/x2"
  convolution_param {
    num_output: 32
    bias_term: false
    pad: 1
    kernel_size: 3
  }
}
layer {
  name: "concat_3_9"
  type: "Concat"
  bottom: "concat_3_8"
  bottom: "conv3_9/x2"
  top: "concat_3_9"
}
layer {
  name: "conv3_10/x1/bn"
  type: "BatchNorm"
  bottom: "concat_3_9"
  top: "conv3_10/x1/bn"
  batch_norm_param {
    eps: 1e-05
  }
}
layer {
  name: "conv3_10/x1/scale"
  type: "Scale"
  bottom: "conv3_10/x1/bn"
  top: "conv3_10/x1/bn"
  scale_param {
    bias_term: true
  }
}
layer {
  name: "relu3_10/x1"
  type: "ReLU"
  bottom: "conv3_10/x1/bn"
  top: "conv3_10/x1/bn"
}
layer {
  name: "conv3_10/x1"
  type: "Convolution"
  bottom: "conv3_10/x1/bn"
  top: "conv3_10/x1"
  convolution_param {
    num_output: 128
    bias_term: false
    kernel_size: 1
  }
}
layer {
  name: "conv3_10/x2/bn"
  type: "BatchNorm"
  bottom: "conv3_10/x1"
  top: "conv3_10/x2/bn"
  batch_norm_param {
    eps: 1e-05
  }
}
layer {
  name: "conv3_10/x2/scale"
  type: "Scale"
  bottom: "conv3_10/x2/bn"
  top: "conv3_10/x2/bn"
  scale_param {
    bias_term: true
  }
}
layer {
  name: "relu3_10/x2"
  type: "ReLU"
  bottom: "conv3_10/x2/bn"
  top: "conv3_10/x2/bn"
}
layer {
  name: "conv3_10/x2"
  type: "Convolution"
  bottom: "conv3_10/x2/bn"
  top: "conv3_10/x2"
  convolution_param {
    num_output: 32
    bias_term: false
    pad: 1
    kernel_size: 3
  }
}
layer {
  name: "concat_3_10"
  type: "Concat"
  bottom: "concat_3_9"
  bottom: "conv3_10/x2"
  top: "concat_3_10"
}
layer {
  name: "conv3_11/x1/bn"
  type: "BatchNorm"
  bottom: "concat_3_10"
  top: "conv3_11/x1/bn"
  batch_norm_param {
    eps: 1e-05
  }
}
layer {
  name: "conv3_11/x1/scale"
  type: "Scale"
  bottom: "conv3_11/x1/bn"
  top: "conv3_11/x1/bn"
  scale_param {
    bias_term: true
  }
}
layer {
  name: "relu3_11/x1"
  type: "ReLU"
  bottom: "conv3_11/x1/bn"
  top: "conv3_11/x1/bn"
}
layer {
  name: "conv3_11/x1"
  type: "Convolution"
  bottom: "conv3_11/x1/bn"
  top: "conv3_11/x1"
  convolution_param {
    num_output: 128
    bias_term: false
    kernel_size: 1
  }
}
layer {
  name: "conv3_11/x2/bn"
  type: "BatchNorm"
  bottom: "conv3_11/x1"
  top: "conv3_11/x2/bn"
  batch_norm_param {
    eps: 1e-05
  }
}
layer {
  name: "conv3_11/x2/scale"
  type: "Scale"
  bottom: "conv3_11/x2/bn"
  top: "conv3_11/x2/bn"
  scale_param {
    bias_term: true
  }
}
layer {
  name: "relu3_11/x2"
  type: "ReLU"
  bottom: "conv3_11/x2/bn"
  top: "conv3_11/x2/bn"
}
layer {
  name: "conv3_11/x2"
  type: "Convolution"
  bottom: "conv3_11/x2/bn"
  top: "conv3_11/x2"
  convolution_param {
    num_output: 32
    bias_term: false
    pad: 1
    kernel_size: 3
  }
}
layer {
  name: "concat_3_11"
  type: "Concat"
  bottom: "concat_3_10"
  bottom: "conv3_11/x2"
  top: "concat_3_11"
}
layer {
  name: "conv3_12/x1/bn"
  type: "BatchNorm"
  bottom: "concat_3_11"
  top: "conv3_12/x1/bn"
  batch_norm_param {
    eps: 1e-05
  }
}
layer {
  name: "conv3_12/x1/scale"
  type: "Scale"
  bottom: "conv3_12/x1/bn"
  top: "conv3_12/x1/bn"
  scale_param {
    bias_term: true
  }
}
layer {
  name: "relu3_12/x1"
  type: "ReLU"
  bottom: "conv3_12/x1/bn"
  top: "conv3_12/x1/bn"
}
layer {
  name: "conv3_12/x1"
  type: "Convolution"
  bottom: "conv3_12/x1/bn"
  top: "conv3_12/x1"
  convolution_param {
    num_output: 128
    bias_term: false
    kernel_size: 1
  }
}
layer {
  name: "conv3_12/x2/bn"
  type: "BatchNorm"
  bottom: "conv3_12/x1"
  top: "conv3_12/x2/bn"
  batch_norm_param {
    eps: 1e-05
  }
}
layer {
  name: "conv3_12/x2/scale"
  type: "Scale"
  bottom: "conv3_12/x2/bn"
  top: "conv3_12/x2/bn"
  scale_param {
    bias_term: true
  }
}
layer {
  name: "relu3_12/x2"
  type: "ReLU"
  bottom: "conv3_12/x2/bn"
  top: "conv3_12/x2/bn"
}
layer {
  name: "conv3_12/x2"
  type: "Convolution"
  bottom: "conv3_12/x2/bn"
  top: "conv3_12/x2"
  convolution_param {
    num_output: 32
    bias_term: false
    pad: 1
    kernel_size: 3
  }
}
layer {
  name: "concat_3_12"
  type: "Concat"
  bottom: "concat_3_11"
  bottom: "conv3_12/x2"
  top: "concat_3_12"
}
layer {
  name: "conv3_12/blk/bn"
  type: "BatchNorm"
  bottom: "concat_3_12"
  top: "conv3_12/blk/bn"
  batch_norm_param {
    eps: 1e-05
  }
}
layer {
  name: "conv3_12/blk/scale"
  type: "Scale"
  bottom: "conv3_12/blk/bn"
  top: "conv3_12/blk/bn"
  scale_param {
    bias_term: true
  }
}
layer {
  name: "relu3_12/blk"
  type: "ReLU"
  bottom: "conv3_12/blk/bn"
  top: "conv3_12/blk/bn"
}
layer {
  name: "conv3_12/blk"
  type: "Convolution"
  bottom: "conv3_12/blk/bn"
  top: "conv3_12/blk"
  convolution_param {
    num_output: 256
    bias_term: false
    kernel_size: 1
  }
}
layer {
  name: "pool3_12"
  type: "Pooling"
  bottom: "conv3_12/blk"
  top: "pool3_12"
  pooling_param {
    pool: AVE
    kernel_size: 2
    stride: 2
  }
}
layer {
  name: "conv4_1/x1/bn"
  type: "BatchNorm"
  bottom: "pool3_12"
  top: "conv4_1/x1/bn"
  batch_norm_param {
    eps: 1e-05
  }
}
layer {
  name: "conv4_1/x1/scale"
  type: "Scale"
  bottom: "conv4_1/x1/bn"
  top: "conv4_1/x1/bn"
  scale_param {
    bias_term: true
  }
}
layer {
  name: "relu4_1/x1"
  type: "ReLU"
  bottom: "conv4_1/x1/bn"
  top: "conv4_1/x1/bn"
}
layer {
  name: "conv4_1/x1"
  type: "Convolution"
  bottom: "conv4_1/x1/bn"
  top: "conv4_1/x1"
  convolution_param {
    num_output: 128
    bias_term: false
    kernel_size: 1
  }
}
layer {
  name: "conv4_1/x2/bn"
  type: "BatchNorm"
  bottom: "conv4_1/x1"
  top: "conv4_1/x2/bn"
  batch_norm_param {
    eps: 1e-05
  }
}
layer {
  name: "conv4_1/x2/scale"
  type: "Scale"
  bottom: "conv4_1/x2/bn"
  top: "conv4_1/x2/bn"
  scale_param {
    bias_term: true
  }
}
layer {
  name: "relu4_1/x2"
  type: "ReLU"
  bottom: "conv4_1/x2/bn"
  top: "conv4_1/x2/bn"
}
layer {
  name: "conv4_1/x2"
  type: "Convolution"
  bottom: "conv4_1/x2/bn"
  top: "conv4_1/x2"
  convolution_param {
    num_output: 32
    bias_term: false
    pad: 1
    kernel_size: 3
  }
}
layer {
  name: "concat_4_1"
  type: "Concat"
  bottom: "pool3_12"
  bottom: "conv4_1/x2"
  top: "concat_4_1"
}
layer {
  name: "conv4_2/x1/bn"
  type: "BatchNorm"
  bottom: "concat_4_1"
  top: "conv4_2/x1/bn"
  batch_norm_param {
    eps: 1e-05
  }
}
layer {
  name: "conv4_2/x1/scale"
  type: "Scale"
  bottom: "conv4_2/x1/bn"
  top: "conv4_2/x1/bn"
  scale_param {
    bias_term: true
  }
}
layer {
  name: "relu4_2/x1"
  type: "ReLU"
  bottom: "conv4_2/x1/bn"
  top: "conv4_2/x1/bn"
}
layer {
  name: "conv4_2/x1"
  type: "Convolution"
  bottom: "conv4_2/x1/bn"
  top: "conv4_2/x1"
  convolution_param {
    num_output: 128
    bias_term: false
    kernel_size: 1
  }
}
layer {
  name: "conv4_2/x2/bn"
  type: "BatchNorm"
  bottom: "conv4_2/x1"
  top: "conv4_2/x2/bn"
  batch_norm_param {
    eps: 1e-05
  }
}
layer {
  name: "conv4_2/x2/scale"
  type: "Scale"
  bottom: "conv4_2/x2/bn"
  top: "conv4_2/x2/bn"
  scale_param {
    bias_term: true
  }
}
layer {
  name: "relu4_2/x2"
  type: "ReLU"
  bottom: "conv4_2/x2/bn"
  top: "conv4_2/x2/bn"
}
layer {
  name: "conv4_2/x2"
  type: "Convolution"
  bottom: "conv4_2/x2/bn"
  top: "conv4_2/x2"
  convolution_param {
    num_output: 32
    bias_term: false
    pad: 1
    kernel_size: 3
  }
}
layer {
  name: "concat_4_2"
  type: "Concat"
  bottom: "concat_4_1"
  bottom: "conv4_2/x2"
  top: "concat_4_2"
}
layer {
  name: "conv4_3/x1/bn"
  type: "BatchNorm"
  bottom: "concat_4_2"
  top: "conv4_3/x1/bn"
  batch_norm_param {
    eps: 1e-05
  }
}
layer {
  name: "conv4_3/x1/scale"
  type: "Scale"
  bottom: "conv4_3/x1/bn"
  top: "conv4_3/x1/bn"
  scale_param {
    bias_term: true
  }
}
layer {
  name: "relu4_3/x1"
  type: "ReLU"
  bottom: "conv4_3/x1/bn"
  top: "conv4_3/x1/bn"
}
layer {
  name: "conv4_3/x1"
  type: "Convolution"
  bottom: "conv4_3/x1/bn"
  top: "conv4_3/x1"
  convolution_param {
    num_output: 128
    bias_term: false
    kernel_size: 1
  }
}
layer {
  name: "conv4_3/x2/bn"
  type: "BatchNorm"
  bottom: "conv4_3/x1"
  top: "conv4_3/x2/bn"
  batch_norm_param {
    eps: 1e-05
  }
}
layer {
  name: "conv4_3/x2/scale"
  type: "Scale"
  bottom: "conv4_3/x2/bn"
  top: "conv4_3/x2/bn"
  scale_param {
    bias_term: true
  }
}
layer {
  name: "relu4_3/x2"
  type: "ReLU"
  bottom: "conv4_3/x2/bn"
  top: "conv4_3/x2/bn"
}
layer {
  name: "conv4_3/x2"
  type: "Convolution"
  bottom: "conv4_3/x2/bn"
  top: "conv4_3/x2"
  convolution_param {
    num_output: 32
    bias_term: false
    pad: 1
    kernel_size: 3
  }
}
layer {
  name: "concat_4_3"
  type: "Concat"
  bottom: "concat_4_2"
  bottom: "conv4_3/x2"
  top: "concat_4_3"
}
layer {
  name: "conv4_4/x1/bn"
  type: "BatchNorm"
  bottom: "concat_4_3"
  top: "conv4_4/x1/bn"
  batch_norm_param {
    eps: 1e-05
  }
}
layer {
  name: "conv4_4/x1/scale"
  type: "Scale"
  bottom: "conv4_4/x1/bn"
  top: "conv4_4/x1/bn"
  scale_param {
    bias_term: true
  }
}
layer {
  name: "relu4_4/x1"
  type: "ReLU"
  bottom: "conv4_4/x1/bn"
  top: "conv4_4/x1/bn"
}
layer {
  name: "conv4_4/x1"
  type: "Convolution"
  bottom: "conv4_4/x1/bn"
  top: "conv4_4/x1"
  convolution_param {
    num_output: 128
    bias_term: false
    kernel_size: 1
  }
}
layer {
  name: "conv4_4/x2/bn"
  type: "BatchNorm"
  bottom: "conv4_4/x1"
  top: "conv4_4/x2/bn"
  batch_norm_param {
    eps: 1e-05
  }
}
layer {
  name: "conv4_4/x2/scale"
  type: "Scale"
  bottom: "conv4_4/x2/bn"
  top: "conv4_4/x2/bn"
  scale_param {
    bias_term: true
  }
}
layer {
  name: "relu4_4/x2"
  type: "ReLU"
  bottom: "conv4_4/x2/bn"
  top: "conv4_4/x2/bn"
}
layer {
  name: "conv4_4/x2"
  type: "Convolution"
  bottom: "conv4_4/x2/bn"
  top: "conv4_4/x2"
  convolution_param {
    num_output: 32
    bias_term: false
    pad: 1
    kernel_size: 3
  
I1127 20:14:28.988467 13057 layer_factory.hpp:77] Creating layer data
I1127 20:14:28.988620 13057 net.cpp:100] Creating Layer data
I1127 20:14:28.988636 13057 net.cpp:408] data -> data
I1127 20:14:28.988692 13057 net.cpp:408] data -> label
I1127 20:14:28.989307 13057 image_data_layer.cpp:38] Opening file ../aichallenger_train_treated/all_treated_tra_val_label.txt
I1127 20:14:29.023576 13057 image_data_layer.cpp:53] Shuffling data
I1127 20:14:29.029683 13057 image_data_layer.cpp:58] A total of 60999 images.
I1127 20:14:29.074363 13057 image_data_layer.cpp:85] output data size: 16,3,224,224
I1127 20:14:29.115999 13057 net.cpp:150] Setting up data
I1127 20:14:29.116135 13057 net.cpp:157] Top shape: 16 3 224 224 (2408448)
I1127 20:14:29.116174 13057 net.cpp:157] Top shape: 16 (16)
I1127 20:14:29.116230 13057 net.cpp:165] Memory required for data: 9633856
I1127 20:14:29.116283 13057 layer_factory.hpp:77] Creating layer conv1
I1127 20:14:29.116358 13057 net.cpp:100] Creating Layer conv1
I1127 20:14:29.116400 13057 net.cpp:434] conv1 <- data
I1127 20:14:29.116458 13057 net.cpp:408] conv1 -> conv1
I1127 20:14:29.574342 13057 net.cpp:150] Setting up conv1
I1127 20:14:29.574400 13057 net.cpp:157] Top shape: 16 64 112 112 (12845056)
I1127 20:14:29.574407 13057 net.cpp:165] Memory required for data: 61014080
I1127 20:14:29.574448 13057 layer_factory.hpp:77] Creating layer conv1/bn
I1127 20:14:29.574476 13057 net.cpp:100] Creating Layer conv1/bn
I1127 20:14:29.574483 13057 net.cpp:434] conv1/bn <- conv1
I1127 20:14:29.574492 13057 net.cpp:408] conv1/bn -> conv1/bn
I1127 20:14:29.574806 13057 net.cpp:150] Setting up conv1/bn
I1127 20:14:29.574817 13057 net.cpp:157] Top shape: 16 64 112 112 (12845056)
I1127 20:14:29.574821 13057 net.cpp:165] Memory required for data: 112394304
I1127 20:14:29.574836 13057 layer_factory.hpp:77] Creating layer conv1/scale
I1127 20:14:29.574852 13057 net.cpp:100] Creating Layer conv1/scale
I1127 20:14:29.574857 13057 net.cpp:434] conv1/scale <- conv1/bn
I1127 20:14:29.574864 13057 net.cpp:395] conv1/scale -> conv1/bn (in-place)
I1127 20:14:29.574926 13057 layer_factory.hpp:77] Creating layer conv1/scale
I1127 20:14:29.575088 13057 net.cpp:150] Setting up conv1/scale
I1127 20:14:29.575096 13057 net.cpp:157] Top shape: 16 64 112 112 (12845056)
I1127 20:14:29.575100 13057 net.cpp:165] Memory required for data: 163774528
I1127 20:14:29.575110 13057 layer_factory.hpp:77] Creating layer relu1
I1127 20:14:29.575124 13057 net.cpp:100] Creating Layer relu1
I1127 20:14:29.575127 13057 net.cpp:434] relu1 <- conv1/bn
I1127 20:14:29.575134 13057 net.cpp:395] relu1 -> conv1/bn (in-place)
I1127 20:14:29.575362 13057 net.cpp:150] Setting up relu1
I1127 20:14:29.575374 13057 net.cpp:157] Top shape: 16 64 112 112 (12845056)
I1127 20:14:29.575379 13057 net.cpp:165] Memory required for data: 215154752
I1127 20:14:29.575383 13057 layer_factory.hpp:77] Creating layer pool1
I1127 20:14:29.575398 13057 net.cpp:100] Creating Layer pool1
I1127 20:14:29.575402 13057 net.cpp:434] pool1 <- conv1/bn
I1127 20:14:29.575408 13057 net.cpp:408] pool1 -> pool1
I1127 20:14:29.575484 13057 net.cpp:150] Setting up pool1
I1127 20:14:29.575492 13057 net.cpp:157] Top shape: 16 64 57 57 (3326976)
I1127 20:14:29.575496 13057 net.cpp:165] Memory required for data: 228462656
I1127 20:14:29.575500 13057 layer_factory.hpp:77] Creating layer pool1_pool1_0_split
I1127 20:14:29.575511 13057 net.cpp:100] Creating Layer pool1_pool1_0_split
I1127 20:14:29.575515 13057 net.cpp:434] pool1_pool1_0_split <- pool1
I1127 20:14:29.575522 13057 net.cpp:408] pool1_pool1_0_split -> pool1_pool1_0_split_0
I1127 20:14:29.575529 13057 net.cpp:408] pool1_pool1_0_split -> pool1_pool1_0_split_1
I1127 20:14:29.575572 13057 net.cpp:150] Setting up pool1_pool1_0_split
I1127 20:14:29.575578 13057 net.cpp:157] Top shape: 16 64 57 57 (3326976)
I1127 20:14:29.575583 13057 net.cpp:157] Top shape: 16 64 57 57 (3326976)
I1127 20:14:29.575587 13057 net.cpp:165] Memory required for data: 255078464
I1127 20:14:29.575592 13057 layer_factory.hpp:77] Creating layer conv2_1/x1/bn
I1127 20:14:29.575599 13057 net.cpp:100] Creating Layer conv2_1/x1/bn
I1127 20:14:29.575603 13057 net.cpp:434] conv2_1/x1/bn <- pool1_pool1_0_split_0
I1127 20:14:29.575609 13057 net.cpp:408] conv2_1/x1/bn -> conv2_1/x1/bn
I1127 20:14:29.577445 13057 net.cpp:150] Setting up conv2_1/x1/bn
I1127 20:14:29.577474 13057 net.cpp:157] Top shape: 16 64 57 57 (3326976)
I1127 20:14:29.577479 13057 net.cpp:165] Memory required for data: 268386368
I1127 20:14:29.577494 13057 layer_factory.hpp:77] Creating layer conv2_1/x1/scale
I1127 20:14:29.577507 13057 net.cpp:100] Creating Layer conv2_1/x1/scale
I1127 20:14:29.577512 13057 net.cpp:434] conv2_1/x1/scale <- conv2_1/x1/bn
I1127 20:14:29.577518 13057 net.cpp:395] conv2_1/x1/scale -> conv2_1/x1/bn (in-place)
I1127 20:14:29.577565 13057 layer_factory.hpp:77] Creating layer conv2_1/x1/scale
I1127 20:14:29.577683 13057 net.cpp:150] Setting up conv2_1/x1/scale
I1127 20:14:29.577692 13057 net.cpp:157] Top shape: 16 64 57 57 (3326976)
I1127 20:14:29.577695 13057 net.cpp:165] Memory required for data: 281694272
I1127 20:14:29.577702 13057 layer_factory.hpp:77] Creating layer relu2_1/x1
I1127 20:14:29.577710 13057 net.cpp:100] Creating Layer relu2_1/x1
I1127 20:14:29.577714 13057 net.cpp:434] relu2_1/x1 <- conv2_1/x1/bn
I1127 20:14:29.577719 13057 net.cpp:395] relu2_1/x1 -> conv2_1/x1/bn (in-place)
I1127 20:14:29.579010 13057 net.cpp:150] Setting up relu2_1/x1
I1127 20:14:29.579040 13057 net.cpp:157] Top shape: 16 64 57 57 (3326976)
I1127 20:14:29.579044 13057 net.cpp:165] Memory required for data: 295002176
I1127 20:14:29.579064 13057 layer_factory.hpp:77] Creating layer conv2_1/x1
I1127 20:14:29.579079 13057 net.cpp:100] Creating Layer conv2_1/x1
I1127 20:14:29.579084 13057 net.cpp:434] conv2_1/x1 <- conv2_1/x1/bn
I1127 20:14:29.579092 13057 net.cpp:408] conv2_1/x1 -> conv2_1/x1
I1127 20:14:29.581022 13057 net.cpp:150] Setting up conv2_1/x1
I1127 20:14:29.581051 13057 net.cpp:157] Top shape: 16 128 57 57 (6653952)
I1127 20:14:29.581058 13057 net.cpp:165] Memory required for data: 321617984
I1127 20:14:29.581064 13057 layer_factory.hpp:77] Creating layer conv2_1/x2/bn
I1127 20:14:29.581074 13057 net.cpp:100] Creating Layer conv2_1/x2/bn
I1127 20:14:29.581079 13057 net.cpp:434] conv2_1/x2/bn <- conv2_1/x1
I1127 20:14:29.581085 13057 net.cpp:408] conv2_1/x2/bn -> conv2_1/x2/bn
I1127 20:14:29.581305 13057 net.cpp:150] Setting up conv2_1/x2/bn
I1127 20:14:29.581320 13057 net.cpp:157] Top shape: 16 128 57 57 (6653952)
I1127 20:14:29.581324 13057 net.cpp:165] Memory required for data: 348233792
I1127 20:14:29.581333 13057 layer_factory.hpp:77] Creating layer conv2_1/x2/scale
I1127 20:14:29.581342 13057 net.cpp:100] Creating Layer conv2_1/x2/scale
I1127 20:14:29.581347 13057 net.cpp:434] conv2_1/x2/scale <- conv2_1/x2/bn
I1127 20:14:29.581353 13057 net.cpp:395] conv2_1/x2/scale -> conv2_1/x2/bn (in-place)
I1127 20:14:29.581395 13057 layer_factory.hpp:77] Creating layer conv2_1/x2/scale
I1127 20:14:29.581506 13057 net.cpp:150] Setting up conv2_1/x2/scale
I1127 20:14:29.581513 13057 net.cpp:157] Top shape: 16 128 57 57 (6653952)
I1127 20:14:29.581517 13057 net.cpp:165] Memory required for data: 374849600
I1127 20:14:29.581528 13057 layer_factory.hpp:77] Creating layer relu2_1/x2
I1127 20:14:29.581537 13057 net.cpp:100] Creating Layer relu2_1/x2
I1127 20:14:29.581542 13057 net.cpp:434] relu2_1/x2 <- conv2_1/x2/bn
I1127 20:14:29.581547 13057 net.cpp:395] relu2_1/x2 -> conv2_1/x2/bn (in-place)
I1127 20:14:29.581753 13057 net.cpp:150] Setting up relu2_1/x2
I1127 20:14:29.581763 13057 net.cpp:157] Top shape: 16 128 57 57 (6653952)
I1127 20:14:29.581768 13057 net.cpp:165] Memory required for data: 401465408
I1127 20:14:29.581771 13057 layer_factory.hpp:77] Creating layer conv2_1/x2
I1127 20:14:29.581781 13057 net.cpp:100] Creating Layer conv2_1/x2
I1127 20:14:29.581785 13057 net.cpp:434] conv2_1/x2 <- conv2_1/x2/bn
I1127 20:14:29.581794 13057 net.cpp:408] conv2_1/x2 -> conv2_1/x2
I1127 20:14:29.585255 13057 net.cpp:150] Setting up conv2_1/x2
I1127 20:14:29.585284 13057 net.cpp:157] Top shape: 16 32 57 57 (1663488)
I1127 20:14:29.585290 13057 net.cpp:165] Memory required for data: 408119360
I1127 20:14:29.585297 13057 layer_factory.hpp:77] Creating layer concat_2_1
I1127 20:14:29.585310 13057 net.cpp:100] Creating Layer concat_2_1
I1127 20:14:29.585315 13057 net.cpp:434] concat_2_1 <- pool1_pool1_0_split_1
I1127 20:14:29.585322 13057 net.cpp:434] concat_2_1 <- conv2_1/x2
I1127 20:14:29.585328 13057 net.cpp:408] concat_2_1 -> concat_2_1
I1127 20:14:29.585363 13057 net.cpp:150] Setting up concat_2_1
I1127 20:14:29.585371 13057 net.cpp:157] Top shape: 16 96 57 57 (4990464)
I1127 20:14:29.585374 13057 net.cpp:165] Memory required for data: 428081216
I1127 20:14:29.585378 13057 layer_factory.hpp:77] Creating layer concat_2_1_concat_2_1_0_split
I1127 20:14:29.585387 13057 net.cpp:100] Creating Layer concat_2_1_concat_2_1_0_split
I1127 20:14:29.585391 13057 net.cpp:434] concat_2_1_concat_2_1_0_split <- concat_2_1
I1127 20:14:29.585397 13057 net.cpp:408] concat_2_1_concat_2_1_0_split -> concat_2_1_concat_2_1_0_split_0
I1127 20:14:29.585404 13057 net.cpp:408] concat_2_1_concat_2_1_0_split -> concat_2_1_concat_2_1_0_split_1
I1127 20:14:29.585438 13057 net.cpp:150] Setting up concat_2_1_concat_2_1_0_split
I1127 20:14:29.585444 13057 net.cpp:157] Top shape: 16 96 57 57 (4990464)
I1127 20:14:29.585449 13057 net.cpp:157] Top shape: 16 96 57 57 (4990464)
I1127 20:14:29.585453 13057 net.cpp:165] Memory required for data: 468004928
I1127 20:14:29.585458 13057 layer_factory.hpp:77] Creating layer conv2_2/x1/bn
I1127 20:14:29.585465 13057 net.cpp:100] Creating Layer conv2_2/x1/bn
I1127 20:14:29.585484 13057 net.cpp:434] conv2_2/x1/bn <- concat_2_1_concat_2_1_0_split_0
I1127 20:14:29.585490 13057 net.cpp:408] conv2_2/x1/bn -> conv2_2/x1/bn
I1127 20:14:29.585716 13057 net.cpp:150] Setting up conv2_2/x1/bn
I1127 20:14:29.585723 13057 net.cpp:157] Top shape: 16 96 57 57 (4990464)
I1127 20:14:29.585727 13057 net.cpp:165] Memory required for data: 487966784
I1127 20:14:29.585736 13057 layer_factory.hpp:77] Creating layer conv2_2/x1/scale
I1127 20:14:29.585744 13057 net.cpp:100] Creating Layer conv2_2/x1/scale
I1127 20:14:29.585748 13057 net.cpp:434] conv2_2/x1/scale <- conv2_2/x1/bn
I1127 20:14:29.585754 13057 net.cpp:395] conv2_2/x1/scale -> conv2_2/x1/bn (in-place)
I1127 20:14:29.585795 13057 layer_factory.hpp:77] Creating layer conv2_2/x1/scale
I1127 20:14:29.585916 13057 net.cpp:150] Setting up conv2_2/x1/scale
I1127 20:14:29.585923 13057 net.cpp:157] Top shape: 16 96 57 57 (4990464)
I1127 20:14:29.585927 13057 net.cpp:165] Memory required for data: 507928640
I1127 20:14:29.585934 13057 layer_factory.hpp:77] Creating layer relu2_2/x1
I1127 20:14:29.585940 13057 net.cpp:100] Creating Layer relu2_2/x1
I1127 20:14:29.585945 13057 net.cpp:434] relu2_2/x1 <- conv2_2/x1/bn
I1127 20:14:29.585952 13057 net.cpp:395] relu2_2/x1 -> conv2_2/x1/bn (in-place)
I1127 20:14:29.586141 13057 net.cpp:150] Setting up relu2_2/x1
I1127 20:14:29.586151 13057 net.cpp:157] Top shape: 16 96 57 57 (4990464)
I1127 20:14:29.586155 13057 net.cpp:165] Memory required for data: 527890496
I1127 20:14:29.586159 13057 layer_factory.hpp:77] Creating layer conv2_2/x1
I1127 20:14:29.586169 13057 net.cpp:100] Creating Layer conv2_2/x1
I1127 20:14:29.586174 13057 net.cpp:434] conv2_2/x1 <- conv2_2/x1/bn
I1127 20:14:29.586179 13057 net.cpp:408] conv2_2/x1 -> conv2_2/x1
I1127 20:14:29.588155 13057 net.cpp:150] Setting up conv2_2/x1
I1127 20:14:29.588184 13057 net.cpp:157] Top shape: 16 128 57 57 (6653952)
I1127 20:14:29.588199 13057 net.cpp:165] Memory required for data: 554506304
I1127 20:14:29.588207 13057 layer_factory.hpp:77] Creating layer conv2_2/x2/bn
I1127 20:14:29.588219 13057 net.cpp:100] Creating Layer conv2_2/x2/bn
I1127 20:14:29.588224 13057 net.cpp:434] conv2_2/x2/bn <- conv2_2/x1
I1127 20:14:29.588232 13057 net.cpp:408] conv2_2/x2/bn -> conv2_2/x2/bn
I1127 20:14:29.588464 13057 net.cpp:150] Setting up conv2_2/x2/bn
I1127 20:14:29.588480 13057 net.cpp:157] Top shape: 16 128 57 57 (6653952)
I1127 20:14:29.588485 13057 net.cpp:165] Memory required for data: 581122112
I1127 20:14:29.588495 13057 layer_factory.hpp:77] Creating layer conv2_2/x2/scale
I1127 20:14:29.588501 13057 net.cpp:100] Creating Layer conv2_2/x2/scale
I1127 20:14:29.588506 13057 net.cpp:434] conv2_2/x2/scale <- conv2_2/x2/bn
I1127 20:14:29.588515 13057 net.cpp:395] conv2_2/x2/scale -> conv2_2/x2/bn (in-place)
I1127 20:14:29.588590 13057 layer_factory.hpp:77] Creating layer conv2_2/x2/scale
I1127 20:14:29.588721 13057 net.cpp:150] Setting up conv2_2/x2/scale
I1127 20:14:29.588731 13057 net.cpp:157] Top shape: 16 128 57 57 (6653952)
I1127 20:14:29.588734 13057 net.cpp:165] Memory required for data: 607737920
I1127 20:14:29.588742 13057 layer_factory.hpp:77] Creating layer relu2_2/x2
I1127 20:14:29.588748 13057 net.cpp:100] Creating Layer relu2_2/x2
I1127 20:14:29.588752 13057 net.cpp:434] relu2_2/x2 <- conv2_2/x2/bn
I1127 20:14:29.588758 13057 net.cpp:395] relu2_2/x2 -> conv2_2/x2/bn (in-place)
I1127 20:14:29.588979 13057 net.cpp:150] Setting up relu2_2/x2
I1127 20:14:29.588999 13057 net.cpp:157] Top shape: 16 128 57 57 (6653952)
I1127 20:14:29.589004 13057 net.cpp:165] Memory required for data: 634353728
I1127 20:14:29.589007 13057 layer_factory.hpp:77] Creating layer conv2_2/x2
I1127 20:14:29.589020 13057 net.cpp:100] Creating Layer conv2_2/x2
I1127 20:14:29.589025 13057 net.cpp:434] conv2_2/x2 <- conv2_2/x2/bn
I1127 20:14:29.589033 13057 net.cpp:408] conv2_2/x2 -> conv2_2/x2
I1127 20:14:29.591024 13057 net.cpp:150] Setting up conv2_2/x2
I1127 20:14:29.591053 13057 net.cpp:157] Top shape: 16 32 57 57 (1663488)
I1127 20:14:29.591058 13057 net.cpp:165] Memory required for data: 641007680
I1127 20:14:29.591081 13057 layer_factory.hpp:77] Creating layer concat_2_2
I1127 20:14:29.591094 13057 net.cpp:100] Creating Layer concat_2_2
I1127 20:14:29.591099 13057 net.cpp:434] concat_2_2 <- concat_2_1_concat_2_1_0_split_1
I1127 20:14:29.591104 13057 net.cpp:434] concat_2_2 <- conv2_2/x2
I1127 20:14:29.591110 13057 net.cpp:408] concat_2_2 -> concat_2_2
I1127 20:14:29.591146 13057 net.cpp:150] Setting up concat_2_2
I1127 20:14:29.591152 13057 net.cpp:157] Top shape: 16 128 57 57 (6653952)
I1127 20:14:29.591156 13057 net.cpp:165] Memory required for data: 667623488
I1127 20:14:29.591161 13057 layer_factory.hpp:77] Creating layer concat_2_2_concat_2_2_0_split
I1127 20:14:29.591166 13057 net.cpp:100] Creating Layer concat_2_2_concat_2_2_0_split
I1127 20:14:29.591171 13057 net.cpp:434] concat_2_2_concat_2_2_0_split <- concat_2_2
I1127 20:14:29.591179 13057 net.cpp:408] concat_2_2_concat_2_2_0_split -> concat_2_2_concat_2_2_0_split_0
I1127 20:14:29.591187 13057 net.cpp:408] concat_2_2_concat_2_2_0_split -> concat_2_2_concat_2_2_0_split_1
I1127 20:14:29.591241 13057 net.cpp:150] Setting up concat_2_2_concat_2_2_0_split
I1127 20:14:29.591248 13057 net.cpp:157] Top shape: 16 128 57 57 (6653952)
I1127 20:14:29.591253 13057 net.cpp:157] Top shape: 16 128 57 57 (6653952)
I1127 20:14:29.591256 13057 net.cpp:165] Memory required for data: 720855104
I1127 20:14:29.591260 13057 layer_factory.hpp:77] Creating layer conv2_3/x1/bn
I1127 20:14:29.591269 13057 net.cpp:100] Creating Layer conv2_3/x1/bn
I1127 20:14:29.591274 13057 net.cpp:434] conv2_3/x1/bn <- concat_2_2_concat_2_2_0_split_0
I1127 20:14:29.591279 13057 net.cpp:408] conv2_3/x1/bn -> conv2_3/x1/bn
I1127 20:14:29.591491 13057 net.cpp:150] Setting up conv2_3/x1/bn
I1127 20:14:29.591500 13057 net.cpp:157] Top shape: 16 128 57 57 (6653952)
I1127 20:14:29.591503 13057 net.cpp:165] Memory required for data: 747470912
I1127 20:14:29.591517 13057 layer_factory.hpp:77] Creating layer conv2_3/x1/scale
I1127 20:14:29.591528 13057 net.cpp:100] Creating Layer conv2_3/x1/scale
I1127 20:14:29.591532 13057 net.cpp:434] conv2_3/x1/scale <- conv2_3/x1/bn
I1127 20:14:29.591539 13057 net.cpp:395] conv2_3/x1/scale -> conv2_3/x1/bn (in-place)
I1127 20:14:29.591584 13057 layer_factory.hpp:77] Creating layer conv2_3/x1/scale
I1127 20:14:29.591706 13057 net.cpp:150] Setting up conv2_3/x1/scale
I1127 20:14:29.591713 13057 net.cpp:157] Top shape: 16 128 57 57 (6653952)
I1127 20:14:29.591717 13057 net.cpp:165] Memory required for data: 774086720
I1127 20:14:29.591724 13057 layer_factory.hpp:77] Creating layer relu2_3/x1
I1127 20:14:29.591732 13057 net.cpp:100] Creating Layer relu2_3/x1
I1127 20:14:29.591735 13057 net.cpp:434] relu2_3/x1 <- conv2_3/x1/bn
I1127 20:14:29.591742 13057 net.cpp:395] relu2_3/x1 -> conv2_3/x1/bn (in-place)
I1127 20:14:29.591950 13057 net.cpp:150] Setting up relu2_3/x1
I1127 20:14:29.591965 13057 net.cpp:157] Top shape: 16 128 57 57 (6653952)
I1127 20:14:29.591970 13057 net.cpp:165] Memory required for data: 800702528
I1127 20:14:29.591974 13057 layer_factory.hpp:77] Creating layer conv2_3/x1
I1127 20:14:29.591986 13057 net.cpp:100] Creating Layer conv2_3/x1
I1127 20:14:29.591990 13057 net.cpp:434] conv2_3/x1 <- conv2_3/x1/bn
I1127 20:14:29.592000 13057 net.cpp:408] conv2_3/x1 -> conv2_3/x1
I1127 20:14:29.594059 13057 net.cpp:150] Setting up conv2_3/x1
I1127 20:14:29.594089 13057 net.cpp:157] Top shape: 16 128 57 57 (6653952)
I1127 20:14:29.594094 13057 net.cpp:165] Memory required for data: 827318336
I1127 20:14:29.594102 13057 layer_factory.hpp:77] Creating layer conv2_3/x2/bn
I1127 20:14:29.594115 13057 net.cpp:100] Creating Layer conv2_3/x2/bn
I1127 20:14:29.594120 13057 net.cpp:434] conv2_3/x2/bn <- conv2_3/x1
I1127 20:14:29.594128 13057 net.cpp:408] conv2_3/x2/bn -> conv2_3/x2/bn
I1127 20:14:29.594372 13057 net.cpp:150] Setting up conv2_3/x2/bn
I1127 20:14:29.594388 13057 net.cpp:157] Top shape: 16 128 57 57 (6653952)
I1127 20:14:29.594393 13057 net.cpp:165] Memory required for data: 853934144
I1127 20:14:29.594403 13057 layer_factory.hpp:77] Creating layer conv2_3/x2/scale
I1127 20:14:29.594429 13057 net.cpp:100] Creating Layer conv2_3/x2/scale
I1127 20:14:29.594434 13057 net.cpp:434] conv2_3/x2/scale <- conv2_3/x2/bn
I1127 20:14:29.594440 13057 net.cpp:395] conv2_3/x2/scale -> conv2_3/x2/bn (in-place)
I1127 20:14:29.594493 13057 layer_factory.hpp:77] Creating layer conv2_3/x2/scale
I1127 20:14:29.594620 13057 net.cpp:150] Setting up conv2_3/x2/scale
I1127 20:14:29.594635 13057 net.cpp:157] Top shape: 16 128 57 57 (6653952)
I1127 20:14:29.594640 13057 net.cpp:165] Memory required for data: 880549952
I1127 20:14:29.594646 13057 layer_factory.hpp:77] Creating layer relu2_3/x2
I1127 20:14:29.594653 13057 net.cpp:100] Creating Layer relu2_3/x2
I1127 20:14:29.594657 13057 net.cpp:434] relu2_3/x2 <- conv2_3/x2/bn
I1127 20:14:29.594666 13057 net.cpp:395] relu2_3/x2 -> conv2_3/x2/bn (in-place)
I1127 20:14:29.594880 13057 net.cpp:150] Setting up relu2_3/x2
I1127 20:14:29.594897 13057 net.cpp:157] Top shape: 16 128 57 57 (6653952)
I1127 20:14:29.594902 13057 net.cpp:165] Memory required for data: 907165760
I1127 20:14:29.594907 13057 layer_factory.hpp:77] Creating layer conv2_3/x2
I1127 20:14:29.594918 13057 net.cpp:100] Creating Layer conv2_3/x2
I1127 20:14:29.594923 13057 net.cpp:434] conv2_3/x2 <- conv2_3/x2/bn
I1127 20:14:29.594931 13057 net.cpp:408] conv2_3/x2 -> conv2_3/x2
I1127 20:14:29.596966 13057 net.cpp:150] Setting up conv2_3/x2
I1127 20:14:29.596993 13057 net.cpp:157] Top shape: 16 32 57 57 (1663488)
I1127 20:14:29.596998 13057 net.cpp:165] Memory required for data: 913819712
I1127 20:14:29.597005 13057 layer_factory.hpp:77] Creating layer concat_2_3
I1127 20:14:29.597014 13057 net.cpp:100] Creating Layer concat_2_3
I1127 20:14:29.597019 13057 net.cpp:434] concat_2_3 <- concat_2_2_concat_2_2_0_split_1
I1127 20:14:29.597026 13057 net.cpp:434] concat_2_3 <- conv2_3/x2
I1127 20:14:29.597035 13057 net.cpp:408] concat_2_3 -> concat_2_3
I1127 20:14:29.597069 13057 net.cpp:150] Setting up concat_2_3
I1127 20:14:29.597077 13057 net.cpp:157] Top shape: 16 160 57 57 (8317440)
I1127 20:14:29.597081 13057 net.cpp:165] Memory required for data: 947089472
I1127 20:14:29.597085 13057 layer_factory.hpp:77] Creating layer concat_2_3_concat_2_3_0_split
I1127 20:14:29.597092 13057 net.cpp:100] Creating Layer concat_2_3_concat_2_3_0_split
I1127 20:14:29.597096 13057 net.cpp:434] concat_2_3_concat_2_3_0_split <- concat_2_3
I1127 20:14:29.597102 13057 net.cpp:408] concat_2_3_concat_2_3_0_split -> concat_2_3_concat_2_3_0_split_0
I1127 20:14:29.597108 13057 net.cpp:408] concat_2_3_concat_2_3_0_split -> concat_2_3_concat_2_3_0_split_1
I1127 20:14:29.597148 13057 net.cpp:150] Setting up concat_2_3_concat_2_3_0_split
I1127 20:14:29.597154 13057 net.cpp:157] Top shape: 16 160 57 57 (8317440)
I1127 20:14:29.597159 13057 net.cpp:157] Top shape: 16 160 57 57 (8317440)
I1127 20:14:29.597163 13057 net.cpp:165] Memory required for data: 1013628992
I1127 20:14:29.597167 13057 layer_factory.hpp:77] Creating layer conv2_4/x1/bn
I1127 20:14:29.597177 13057 net.cpp:100] Creating Layer conv2_4/x1/bn
I1127 20:14:29.597180 13057 net.cpp:434] conv2_4/x1/bn <- concat_2_3_concat_2_3_0_split_0
I1127 20:14:29.597187 13057 net.cpp:408] conv2_4/x1/bn -> conv2_4/x1/bn
I1127 20:14:29.597429 13057 net.cpp:150] Setting up conv2_4/x1/bn
I1127 20:14:29.597436 13057 net.cpp:157] Top shape: 16 160 57 57 (8317440)
I1127 20:14:29.597440 13057 net.cpp:165] Memory required for data: 1046898752
I1127 20:14:29.597450 13057 layer_factory.hpp:77] Creating layer conv2_4/x1/scale
I1127 20:14:29.597456 13057 net.cpp:100] Creating Layer conv2_4/x1/scale
I1127 20:14:29.597461 13057 net.cpp:434] conv2_4/x1/scale <- conv2_4/x1/bn
I1127 20:14:29.597466 13057 net.cpp:395] conv2_4/x1/scale -> conv2_4/x1/bn (in-place)
I1127 20:14:29.597513 13057 layer_factory.hpp:77] Creating layer conv2_4/x1/scale
I1127 20:14:29.597647 13057 net.cpp:150] Setting up conv2_4/x1/scale
I1127 20:14:29.597657 13057 net.cpp:157] Top shape: 16 160 57 57 (8317440)
I1127 20:14:29.597661 13057 net.cpp:165] Memory required for data: 1080168512
I1127 20:14:29.597684 13057 layer_factory.hpp:77] Creating layer relu2_4/x1
I1127 20:14:29.597692 13057 net.cpp:100] Creating Layer relu2_4/x1
I1127 20:14:29.597695 13057 net.cpp:434] relu2_4/x1 <- conv2_4/x1/bn
I1127 20:14:29.597702 13057 net.cpp:395] relu2_4/x1 -> conv2_4/x1/bn (in-place)
I1127 20:14:29.599028 13057 net.cpp:150] Setting up relu2_4/x1
I1127 20:14:29.599056 13057 net.cpp:157] Top shape: 16 160 57 57 (8317440)
I1127 20:14:29.599061 13057 net.cpp:165] Memory required for data: 1113438272
I1127 20:14:29.599066 13057 layer_factory.hpp:77] Creating layer conv2_4/x1
I1127 20:14:29.599081 13057 net.cpp:100] Creating Layer conv2_4/x1
I1127 20:14:29.599086 13057 net.cpp:434] conv2_4/x1 <- conv2_4/x1/bn
I1127 20:14:29.599093 13057 net.cpp:408] conv2_4/x1 -> conv2_4/x1
I1127 20:14:29.601107 13057 net.cpp:150] Setting up conv2_4/x1
I1127 20:14:29.601136 13057 net.cpp:157] Top shape: 16 128 57 57 (6653952)
I1127 20:14:29.601141 13057 net.cpp:165] Memory required for data: 1140054080
I1127 20:14:29.601150 13057 layer_factory.hpp:77] Creating layer conv2_4/x2/bn
I1127 20:14:29.601161 13057 net.cpp:100] Creating Layer conv2_4/x2/bn
I1127 20:14:29.601166 13057 net.cpp:434] conv2_4/x2/bn <- conv2_4/x1
I1127 20:14:29.601173 13057 net.cpp:408] conv2_4/x2/bn -> conv2_4/x2/bn
I1127 20:14:29.601421 13057 net.cpp:150] Setting up conv2_4/x2/bn
I1127 20:14:29.601438 13057 net.cpp:157] Top shape: 16 128 57 57 (6653952)
I1127 20:14:29.601442 13057 net.cpp:165] Memory required for data: 1166669888
I1127 20:14:29.601452 13057 layer_factory.hpp:77] Creating layer conv2_4/x2/scale
I1127 20:14:29.601460 13057 net.cpp:100] Creating Layer conv2_4/x2/scale
I1127 20:14:29.601464 13057 net.cpp:434] conv2_4/x2/scale <- conv2_4/x2/bn
I1127 20:14:29.601474 13057 net.cpp:395] conv2_4/x2/scale -> conv2_4/x2/bn (in-place)
I1127 20:14:29.601521 13057 layer_factory.hpp:77] Creating layer conv2_4/x2/scale
I1127 20:14:29.601644 13057 net.cpp:150] Setting up conv2_4/x2/scale
I1127 20:14:29.601663 13057 net.cpp:157] Top shape: 16 128 57 57 (6653952)
I1127 20:14:29.601667 13057 net.cpp:165] Memory required for data: 1193285696
I1127 20:14:29.601675 13057 layer_factory.hpp:77] Creating layer relu2_4/x2
I1127 20:14:29.601681 13057 net.cpp:100] Creating Layer relu2_4/x2
I1127 20:14:29.601686 13057 net.cpp:434] relu2_4/x2 <- conv2_4/x2/bn
I1127 20:14:29.601691 13057 net.cpp:395] relu2_4/x2 -> conv2_4/x2/bn (in-place)
I1127 20:14:29.601905 13057 net.cpp:150] Setting up relu2_4/x2
I1127 20:14:29.601923 13057 net.cpp:157] Top shape: 16 128 57 57 (6653952)
I1127 20:14:29.601927 13057 net.cpp:165] Memory required for data: 1219901504
I1127 20:14:29.601933 13057 layer_factory.hpp:77] Creating layer conv2_4/x2
I1127 20:14:29.601944 13057 net.cpp:100] Creating Layer conv2_4/x2
I1127 20:14:29.601949 13057 net.cpp:434] conv2_4/x2 <- conv2_4/x2/bn
I1127 20:14:29.601955 13057 net.cpp:408] conv2_4/x2 -> conv2_4/x2
I1127 20:14:29.605067 13057 net.cpp:150] Setting up conv2_4/x2
I1127 20:14:29.605096 13057 net.cpp:157] Top shape: 16 32 57 57 (1663488)
I1127 20:14:29.605103 13057 net.cpp:165] Memory required for data: 1226555456
I1127 20:14:29.605109 13057 layer_factory.hpp:77] Creating layer concat_2_4
I1127 20:14:29.605121 13057 net.cpp:100] Creating Layer concat_2_4
I1127 20:14:29.605128 13057 net.cpp:434] concat_2_4 <- concat_2_3_concat_2_3_0_split_1
I1127 20:14:29.605134 13057 net.cpp:434] concat_2_4 <- conv2_4/x2
I1127 20:14:29.605140 13057 net.cpp:408] concat_2_4 -> concat_2_4
I1127 20:14:29.605185 13057 net.cpp:150] Setting up concat_2_4
I1127 20:14:29.605202 13057 net.cpp:157] Top shape: 16 192 57 57 (9980928)
I1127 20:14:29.605206 13057 net.cpp:165] Memory required for data: 1266479168
I1127 20:14:29.605211 13057 layer_factory.hpp:77] Creating layer concat_2_4_concat_2_4_0_split
I1127 20:14:29.605221 13057 net.cpp:100] Creating Layer concat_2_4_concat_2_4_0_split
I1127 20:14:29.605224 13057 net.cpp:434] concat_2_4_concat_2_4_0_split <- concat_2_4
I1127 20:14:29.605231 13057 net.cpp:408] concat_2_4_concat_2_4_0_split -> concat_2_4_concat_2_4_0_split_0
I1127 20:14:29.605319 13057 net.cpp:408] concat_2_4_concat_2_4_0_split -> concat_2_4_concat_2_4_0_split_1
I1127 20:14:29.605373 13057 net.cpp:150] Setting up concat_2_4_concat_2_4_0_split
I1127 20:14:29.605381 13057 net.cpp:157] Top shape: 16 192 57 57 (9980928)
I1127 20:14:29.605386 13057 net.cpp:157] Top shape: 16 192 57 57 (9980928)
I1127 20:14:29.605388 13057 net.cpp:165] Memory required for data: 1346326592
I1127 20:14:29.605392 13057 layer_factory.hpp:77] Creating layer conv2_5/x1/bn
I1127 20:14:29.605401 13057 net.cpp:100] Creating Layer conv2_5/x1/bn
I1127 20:14:29.605404 13057 net.cpp:434] conv2_5/x1/bn <- concat_2_4_concat_2_4_0_split_0
I1127 20:14:29.605412 13057 net.cpp:408] conv2_5/x1/bn -> conv2_5/x1/bn
I1127 20:14:29.605645 13057 net.cpp:150] Setting up conv2_5/x1/bn
I1127 20:14:29.605659 13057 net.cpp:157] Top shape: 16 192 57 57 (9980928)
I1127 20:14:29.605662 13057 net.cpp:165] Memory required for data: 1386250304
I1127 20:14:29.605672 13057 layer_factory.hpp:77] Creating layer conv2_5/x1/scale
I1127 20:14:29.605680 13057 net.cpp:100] Creating Layer conv2_5/x1/scale
I1127 20:14:29.605684 13057 net.cpp:434] conv2_5/x1/scale <- conv2_5/x1/bn
I1127 20:14:29.605690 13057 net.cpp:395] conv2_5/x1/scale -> conv2_5/x1/bn (in-place)
I1127 20:14:29.605741 13057 layer_factory.hpp:77] Creating layer conv2_5/x1/scale
I1127 20:14:29.605883 13057 net.cpp:150] Setting up conv2_5/x1/scale
I1127 20:14:29.605900 13057 net.cpp:157] Top shape: 16 192 57 57 (9980928)
I1127 20:14:29.605903 13057 net.cpp:165] Memory required for data: 1426174016
I1127 20:14:29.605911 13057 layer_factory.hpp:77] Creating layer relu2_5/x1
I1127 20:14:29.605921 13057 net.cpp:100] Creating Layer relu2_5/x1
I1127 20:14:29.605926 13057 net.cpp:434] relu2_5/x1 <- conv2_5/x1/bn
I1127 20:14:29.605931 13057 net.cpp:395] relu2_5/x1 -> conv2_5/x1/bn (in-place)
I1127 20:14:29.606150 13057 net.cpp:150] Setting up relu2_5/x1
I1127 20:14:29.606170 13057 net.cpp:157] Top shape: 16 192 57 57 (9980928)
I1127 20:14:29.606175 13057 net.cpp:165] Memory required for data: 1466097728
I1127 20:14:29.606179 13057 layer_factory.hpp:77] Creating layer conv2_5/x1
I1127 20:14:29.606199 13057 net.cpp:100] Creating Layer conv2_5/x1
I1127 20:14:29.606205 13057 net.cpp:434] conv2_5/x1 <- conv2_5/x1/bn
I1127 20:14:29.606215 13057 net.cpp:408] conv2_5/x1 -> conv2_5/x1
I1127 20:14:29.608227 13057 net.cpp:150] Setting up conv2_5/x1
I1127 20:14:29.608255 13057 net.cpp:157] Top shape: 16 128 57 57 (6653952)
I1127 20:14:29.608260 13057 net.cpp:165] Memory required for data: 1492713536
I1127 20:14:29.608268 13057 layer_factory.hpp:77] Creating layer conv2_5/x2/bn
I1127 20:14:29.608279 13057 net.cpp:100] Creating Layer conv2_5/x2/bn
I1127 20:14:29.608284 13057 net.cpp:434] conv2_5/x2/bn <- conv2_5/x1
I1127 20:14:29.608291 13057 net.cpp:408] conv2_5/x2/bn -> conv2_5/x2/bn
I1127 20:14:29.608527 13057 net.cpp:150] Setting up conv2_5/x2/bn
I1127 20:14:29.608563 13057 net.cpp:157] Top shape: 16 128 57 57 (6653952)
I1127 20:14:29.608569 13057 net.cpp:165] Memory required for data: 1519329344
I1127 20:14:29.608578 13057 layer_factory.hpp:77] Creating layer conv2_5/x2/scale
I1127 20:14:29.608590 13057 net.cpp:100] Creating Layer conv2_5/x2/scale
I1127 20:14:29.608595 13057 net.cpp:434] conv2_5/x2/scale <- conv2_5/x2/bn
I1127 20:14:29.608603 13057 net.cpp:395] conv2_5/x2/scale -> conv2_5/x2/bn (in-place)
I1127 20:14:29.608651 13057 layer_factory.hpp:77] Creating layer conv2_5/x2/scale
I1127 20:14:29.608780 13057 net.cpp:150] Setting up conv2_5/x2/scale
I1127 20:14:29.608795 13057 net.cpp:157] Top shape: 16 128 57 57 (6653952)
I1127 20:14:29.608799 13057 net.cpp:165] Memory required for data: 1545945152
I1127 20:14:29.608820 13057 layer_factory.hpp:77] Creating layer relu2_5/x2
I1127 20:14:29.608829 13057 net.cpp:100] Creating Layer relu2_5/x2
I1127 20:14:29.608832 13057 net.cpp:434] relu2_5/x2 <- conv2_5/x2/bn
I1127 20:14:29.608840 13057 net.cpp:395] relu2_5/x2 -> conv2_5/x2/bn (in-place)
I1127 20:14:29.609067 13057 net.cpp:150] Setting up relu2_5/x2
I1127 20:14:29.609086 13057 net.cpp:157] Top shape: 16 128 57 57 (6653952)
I1127 20:14:29.609104 13057 net.cpp:165] Memory required for data: 1572560960
I1127 20:14:29.609109 13057 layer_factory.hpp:77] Creating layer conv2_5/x2
I1127 20:14:29.609130 13057 net.cpp:100] Creating Layer conv2_5/x2
I1127 20:14:29.609136 13057 net.cpp:434] conv2_5/x2 <- conv2_5/x2/bn
I1127 20:14:29.609145 13057 net.cpp:408] conv2_5/x2 -> conv2_5/x2
I1127 20:14:29.611310 13057 net.cpp:150] Setting up conv2_5/x2
I1127 20:14:29.611336 13057 net.cpp:157] Top shape: 16 32 57 57 (1663488)
I1127 20:14:29.611342 13057 net.cpp:165] Memory required for data: 1579214912
I1127 20:14:29.611349 13057 layer_factory.hpp:77] Creating layer concat_2_5
I1127 20:14:29.611358 13057 net.cpp:100] Creating Layer concat_2_5
I1127 20:14:29.611363 13057 net.cpp:434] concat_2_5 <- concat_2_4_concat_2_4_0_split_1
I1127 20:14:29.611371 13057 net.cpp:434] concat_2_5 <- conv2_5/x2
I1127 20:14:29.611379 13057 net.cpp:408] concat_2_5 -> concat_2_5
I1127 20:14:29.611413 13057 net.cpp:150] Setting up concat_2_5
I1127 20:14:29.611419 13057 net.cpp:157] Top shape: 16 224 57 57 (11644416)
I1127 20:14:29.611423 13057 net.cpp:165] Memory required for data: 1625792576
I1127 20:14:29.611428 13057 layer_factory.hpp:77] Creating layer concat_2_5_concat_2_5_0_split
I1127 20:14:29.611436 13057 net.cpp:100] Creating Layer concat_2_5_concat_2_5_0_split
I1127 20:14:29.611440 13057 net.cpp:434] concat_2_5_concat_2_5_0_split <- concat_2_5
I1127 20:14:29.611446 13057 net.cpp:408] concat_2_5_concat_2_5_0_split -> concat_2_5_concat_2_5_0_split_0
I1127 20:14:29.611454 13057 net.cpp:408] concat_2_5_concat_2_5_0_split -> concat_2_5_concat_2_5_0_split_1
I1127 20:14:29.611495 13057 net.cpp:150] Setting up concat_2_5_concat_2_5_0_split
I1127 20:14:29.611500 13057 net.cpp:157] Top shape: 16 224 57 57 (11644416)
I1127 20:14:29.611505 13057 net.cpp:157] Top shape: 16 224 57 57 (11644416)
I1127 20:14:29.611508 13057 net.cpp:165] Memory required for data: 1718947904
I1127 20:14:29.611512 13057 layer_factory.hpp:77] Creating layer conv2_6/x1/bn
I1127 20:14:29.611522 13057 net.cpp:100] Creating Layer conv2_6/x1/bn
I1127 20:14:29.611526 13057 net.cpp:434] conv2_6/x1/bn <- concat_2_5_concat_2_5_0_split_0
I1127 20:14:29.611532 13057 net.cpp:408] conv2_6/x1/bn -> conv2_6/x1/bn
I1127 20:14:29.611769 13057 net.cpp:150] Setting up conv2_6/x1/bn
I1127 20:14:29.611776 13057 net.cpp:157] Top shape: 16 224 57 57 (11644416)
I1127 20:14:29.611780 13057 net.cpp:165] Memory required for data: 1765525568
I1127 20:14:29.611789 13057 layer_factory.hpp:77] Creating layer conv2_6/x1/scale
I1127 20:14:29.611799 13057 net.cpp:100] Creating Layer conv2_6/x1/scale
I1127 20:14:29.611804 13057 net.cpp:434] conv2_6/x1/scale <- conv2_6/x1/bn
I1127 20:14:29.611809 13057 net.cpp:395] conv2_6/x1/scale -> conv2_6/x1/bn (in-place)
I1127 20:14:29.611860 13057 layer_factory.hpp:77] Creating layer conv2_6/x1/scale
I1127 20:14:29.611997 13057 net.cpp:150] Setting up conv2_6/x1/scale
I1127 20:14:29.612004 13057 net.cpp:157] Top shape: 16 224 57 57 (11644416)
I1127 20:14:29.612009 13057 net.cpp:165] Memory required for data: 1812103232
I1127 20:14:29.612015 13057 layer_factory.hpp:77] Creating layer relu2_6/x1
I1127 20:14:29.612025 13057 net.cpp:100] Creating Layer relu2_6/x1
I1127 20:14:29.612030 13057 net.cpp:434] relu2_6/x1 <- conv2_6/x1/bn
I1127 20:14:29.612035 13057 net.cpp:395] relu2_6/x1 -> conv2_6/x1/bn (in-place)
I1127 20:14:29.612257 13057 net.cpp:150] Setting up relu2_6/x1
I1127 20:14:29.612268 13057 net.cpp:157] Top shape: 16 224 57 57 (11644416)
I1127 20:14:29.612272 13057 net.cpp:165] Memory required for data: 1858680896
I1127 20:14:29.612277 13057 layer_factory.hpp:77] Creating layer conv2_6/x1
I1127 20:14:29.612290 13057 net.cpp:100] Creating Layer conv2_6/x1
I1127 20:14:29.612295 13057 net.cpp:434] conv2_6/x1 <- conv2_6/x1/bn
I1127 20:14:29.612301 13057 net.cpp:408] conv2_6/x1 -> conv2_6/x1
I1127 20:14:29.614323 13057 net.cpp:150] Setting up conv2_6/x1
I1127 20:14:29.614352 13057 net.cpp:157] Top shape: 16 128 57 57 (6653952)
I1127 20:14:29.614358 13057 net.cpp:165] Memory required for data: 1885296704
I1127 20:14:29.614382 13057 layer_factory.hpp:77] Creating layer conv2_6/x2/bn
I1127 20:14:29.614394 13057 net.cpp:100] Creating Layer conv2_6/x2/bn
I1127 20:14:29.614400 13057 net.cpp:434] conv2_6/x2/bn <- conv2_6/x1
I1127 20:14:29.614408 13057 net.cpp:408] conv2_6/x2/bn -> conv2_6/x2/bn
I1127 20:14:29.614650 13057 net.cpp:150] Setting up conv2_6/x2/bn
I1127 20:14:29.614665 13057 net.cpp:157] Top shape: 16 128 57 57 (6653952)
I1127 20:14:29.614670 13057 net.cpp:165] Memory required for data: 1911912512
I1127 20:14:29.614679 13057 layer_factory.hpp:77] Creating layer conv2_6/x2/scale
I1127 20:14:29.614687 13057 net.cpp:100] Creating Layer conv2_6/x2/scale
I1127 20:14:29.614692 13057 net.cpp:434] conv2_6/x2/scale <- conv2_6/x2/bn
I1127 20:14:29.614697 13057 net.cpp:395] conv2_6/x2/scale -> conv2_6/x2/bn (in-place)
I1127 20:14:29.614749 13057 layer_factory.hpp:77] Creating layer conv2_6/x2/scale
I1127 20:14:29.614876 13057 net.cpp:150] Setting up conv2_6/x2/scale
I1127 20:14:29.614882 13057 net.cpp:157] Top shape: 16 128 57 57 (6653952)
I1127 20:14:29.614886 13057 net.cpp:165] Memory required for data: 1938528320
I1127 20:14:29.614893 13057 layer_factory.hpp:77] Creating layer relu2_6/x2
I1127 20:14:29.614904 13057 net.cpp:100] Creating Layer relu2_6/x2
I1127 20:14:29.614908 13057 net.cpp:434] relu2_6/x2 <- conv2_6/x2/bn
I1127 20:14:29.614914 13057 net.cpp:395] relu2_6/x2 -> conv2_6/x2/bn (in-place)
I1127 20:14:29.615128 13057 net.cpp:150] Setting up relu2_6/x2
I1127 20:14:29.615149 13057 net.cpp:157] Top shape: 16 128 57 57 (6653952)
I1127 20:14:29.615154 13057 net.cpp:165] Memory required for data: 1965144128
I1127 20:14:29.615159 13057 layer_factory.hpp:77] Creating layer conv2_6/x2
I1127 20:14:29.615175 13057 net.cpp:100] Creating Layer conv2_6/x2
I1127 20:14:29.615181 13057 net.cpp:434] conv2_6/x2 <- conv2_6/x2/bn
I1127 20:14:29.615200 13057 net.cpp:408] conv2_6/x2 -> conv2_6/x2
I1127 20:14:29.619412 13057 net.cpp:150] Setting up conv2_6/x2
I1127 20:14:29.619442 13057 net.cpp:157] Top shape: 16 32 57 57 (1663488)
I1127 20:14:29.619447 13057 net.cpp:165] Memory required for data: 1971798080
I1127 20:14:29.619457 13057 layer_factory.hpp:77] Creating layer concat_2_6
I1127 20:14:29.619465 13057 net.cpp:100] Creating Layer concat_2_6
I1127 20:14:29.619472 13057 net.cpp:434] concat_2_6 <- concat_2_5_concat_2_5_0_split_1
I1127 20:14:29.619477 13057 net.cpp:434] concat_2_6 <- conv2_6/x2
I1127 20:14:29.619487 13057 net.cpp:408] concat_2_6 -> concat_2_6
I1127 20:14:29.619527 13057 net.cpp:150] Setting up concat_2_6
I1127 20:14:29.619534 13057 net.cpp:157] Top shape: 16 256 57 57 (13307904)
I1127 20:14:29.619539 13057 net.cpp:165] Memory required for data: 2025029696
I1127 20:14:29.619542 13057 layer_factory.hpp:77] Creating layer conv2_6/blk/bn
I1127 20:14:29.619552 13057 net.cpp:100] Creating Layer conv2_6/blk/bn
I1127 20:14:29.619556 13057 net.cpp:434] conv2_6/blk/bn <- concat_2_6
I1127 20:14:29.619565 13057 net.cpp:408] conv2_6/blk/bn -> conv2_6/blk/bn
I1127 20:14:29.619801 13057 net.cpp:150] Setting up conv2_6/blk/bn
I1127 20:14:29.619817 13057 net.cpp:157] Top shape: 16 256 57 57 (13307904)
I1127 20:14:29.619820 13057 net.cpp:165] Memory required for data: 2078261312
I1127 20:14:29.619829 13057 layer_factory.hpp:77] Creating layer conv2_6/blk/scale
I1127 20:14:29.619837 13057 net.cpp:100] Creating Layer conv2_6/blk/scale
I1127 20:14:29.619841 13057 net.cpp:434] conv2_6/blk/scale <- conv2_6/blk/bn
I1127 20:14:29.619848 13057 net.cpp:395] conv2_6/blk/scale -> conv2_6/blk/bn (in-place)
I1127 20:14:29.619899 13057 layer_factory.hpp:77] Creating layer conv2_6/blk/scale
I1127 20:14:29.620034 13057 net.cpp:150] Setting up conv2_6/blk/scale
I1127 20:14:29.620048 13057 net.cpp:157] Top shape: 16 256 57 57 (13307904)
I1127 20:14:29.620052 13057 net.cpp:165] Memory required for data: 2131492928
I1127 20:14:29.620059 13057 layer_factory.hpp:77] Creating layer relu2_6/blk
I1127 20:14:29.620067 13057 net.cpp:100] Creating Layer relu2_6/blk
I1127 20:14:29.620071 13057 net.cpp:434] relu2_6/blk <- conv2_6/blk/bn
I1127 20:14:29.620095 13057 net.cpp:395] relu2_6/blk -> conv2_6/blk/bn (in-place)
I1127 20:14:29.621457 13057 net.cpp:150] Setting up relu2_6/blk
I1127 20:14:29.621484 13057 net.cpp:157] Top shape: 16 256 57 57 (13307904)
I1127 20:14:29.621490 13057 net.cpp:165] Memory required for data: 2184724544
I1127 20:14:29.621495 13057 layer_factory.hpp:77] Creating layer conv2_6/blk
I1127 20:14:29.621507 13057 net.cpp:100] Creating Layer conv2_6/blk
I1127 20:14:29.621513 13057 net.cpp:434] conv2_6/blk <- conv2_6/blk/bn
I1127 20:14:29.621520 13057 net.cpp:408] conv2_6/blk -> conv2_6/blk
I1127 20:14:29.623527 13057 net.cpp:150] Setting up conv2_6/blk
I1127 20:14:29.623555 13057 net.cpp:157] Top shape: 16 128 57 57 (6653952)
I1127 20:14:29.623560 13057 net.cpp:165] Memory required for data: 2211340352
I1127 20:14:29.623567 13057 layer_factory.hpp:77] Creating layer pool2_6
I1127 20:14:29.623580 13057 net.cpp:100] Creating Layer pool2_6
I1127 20:14:29.623586 13057 net.cpp:434] pool2_6 <- conv2_6/blk
I1127 20:14:29.623594 13057 net.cpp:408] pool2_6 -> pool2_6
I1127 20:14:29.623852 13057 net.cpp:150] Setting up pool2_6
I1127 20:14:29.623872 13057 net.cpp:157] Top shape: 16 128 29 29 (1722368)
I1127 20:14:29.623877 13057 net.cpp:165] Memory required for data: 2218229824
I1127 20:14:29.623880 13057 layer_factory.hpp:77] Creating layer pool2_6_pool2_6_0_split
I1127 20:14:29.623888 13057 net.cpp:100] Creating Layer pool2_6_pool2_6_0_split
I1127 20:14:29.623893 13057 net.cpp:434] pool2_6_pool2_6_0_split <- pool2_6
I1127 20:14:29.623899 13057 net.cpp:408] pool2_6_pool2_6_0_split -> pool2_6_pool2_6_0_split_0
I1127 20:14:29.623906 13057 net.cpp:408] pool2_6_pool2_6_0_split -> pool2_6_pool2_6_0_split_1
I1127 20:14:29.623953 13057 net.cpp:150] Setting up pool2_6_pool2_6_0_split
I1127 20:14:29.623960 13057 net.cpp:157] Top shape: 16 128 29 29 (1722368)
I1127 20:14:29.623965 13057 net.cpp:157] Top shape: 16 128 29 29 (1722368)
I1127 20:14:29.623968 13057 net.cpp:165] Memory required for data: 2232008768
I1127 20:14:29.623972 13057 layer_factory.hpp:77] Creating layer conv3_1/x1/bn
I1127 20:14:29.623981 13057 net.cpp:100] Creating Layer conv3_1/x1/bn
I1127 20:14:29.623986 13057 net.cpp:434] conv3_1/x1/bn <- pool2_6_pool2_6_0_split_0
I1127 20:14:29.623992 13057 net.cpp:408] conv3_1/x1/bn -> conv3_1/x1/bn
I1127 20:14:29.626478 13057 net.cpp:150] Setting up conv3_1/x1/bn
I1127 20:14:29.626507 13057 net.cpp:157] Top shape: 16 128 29 29 (1722368)
I1127 20:14:29.626512 13057 net.cpp:165] Memory required for data: 2238898240
I1127 20:14:29.626523 13057 layer_factory.hpp:77] Creating layer conv3_1/x1/scale
I1127 20:14:29.626533 13057 net.cpp:100] Creating Layer conv3_1/x1/scale
I1127 20:14:29.626538 13057 net.cpp:434] conv3_1/x1/scale <- conv3_1/x1/bn
I1127 20:14:29.626550 13057 net.cpp:395] conv3_1/x1/scale -> conv3_1/x1/bn (in-place)
I1127 20:14:29.626610 13057 layer_factory.hpp:77] Creating layer conv3_1/x1/scale
I1127 20:14:29.626770 13057 net.cpp:150] Setting up conv3_1/x1/scale
I1127 20:14:29.626791 13057 net.cpp:157] Top shape: 16 128 29 29 (1722368)
I1127 20:14:29.626796 13057 net.cpp:165] Memory required for data: 2245787712
I1127 20:14:29.626803 13057 layer_factory.hpp:77] Creating layer relu3_1/x1
I1127 20:14:29.626811 13057 net.cpp:100] Creating Layer relu3_1/x1
I1127 20:14:29.626814 13057 net.cpp:434] relu3_1/x1 <- conv3_1/x1/bn
I1127 20:14:29.626821 13057 net.cpp:395] relu3_1/x1 -> conv3_1/x1/bn (in-place)
I1127 20:14:29.627110 13057 net.cpp:150] Setting up relu3_1/x1
I1127 20:14:29.627130 13057 net.cpp:157] Top shape: 16 128 29 29 (1722368)
I1127 20:14:29.627135 13057 net.cpp:165] Memory required for data: 2252677184
I1127 20:14:29.627138 13057 layer_factory.hpp:77] Creating layer conv3_1/x1
I1127 20:14:29.627148 13057 net.cpp:100] Creating Layer conv3_1/x1
I1127 20:14:29.627153 13057 net.cpp:434] conv3_1/x1 <- conv3_1/x1/bn
I1127 20:14:29.627159 13057 net.cpp:408] conv3_1/x1 -> conv3_1/x1
I1127 20:14:29.629328 13057 net.cpp:150] Setting up conv3_1/x1
I1127 20:14:29.629356 13057 net.cpp:157] Top shape: 16 128 29 29 (1722368)
I1127 20:14:29.629361 13057 net.cpp:165] Memory required for data: 2259566656
I1127 20:14:29.629390 13057 layer_factory.hpp:77] Creating layer conv3_1/x2/bn
I1127 20:14:29.629405 13057 net.cpp:100] Creating Layer conv3_1/x2/bn
I1127 20:14:29.629411 13057 net.cpp:434] conv3_1/x2/bn <- conv3_1/x1
I1127 20:14:29.629420 13057 net.cpp:408] conv3_1/x2/bn -> conv3_1/x2/bn
I1127 20:14:29.629695 13057 net.cpp:150] Setting up conv3_1/x2/bn
I1127 20:14:29.629711 13057 net.cpp:157] Top shape: 16 128 29 29 (1722368)
I1127 20:14:29.629715 13057 net.cpp:165] Memory required for data: 2266456128
I1127 20:14:29.629730 13057 layer_factory.hpp:77] Creating layer conv3_1/x2/scale
I1127 20:14:29.629739 13057 net.cpp:100] Creating Layer conv3_1/x2/scale
I1127 20:14:29.629745 13057 net.cpp:434] conv3_1/x2/scale <- conv3_1/x2/bn
I1127 20:14:29.629750 13057 net.cpp:395] conv3_1/x2/scale -> conv3_1/x2/bn (in-place)
I1127 20:14:29.629804 13057 layer_factory.hpp:77] Creating layer conv3_1/x2/scale
I1127 20:14:29.629951 13057 net.cpp:150] Setting up conv3_1/x2/scale
I1127 20:14:29.629966 13057 net.cpp:157] Top shape: 16 128 29 29 (1722368)
I1127 20:14:29.629971 13057 net.cpp:165] Memory required for data: 2273345600
I1127 20:14:29.629978 13057 layer_factory.hpp:77] Creating layer relu3_1/x2
I1127 20:14:29.629990 13057 net.cpp:100] Creating Layer relu3_1/x2
I1127 20:14:29.629995 13057 net.cpp:434] relu3_1/x2 <- conv3_1/x2/bn
I1127 20:14:29.630002 13057 net.cpp:395] relu3_1/x2 -> conv3_1/x2/bn (in-place)
I1127 20:14:29.630251 13057 net.cpp:150] Setting up relu3_1/x2
I1127 20:14:29.630270 13057 net.cpp:157] Top shape: 16 128 29 29 (1722368)
I1127 20:14:29.630275 13057 net.cpp:165] Memory required for data: 2280235072
I1127 20:14:29.630280 13057 layer_factory.hpp:77] Creating layer conv3_1/x2
I1127 20:14:29.630295 13057 net.cpp:100] Creating Layer conv3_1/x2
I1127 20:14:29.630300 13057 net.cpp:434] conv3_1/x2 <- conv3_1/x2/bn
I1127 20:14:29.630306 13057 net.cpp:408] conv3_1/x2 -> conv3_1/x2
I1127 20:14:29.632436 13057 net.cpp:150] Setting up conv3_1/x2
I1127 20:14:29.632468 13057 net.cpp:157] Top shape: 16 32 29 29 (430592)
I1127 20:14:29.632473 13057 net.cpp:165] Memory required for data: 2281957440
I1127 20:14:29.632481 13057 layer_factory.hpp:77] Creating layer concat_3_1
I1127 20:14:29.632490 13057 net.cpp:100] Creating Layer concat_3_1
I1127 20:14:29.632495 13057 net.cpp:434] concat_3_1 <- pool2_6_pool2_6_0_split_1
I1127 20:14:29.632503 13057 net.cpp:434] concat_3_1 <- conv3_1/x2
I1127 20:14:29.632509 13057 net.cpp:408] concat_3_1 -> concat_3_1
I1127 20:14:29.632575 13057 net.cpp:150] Setting up concat_3_1
I1127 20:14:29.632586 13057 net.cpp:157] Top shape: 16 160 29 29 (2152960)
I1127 20:14:29.632589 13057 net.cpp:165] Memory required for data: 2290569280
I1127 20:14:29.632594 13057 layer_factory.hpp:77] Creating layer concat_3_1_concat_3_1_0_split
I1127 20:14:29.632601 13057 net.cpp:100] Creating Layer concat_3_1_concat_3_1_0_split
I1127 20:14:29.632606 13057 net.cpp:434] concat_3_1_concat_3_1_0_split <- concat_3_1
I1127 20:14:29.632617 13057 net.cpp:408] concat_3_1_concat_3_1_0_split -> concat_3_1_concat_3_1_0_split_0
I1127 20:14:29.632625 13057 net.cpp:408] concat_3_1_concat_3_1_0_split -> concat_3_1_concat_3_1_0_split_1
I1127 20:14:29.632678 13057 net.cpp:150] Setting up concat_3_1_concat_3_1_0_split
I1127 20:14:29.632685 13057 net.cpp:157] Top shape: 16 160 29 29 (2152960)
I1127 20:14:29.632690 13057 net.cpp:157] Top shape: 16 160 29 29 (2152960)
I1127 20:14:29.632694 13057 net.cpp:165] Memory required for data: 2307792960
I1127 20:14:29.632699 13057 layer_factory.hpp:77] Creating layer conv3_2/x1/bn
I1127 20:14:29.632705 13057 net.cpp:100] Creating Layer conv3_2/x1/bn
I1127 20:14:29.632709 13057 net.cpp:434] conv3_2/x1/bn <- concat_3_1_concat_3_1_0_split_0
I1127 20:14:29.632721 13057 net.cpp:408] conv3_2/x1/bn -> conv3_2/x1/bn
I1127 20:14:29.632984 13057 net.cpp:150] Setting up conv3_2/x1/bn
I1127 20:14:29.633000 13057 net.cpp:157] Top shape: 16 160 29 29 (2152960)
I1127 20:14:29.633004 13057 net.cpp:165] Memory required for data: 2316404800
I1127 20:14:29.633039 13057 layer_factory.hpp:77] Creating layer conv3_2/x1/scale
I1127 20:14:29.633049 13057 net.cpp:100] Creating Layer conv3_2/x1/scale
I1127 20:14:29.633054 13057 net.cpp:434] conv3_2/x1/scale <- conv3_2/x1/bn
I1127 20:14:29.633059 13057 net.cpp:395] conv3_2/x1/scale -> conv3_2/x1/bn (in-place)
I1127 20:14:29.633116 13057 layer_factory.hpp:77] Creating layer conv3_2/x1/scale
I1127 20:14:29.633291 13057 net.cpp:150] Setting up conv3_2/x1/scale
I1127 20:14:29.633307 13057 net.cpp:157] Top shape: 16 160 29 29 (2152960)
I1127 20:14:29.633312 13057 net.cpp:165] Memory required for data: 2325016640
I1127 20:14:29.633319 13057 layer_factory.hpp:77] Creating layer relu3_2/x1
I1127 20:14:29.633327 13057 net.cpp:100] Creating Layer relu3_2/x1
I1127 20:14:29.633330 13057 net.cpp:434] relu3_2/x1 <- conv3_2/x1/bn
I1127 20:14:29.633342 13057 net.cpp:395] relu3_2/x1 -> conv3_2/x1/bn (in-place)
I1127 20:14:29.633570 13057 net.cpp:150] Setting up relu3_2/x1
I1127 20:14:29.633589 13057 net.cpp:157] Top shape: 16 160 29 29 (2152960)
I1127 20:14:29.633594 13057 net.cpp:165] Memory required for data: 2333628480
I1127 20:14:29.633604 13057 layer_factory.hpp:77] Creating layer conv3_2/x1
I1127 20:14:29.633618 13057 net.cpp:100] Creating Layer conv3_2/x1
I1127 20:14:29.633625 13057 net.cpp:434] conv3_2/x1 <- conv3_2/x1/bn
I1127 20:14:29.633630 13057 net.cpp:408] conv3_2/x1 -> conv3_2/x1
I1127 20:14:29.635823 13057 net.cpp:150] Setting up conv3_2/x1
I1127 20:14:29.635850 13057 net.cpp:157] Top shape: 16 128 29 29 (1722368)
I1127 20:14:29.635862 13057 net.cpp:165] Memory required for data: 2340517952
I1127 20:14:29.635870 13057 layer_factory.hpp:77] Creating layer conv3_2/x2/bn
I1127 20:14:29.635879 13057 net.cpp:100] Creating Layer conv3_2/x2/bn
I1127 20:14:29.635885 13057 net.cpp:434] conv3_2/x2/bn <- conv3_2/x1
I1127 20:14:29.635892 13057 net.cpp:408] conv3_2/x2/bn -> conv3_2/x2/bn
I1127 20:14:29.636168 13057 net.cpp:150] Setting up conv3_2/x2/bn
I1127 20:14:29.636184 13057 net.cpp:157] Top shape: 16 128 29 29 (1722368)
I1127 20:14:29.636199 13057 net.cpp:165] Memory required for data: 2347407424
I1127 20:14:29.636210 13057 layer_factory.hpp:77] Creating layer conv3_2/x2/scale
I1127 20:14:29.636219 13057 net.cpp:100] Creating Layer conv3_2/x2/scale
I1127 20:14:29.636224 13057 net.cpp:434] conv3_2/x2/scale <- conv3_2/x2/bn
I1127 20:14:29.636236 13057 net.cpp:395] conv3_2/x2/scale -> conv3_2/x2/bn (in-place)
I1127 20:14:29.636296 13057 layer_factory.hpp:77] Creating layer conv3_2/x2/scale
I1127 20:14:29.636448 13057 net.cpp:150] Setting up conv3_2/x2/scale
I1127 20:14:29.636463 13057 net.cpp:157] Top shape: 16 128 29 29 (1722368)
I1127 20:14:29.636467 13057 net.cpp:165] Memory required for data: 2354296896
I1127 20:14:29.636476 13057 layer_factory.hpp:77] Creating layer relu3_2/x2
I1127 20:14:29.636482 13057 net.cpp:100] Creating Layer relu3_2/x2
I1127 20:14:29.636487 13057 net.cpp:434] relu3_2/x2 <- conv3_2/x2/bn
I1127 20:14:29.636493 13057 net.cpp:395] relu3_2/x2 -> conv3_2/x2/bn (in-place)
I1127 20:14:29.637878 13057 net.cpp:150] Setting up relu3_2/x2
I1127 20:14:29.637905 13057 net.cpp:157] Top shape: 16 128 29 29 (1722368)
I1127 20:14:29.637910 13057 net.cpp:165] Memory required for data: 2361186368
I1127 20:14:29.637917 13057 layer_factory.hpp:77] Creating layer conv3_2/x2
I1127 20:14:29.637933 13057 net.cpp:100] Creating Layer conv3_2/x2
I1127 20:14:29.637938 13057 net.cpp:434] conv3_2/x2 <- conv3_2/x2/bn
I1127 20:14:29.637946 13057 net.cpp:408] conv3_2/x2 -> conv3_2/x2
I1127 20:14:29.640076 13057 net.cpp:150] Setting up conv3_2/x2
I1127 20:14:29.640103 13057 net.cpp:157] Top shape: 16 32 29 29 (430592)
I1127 20:14:29.640108 13057 net.cpp:165] Memory required for data: 2362908736
I1127 20:14:29.640117 13057 layer_factory.hpp:77] Creating layer concat_3_2
I1127 20:14:29.640126 13057 net.cpp:100] Creating Layer concat_3_2
I1127 20:14:29.640131 13057 net.cpp:434] concat_3_2 <- concat_3_1_concat_3_1_0_split_1
I1127 20:14:29.640138 13057 net.cpp:434] concat_3_2 <- conv3_2/x2
I1127 20:14:29.640146 13057 net.cpp:408] concat_3_2 -> concat_3_2
I1127 20:14:29.640225 13057 net.cpp:150] Setting up concat_3_2
I1127 20:14:29.640235 13057 net.cpp:157] Top shape: 16 192 29 29 (2583552)
I1127 20:14:29.640244 13057 net.cpp:165] Memory required for data: 2373242944
I1127 20:14:29.640249 13057 layer_factory.hpp:77] Creating layer concat_3_2_concat_3_2_0_split
I1127 20:14:29.640256 13057 net.cpp:100] Creating Layer concat_3_2_concat_3_2_0_split
I1127 20:14:29.640260 13057 net.cpp:434] concat_3_2_concat_3_2_0_split <- concat_3_2
I1127 20:14:29.640267 13057 net.cpp:408] concat_3_2_concat_3_2_0_split -> concat_3_2_concat_3_2_0_split_0
I1127 20:14:29.640286 13057 net.cpp:408] concat_3_2_concat_3_2_0_split -> concat_3_2_concat_3_2_0_split_1
I1127 20:14:29.640339 13057 net.cpp:150] Setting up concat_3_2_concat_3_2_0_split
I1127 20:14:29.640352 13057 net.cpp:157] Top shape: 16 192 29 29 (2583552)
I1127 20:14:29.640357 13057 net.cpp:157] Top shape: 16 192 29 29 (2583552)
I1127 20:14:29.640362 13057 net.cpp:165] Memory required for data: 2393911360
I1127 20:14:29.640365 13057 layer_factory.hpp:77] Creating layer conv3_3/x1/bn
I1127 20:14:29.640378 13057 net.cpp:100] Creating Layer conv3_3/x1/bn
I1127 20:14:29.640383 13057 net.cpp:434] conv3_3/x1/bn <- concat_3_2_concat_3_2_0_split_0
I1127 20:14:29.640389 13057 net.cpp:408] conv3_3/x1/bn -> conv3_3/x1/bn
I1127 20:14:29.640679 13057 net.cpp:150] Setting up conv3_3/x1/bn
I1127 20:14:29.640699 13057 net.cpp:157] Top shape: 16 192 29 29 (2583552)
I1127 20:14:29.640703 13057 net.cpp:165] Memory required for data: 2404245568
I1127 20:14:29.640713 13057 layer_factory.hpp:77] Creating layer conv3_3/x1/scale
I1127 20:14:29.640722 13057 net.cpp:100] Creating Layer conv3_3/x1/scale
I1127 20:14:29.640727 13057 net.cpp:434] conv3_3/x1/scale <- conv3_3/x1/bn
I1127 20:14:29.640739 13057 net.cpp:395] conv3_3/x1/scale -> conv3_3/x1/bn (in-place)
I1127 20:14:29.640799 13057 layer_factory.hpp:77] Creating layer conv3_3/x1/scale
I1127 20:14:29.640959 13057 net.cpp:150] Setting up conv3_3/x1/scale
I1127 20:14:29.640974 13057 net.cpp:157] Top shape: 16 192 29 29 (2583552)
I1127 20:14:29.640978 13057 net.cpp:165] Memory required for data: 2414579776
I1127 20:14:29.640985 13057 layer_factory.hpp:77] Creating layer relu3_3/x1
I1127 20:14:29.640992 13057 net.cpp:100] Creating Layer relu3_3/x1
I1127 20:14:29.640997 13057 net.cpp:434] relu3_3/x1 <- conv3_3/x1/bn
I1127 20:14:29.641012 13057 net.cpp:395] relu3_3/x1 -> conv3_3/x1/bn (in-place)
I1127 20:14:29.642374 13057 net.cpp:150] Setting up relu3_3/x1
I1127 20:14:29.642400 13057 net.cpp:157] Top shape: 16 192 29 29 (2583552)
I1127 20:14:29.642405 13057 net.cpp:165] Memory required for data: 2424913984
I1127 20:14:29.642410 13057 layer_factory.hpp:77] Creating layer conv3_3/x1
I1127 20:14:29.642426 13057 net.cpp:100] Creating Layer conv3_3/x1
I1127 20:14:29.642432 13057 net.cpp:434] conv3_3/x1 <- conv3_3/x1/bn
I1127 20:14:29.642444 13057 net.cpp:408] conv3_3/x1 -> conv3_3/x1
I1127 20:14:29.644644 13057 net.cpp:150] Setting up conv3_3/x1
I1127 20:14:29.644672 13057 net.cpp:157] Top shape: 16 128 29 29 (1722368)
I1127 20:14:29.644677 13057 net.cpp:165] Memory required for data: 2431803456
I1127 20:14:29.644685 13057 layer_factory.hpp:77] Creating layer conv3_3/x2/bn
I1127 20:14:29.644695 13057 net.cpp:100] Creating Layer conv3_3/x2/bn
I1127 20:14:29.644700 13057 net.cpp:434] conv3_3/x2/bn <- conv3_3/x1
I1127 20:14:29.644713 13057 net.cpp:408] conv3_3/x2/bn -> conv3_3/x2/bn
I1127 20:14:29.644992 13057 net.cpp:150] Setting up conv3_3/x2/bn
I1127 20:14:29.645009 13057 net.cpp:157] Top shape: 16 128 29 29 (1722368)
I1127 20:14:29.645014 13057 net.cpp:165] Memory required for data: 2438692928
I1127 20:14:29.645022 13057 layer_factory.hpp:77] Creating layer conv3_3/x2/scale
I1127 20:14:29.645037 13057 net.cpp:100] Creating Layer conv3_3/x2/scale
I1127 20:14:29.645042 13057 net.cpp:434] conv3_3/x2/scale <- conv3_3/x2/bn
I1127 20:14:29.645048 13057 net.cpp:395] conv3_3/x2/scale -> conv3_3/x2/bn (in-place)
I1127 20:14:29.645103 13057 layer_factory.hpp:77] Creating layer conv3_3/x2/scale
I1127 20:14:29.645267 13057 net.cpp:150] Setting up conv3_3/x2/scale
I1127 20:14:29.645304 13057 net.cpp:157] Top shape: 16 128 29 29 (1722368)
I1127 20:14:29.645309 13057 net.cpp:165] Memory required for data: 2445582400
I1127 20:14:29.645318 13057 layer_factory.hpp:77] Creating layer relu3_3/x2
I1127 20:14:29.645325 13057 net.cpp:100] Creating Layer relu3_3/x2
I1127 20:14:29.645329 13057 net.cpp:434] relu3_3/x2 <- conv3_3/x2/bn
I1127 20:14:29.645341 13057 net.cpp:395] relu3_3/x2 -> conv3_3/x2/bn (in-place)
I1127 20:14:29.645576 13057 net.cpp:150] Setting up relu3_3/x2
I1127 20:14:29.645594 13057 net.cpp:157] Top shape: 16 128 29 29 (1722368)
I1127 20:14:29.645599 13057 net.cpp:165] Memory required for data: 2452471872
I1127 20:14:29.645603 13057 layer_factory.hpp:77] Creating layer conv3_3/x2
I1127 20:14:29.645622 13057 net.cpp:100] Creating Layer conv3_3/x2
I1127 20:14:29.645632 13057 net.cpp:434] conv3_3/x2 <- conv3_3/x2/bn
I1127 20:14:29.645639 13057 net.cpp:408] conv3_3/x2 -> conv3_3/x2
I1127 20:14:29.647912 13057 net.cpp:150] Setting up conv3_3/x2
I1127 20:14:29.647943 13057 net.cpp:157] Top shape: 16 32 29 29 (430592)
I1127 20:14:29.647948 13057 net.cpp:165] Memory required for data: 2454194240
I1127 20:14:29.647956 13057 layer_factory.hpp:77] Creating layer concat_3_3
I1127 20:14:29.647964 13057 net.cpp:100] Creating Layer concat_3_3
I1127 20:14:29.647969 13057 net.cpp:434] concat_3_3 <- concat_3_2_concat_3_2_0_split_1
I1127 20:14:29.647977 13057 net.cpp:434] concat_3_3 <- conv3_3/x2
I1127 20:14:29.647991 13057 net.cpp:408] concat_3_3 -> concat_3_3
I1127 20:14:29.648030 13057 net.cpp:150] Setting up concat_3_3
I1127 20:14:29.648036 13057 net.cpp:157] Top shape: 16 224 29 29 (3014144)
I1127 20:14:29.648039 13057 net.cpp:165] Memory required for data: 2466250816
I1127 20:14:29.648043 13057 layer_factory.hpp:77] Creating layer concat_3_3_concat_3_3_0_split
I1127 20:14:29.648056 13057 net.cpp:100] Creating Layer concat_3_3_concat_3_3_0_split
I1127 20:14:29.648062 13057 net.cpp:434] concat_3_3_concat_3_3_0_split <- concat_3_3
I1127 20:14:29.648067 13057 net.cpp:408] concat_3_3_concat_3_3_0_split -> concat_3_3_concat_3_3_0_split_0
I1127 20:14:29.648074 13057 net.cpp:408] concat_3_3_concat_3_3_0_split -> concat_3_3_concat_3_3_0_split_1
I1127 20:14:29.648128 13057 net.cpp:150] Setting up concat_3_3_concat_3_3_0_split
I1127 20:14:29.648134 13057 net.cpp:157] Top shape: 16 224 29 29 (3014144)
I1127 20:14:29.648139 13057 net.cpp:157] Top shape: 16 224 29 29 (3014144)
I1127 20:14:29.648144 13057 net.cpp:165] Memory required for data: 2490363968
I1127 20:14:29.648147 13057 layer_factory.hpp:77] Creating layer conv3_4/x1/bn
I1127 20:14:29.648159 13057 net.cpp:100] Creating Layer conv3_4/x1/bn
I1127 20:14:29.648164 13057 net.cpp:434] conv3_4/x1/bn <- concat_3_3_concat_3_3_0_split_0
I1127 20:14:29.648170 13057 net.cpp:408] conv3_4/x1/bn -> conv3_4/x1/bn
I1127 20:14:29.648444 13057 net.cpp:150] Setting up conv3_4/x1/bn
I1127 20:14:29.648460 13057 net.cpp:157] Top shape: 16 224 29 29 (3014144)
I1127 20:14:29.648465 13057 net.cpp:165] Memory required for data: 2502420544
I1127 20:14:29.648474 13057 layer_factory.hpp:77] Creating layer conv3_4/x1/scale
I1127 20:14:29.648488 13057 net.cpp:100] Creating Layer conv3_4/x1/scale
I1127 20:14:29.648494 13057 net.cpp:434] conv3_4/x1/scale <- conv3_4/x1/bn
I1127 20:14:29.648500 13057 net.cpp:395] conv3_4/x1/scale -> conv3_4/x1/bn (in-place)
I1127 20:14:29.648589 13057 layer_factory.hpp:77] Creating layer conv3_4/x1/scale
I1127 20:14:29.648761 13057 net.cpp:150] Setting up conv3_4/x1/scale
I1127 20:14:29.648777 13057 net.cpp:157] Top shape: 16 224 29 29 (3014144)
I1127 20:14:29.648780 13057 net.cpp:165] Memory required for data: 2514477120
I1127 20:14:29.648788 13057 layer_factory.hpp:77] Creating layer relu3_4/x1
I1127 20:14:29.648802 13057 net.cpp:100] Creating Layer relu3_4/x1
I1127 20:14:29.648807 13057 net.cpp:434] relu3_4/x1 <- conv3_4/x1/bn
I1127 20:14:29.648813 13057 net.cpp:395] relu3_4/x1 -> conv3_4/x1/bn (in-place)
I1127 20:14:29.649047 13057 net.cpp:150] Setting up relu3_4/x1
I1127 20:14:29.649065 13057 net.cpp:157] Top shape: 16 224 29 29 (3014144)
I1127 20:14:29.649088 13057 net.cpp:165] Memory required for data: 2526533696
I1127 20:14:29.649093 13057 layer_factory.hpp:77] Creating layer conv3_4/x1
I1127 20:14:29.649108 13057 net.cpp:100] Creating Layer conv3_4/x1
I1127 20:14:29.649114 13057 net.cpp:434] conv3_4/x1 <- conv3_4/x1/bn
I1127 20:14:29.649127 13057 net.cpp:408] conv3_4/x1 -> conv3_4/x1
I1127 20:14:29.651314 13057 net.cpp:150] Setting up conv3_4/x1
I1127 20:14:29.651341 13057 net.cpp:157] Top shape: 16 128 29 29 (1722368)
I1127 20:14:29.651346 13057 net.cpp:165] Memory required for data: 2533423168
I1127 20:14:29.651355 13057 layer_factory.hpp:77] Creating layer conv3_4/x2/bn
I1127 20:14:29.651371 13057 net.cpp:100] Creating Layer conv3_4/x2/bn
I1127 20:14:29.651376 13057 net.cpp:434] conv3_4/x2/bn <- conv3_4/x1
I1127 20:14:29.651383 13057 net.cpp:408] conv3_4/x2/bn -> conv3_4/x2/bn
I1127 20:14:29.651667 13057 net.cpp:150] Setting up conv3_4/x2/bn
I1127 20:14:29.651684 13057 net.cpp:157] Top shape: 16 128 29 29 (1722368)
I1127 20:14:29.651688 13057 net.cpp:165] Memory required for data: 2540312640
I1127 20:14:29.651727 13057 layer_factory.hpp:77] Creating layer conv3_4/x2/scale
I1127 20:14:29.651742 13057 net.cpp:100] Creating Layer conv3_4/x2/scale
I1127 20:14:29.651747 13057 net.cpp:434] conv3_4/x2/scale <- conv3_4/x2/bn
I1127 20:14:29.651753 13057 net.cpp:395] conv3_4/x2/scale -> conv3_4/x2/bn (in-place)
I1127 20:14:29.651814 13057 layer_factory.hpp:77] Creating layer conv3_4/x2/scale
I1127 20:14:29.651968 13057 net.cpp:150] Setting up conv3_4/x2/scale
I1127 20:14:29.651983 13057 net.cpp:157] Top shape: 16 128 29 29 (1722368)
I1127 20:14:29.651988 13057 net.cpp:165] Memory required for data: 2547202112
I1127 20:14:29.651995 13057 layer_factory.hpp:77] Creating layer relu3_4/x2
I1127 20:14:29.652004 13057 net.cpp:100] Creating Layer relu3_4/x2
I1127 20:14:29.652007 13057 net.cpp:434] relu3_4/x2 <- conv3_4/x2/bn
I1127 20:14:29.652014 13057 net.cpp:395] relu3_4/x2 -> conv3_4/x2/bn (in-place)
I1127 20:14:29.652264 13057 net.cpp:150] Setting up relu3_4/x2
I1127 20:14:29.652282 13057 net.cpp:157] Top shape: 16 128 29 29 (1722368)
I1127 20:14:29.652287 13057 net.cpp:165] Memory required for data: 2554091584
I1127 20:14:29.652292 13057 layer_factory.hpp:77] Creating layer conv3_4/x2
I1127 20:14:29.652307 13057 net.cpp:100] Creating Layer conv3_4/x2
I1127 20:14:29.652313 13057 net.cpp:434] conv3_4/x2 <- conv3_4/x2/bn
I1127 20:14:29.652319 13057 net.cpp:408] conv3_4/x2 -> conv3_4/x2
I1127 20:14:29.657496 13057 net.cpp:150] Setting up conv3_4/x2
I1127 20:14:29.657526 13057 net.cpp:157] Top shape: 16 32 29 29 (430592)
I1127 20:14:29.657531 13057 net.cpp:165] Memory required for data: 2555813952
I1127 20:14:29.657539 13057 layer_factory.hpp:77] Creating layer concat_3_4
I1127 20:14:29.657547 13057 net.cpp:100] Creating Layer concat_3_4
I1127 20:14:29.657553 13057 net.cpp:434] concat_3_4 <- concat_3_3_concat_3_3_0_split_1
I1127 20:14:29.657562 13057 net.cpp:434] concat_3_4 <- conv3_4/x2
I1127 20:14:29.657570 13057 net.cpp:408] concat_3_4 -> concat_3_4
I1127 20:14:29.657614 13057 net.cpp:150] Setting up concat_3_4
I1127 20:14:29.657624 13057 net.cpp:157] Top shape: 16 256 29 29 (3444736)
I1127 20:14:29.657629 13057 net.cpp:165] Memory required for data: 2569592896
I1127 20:14:29.657632 13057 layer_factory.hpp:77] Creating layer concat_3_4_concat_3_4_0_split
I1127 20:14:29.657639 13057 net.cpp:100] Creating Layer concat_3_4_concat_3_4_0_split
I1127 20:14:29.657642 13057 net.cpp:434] concat_3_4_concat_3_4_0_split <- concat_3_4
I1127 20:14:29.657649 13057 net.cpp:408] concat_3_4_concat_3_4_0_split -> concat_3_4_concat_3_4_0_split_0
I1127 20:14:29.657655 13057 net.cpp:408] concat_3_4_concat_3_4_0_split -> concat_3_4_concat_3_4_0_split_1
I1127 20:14:29.657702 13057 net.cpp:150] Setting up concat_3_4_concat_3_4_0_split
I1127 20:14:29.657708 13057 net.cpp:157] Top shape: 16 256 29 29 (3444736)
I1127 20:14:29.657713 13057 net.cpp:157] Top shape: 16 256 29 29 (3444736)
I1127 20:14:29.657717 13057 net.cpp:165] Memory required for data: 2597150784
I1127 20:14:29.657735 13057 layer_factory.hpp:77] Creating layer conv3_5/x1/bn
I1127 20:14:29.657745 13057 net.cpp:100] Creating Layer conv3_5/x1/bn
I1127 20:14:29.657750 13057 net.cpp:434] conv3_5/x1/bn <- concat_3_4_concat_3_4_0_split_0
I1127 20:14:29.657757 13057 net.cpp:408] conv3_5/x1/bn -> conv3_5/x1/bn
I1127 20:14:29.658005 13057 net.cpp:150] Setting up conv3_5/x1/bn
I1127 20:14:29.658022 13057 net.cpp:157] Top shape: 16 256 29 29 (3444736)
I1127 20:14:29.658026 13057 net.cpp:165] Memory required for data: 2610929728
I1127 20:14:29.658038 13057 layer_factory.hpp:77] Creating layer conv3_5/x1/scale
I1127 20:14:29.658046 13057 net.cpp:100] Creating Layer conv3_5/x1/scale
I1127 20:14:29.658051 13057 net.cpp:434] conv3_5/x1/scale <- conv3_5/x1/bn
I1127 20:14:29.658057 13057 net.cpp:395] conv3_5/x1/scale -> conv3_5/x1/bn (in-place)
I1127 20:14:29.658110 13057 layer_factory.hpp:77] Creating layer conv3_5/x1/scale
I1127 20:14:29.658262 13057 net.cpp:150] Setting up conv3_5/x1/scale
I1127 20:14:29.658275 13057 net.cpp:157] Top shape: 16 256 29 29 (3444736)
I1127 20:14:29.658280 13057 net.cpp:165] Memory required for data: 2624708672
I1127 20:14:29.658288 13057 layer_factory.hpp:77] Creating layer relu3_5/x1
I1127 20:14:29.658296 13057 net.cpp:100] Creating Layer relu3_5/x1
I1127 20:14:29.658301 13057 net.cpp:434] relu3_5/x1 <- conv3_5/x1/bn
I1127 20:14:29.658308 13057 net.cpp:395] relu3_5/x1 -> conv3_5/x1/bn (in-place)
I1127 20:14:29.658531 13057 net.cpp:150] Setting up relu3_5/x1
I1127 20:14:29.658550 13057 net.cpp:157] Top shape: 16 256 29 29 (3444736)
I1127 20:14:29.658553 13057 net.cpp:165] Memory required for data: 2638487616
I1127 20:14:29.658557 13057 layer_factory.hpp:77] Creating layer conv3_5/x1
I1127 20:14:29.658569 13057 net.cpp:100] Creating Layer conv3_5/x1
I1127 20:14:29.658573 13057 net.cpp:434] conv3_5/x1 <- conv3_5/x1/bn
I1127 20:14:29.658581 13057 net.cpp:408] conv3_5/x1 -> conv3_5/x1
I1127 20:14:29.660694 13057 net.cpp:150] Setting up conv3_5/x1
I1127 20:14:29.660723 13057 net.cpp:157] Top shape: 16 128 29 29 (1722368)
I1127 20:14:29.660728 13057 net.cpp:165] Memory required for data: 2645377088
I1127 20:14:29.660737 13057 layer_factory.hpp:77] Creating layer conv3_5/x2/bn
I1127 20:14:29.660748 13057 net.cpp:100] Creating Layer conv3_5/x2/bn
I1127 20:14:29.660754 13057 net.cpp:434] conv3_5/x2/bn <- conv3_5/x1
I1127 20:14:29.660761 13057 net.cpp:408] conv3_5/x2/bn -> conv3_5/x2/bn
I1127 20:14:29.661015 13057 net.cpp:150] Setting up conv3_5/x2/bn
I1127 20:14:29.661031 13057 net.cpp:157] Top shape: 16 128 29 29 (1722368)
I1127 20:14:29.661036 13057 net.cpp:165] Memory required for data: 2652266560
I1127 20:14:29.661044 13057 layer_factory.hpp:77] Creating layer conv3_5/x2/scale
I1127 20:14:29.661052 13057 net.cpp:100] Creating Layer conv3_5/x2/scale
I1127 20:14:29.661057 13057 net.cpp:434] conv3_5/x2/scale <- conv3_5/x2/bn
I1127 20:14:29.661065 13057 net.cpp:395] conv3_5/x2/scale -> conv3_5/x2/bn (in-place)
I1127 20:14:29.661128 13057 layer_factory.hpp:77] Creating layer conv3_5/x2/scale
I1127 20:14:29.661278 13057 net.cpp:150] Setting up conv3_5/x2/scale
I1127 20:14:29.661293 13057 net.cpp:157] Top shape: 16 128 29 29 (1722368)
I1127 20:14:29.661296 13057 net.cpp:165] Memory required for data: 2659156032
I1127 20:14:29.661304 13057 layer_factory.hpp:77] Creating layer relu3_5/x2
I1127 20:14:29.661314 13057 net.cpp:100] Creating Layer relu3_5/x2
I1127 20:14:29.661319 13057 net.cpp:434] relu3_5/x2 <- conv3_5/x2/bn
I1127 20:14:29.661324 13057 net.cpp:395] relu3_5/x2 -> conv3_5/x2/bn (in-place)
I1127 20:14:29.662657 13057 net.cpp:150] Setting up relu3_5/x2
I1127 20:14:29.662684 13057 net.cpp:157] Top shape: 16 128 29 29 (1722368)
I1127 20:14:29.662689 13057 net.cpp:165] Memory required for data: 2666045504
I1127 20:14:29.662694 13057 layer_factory.hpp:77] Creating layer conv3_5/x2
I1127 20:14:29.662709 13057 net.cpp:100] Creating Layer conv3_5/x2
I1127 20:14:29.662715 13057 net.cpp:434] conv3_5/x2 <- conv3_5/x2/bn
I1127 20:14:29.662722 13057 net.cpp:408] conv3_5/x2 -> conv3_5/x2
I1127 20:14:29.663650 13057 net.cpp:150] Setting up conv3_5/x2
I1127 20:14:29.663688 13057 net.cpp:157] Top shape: 16 32 29 29 (430592)
I1127 20:14:29.663694 13057 net.cpp:165] Memory required for data: 2667767872
I1127 20:14:29.663702 13057 layer_factory.hpp:77] Creating layer concat_3_5
I1127 20:14:29.663712 13057 net.cpp:100] Creating Layer concat_3_5
I1127 20:14:29.663717 13057 net.cpp:434] concat_3_5 <- concat_3_4_concat_3_4_0_split_1
I1127 20:14:29.663724 13057 net.cpp:434] concat_3_5 <- conv3_5/x2
I1127 20:14:29.663730 13057 net.cpp:408] concat_3_5 -> concat_3_5
I1127 20:14:29.663770 13057 net.cpp:150] Setting up concat_3_5
I1127 20:14:29.663777 13057 net.cpp:157] Top shape: 16 288 29 29 (3875328)
I1127 20:14:29.663781 13057 net.cpp:165] Memory required for data: 2683269184
I1127 20:14:29.663785 13057 layer_factory.hpp:77] Creating layer concat_3_5_concat_3_5_0_split
I1127 20:14:29.663791 13057 net.cpp:100] Creating Layer concat_3_5_concat_3_5_0_split
I1127 20:14:29.663796 13057 net.cpp:434] concat_3_5_concat_3_5_0_split <- concat_3_5
I1127 20:14:29.663801 13057 net.cpp:408] concat_3_5_concat_3_5_0_split -> concat_3_5_concat_3_5_0_split_0
I1127 20:14:29.663810 13057 net.cpp:408] concat_3_5_concat_3_5_0_split -> concat_3_5_concat_3_5_0_split_1
I1127 20:14:29.663853 13057 net.cpp:150] Setting up concat_3_5_concat_3_5_0_split
I1127 20:14:29.663859 13057 net.cpp:157] Top shape: 16 288 29 29 (3875328)
I1127 20:14:29.663864 13057 net.cpp:157] Top shape: 16 288 29 29 (3875328)
I1127 20:14:29.663867 13057 net.cpp:165] Memory required for data: 2714271808
I1127 20:14:29.663872 13057 layer_factory.hpp:77] Creating layer conv3_6/x1/bn
I1127 20:14:29.663882 13057 net.cpp:100] Creating Layer conv3_6/x1/bn
I1127 20:14:29.663885 13057 net.cpp:434] conv3_6/x1/bn <- concat_3_5_concat_3_5_0_split_0
I1127 20:14:29.663893 13057 net.cpp:408] conv3_6/x1/bn -> conv3_6/x1/bn
I1127 20:14:29.664139 13057 net.cpp:150] Setting up conv3_6/x1/bn
I1127 20:14:29.664147 13057 net.cpp:157] Top shape: 16 288 29 29 (3875328)
I1127 20:14:29.664151 13057 net.cpp:165] Memory required for data: 2729773120
I1127 20:14:29.664160 13057 layer_factory.hpp:77] Creating layer conv3_6/x1/scale
I1127 20:14:29.664167 13057 net.cpp:100] Creating Layer conv3_6/x1/scale
I1127 20:14:29.664172 13057 net.cpp:434] conv3_6/x1/scale <- conv3_6/x1/bn
I1127 20:14:29.664177 13057 net.cpp:395] conv3_6/x1/scale -> conv3_6/x1/bn (in-place)
I1127 20:14:29.664244 13057 layer_factory.hpp:77] Creating layer conv3_6/x1/scale
I1127 20:14:29.664389 13057 net.cpp:150] Setting up conv3_6/x1/scale
I1127 20:14:29.664404 13057 net.cpp:157] Top shape: 16 288 29 29 (3875328)
I1127 20:14:29.664408 13057 net.cpp:165] Memory required for data: 2745274432
I1127 20:14:29.664415 13057 layer_factory.hpp:77] Creating layer relu3_6/x1
I1127 20:14:29.664423 13057 net.cpp:100] Creating Layer relu3_6/x1
I1127 20:14:29.664427 13057 net.cpp:434] relu3_6/x1 <- conv3_6/x1/bn
I1127 20:14:29.664433 13057 net.cpp:395] relu3_6/x1 -> conv3_6/x1/bn (in-place)
I1127 20:14:29.665787 13057 net.cpp:150] Setting up relu3_6/x1
I1127 20:14:29.665815 13057 net.cpp:157] Top shape: 16 288 29 29 (3875328)
I1127 20:14:29.665820 13057 net.cpp:165] Memory required for data: 2760775744
I1127 20:14:29.665827 13057 layer_factory.hpp:77] Creating layer conv3_6/x1
I1127 20:14:29.665838 13057 net.cpp:100] Creating Layer conv3_6/x1
I1127 20:14:29.665843 13057 net.cpp:434] conv3_6/x1 <- conv3_6/x1/bn
I1127 20:14:29.665851 13057 net.cpp:408] conv3_6/x1 -> conv3_6/x1
I1127 20:14:29.667935 13057 net.cpp:150] Setting up conv3_6/x1
I1127 20:14:29.667963 13057 net.cpp:157] Top shape: 16 128 29 29 (1722368)
I1127 20:14:29.667968 13057 net.cpp:165] Memory required for data: 2767665216
I1127 20:14:29.667976 13057 layer_factory.hpp:77] Creating layer conv3_6/x2/bn
I1127 20:14:29.667987 13057 net.cpp:100] Creating Layer conv3_6/x2/bn
I1127 20:14:29.667994 13057 net.cpp:434] conv3_6/x2/bn <- conv3_6/x1
I1127 20:14:29.668000 13057 net.cpp:408] conv3_6/x2/bn -> conv3_6/x2/bn
I1127 20:14:29.668334 13057 net.cpp:150] Setting up conv3_6/x2/bn
I1127 20:14:29.668351 13057 net.cpp:157] Top shape: 16 128 29 29 (1722368)
I1127 20:14:29.668370 13057 net.cpp:165] Memory required for data: 2774554688
I1127 20:14:29.668381 13057 layer_factory.hpp:77] Creating layer conv3_6/x2/scale
I1127 20:14:29.668390 13057 net.cpp:100] Creating Layer conv3_6/x2/scale
I1127 20:14:29.668395 13057 net.cpp:434] conv3_6/x2/scale <- conv3_6/x2/bn
I1127 20:14:29.668404 13057 net.cpp:395] conv3_6/x2/scale -> conv3_6/x2/bn (in-place)
I1127 20:14:29.668459 13057 layer_factory.hpp:77] Creating layer conv3_6/x2/scale
I1127 20:14:29.668624 13057 net.cpp:150] Setting up conv3_6/x2/scale
I1127 20:14:29.668646 13057 net.cpp:157] Top shape: 16 128 29 29 (1722368)
I1127 20:14:29.668651 13057 net.cpp:165] Memory required for data: 2781444160
I1127 20:14:29.668659 13057 layer_factory.hpp:77] Creating layer relu3_6/x2
I1127 20:14:29.668682 13057 net.cpp:100] Creating Layer relu3_6/x2
I1127 20:14:29.668689 13057 net.cpp:434] relu3_6/x2 <- conv3_6/x2/bn
I1127 20:14:29.668694 13057 net.cpp:395] relu3_6/x2 -> conv3_6/x2/bn (in-place)
I1127 20:14:29.668921 13057 net.cpp:150] Setting up relu3_6/x2
I1127 20:14:29.668939 13057 net.cpp:157] Top shape: 16 128 29 29 (1722368)
I1127 20:14:29.668943 13057 net.cpp:165] Memory required for data: 2788333632
I1127 20:14:29.668948 13057 layer_factory.hpp:77] Creating layer conv3_6/x2
I1127 20:14:29.668961 13057 net.cpp:100] Creating Layer conv3_6/x2
I1127 20:14:29.668965 13057 net.cpp:434] conv3_6/x2 <- conv3_6/x2/bn
I1127 20:14:29.668973 13057 net.cpp:408] conv3_6/x2 -> conv3_6/x2
I1127 20:14:29.672116 13057 net.cpp:150] Setting up conv3_6/x2
I1127 20:14:29.672144 13057 net.cpp:157] Top shape: 16 32 29 29 (430592)
I1127 20:14:29.672149 13057 net.cpp:165] Memory required for data: 2790056000
I1127 20:14:29.672158 13057 layer_factory.hpp:77] Creating layer concat_3_6
I1127 20:14:29.672168 13057 net.cpp:100] Creating Layer concat_3_6
I1127 20:14:29.672174 13057 net.cpp:434] concat_3_6 <- concat_3_5_concat_3_5_0_split_1
I1127 20:14:29.672181 13057 net.cpp:434] concat_3_6 <- conv3_6/x2
I1127 20:14:29.672197 13057 net.cpp:408] concat_3_6 -> concat_3_6
I1127 20:14:29.672243 13057 net.cpp:150] Setting up concat_3_6
I1127 20:14:29.672250 13057 net.cpp:157] Top shape: 16 320 29 29 (4305920)
I1127 20:14:29.672255 13057 net.cpp:165] Memory required for data: 2807279680
I1127 20:14:29.672258 13057 layer_factory.hpp:77] Creating layer concat_3_6_concat_3_6_0_split
I1127 20:14:29.672267 13057 net.cpp:100] Creating Layer concat_3_6_concat_3_6_0_split
I1127 20:14:29.672272 13057 net.cpp:434] concat_3_6_concat_3_6_0_split <- concat_3_6
I1127 20:14:29.672281 13057 net.cpp:408] concat_3_6_concat_3_6_0_split -> concat_3_6_concat_3_6_0_split_0
I1127 20:14:29.672287 13057 net.cpp:408] concat_3_6_concat_3_6_0_split -> concat_3_6_concat_3_6_0_split_1
I1127 20:14:29.672332 13057 net.cpp:150] Setting up concat_3_6_concat_3_6_0_split
I1127 20:14:29.672338 13057 net.cpp:157] Top shape: 16 320 29 29 (4305920)
I1127 20:14:29.672343 13057 net.cpp:157] Top shape: 16 320 29 29 (4305920)
I1127 20:14:29.672346 13057 net.cpp:165] Memory required for data: 2841727040
I1127 20:14:29.672350 13057 layer_factory.hpp:77] Creating layer conv3_7/x1/bn
I1127 20:14:29.672360 13057 net.cpp:100] Creating Layer conv3_7/x1/bn
I1127 20:14:29.672364 13057 net.cpp:434] conv3_7/x1/bn <- concat_3_6_concat_3_6_0_split_0
I1127 20:14:29.672370 13057 net.cpp:408] conv3_7/x1/bn -> conv3_7/x1/bn
I1127 20:14:29.672653 13057 net.cpp:150] Setting up conv3_7/x1/bn
I1127 20:14:29.672672 13057 net.cpp:157] Top shape: 16 320 29 29 (4305920)
I1127 20:14:29.672675 13057 net.cpp:165] Memory required for data: 2858950720
I1127 20:14:29.672685 13057 layer_factory.hpp:77] Creating layer conv3_7/x1/scale
I1127 20:14:29.672696 13057 net.cpp:100] Creating Layer conv3_7/x1/scale
I1127 20:14:29.672700 13057 net.cpp:434] conv3_7/x1/scale <- conv3_7/x1/bn
I1127 20:14:29.672706 13057 net.cpp:395] conv3_7/x1/scale -> conv3_7/x1/bn (in-place)
I1127 20:14:29.672762 13057 layer_factory.hpp:77] Creating layer conv3_7/x1/scale
I1127 20:14:29.672907 13057 net.cpp:150] Setting up conv3_7/x1/scale
I1127 20:14:29.672938 13057 net.cpp:157] Top shape: 16 320 29 29 (4305920)
I1127 20:14:29.672943 13057 net.cpp:165] Memory required for data: 2876174400
I1127 20:14:29.672950 13057 layer_factory.hpp:77] Creating layer relu3_7/x1
I1127 20:14:29.672963 13057 net.cpp:100] Creating Layer relu3_7/x1
I1127 20:14:29.672968 13057 net.cpp:434] relu3_7/x1 <- conv3_7/x1/bn
I1127 20:14:29.672973 13057 net.cpp:395] relu3_7/x1 -> conv3_7/x1/bn (in-place)
I1127 20:14:29.673219 13057 net.cpp:150] Setting up relu3_7/x1
I1127 20:14:29.673238 13057 net.cpp:157] Top shape: 16 320 29 29 (4305920)
I1127 20:14:29.673241 13057 net.cpp:165] Memory required for data: 2893398080
I1127 20:14:29.673246 13057 layer_factory.hpp:77] Creating layer conv3_7/x1
I1127 20:14:29.673257 13057 net.cpp:100] Creating Layer conv3_7/x1
I1127 20:14:29.673262 13057 net.cpp:434] conv3_7/x1 <- conv3_7/x1/bn
I1127 20:14:29.673269 13057 net.cpp:408] conv3_7/x1 -> conv3_7/x1
I1127 20:14:29.676506 13057 net.cpp:150] Setting up conv3_7/x1
I1127 20:14:29.676534 13057 net.cpp:157] Top shape: 16 128 29 29 (1722368)
I1127 20:14:29.676566 13057 net.cpp:165] Memory required for data: 2900287552
I1127 20:14:29.676574 13057 layer_factory.hpp:77] Creating layer conv3_7/x2/bn
I1127 20:14:29.676589 13057 net.cpp:100] Creating Layer conv3_7/x2/bn
I1127 20:14:29.676594 13057 net.cpp:434] conv3_7/x2/bn <- conv3_7/x1
I1127 20:14:29.676604 13057 net.cpp:408] conv3_7/x2/bn -> conv3_7/x2/bn
I1127 20:14:29.676865 13057 net.cpp:150] Setting up conv3_7/x2/bn
I1127 20:14:29.676882 13057 net.cpp:157] Top shape: 16 128 29 29 (1722368)
I1127 20:14:29.676885 13057 net.cpp:165] Memory required for data: 2907177024
I1127 20:14:29.676895 13057 layer_factory.hpp:77] Creating layer conv3_7/x2/scale
I1127 20:14:29.676903 13057 net.cpp:100] Creating Layer conv3_7/x2/scale
I1127 20:14:29.676908 13057 net.cpp:434] conv3_7/x2/scale <- conv3_7/x2/bn
I1127 20:14:29.676913 13057 net.cpp:395] conv3_7/x2/scale -> conv3_7/x2/bn (in-place)
I1127 20:14:29.676967 13057 layer_factory.hpp:77] Creating layer conv3_7/x2/scale
I1127 20:14:29.677104 13057 net.cpp:150] Setting up conv3_7/x2/scale
I1127 20:14:29.677119 13057 net.cpp:157] Top shape: 16 128 29 29 (1722368)
I1127 20:14:29.677124 13057 net.cpp:165] Memory required for data: 2914066496
I1127 20:14:29.677130 13057 layer_factory.hpp:77] Creating layer relu3_7/x2
I1127 20:14:29.677137 13057 net.cpp:100] Creating Layer relu3_7/x2
I1127 20:14:29.677141 13057 net.cpp:434] relu3_7/x2 <- conv3_7/x2/bn
I1127 20:14:29.677150 13057 net.cpp:395] relu3_7/x2 -> conv3_7/x2/bn (in-place)
I1127 20:14:29.677389 13057 net.cpp:150] Setting up relu3_7/x2
I1127 20:14:29.677413 13057 net.cpp:157] Top shape: 16 128 29 29 (1722368)
I1127 20:14:29.677417 13057 net.cpp:165] Memory required for data: 2920955968
I1127 20:14:29.677423 13057 layer_factory.hpp:77] Creating layer conv3_7/x2
I1127 20:14:29.677433 13057 net.cpp:100] Creating Layer conv3_7/x2
I1127 20:14:29.677438 13057 net.cpp:434] conv3_7/x2 <- conv3_7/x2/bn
I1127 20:14:29.677445 13057 net.cpp:408] conv3_7/x2 -> conv3_7/x2
I1127 20:14:29.679453 13057 net.cpp:150] Setting up conv3_7/x2
I1127 20:14:29.679483 13057 net.cpp:157] Top shape: 16 32 29 29 (430592)
I1127 20:14:29.679489 13057 net.cpp:165] Memory required for data: 2922678336
I1127 20:14:29.679497 13057 layer_factory.hpp:77] Creating layer concat_3_7
I1127 20:14:29.679505 13057 net.cpp:100] Creating Layer concat_3_7
I1127 20:14:29.679510 13057 net.cpp:434] concat_3_7 <- concat_3_6_concat_3_6_0_split_1
I1127 20:14:29.679517 13057 net.cpp:434] concat_3_7 <- conv3_7/x2
I1127 20:14:29.679524 13057 net.cpp:408] concat_3_7 -> concat_3_7
I1127 20:14:29.679564 13057 net.cpp:150] Setting up concat_3_7
I1127 20:14:29.679571 13057 net.cpp:157] Top shape: 16 352 29 29 (4736512)
I1127 20:14:29.679575 13057 net.cpp:165] Memory required for data: 2941624384
I1127 20:14:29.679579 13057 layer_factory.hpp:77] Creating layer concat_3_7_concat_3_7_0_split
I1127 20:14:29.679586 13057 net.cpp:100] Creating Layer concat_3_7_concat_3_7_0_split
I1127 20:14:29.679591 13057 net.cpp:434] concat_3_7_concat_3_7_0_split <- concat_3_7
I1127 20:14:29.679615 13057 net.cpp:408] concat_3_7_concat_3_7_0_split -> concat_3_7_concat_3_7_0_split_0
I1127 20:14:29.679623 13057 net.cpp:408] concat_3_7_concat_3_7_0_split -> concat_3_7_concat_3_7_0_split_1
I1127 20:14:29.679672 13057 net.cpp:150] Setting up concat_3_7_concat_3_7_0_split
I1127 20:14:29.679678 13057 net.cpp:157] Top shape: 16 352 29 29 (4736512)
I1127 20:14:29.679683 13057 net.cpp:157] Top shape: 16 352 29 29 (4736512)
I1127 20:14:29.679687 13057 net.cpp:165] Memory required for data: 2979516480
I1127 20:14:29.679692 13057 layer_factory.hpp:77] Creating layer conv3_8/x1/bn
I1127 20:14:29.679698 13057 net.cpp:100] Creating Layer conv3_8/x1/bn
I1127 20:14:29.679702 13057 net.cpp:434] conv3_8/x1/bn <- concat_3_7_concat_3_7_0_split_0
I1127 20:14:29.679710 13057 net.cpp:408] conv3_8/x1/bn -> conv3_8/x1/bn
I1127 20:14:29.679968 13057 net.cpp:150] Setting up conv3_8/x1/bn
I1127 20:14:29.679985 13057 net.cpp:157] Top shape: 16 352 29 29 (4736512)
I1127 20:14:29.679989 13057 net.cpp:165] Memory required for data: 2998462528
I1127 20:14:29.680001 13057 layer_factory.hpp:77] Creating layer conv3_8/x1/scale
I1127 20:14:29.680008 13057 net.cpp:100] Creating Layer conv3_8/x1/scale
I1127 20:14:29.680013 13057 net.cpp:434] conv3_8/x1/scale <- conv3_8/x1/bn
I1127 20:14:29.680019 13057 net.cpp:395] conv3_8/x1/scale -> conv3_8/x1/bn (in-place)
I1127 20:14:29.680073 13057 layer_factory.hpp:77] Creating layer conv3_8/x1/scale
I1127 20:14:29.680233 13057 net.cpp:150] Setting up conv3_8/x1/scale
I1127 20:14:29.680248 13057 net.cpp:157] Top shape: 16 352 29 29 (4736512)
I1127 20:14:29.680253 13057 net.cpp:165] Memory required for data: 3017408576
I1127 20:14:29.680259 13057 layer_factory.hpp:77] Creating layer relu3_8/x1
I1127 20:14:29.680266 13057 net.cpp:100] Creating Layer relu3_8/x1
I1127 20:14:29.680271 13057 net.cpp:434] relu3_8/x1 <- conv3_8/x1/bn
I1127 20:14:29.680279 13057 net.cpp:395] relu3_8/x1 -> conv3_8/x1/bn (in-place)
I1127 20:14:29.680495 13057 net.cpp:150] Setting up relu3_8/x1
I1127 20:14:29.680513 13057 net.cpp:157] Top shape: 16 352 29 29 (4736512)
I1127 20:14:29.680517 13057 net.cpp:165] Memory required for data: 3036354624
I1127 20:14:29.680521 13057 layer_factory.hpp:77] Creating layer conv3_8/x1
I1127 20:14:29.680533 13057 net.cpp:100] Creating Layer conv3_8/x1
I1127 20:14:29.680560 13057 net.cpp:434] conv3_8/x1 <- conv3_8/x1/bn
I1127 20:14:29.680568 13057 net.cpp:408] conv3_8/x1 -> conv3_8/x1
I1127 20:14:29.682601 13057 net.cpp:150] Setting up conv3_8/x1
I1127 20:14:29.682629 13057 net.cpp:157] Top shape: 16 128 29 29 (1722368)
I1127 20:14:29.682634 13057 net.cpp:165] Memory required for data: 3043244096
I1127 20:14:29.682641 13057 layer_factory.hpp:77] Creating layer conv3_8/x2/bn
I1127 20:14:29.682651 13057 net.cpp:100] Creating Layer conv3_8/x2/bn
I1127 20:14:29.682657 13057 net.cpp:434] conv3_8/x2/bn <- conv3_8/x1
I1127 20:14:29.682665 13057 net.cpp:408] conv3_8/x2/bn -> conv3_8/x2/bn
I1127 20:14:29.682927 13057 net.cpp:150] Setting up conv3_8/x2/bn
I1127 20:14:29.682942 13057 net.cpp:157] Top shape: 16 128 29 29 (1722368)
I1127 20:14:29.682947 13057 net.cpp:165] Memory required for data: 3050133568
I1127 20:14:29.682956 13057 layer_factory.hpp:77] Creating layer conv3_8/x2/scale
I1127 20:14:29.682966 13057 net.cpp:100] Creating Layer conv3_8/x2/scale
I1127 20:14:29.682971 13057 net.cpp:434] conv3_8/x2/scale <- conv3_8/x2/bn
I1127 20:14:29.682977 13057 net.cpp:395] conv3_8/x2/scale -> conv3_8/x2/bn (in-place)
I1127 20:14:29.683029 13057 layer_factory.hpp:77] Creating layer conv3_8/x2/scale
I1127 20:14:29.683172 13057 net.cpp:150] Setting up conv3_8/x2/scale
I1127 20:14:29.683187 13057 net.cpp:157] Top shape: 16 128 29 29 (1722368)
I1127 20:14:29.683200 13057 net.cpp:165] Memory required for data: 3057023040
I1127 20:14:29.683208 13057 layer_factory.hpp:77] Creating layer relu3_8/x2
I1127 20:14:29.683215 13057 net.cpp:100] Creating Layer relu3_8/x2
I1127 20:14:29.683219 13057 net.cpp:434] relu3_8/x2 <- conv3_8/x2/bn
I1127 20:14:29.683228 13057 net.cpp:395] relu3_8/x2 -> conv3_8/x2/bn (in-place)
I1127 20:14:29.684602 13057 net.cpp:150] Setting up relu3_8/x2
I1127 20:14:29.684628 13057 net.cpp:157] Top shape: 16 128 29 29 (1722368)
I1127 20:14:29.684633 13057 net.cpp:165] Memory required for data: 3063912512
I1127 20:14:29.684639 13057 layer_factory.hpp:77] Creating layer conv3_8/x2
I1127 20:14:29.684651 13057 net.cpp:100] Creating Layer conv3_8/x2
I1127 20:14:29.684658 13057 net.cpp:434] conv3_8/x2 <- conv3_8/x2/bn
I1127 20:14:29.684666 13057 net.cpp:408] conv3_8/x2 -> conv3_8/x2
I1127 20:14:29.686739 13057 net.cpp:150] Setting up conv3_8/x2
I1127 20:14:29.686767 13057 net.cpp:157] Top shape: 16 32 29 29 (430592)
I1127 20:14:29.686772 13057 net.cpp:165] Memory required for data: 3065634880
I1127 20:14:29.686780 13057 layer_factory.hpp:77] Creating layer concat_3_8
I1127 20:14:29.686789 13057 net.cpp:100] Creating Layer concat_3_8
I1127 20:14:29.686794 13057 net.cpp:434] concat_3_8 <- concat_3_7_concat_3_7_0_split_1
I1127 20:14:29.686801 13057 net.cpp:434] concat_3_8 <- conv3_8/x2
I1127 20:14:29.686808 13057 net.cpp:408] concat_3_8 -> concat_3_8
I1127 20:14:29.686856 13057 net.cpp:150] Setting up concat_3_8
I1127 20:14:29.686863 13057 net.cpp:157] Top shape: 16 384 29 29 (5167104)
I1127 20:14:29.686869 13057 net.cpp:165] Memory required for data: 3086303296
I1127 20:14:29.686873 13057 layer_factory.hpp:77] Creating layer concat_3_8_concat_3_8_0_split
I1127 20:14:29.686879 13057 net.cpp:100] Creating Layer concat_3_8_concat_3_8_0_split
I1127 20:14:29.686883 13057 net.cpp:434] concat_3_8_concat_3_8_0_split <- concat_3_8
I1127 20:14:29.686889 13057 net.cpp:408] concat_3_8_concat_3_8_0_split -> concat_3_8_concat_3_8_0_split_0
I1127 20:14:29.686897 13057 net.cpp:408] concat_3_8_concat_3_8_0_split -> concat_3_8_concat_3_8_0_split_1
I1127 20:14:29.686942 13057 net.cpp:150] Setting up concat_3_8_concat_3_8_0_split
I1127 20:14:29.686949 13057 net.cpp:157] Top shape: 16 384 29 29 (5167104)
I1127 20:14:29.686954 13057 net.cpp:157] Top shape: 16 384 29 29 (5167104)
I1127 20:14:29.686956 13057 net.cpp:165] Memory required for data: 3127640128
I1127 20:14:29.686961 13057 layer_factory.hpp:77] Creating layer conv3_9/x1/bn
I1127 20:14:29.686969 13057 net.cpp:100] Creating Layer conv3_9/x1/bn
I1127 20:14:29.686974 13057 net.cpp:434] conv3_9/x1/bn <- concat_3_8_concat_3_8_0_split_0
I1127 20:14:29.686981 13057 net.cpp:408] conv3_9/x1/bn -> conv3_9/x1/bn
I1127 20:14:29.687294 13057 net.cpp:150] Setting up conv3_9/x1/bn
I1127 20:14:29.687305 13057 net.cpp:157] Top shape: 16 384 29 29 (5167104)
I1127 20:14:29.687309 13057 net.cpp:165] Memory required for data: 3148308544
I1127 20:14:29.687319 13057 layer_factory.hpp:77] Creating layer conv3_9/x1/scale
I1127 20:14:29.687330 13057 net.cpp:100] Creating Layer conv3_9/x1/scale
I1127 20:14:29.687335 13057 net.cpp:434] conv3_9/x1/scale <- conv3_9/x1/bn
I1127 20:14:29.687340 13057 net.cpp:395] conv3_9/x1/scale -> conv3_9/x1/bn (in-place)
I1127 20:14:29.687394 13057 layer_factory.hpp:77] Creating layer conv3_9/x1/scale
I1127 20:14:29.687556 13057 net.cpp:150] Setting up conv3_9/x1/scale
I1127 20:14:29.687573 13057 net.cpp:157] Top shape: 16 384 29 29 (5167104)
I1127 20:14:29.687577 13057 net.cpp:165] Memory required for data: 3168976960
I1127 20:14:29.687585 13057 layer_factory.hpp:77] Creating layer relu3_9/x1
I1127 20:14:29.687592 13057 net.cpp:100] Creating Layer relu3_9/x1
I1127 20:14:29.687597 13057 net.cpp:434] relu3_9/x1 <- conv3_9/x1/bn
I1127 20:14:29.687605 13057 net.cpp:395] relu3_9/x1 -> conv3_9/x1/bn (in-place)
I1127 20:14:29.688961 13057 net.cpp:150] Setting up relu3_9/x1
I1127 20:14:29.688989 13057 net.cpp:157] Top shape: 16 384 29 29 (5167104)
I1127 20:14:29.688997 13057 net.cpp:165] Memory required for data: 3189645376
I1127 20:14:29.689002 13057 layer_factory.hpp:77] Creating layer conv3_9/x1
I1127 20:14:29.689013 13057 net.cpp:100] Creating Layer conv3_9/x1
I1127 20:14:29.689018 13057 net.cpp:434] conv3_9/x1 <- conv3_9/x1/bn
I1127 20:14:29.689026 13057 net.cpp:408] conv3_9/x1 -> conv3_9/x1
I1127 20:14:29.691093 13057 net.cpp:150] Setting up conv3_9/x1
I1127 20:14:29.691138 13057 net.cpp:157] Top shape: 16 128 29 29 (1722368)
I1127 20:14:29.691144 13057 net.cpp:165] Memory required for data: 3196534848
I1127 20:14:29.691153 13057 layer_factory.hpp:77] Creating layer conv3_9/x2/bn
I1127 20:14:29.691160 13057 net.cpp:100] Creating Layer conv3_9/x2/bn
I1127 20:14:29.691166 13057 net.cpp:434] conv3_9/x2/bn <- conv3_9/x1
I1127 20:14:29.691176 13057 net.cpp:408] conv3_9/x2/bn -> conv3_9/x2/bn
I1127 20:14:29.691475 13057 net.cpp:150] Setting up conv3_9/x2/bn
I1127 20:14:29.691494 13057 net.cpp:157] Top shape: 16 128 29 29 (1722368)
I1127 20:14:29.691498 13057 net.cpp:165] Memory required for data: 3203424320
I1127 20:14:29.691509 13057 layer_factory.hpp:77] Creating layer conv3_9/x2/scale
I1127 20:14:29.691519 13057 net.cpp:100] Creating Layer conv3_9/x2/scale
I1127 20:14:29.691524 13057 net.cpp:434] conv3_9/x2/scale <- conv3_9/x2/bn
I1127 20:14:29.691529 13057 net.cpp:395] conv3_9/x2/scale -> conv3_9/x2/bn (in-place)
I1127 20:14:29.691584 13057 layer_factory.hpp:77] Creating layer conv3_9/x2/scale
I1127 20:14:29.691723 13057 net.cpp:150] Setting up conv3_9/x2/scale
I1127 20:14:29.691737 13057 net.cpp:157] Top shape: 16 128 29 29 (1722368)
I1127 20:14:29.691741 13057 net.cpp:165] Memory required for data: 3210313792
I1127 20:14:29.691748 13057 layer_factory.hpp:77] Creating layer relu3_9/x2
I1127 20:14:29.691756 13057 net.cpp:100] Creating Layer relu3_9/x2
I1127 20:14:29.691759 13057 net.cpp:434] relu3_9/x2 <- conv3_9/x2/bn
I1127 20:14:29.691767 13057 net.cpp:395] relu3_9/x2 -> conv3_9/x2/bn (in-place)
I1127 20:14:29.691989 13057 net.cpp:150] Setting up relu3_9/x2
I1127 20:14:29.692008 13057 net.cpp:157] Top shape: 16 128 29 29 (1722368)
I1127 20:14:29.692011 13057 net.cpp:165] Memory required for data: 3217203264
I1127 20:14:29.692018 13057 layer_factory.hpp:77] Creating layer conv3_9/x2
I1127 20:14:29.692028 13057 net.cpp:100] Creating Layer conv3_9/x2
I1127 20:14:29.692037 13057 net.cpp:434] conv3_9/x2 <- conv3_9/x2/bn
I1127 20:14:29.692044 13057 net.cpp:408] conv3_9/x2 -> conv3_9/x2
I1127 20:14:29.694224 13057 net.cpp:150] Setting up conv3_9/x2
I1127 20:14:29.694252 13057 net.cpp:157] Top shape: 16 32 29 29 (430592)
I1127 20:14:29.694257 13057 net.cpp:165] Memory required for data: 3218925632
I1127 20:14:29.694264 13057 layer_factory.hpp:77] Creating layer concat_3_9
I1127 20:14:29.694277 13057 net.cpp:100] Creating Layer concat_3_9
I1127 20:14:29.694281 13057 net.cpp:434] concat_3_9 <- concat_3_8_concat_3_8_0_split_1
I1127 20:14:29.694288 13057 net.cpp:434] concat_3_9 <- conv3_9/x2
I1127 20:14:29.694295 13057 net.cpp:408] concat_3_9 -> concat_3_9
I1127 20:14:29.694334 13057 net.cpp:150] Setting up concat_3_9
I1127 20:14:29.694339 13057 net.cpp:157] Top shape: 16 416 29 29 (5597696)
I1127 20:14:29.694344 13057 net.cpp:165] Memory required for data: 3241316416
I1127 20:14:29.694347 13057 layer_factory.hpp:77] Creating layer concat_3_9_concat_3_9_0_split
I1127 20:14:29.694356 13057 net.cpp:100] Creating Layer concat_3_9_concat_3_9_0_split
I1127 20:14:29.694361 13057 net.cpp:434] concat_3_9_concat_3_9_0_split <- concat_3_9
I1127 20:14:29.694370 13057 net.cpp:408] concat_3_9_concat_3_9_0_split -> concat_3_9_concat_3_9_0_split_0
I1127 20:14:29.694377 13057 net.cpp:408] concat_3_9_concat_3_9_0_split -> concat_3_9_concat_3_9_0_split_1
I1127 20:14:29.694422 13057 net.cpp:150] Setting up concat_3_9_concat_3_9_0_split
I1127 20:14:29.694428 13057 net.cpp:157] Top shape: 16 416 29 29 (5597696)
I1127 20:14:29.694432 13057 net.cpp:157] Top shape: 16 416 29 29 (5597696)
I1127 20:14:29.694437 13057 net.cpp:165] Memory required for data: 3286097984
I1127 20:14:29.694440 13057 layer_factory.hpp:77] Creating layer conv3_10/x1/bn
I1127 20:14:29.694449 13057 net.cpp:100] Creating Layer conv3_10/x1/bn
I1127 20:14:29.694454 13057 net.cpp:434] conv3_10/x1/bn <- concat_3_9_concat_3_9_0_split_0
I1127 20:14:29.694460 13057 net.cpp:408] conv3_10/x1/bn -> conv3_10/x1/bn
I1127 20:14:29.694720 13057 net.cpp:150] Setting up conv3_10/x1/bn
I1127 20:14:29.694736 13057 net.cpp:157] Top shape: 16 416 29 29 (5597696)
I1127 20:14:29.694753 13057 net.cpp:165] Memory required for data: 3308488768
I1127 20:14:29.694764 13057 layer_factory.hpp:77] Creating layer conv3_10/x1/scale
I1127 20:14:29.694775 13057 net.cpp:100] Creating Layer conv3_10/x1/scale
I1127 20:14:29.694780 13057 net.cpp:434] conv3_10/x1/scale <- conv3_10/x1/bn
I1127 20:14:29.694785 13057 net.cpp:395] conv3_10/x1/scale -> conv3_10/x1/bn (in-place)
I1127 20:14:29.694844 13057 layer_factory.hpp:77] Creating layer conv3_10/x1/scale
I1127 20:14:29.694989 13057 net.cpp:150] Setting up conv3_10/x1/scale
I1127 20:14:29.695004 13057 net.cpp:157] Top shape: 16 416 29 29 (5597696)
I1127 20:14:29.695008 13057 net.cpp:165] Memory required for data: 3330879552
I1127 20:14:29.695015 13057 layer_factory.hpp:77] Creating layer relu3_10/x1
I1127 20:14:29.695024 13057 net.cpp:100] Creating Layer relu3_10/x1
I1127 20:14:29.695029 13057 net.cpp:434] relu3_10/x1 <- conv3_10/x1/bn
I1127 20:14:29.695036 13057 net.cpp:395] relu3_10/x1 -> conv3_10/x1/bn (in-place)
I1127 20:14:29.695268 13057 net.cpp:150] Setting up relu3_10/x1
I1127 20:14:29.695287 13057 net.cpp:157] Top shape: 16 416 29 29 (5597696)
I1127 20:14:29.695291 13057 net.cpp:165] Memory required for data: 3353270336
I1127 20:14:29.695297 13057 layer_factory.hpp:77] Creating layer conv3_10/x1
I1127 20:14:29.695308 13057 net.cpp:100] Creating Layer conv3_10/x1
I1127 20:14:29.695313 13057 net.cpp:434] conv3_10/x1 <- conv3_10/x1/bn
I1127 20:14:29.695320 13057 net.cpp:408] conv3_10/x1 -> conv3_10/x1
I1127 20:14:29.697463 13057 net.cpp:150] Setting up conv3_10/x1
I1127 20:14:29.697491 13057 net.cpp:157] Top shape: 16 128 29 29 (1722368)
I1127 20:14:29.697496 13057 net.cpp:165] Memory required for data: 3360159808
I1127 20:14:29.697504 13057 layer_factory.hpp:77] Creating layer conv3_10/x2/bn
I1127 20:14:29.697517 13057 net.cpp:100] Creating Layer conv3_10/x2/bn
I1127 20:14:29.697523 13057 net.cpp:434] conv3_10/x2/bn <- conv3_10/x1
I1127 20:14:29.697530 13057 net.cpp:408] conv3_10/x2/bn -> conv3_10/x2/bn
I1127 20:14:29.697800 13057 net.cpp:150] Setting up conv3_10/x2/bn
I1127 20:14:29.697816 13057 net.cpp:157] Top shape: 16 128 29 29 (1722368)
I1127 20:14:29.697820 13057 net.cpp:165] Memory required for data: 3367049280
I1127 20:14:29.697830 13057 layer_factory.hpp:77] Creating layer conv3_10/x2/scale
I1127 20:14:29.697837 13057 net.cpp:100] Creating Layer conv3_10/x2/scale
I1127 20:14:29.697842 13057 net.cpp:434] conv3_10/x2/scale <- conv3_10/x2/bn
I1127 20:14:29.697850 13057 net.cpp:395] conv3_10/x2/scale -> conv3_10/x2/bn (in-place)
I1127 20:14:29.697906 13057 layer_factory.hpp:77] Creating layer conv3_10/x2/scale
I1127 20:14:29.698043 13057 net.cpp:150] Setting up conv3_10/x2/scale
I1127 20:14:29.698057 13057 net.cpp:157] Top shape: 16 128 29 29 (1722368)
I1127 20:14:29.698061 13057 net.cpp:165] Memory required for data: 3373938752
I1127 20:14:29.698068 13057 layer_factory.hpp:77] Creating layer relu3_10/x2
I1127 20:14:29.698077 13057 net.cpp:100] Creating Layer relu3_10/x2
I1127 20:14:29.698082 13057 net.cpp:434] relu3_10/x2 <- conv3_10/x2/bn
I1127 20:14:29.698087 13057 net.cpp:395] relu3_10/x2 -> conv3_10/x2/bn (in-place)
I1127 20:14:29.698324 13057 net.cpp:150] Setting up relu3_10/x2
I1127 20:14:29.698343 13057 net.cpp:157] Top shape: 16 128 29 29 (1722368)
I1127 20:14:29.698348 13057 net.cpp:165] Memory required for data: 3380828224
I1127 20:14:29.698351 13057 layer_factory.hpp:77] Creating layer conv3_10/x2
I1127 20:14:29.698361 13057 net.cpp:100] Creating Layer conv3_10/x2
I1127 20:14:29.698366 13057 net.cpp:434] conv3_10/x2 <- conv3_10/x2/bn
I1127 20:14:29.698375 13057 net.cpp:408] conv3_10/x2 -> conv3_10/x2
I1127 20:14:29.701689 13057 net.cpp:150] Setting up conv3_10/x2
I1127 20:14:29.701725 13057 net.cpp:157] Top shape: 16 32 29 29 (430592)
I1127 20:14:29.701731 13057 net.cpp:165] Memory required for data: 3382550592
I1127 20:14:29.701740 13057 layer_factory.hpp:77] Creating layer concat_3_10
I1127 20:14:29.701748 13057 net.cpp:100] Creating Layer concat_3_10
I1127 20:14:29.701755 13057 net.cpp:434] concat_3_10 <- concat_3_9_concat_3_9_0_split_1
I1127 20:14:29.701781 13057 net.cpp:434] concat_3_10 <- conv3_10/x2
I1127 20:14:29.701789 13057 net.cpp:408] concat_3_10 -> concat_3_10
I1127 20:14:29.701844 13057 net.cpp:150] Setting up concat_3_10
I1127 20:14:29.701853 13057 net.cpp:157] Top shape: 16 448 29 29 (6028288)
I1127 20:14:29.701858 13057 net.cpp:165] Memory required for data: 3406663744
I1127 20:14:29.701861 13057 layer_factory.hpp:77] Creating layer concat_3_10_concat_3_10_0_split
I1127 20:14:29.701869 13057 net.cpp:100] Creating Layer concat_3_10_concat_3_10_0_split
I1127 20:14:29.701872 13057 net.cpp:434] concat_3_10_concat_3_10_0_split <- concat_3_10
I1127 20:14:29.701886 13057 net.cpp:408] concat_3_10_concat_3_10_0_split -> concat_3_10_concat_3_10_0_split_0
I1127 20:14:29.701894 13057 net.cpp:408] concat_3_10_concat_3_10_0_split -> concat_3_10_concat_3_10_0_split_1
I1127 20:14:29.701949 13057 net.cpp:150] Setting up concat_3_10_concat_3_10_0_split
I1127 20:14:29.701956 13057 net.cpp:157] Top shape: 16 448 29 29 (6028288)
I1127 20:14:29.701961 13057 net.cpp:157] Top shape: 16 448 29 29 (6028288)
I1127 20:14:29.701966 13057 net.cpp:165] Memory required for data: 3454890048
I1127 20:14:29.701969 13057 layer_factory.hpp:77] Creating layer conv3_11/x1/bn
I1127 20:14:29.701977 13057 net.cpp:100] Creating Layer conv3_11/x1/bn
I1127 20:14:29.701982 13057 net.cpp:434] conv3_11/x1/bn <- concat_3_10_concat_3_10_0_split_0
I1127 20:14:29.701992 13057 net.cpp:408] conv3_11/x1/bn -> conv3_11/x1/bn
I1127 20:14:29.702297 13057 net.cpp:150] Setting up conv3_11/x1/bn
I1127 20:14:29.702316 13057 net.cpp:157] Top shape: 16 448 29 29 (6028288)
I1127 20:14:29.702319 13057 net.cpp:165] Memory required for data: 3479003200
I1127 20:14:29.702334 13057 layer_factory.hpp:77] Creating layer conv3_11/x1/scale
I1127 20:14:29.702343 13057 net.cpp:100] Creating Layer conv3_11/x1/scale
I1127 20:14:29.702348 13057 net.cpp:434] conv3_11/x1/scale <- conv3_11/x1/bn
I1127 20:14:29.702354 13057 net.cpp:395] conv3_11/x1/scale -> conv3_11/x1/bn (in-place)
I1127 20:14:29.702417 13057 layer_factory.hpp:77] Creating layer conv3_11/x1/scale
I1127 20:14:29.702586 13057 net.cpp:150] Setting up conv3_11/x1/scale
I1127 20:14:29.702601 13057 net.cpp:157] Top shape: 16 448 29 29 (6028288)
I1127 20:14:29.702605 13057 net.cpp:165] Memory required for data: 3503116352
I1127 20:14:29.702613 13057 layer_factory.hpp:77] Creating layer relu3_11/x1
I1127 20:14:29.702620 13057 net.cpp:100] Creating Layer relu3_11/x1
I1127 20:14:29.702625 13057 net.cpp:434] relu3_11/x1 <- conv3_11/x1/bn
I1127 20:14:29.702636 13057 net.cpp:395] relu3_11/x1 -> conv3_11/x1/bn (in-place)
I1127 20:14:29.702883 13057 net.cpp:150] Setting up relu3_11/x1
I1127 20:14:29.702901 13057 net.cpp:157] Top shape: 16 448 29 29 (6028288)
I1127 20:14:29.702906 13057 net.cpp:165] Memory required for data: 3527229504
I1127 20:14:29.702911 13057 layer_factory.hpp:77] Creating layer conv3_11/x1
I1127 20:14:29.702926 13057 net.cpp:100] Creating Layer conv3_11/x1
I1127 20:14:29.702931 13057 net.cpp:434] conv3_11/x1 <- conv3_11/x1/bn
I1127 20:14:29.702939 13057 net.cpp:408] conv3_11/x1 -> conv3_11/x1
I1127 20:14:29.707761 13057 net.cpp:150] Setting up conv3_11/x1
I1127 20:14:29.707789 13057 net.cpp:157] Top shape: 16 128 29 29 (1722368)
I1127 20:14:29.707794 13057 net.cpp:165] Memory required for data: 3534118976
I1127 20:14:29.707803 13057 layer_factory.hpp:77] Creating layer conv3_11/x2/bn
I1127 20:14:29.707819 13057 net.cpp:100] Creating Layer conv3_11/x2/bn
I1127 20:14:29.707825 13057 net.cpp:434] conv3_11/x2/bn <- conv3_11/x1
I1127 20:14:29.707834 13057 net.cpp:408] conv3_11/x2/bn -> conv3_11/x2/bn
I1127 20:14:29.708138 13057 net.cpp:150] Setting up conv3_11/x2/bn
I1127 20:14:29.708154 13057 net.cpp:157] Top shape: 16 128 29 29 (1722368)
I1127 20:14:29.708158 13057 net.cpp:165] Memory required for data: 3541008448
I1127 20:14:29.708169 13057 layer_factory.hpp:77] Creating layer conv3_11/x2/scale
I1127 20:14:29.708178 13057 net.cpp:100] Creating Layer conv3_11/x2/scale
I1127 20:14:29.708183 13057 net.cpp:434] conv3_11/x2/scale <- conv3_11/x2/bn
I1127 20:14:29.708220 13057 net.cpp:395] conv3_11/x2/scale -> conv3_11/x2/bn (in-place)
I1127 20:14:29.708292 13057 layer_factory.hpp:77] Creating layer conv3_11/x2/scale
I1127 20:14:29.708454 13057 net.cpp:150] Setting up conv3_11/x2/scale
I1127 20:14:29.708469 13057 net.cpp:157] Top shape: 16 128 29 29 (1722368)
I1127 20:14:29.708474 13057 net.cpp:165] Memory required for data: 3547897920
I1127 20:14:29.708482 13057 layer_factory.hpp:77] Creating layer relu3_11/x2
I1127 20:14:29.708495 13057 net.cpp:100] Creating Layer relu3_11/x2
I1127 20:14:29.708500 13057 net.cpp:434] relu3_11/x2 <- conv3_11/x2/bn
I1127 20:14:29.708506 13057 net.cpp:395] relu3_11/x2 -> conv3_11/x2/bn (in-place)
I1127 20:14:29.709920 13057 net.cpp:150] Setting up relu3_11/x2
I1127 20:14:29.709947 13057 net.cpp:157] Top shape: 16 128 29 29 (1722368)
I1127 20:14:29.709952 13057 net.cpp:165] Memory required for data: 3554787392
I1127 20:14:29.709959 13057 layer_factory.hpp:77] Creating layer conv3_11/x2
I1127 20:14:29.709981 13057 net.cpp:100] Creating Layer conv3_11/x2
I1127 20:14:29.709988 13057 net.cpp:434] conv3_11/x2 <- conv3_11/x2/bn
I1127 20:14:29.709996 13057 net.cpp:408] conv3_11/x2 -> conv3_11/x2
I1127 20:14:29.711067 13057 net.cpp:150] Setting up conv3_11/x2
I1127 20:14:29.711089 13057 net.cpp:157] Top shape: 16 32 29 29 (430592)
I1127 20:14:29.711094 13057 net.cpp:165] Memory required for data: 3556509760
I1127 20:14:29.711102 13057 layer_factory.hpp:77] Creating layer concat_3_11
I1127 20:14:29.711109 13057 net.cpp:100] Creating Layer concat_3_11
I1127 20:14:29.711115 13057 net.cpp:434] concat_3_11 <- concat_3_10_concat_3_10_0_split_1
I1127 20:14:29.711122 13057 net.cpp:434] concat_3_11 <- conv3_11/x2
I1127 20:14:29.711134 13057 net.cpp:408] concat_3_11 -> concat_3_11
I1127 20:14:29.711172 13057 net.cpp:150] Setting up concat_3_11
I1127 20:14:29.711187 13057 net.cpp:157] Top shape: 16 480 29 29 (6458880)
I1127 20:14:29.711201 13057 net.cpp:165] Memory required for data: 3582345280
I1127 20:14:29.711205 13057 layer_factory.hpp:77] Creating layer concat_3_11_concat_3_11_0_split
I1127 20:14:29.711212 13057 net.cpp:100] Creating Layer concat_3_11_concat_3_11_0_split
I1127 20:14:29.711216 13057 net.cpp:434] concat_3_11_concat_3_11_0_split <- concat_3_11
I1127 20:14:29.711222 13057 net.cpp:408] concat_3_11_concat_3_11_0_split -> concat_3_11_concat_3_11_0_split_0
I1127 20:14:29.711230 13057 net.cpp:408] concat_3_11_concat_3_11_0_split -> concat_3_11_concat_3_11_0_split_1
I1127 20:14:29.711302 13057 net.cpp:150] Setting up concat_3_11_concat_3_11_0_split
I1127 20:14:29.711313 13057 net.cpp:157] Top shape: 16 480 29 29 (6458880)
I1127 20:14:29.711319 13057 net.cpp:157] Top shape: 16 480 29 29 (6458880)
I1127 20:14:29.711323 13057 net.cpp:165] Memory required for data: 3634016320
I1127 20:14:29.711328 13057 layer_factory.hpp:77] Creating layer conv3_12/x1/bn
I1127 20:14:29.711336 13057 net.cpp:100] Creating Layer conv3_12/x1/bn
I1127 20:14:29.711340 13057 net.cpp:434] conv3_12/x1/bn <- concat_3_11_concat_3_11_0_split_0
I1127 20:14:29.711351 13057 net.cpp:408] conv3_12/x1/bn -> conv3_12/x1/bn
I1127 20:14:29.711649 13057 net.cpp:150] Setting up conv3_12/x1/bn
I1127 20:14:29.711665 13057 net.cpp:157] Top shape: 16 480 29 29 (6458880)
I1127 20:14:29.711670 13057 net.cpp:165] Memory required for data: 3659851840
I1127 20:14:29.711679 13057 layer_factory.hpp:77] Creating layer conv3_12/x1/scale
I1127 20:14:29.711688 13057 net.cpp:100] Creating Layer conv3_12/x1/scale
I1127 20:14:29.711694 13057 net.cpp:434] conv3_12/x1/scale <- conv3_12/x1/bn
I1127 20:14:29.711699 13057 net.cpp:395] conv3_12/x1/scale -> conv3_12/x1/bn (in-place)
I1127 20:14:29.711764 13057 layer_factory.hpp:77] Creating layer conv3_12/x1/scale
I1127 20:14:29.711940 13057 net.cpp:150] Setting up conv3_12/x1/scale
I1127 20:14:29.711954 13057 net.cpp:157] Top shape: 16 480 29 29 (6458880)
I1127 20:14:29.711958 13057 net.cpp:165] Memory required for data: 3685687360
I1127 20:14:29.711966 13057 layer_factory.hpp:77] Creating layer relu3_12/x1
I1127 20:14:29.711997 13057 net.cpp:100] Creating Layer relu3_12/x1
I1127 20:14:29.712002 13057 net.cpp:434] relu3_12/x1 <- conv3_12/x1/bn
I1127 20:14:29.712008 13057 net.cpp:395] relu3_12/x1 -> conv3_12/x1/bn (in-place)
I1127 20:14:29.713413 13057 net.cpp:150] Setting up relu3_12/x1
I1127 20:14:29.713441 13057 net.cpp:157] Top shape: 16 480 29 29 (6458880)
I1127 20:14:29.713446 13057 net.cpp:165] Memory required for data: 3711522880
I1127 20:14:29.713451 13057 layer_factory.hpp:77] Creating layer conv3_12/x1
I1127 20:14:29.713467 13057 net.cpp:100] Creating Layer conv3_12/x1
I1127 20:14:29.713474 13057 net.cpp:434] conv3_12/x1 <- conv3_12/x1/bn
I1127 20:14:29.713486 13057 net.cpp:408] conv3_12/x1 -> conv3_12/x1
I1127 20:14:29.715723 13057 net.cpp:150] Setting up conv3_12/x1
I1127 20:14:29.715751 13057 net.cpp:157] Top shape: 16 128 29 29 (1722368)
I1127 20:14:29.715756 13057 net.cpp:165] Memory required for data: 3718412352
I1127 20:14:29.715764 13057 layer_factory.hpp:77] Creating layer conv3_12/x2/bn
I1127 20:14:29.715780 13057 net.cpp:100] Creating Layer conv3_12/x2/bn
I1127 20:14:29.715786 13057 net.cpp:434] conv3_12/x2/bn <- conv3_12/x1
I1127 20:14:29.715793 13057 net.cpp:408] conv3_12/x2/bn -> conv3_12/x2/bn
I1127 20:14:29.716101 13057 net.cpp:150] Setting up conv3_12/x2/bn
I1127 20:14:29.716118 13057 net.cpp:157] Top shape: 16 128 29 29 (1722368)
I1127 20:14:29.716123 13057 net.cpp:165] Memory required for data: 3725301824
I1127 20:14:29.716132 13057 layer_factory.hpp:77] Creating layer conv3_12/x2/scale
I1127 20:14:29.716141 13057 net.cpp:100] Creating Layer conv3_12/x2/scale
I1127 20:14:29.716146 13057 net.cpp:434] conv3_12/x2/scale <- conv3_12/x2/bn
I1127 20:14:29.716152 13057 net.cpp:395] conv3_12/x2/scale -> conv3_12/x2/bn (in-place)
I1127 20:14:29.716233 13057 layer_factory.hpp:77] Creating layer conv3_12/x2/scale
I1127 20:14:29.716399 13057 net.cpp:150] Setting up conv3_12/x2/scale
I1127 20:14:29.716414 13057 net.cpp:157] Top shape: 16 128 29 29 (1722368)
I1127 20:14:29.716419 13057 net.cpp:165] Memory required for data: 3732191296
I1127 20:14:29.716426 13057 layer_factory.hpp:77] Creating layer relu3_12/x2
I1127 20:14:29.716439 13057 net.cpp:100] Creating Layer relu3_12/x2
I1127 20:14:29.716445 13057 net.cpp:434] relu3_12/x2 <- conv3_12/x2/bn
I1127 20:14:29.716450 13057 net.cpp:395] relu3_12/x2 -> conv3_12/x2/bn (in-place)
I1127 20:14:29.716732 13057 net.cpp:150] Setting up relu3_12/x2
I1127 20:14:29.716759 13057 net.cpp:157] Top shape: 16 128 29 29 (1722368)
I1127 20:14:29.716764 13057 net.cpp:165] Memory required for data: 3739080768
I1127 20:14:29.716768 13057 layer_factory.hpp:77] Creating layer conv3_12/x2
I1127 20:14:29.716778 13057 net.cpp:100] Creating Layer conv3_12/x2
I1127 20:14:29.716784 13057 net.cpp:434] conv3_12/x2 <- conv3_12/x2/bn
I1127 20:14:29.716795 13057 net.cpp:408] conv3_12/x2 -> conv3_12/x2
I1127 20:14:29.720165 13057 net.cpp:150] Setting up conv3_12/x2
I1127 20:14:29.720202 13057 net.cpp:157] Top shape: 16 32 29 29 (430592)
I1127 20:14:29.720207 13057 net.cpp:165] Memory required for data: 3740803136
I1127 20:14:29.720216 13057 layer_factory.hpp:77] Creating layer concat_3_12
I1127 20:14:29.720224 13057 net.cpp:100] Creating Layer concat_3_12
I1127 20:14:29.720229 13057 net.cpp:434] concat_3_12 <- concat_3_11_concat_3_11_0_split_1
I1127 20:14:29.720237 13057 net.cpp:434] concat_3_12 <- conv3_12/x2
I1127 20:14:29.720252 13057 net.cpp:408] concat_3_12 -> concat_3_12
I1127 20:14:29.720301 13057 net.cpp:150] Setting up concat_3_12
I1127 20:14:29.720309 13057 net.cpp:157] Top shape: 16 512 29 29 (6889472)
I1127 20:14:29.720312 13057 net.cpp:165] Memory required for data: 3768361024
I1127 20:14:29.720316 13057 layer_factory.hpp:77] Creating layer conv3_12/blk/bn
I1127 20:14:29.720331 13057 net.cpp:100] Creating Layer conv3_12/blk/bn
I1127 20:14:29.720337 13057 net.cpp:434] conv3_12/blk/bn <- concat_3_12
I1127 20:14:29.720350 13057 net.cpp:408] conv3_12/blk/bn -> conv3_12/blk/bn
I1127 20:14:29.720675 13057 net.cpp:150] Setting up conv3_12/blk/bn
I1127 20:14:29.720690 13057 net.cpp:157] Top shape: 16 512 29 29 (6889472)
I1127 20:14:29.720713 13057 net.cpp:165] Memory required for data: 3795918912
I1127 20:14:29.720724 13057 layer_factory.hpp:77] Creating layer conv3_12/blk/scale
I1127 20:14:29.720732 13057 net.cpp:100] Creating Layer conv3_12/blk/scale
I1127 20:14:29.720737 13057 net.cpp:434] conv3_12/blk/scale <- conv3_12/blk/bn
I1127 20:14:29.720743 13057 net.cpp:395] conv3_12/blk/scale -> conv3_12/blk/bn (in-place)
I1127 20:14:29.720816 13057 layer_factory.hpp:77] Creating layer conv3_12/blk/scale
I1127 20:14:29.720983 13057 net.cpp:150] Setting up conv3_12/blk/scale
I1127 20:14:29.720993 13057 net.cpp:157] Top shape: 16 512 29 29 (6889472)
I1127 20:14:29.720996 13057 net.cpp:165] Memory required for data: 3823476800
I1127 20:14:29.721004 13057 layer_factory.hpp:77] Creating layer relu3_12/blk
I1127 20:14:29.721010 13057 net.cpp:100] Creating Layer relu3_12/blk
I1127 20:14:29.721014 13057 net.cpp:434] relu3_12/blk <- conv3_12/blk/bn
I1127 20:14:29.721026 13057 net.cpp:395] relu3_12/blk -> conv3_12/blk/bn (in-place)
I1127 20:14:29.721329 13057 net.cpp:150] Setting up relu3_12/blk
I1127 20:14:29.721354 13057 net.cpp:157] Top shape: 16 512 29 29 (6889472)
I1127 20:14:29.721359 13057 net.cpp:165] Memory required for data: 3851034688
I1127 20:14:29.721362 13057 layer_factory.hpp:77] Creating layer conv3_12/blk
I1127 20:14:29.721379 13057 net.cpp:100] Creating Layer conv3_12/blk
I1127 20:14:29.721385 13057 net.cpp:434] conv3_12/blk <- conv3_12/blk/bn
I1127 20:14:29.721392 13057 net.cpp:408] conv3_12/blk -> conv3_12/blk
I1127 20:14:29.725708 13057 net.cpp:150] Setting up conv3_12/blk
I1127 20:14:29.725736 13057 net.cpp:157] Top shape: 16 256 29 29 (3444736)
I1127 20:14:29.725742 13057 net.cpp:165] Memory required for data: 3864813632
I1127 20:14:29.725750 13057 layer_factory.hpp:77] Creating layer pool3_12
I1127 20:14:29.725764 13057 net.cpp:100] Creating Layer pool3_12
I1127 20:14:29.725769 13057 net.cpp:434] pool3_12 <- conv3_12/blk
I1127 20:14:29.725780 13057 net.cpp:408] pool3_12 -> pool3_12
I1127 20:14:29.726042 13057 net.cpp:150] Setting up pool3_12
I1127 20:14:29.726064 13057 net.cpp:157] Top shape: 16 256 15 15 (921600)
I1127 20:14:29.726068 13057 net.cpp:165] Memory required for data: 3868500032
I1127 20:14:29.726073 13057 layer_factory.hpp:77] Creating layer pool3_12_pool3_12_0_split
I1127 20:14:29.726083 13057 net.cpp:100] Creating Layer pool3_12_pool3_12_0_split
I1127 20:14:29.726089 13057 net.cpp:434] pool3_12_pool3_12_0_split <- pool3_12
I1127 20:14:29.726095 13057 net.cpp:408] pool3_12_pool3_12_0_split -> pool3_12_pool3_12_0_split_0
I1127 20:14:29.726104 13057 net.cpp:408] pool3_12_pool3_12_0_split -> pool3_12_pool3_12_0_split_1
I1127 20:14:29.726161 13057 net.cpp:150] Setting up pool3_12_pool3_12_0_split
I1127 20:14:29.726166 13057 net.cpp:157] Top shape: 16 256 15 15 (921600)
I1127 20:14:29.726171 13057 net.cpp:157] Top shape: 16 256 15 15 (921600)
I1127 20:14:29.726176 13057 net.cpp:165] Memory required for data: 3875872832
I1127 20:14:29.726179 13057 layer_factory.hpp:77] Creating layer conv4_1/x1/bn
I1127 20:14:29.726200 13057 net.cpp:100] Creating Layer conv4_1/x1/bn
I1127 20:14:29.726207 13057 net.cpp:434] conv4_1/x1/bn <- pool3_12_pool3_12_0_split_0
I1127 20:14:29.726212 13057 net.cpp:408] conv4_1/x1/bn -> conv4_1/x1/bn
I1127 20:14:29.726477 13057 net.cpp:150] Setting up conv4_1/x1/bn
I1127 20:14:29.726485 13057 net.cpp:157] Top shape: 16 256 15 15 (921600)
I1127 20:14:29.726490 13057 net.cpp:165] Memory required for data: 3879559232
I1127 20:14:29.726500 13057 layer_factory.hpp:77] Creating layer conv4_1/x1/scale
I1127 20:14:29.726507 13057 net.cpp:100] Creating Layer conv4_1/x1/scale
I1127 20:14:29.726512 13057 net.cpp:434] conv4_1/x1/scale <- conv4_1/x1/bn
I1127 20:14:29.726517 13057 net.cpp:395] conv4_1/x1/scale -> conv4_1/x1/bn (in-place)
I1127 20:14:29.726572 13057 layer_factory.hpp:77] Creating layer conv4_1/x1/scale
I1127 20:14:29.726714 13057 net.cpp:150] Setting up conv4_1/x1/scale
I1127 20:14:29.726722 13057 net.cpp:157] Top shape: 16 256 15 15 (921600)
I1127 20:14:29.726725 13057 net.cpp:165] Memory required for data: 3883245632
I1127 20:14:29.726759 13057 layer_factory.hpp:77] Creating layer relu4_1/x1
I1127 20:14:29.726770 13057 net.cpp:100] Creating Layer relu4_1/x1
I1127 20:14:29.726775 13057 net.cpp:434] relu4_1/x1 <- conv4_1/x1/bn
I1127 20:14:29.726780 13057 net.cpp:395] relu4_1/x1 -> conv4_1/x1/bn (in-place)
I1127 20:14:29.727005 13057 net.cpp:150] Setting up relu4_1/x1
I1127 20:14:29.727025 13057 net.cpp:157] Top shape: 16 256 15 15 (921600)
I1127 20:14:29.727030 13057 net.cpp:165] Memory required for data: 3886932032
I1127 20:14:29.727035 13057 layer_factory.hpp:77] Creating layer conv4_1/x1
I1127 20:14:29.727047 13057 net.cpp:100] Creating Layer conv4_1/x1
I1127 20:14:29.727052 13057 net.cpp:434] conv4_1/x1 <- conv4_1/x1/bn
I1127 20:14:29.727061 13057 net.cpp:408] conv4_1/x1 -> conv4_1/x1
I1127 20:14:29.730450 13057 net.cpp:150] Setting up conv4_1/x1
I1127 20:14:29.730479 13057 net.cpp:157] Top shape: 16 128 15 15 (460800)
I1127 20:14:29.730485 13057 net.cpp:165] Memory required for data: 3888775232
I1127 20:14:29.730494 13057 layer_factory.hpp:77] Creating layer conv4_1/x2/bn
I1127 20:14:29.730504 13057 net.cpp:100] Creating Layer conv4_1/x2/bn
I1127 20:14:29.730510 13057 net.cpp:434] conv4_1/x2/bn <- conv4_1/x1
I1127 20:14:29.730518 13057 net.cpp:408] conv4_1/x2/bn -> conv4_1/x2/bn
I1127 20:14:29.730806 13057 net.cpp:150] Setting up conv4_1/x2/bn
I1127 20:14:29.730824 13057 net.cpp:157] Top shape: 16 128 15 15 (460800)
I1127 20:14:29.730829 13057 net.cpp:165] Memory required for data: 3890618432
I1127 20:14:29.730839 13057 layer_factory.hpp:77] Creating layer conv4_1/x2/scale
I1127 20:14:29.730846 13057 net.cpp:100] Creating Layer conv4_1/x2/scale
I1127 20:14:29.730851 13057 net.cpp:434] conv4_1/x2/scale <- conv4_1/x2/bn
I1127 20:14:29.730859 13057 net.cpp:395] conv4_1/x2/scale -> conv4_1/x2/bn (in-place)
I1127 20:14:29.730916 13057 layer_factory.hpp:77] Creating layer conv4_1/x2/scale
I1127 20:14:29.731055 13057 net.cpp:150] Setting up conv4_1/x2/scale
I1127 20:14:29.731062 13057 net.cpp:157] Top shape: 16 128 15 15 (460800)
I1127 20:14:29.731066 13057 net.cpp:165] Memory required for data: 3892461632
I1127 20:14:29.731073 13057 layer_factory.hpp:77] Creating layer relu4_1/x2
I1127 20:14:29.731082 13057 net.cpp:100] Creating Layer relu4_1/x2
I1127 20:14:29.731086 13057 net.cpp:434] relu4_1/x2 <- conv4_1/x2/bn
I1127 20:14:29.731092 13057 net.cpp:395] relu4_1/x2 -> conv4_1/x2/bn (in-place)
I1127 20:14:29.732441 13057 net.cpp:150] Setting up relu4_1/x2
I1127 20:14:29.732467 13057 net.cpp:157] Top shape: 16 128 15 15 (460800)
I1127 20:14:29.732472 13057 net.cpp:165] Memory required for data: 3894304832
I1127 20:14:29.732477 13057 layer_factory.hpp:77] Creating layer conv4_1/x2
I1127 20:14:29.732491 13057 net.cpp:100] Creating Layer conv4_1/x2
I1127 20:14:29.732496 13057 net.cpp:434] conv4_1/x2 <- conv4_1/x2/bn
I1127 20:14:29.732506 13057 net.cpp:408] conv4_1/x2 -> conv4_1/x2
I1127 20:14:29.734658 13057 net.cpp:150] Setting up conv4_1/x2
I1127 20:14:29.734686 13057 net.cpp:157] Top shape: 16 32 15 15 (115200)
I1127 20:14:29.734691 13057 net.cpp:165] Memory required for data: 3894765632
I1127 20:14:29.734699 13057 layer_factory.hpp:77] Creating layer concat_4_1
I1127 20:14:29.734710 13057 net.cpp:100] Creating Layer concat_4_1
I1127 20:14:29.734716 13057 net.cpp:434] concat_4_1 <- pool3_12_pool3_12_0_split_1
I1127 20:14:29.734724 13057 net.cpp:434] concat_4_1 <- conv4_1/x2
I1127 20:14:29.734732 13057 net.cpp:408] concat_4_1 -> concat_4_1
I1127 20:14:29.734772 13057 net.cpp:150] Setting up concat_4_1
I1127 20:14:29.734779 13057 net.cpp:157] Top shape: 16 288 15 15 (1036800)
I1127 20:14:29.734783 13057 net.cpp:165] Memory required for data: 3898912832
I1127 20:14:29.734788 13057 layer_factory.hpp:77] Creating layer concat_4_1_concat_4_1_0_split
I1127 20:14:29.734797 13057 net.cpp:100] Creating Layer concat_4_1_concat_4_1_0_split
I1127 20:14:29.734802 13057 net.cpp:434] concat_4_1_concat_4_1_0_split <- concat_4_1
I1127 20:14:29.734807 13057 net.cpp:408] concat_4_1_concat_4_1_0_split -> concat_4_1_concat_4_1_0_split_0
I1127 20:14:29.734832 13057 net.cpp:408] concat_4_1_concat_4_1_0_split -> concat_4_1_concat_4_1_0_split_1
I1127 20:14:29.734884 13057 net.cpp:150] Setting up concat_4_1_concat_4_1_0_split
I1127 20:14:29.734890 13057 net.cpp:157] Top shape: 16 288 15 15 (1036800)
I1127 20:14:29.734895 13057 net.cpp:157] Top shape: 16 288 15 15 (1036800)
I1127 20:14:29.734905 13057 net.cpp:165] Memory required for data: 3907207232
I1127 20:14:29.734910 13057 layer_factory.hpp:77] Creating layer conv4_2/x1/bn
I1127 20:14:29.734920 13057 net.cpp:100] Creating Layer conv4_2/x1/bn
I1127 20:14:29.734925 13057 net.cpp:434] conv4_2/x1/bn <- concat_4_1_concat_4_1_0_split_0
I1127 20:14:29.734930 13057 net.cpp:408] conv4_2/x1/bn -> conv4_2/x1/bn
I1127 20:14:29.735219 13057 net.cpp:150] Setting up conv4_2/x1/bn
I1127 20:14:29.735229 13057 net.cpp:157] Top shape: 16 288 15 15 (1036800)
I1127 20:14:29.735234 13057 net.cpp:165] Memory required for data: 3911354432
I1127 20:14:29.735242 13057 layer_factory.hpp:77] Creating layer conv4_2/x1/scale
I1127 20:14:29.735254 13057 net.cpp:100] Creating Layer conv4_2/x1/scale
I1127 20:14:29.735258 13057 net.cpp:434] conv4_2/x1/scale <- conv4_2/x1/bn
I1127 20:14:29.735265 13057 net.cpp:395] conv4_2/x1/scale -> conv4_2/x1/bn (in-place)
I1127 20:14:29.735325 13057 layer_factory.hpp:77] Creating layer conv4_2/x1/scale
I1127 20:14:29.735476 13057 net.cpp:150] Setting up conv4_2/x1/scale
I1127 20:14:29.735484 13057 net.cpp:157] Top shape: 16 288 15 15 (1036800)
I1127 20:14:29.735488 13057 net.cpp:165] Memory required for data: 3915501632
I1127 20:14:29.735496 13057 layer_factory.hpp:77] Creating layer relu4_2/x1
I1127 20:14:29.735504 13057 net.cpp:100] Creating Layer relu4_2/x1
I1127 20:14:29.735509 13057 net.cpp:434] relu4_2/x1 <- conv4_2/x1/bn
I1127 20:14:29.735514 13057 net.cpp:395] relu4_2/x1 -> conv4_2/x1/bn (in-place)
I1127 20:14:29.736840 13057 net.cpp:150] Setting up relu4_2/x1
I1127 20:14:29.736867 13057 net.cpp:157] Top shape: 16 288 15 15 (1036800)
I1127 20:14:29.736872 13057 net.cpp:165] Memory required for data: 3919648832
I1127 20:14:29.736877 13057 layer_factory.hpp:77] Creating layer conv4_2/x1
I1127 20:14:29.736887 13057 net.cpp:100] Creating Layer conv4_2/x1
I1127 20:14:29.736893 13057 net.cpp:434] conv4_2/x1 <- conv4_2/x1/bn
I1127 20:14:29.736902 13057 net.cpp:408] conv4_2/x1 -> conv4_2/x1
I1127 20:14:29.739066 13057 net.cpp:150] Setting up conv4_2/x1
I1127 20:14:29.739094 13057 net.cpp:157] Top shape: 16 128 15 15 (460800)
I1127 20:14:29.739099 13057 net.cpp:165] Memory required for data: 3921492032
I1127 20:14:29.739106 13057 layer_factory.hpp:77] Creating layer conv4_2/x2/bn
I1127 20:14:29.739117 13057 net.cpp:100] Creating Layer conv4_2/x2/bn
I1127 20:14:29.739123 13057 net.cpp:434] conv4_2/x2/bn <- conv4_2/x1
I1127 20:14:29.739132 13057 net.cpp:408] conv4_2/x2/bn -> conv4_2/x2/bn
I1127 20:14:29.739421 13057 net.cpp:150] Setting up conv4_2/x2/bn
I1127 20:14:29.739437 13057 net.cpp:157] Top shape: 16 128 15 15 (460800)
I1127 20:14:29.739442 13057 net.cpp:165] Memory required for data: 3923335232
I1127 20:14:29.739451 13057 layer_factory.hpp:77] Creating layer conv4_2/x2/scale
I1127 20:14:29.739459 13057 net.cpp:100] Creating Layer conv4_2/x2/scale
I1127 20:14:29.739464 13057 net.cpp:434] conv4_2/x2/scale <- conv4_2/x2/bn
I1127 20:14:29.739470 13057 net.cpp:395] conv4_2/x2/scale -> conv4_2/x2/bn (in-place)
I1127 20:14:29.739527 13057 layer_factory.hpp:77] Creating layer conv4_2/x2/scale
I1127 20:14:29.739665 13057 net.cpp:150] Setting up conv4_2/x2/scale
…
I1127 20:14:33.194867 13057 net.cpp:408] conv5_24/x2 -> conv5_24/x2
I1127 20:14:33.197448 13057 net.cpp:150] Setting up conv5_24/x2
I1127 20:14:33.197475 13057 net.cpp:157] Top shape: 8 32 8 8 (16384)
I1127 20:14:33.197480 13057 net.cpp:165] Memory required for data: 4668170336
I1127 20:14:33.197487 13057 layer_factory.hpp:77] Creating layer concat_5_24
I1127 20:14:33.197496 13057 net.cpp:100] Creating Layer concat_5_24
I1127 20:14:33.197502 13057 net.cpp:434] concat_5_24 <- concat_5_23_concat_5_23_0_split_1
I1127 20:14:33.197510 13057 net.cpp:434] concat_5_24 <- conv5_24/x2
I1127 20:14:33.197517 13057 net.cpp:408] concat_5_24 -> concat_5_24
I1127 20:14:33.197568 13057 net.cpp:150] Setting up concat_5_24
I1127 20:14:33.197576 13057 net.cpp:157] Top shape: 8 1664 8 8 (851968)
I1127 20:14:33.197579 13057 net.cpp:165] Memory required for data: 4671578208
I1127 20:14:33.197584 13057 layer_factory.hpp:77] Creating layer concat_5_24_concat_5_24_0_split
I1127 20:14:33.197593 13057 net.cpp:100] Creating Layer concat_5_24_concat_5_24_0_split
I1127 20:14:33.197613 13057 net.cpp:434] concat_5_24_concat_5_24_0_split <- concat_5_24
I1127 20:14:33.197620 13057 net.cpp:408] concat_5_24_concat_5_24_0_split -> concat_5_24_concat_5_24_0_split_0
I1127 20:14:33.197628 13057 net.cpp:408] concat_5_24_concat_5_24_0_split -> concat_5_24_concat_5_24_0_split_1
I1127 20:14:33.197691 13057 net.cpp:150] Setting up concat_5_24_concat_5_24_0_split
I1127 20:14:33.197698 13057 net.cpp:157] Top shape: 8 1664 8 8 (851968)
I1127 20:14:33.197703 13057 net.cpp:157] Top shape: 8 1664 8 8 (851968)
I1127 20:14:33.197707 13057 net.cpp:165] Memory required for data: 4678393952
I1127 20:14:33.197711 13057 layer_factory.hpp:77] Creating layer conv5_25/x1/bn
I1127 20:14:33.197719 13057 net.cpp:100] Creating Layer conv5_25/x1/bn
I1127 20:14:33.197724 13057 net.cpp:434] conv5_25/x1/bn <- concat_5_24_concat_5_24_0_split_0
I1127 20:14:33.197732 13057 net.cpp:408] conv5_25/x1/bn -> conv5_25/x1/bn
I1127 20:14:33.198104 13057 net.cpp:150] Setting up conv5_25/x1/bn
I1127 20:14:33.198120 13057 net.cpp:157] Top shape: 8 1664 8 8 (851968)
I1127 20:14:33.198125 13057 net.cpp:165] Memory required for data: 4681801824
I1127 20:14:33.198137 13057 layer_factory.hpp:77] Creating layer conv5_25/x1/scale
I1127 20:14:33.198145 13057 net.cpp:100] Creating Layer conv5_25/x1/scale
I1127 20:14:33.198151 13057 net.cpp:434] conv5_25/x1/scale <- conv5_25/x1/bn
I1127 20:14:33.198158 13057 net.cpp:395] conv5_25/x1/scale -> conv5_25/x1/bn (in-place)
I1127 20:14:33.198257 13057 layer_factory.hpp:77] Creating layer conv5_25/x1/scale
I1127 20:14:33.198465 13057 net.cpp:150] Setting up conv5_25/x1/scale
I1127 20:14:33.198482 13057 net.cpp:157] Top shape: 8 1664 8 8 (851968)
I1127 20:14:33.198487 13057 net.cpp:165] Memory required for data: 4685209696
I1127 20:14:33.198493 13057 layer_factory.hpp:77] Creating layer relu5_25/x1
I1127 20:14:33.198503 13057 net.cpp:100] Creating Layer relu5_25/x1
I1127 20:14:33.198508 13057 net.cpp:434] relu5_25/x1 <- conv5_25/x1/bn
I1127 20:14:33.198514 13057 net.cpp:395] relu5_25/x1 -> conv5_25/x1/bn (in-place)
I1127 20:14:33.198760 13057 net.cpp:150] Setting up relu5_25/x1
I1127 20:14:33.198777 13057 net.cpp:157] Top shape: 8 1664 8 8 (851968)
I1127 20:14:33.198781 13057 net.cpp:165] Memory required for data: 4688617568
I1127 20:14:33.198786 13057 layer_factory.hpp:77] Creating layer conv5_25/x1
I1127 20:14:33.198798 13057 net.cpp:100] Creating Layer conv5_25/x1
I1127 20:14:33.198803 13057 net.cpp:434] conv5_25/x1 <- conv5_25/x1/bn
I1127 20:14:33.198928 13057 net.cpp:408] conv5_25/x1 -> conv5_25/x1
I1127 20:14:33.205037 13057 net.cpp:150] Setting up conv5_25/x1
I1127 20:14:33.205070 13057 net.cpp:157] Top shape: 8 128 8 8 (65536)
I1127 20:14:33.205075 13057 net.cpp:165] Memory required for data: 4688879712
I1127 20:14:33.205083 13057 layer_factory.hpp:77] Creating layer conv5_25/x2/bn
I1127 20:14:33.205092 13057 net.cpp:100] Creating Layer conv5_25/x2/bn
I1127 20:14:33.205099 13057 net.cpp:434] conv5_25/x2/bn <- conv5_25/x1
I1127 20:14:33.205109 13057 net.cpp:408] conv5_25/x2/bn -> conv5_25/x2/bn
I1127 20:14:33.205479 13057 net.cpp:150] Setting up conv5_25/x2/bn
I1127 20:14:33.205497 13057 net.cpp:157] Top shape: 8 128 8 8 (65536)
I1127 20:14:33.205500 13057 net.cpp:165] Memory required for data: 4689141856
I1127 20:14:33.205510 13057 layer_factory.hpp:77] Creating layer conv5_25/x2/scale
I1127 20:14:33.205520 13057 net.cpp:100] Creating Layer conv5_25/x2/scale
I1127 20:14:33.205526 13057 net.cpp:434] conv5_25/x2/scale <- conv5_25/x2/bn
I1127 20:14:33.205533 13057 net.cpp:395] conv5_25/x2/scale -> conv5_25/x2/bn (in-place)
I1127 20:14:33.205602 13057 layer_factory.hpp:77] Creating layer conv5_25/x2/scale
I1127 20:14:33.205782 13057 net.cpp:150] Setting up conv5_25/x2/scale
I1127 20:14:33.205797 13057 net.cpp:157] Top shape: 8 128 8 8 (65536)
I1127 20:14:33.205801 13057 net.cpp:165] Memory required for data: 4689404000
I1127 20:14:33.205809 13057 layer_factory.hpp:77] Creating layer relu5_25/x2
I1127 20:14:33.205816 13057 net.cpp:100] Creating Layer relu5_25/x2
I1127 20:14:33.205821 13057 net.cpp:434] relu5_25/x2 <- conv5_25/x2/bn
I1127 20:14:33.205842 13057 net.cpp:395] relu5_25/x2 -> conv5_25/x2/bn (in-place)
I1127 20:14:33.206095 13057 net.cpp:150] Setting up relu5_25/x2
I1127 20:14:33.206115 13057 net.cpp:157] Top shape: 8 128 8 8 (65536)
I1127 20:14:33.206120 13057 net.cpp:165] Memory required for data: 4689666144
I1127 20:14:33.206125 13057 layer_factory.hpp:77] Creating layer conv5_25/x2
I1127 20:14:33.206136 13057 net.cpp:100] Creating Layer conv5_25/x2
I1127 20:14:33.206142 13057 net.cpp:434] conv5_25/x2 <- conv5_25/x2/bn
I1127 20:14:33.206148 13057 net.cpp:408] conv5_25/x2 -> conv5_25/x2
I1127 20:14:33.210034 13057 net.cpp:150] Setting up conv5_25/x2
I1127 20:14:33.210062 13057 net.cpp:157] Top shape: 8 32 8 8 (16384)
I1127 20:14:33.210070 13057 net.cpp:165] Memory required for data: 4689731680
I1127 20:14:33.210078 13057 layer_factory.hpp:77] Creating layer concat_5_25
I1127 20:14:33.210088 13057 net.cpp:100] Creating Layer concat_5_25
I1127 20:14:33.210094 13057 net.cpp:434] concat_5_25 <- concat_5_24_concat_5_24_0_split_1
I1127 20:14:33.210103 13057 net.cpp:434] concat_5_25 <- conv5_25/x2
I1127 20:14:33.210109 13057 net.cpp:408] concat_5_25 -> concat_5_25
I1127 20:14:33.210170 13057 net.cpp:150] Setting up concat_5_25
I1127 20:14:33.210180 13057 net.cpp:157] Top shape: 8 1696 8 8 (868352)
I1127 20:14:33.210183 13057 net.cpp:165] Memory required for data: 4693205088
I1127 20:14:33.210187 13057 layer_factory.hpp:77] Creating layer concat_5_25_concat_5_25_0_split
I1127 20:14:33.210194 13057 net.cpp:100] Creating Layer concat_5_25_concat_5_25_0_split
I1127 20:14:33.210211 13057 net.cpp:434] concat_5_25_concat_5_25_0_split <- concat_5_25
I1127 20:14:33.210219 13057 net.cpp:408] concat_5_25_concat_5_25_0_split -> concat_5_25_concat_5_25_0_split_0
I1127 20:14:33.210227 13057 net.cpp:408] concat_5_25_concat_5_25_0_split -> concat_5_25_concat_5_25_0_split_1
I1127 20:14:33.210294 13057 net.cpp:150] Setting up concat_5_25_concat_5_25_0_split
I1127 20:14:33.210307 13057 net.cpp:157] Top shape: 8 1696 8 8 (868352)
I1127 20:14:33.210312 13057 net.cpp:157] Top shape: 8 1696 8 8 (868352)
I1127 20:14:33.210316 13057 net.cpp:165] Memory required for data: 4700151904
I1127 20:14:33.210319 13057 layer_factory.hpp:77] Creating layer conv5_26/x1/bn
I1127 20:14:33.210327 13057 net.cpp:100] Creating Layer conv5_26/x1/bn
I1127 20:14:33.210332 13057 net.cpp:434] conv5_26/x1/bn <- concat_5_25_concat_5_25_0_split_0
I1127 20:14:33.210341 13057 net.cpp:408] conv5_26/x1/bn -> conv5_26/x1/bn
I1127 20:14:33.210716 13057 net.cpp:150] Setting up conv5_26/x1/bn
I1127 20:14:33.210733 13057 net.cpp:157] Top shape: 8 1696 8 8 (868352)
I1127 20:14:33.210737 13057 net.cpp:165] Memory required for data: 4703625312
I1127 20:14:33.210747 13057 layer_factory.hpp:77] Creating layer conv5_26/x1/scale
I1127 20:14:33.210758 13057 net.cpp:100] Creating Layer conv5_26/x1/scale
I1127 20:14:33.210764 13057 net.cpp:434] conv5_26/x1/scale <- conv5_26/x1/bn
I1127 20:14:33.210769 13057 net.cpp:395] conv5_26/x1/scale -> conv5_26/x1/bn (in-place)
I1127 20:14:33.210860 13057 layer_factory.hpp:77] Creating layer conv5_26/x1/scale
I1127 20:14:33.211084 13057 net.cpp:150] Setting up conv5_26/x1/scale
I1127 20:14:33.211100 13057 net.cpp:157] Top shape: 8 1696 8 8 (868352)
I1127 20:14:33.211104 13057 net.cpp:165] Memory required for data: 4707098720
I1127 20:14:33.211112 13057 layer_factory.hpp:77] Creating layer relu5_26/x1
I1127 20:14:33.211125 13057 net.cpp:100] Creating Layer relu5_26/x1
I1127 20:14:33.211132 13057 net.cpp:434] relu5_26/x1 <- conv5_26/x1/bn
I1127 20:14:33.211138 13057 net.cpp:395] relu5_26/x1 -> conv5_26/x1/bn (in-place)
I1127 20:14:33.211416 13057 net.cpp:150] Setting up relu5_26/x1
I1127 20:14:33.211436 13057 net.cpp:157] Top shape: 8 1696 8 8 (868352)
I1127 20:14:33.211441 13057 net.cpp:165] Memory required for data: 4710572128
I1127 20:14:33.211446 13057 layer_factory.hpp:77] Creating layer conv5_26/x1
I1127 20:14:33.211457 13057 net.cpp:100] Creating Layer conv5_26/x1
I1127 20:14:33.211462 13057 net.cpp:434] conv5_26/x1 <- conv5_26/x1/bn
I1127 20:14:33.211484 13057 net.cpp:408] conv5_26/x1 -> conv5_26/x1
I1127 20:14:33.214262 13057 net.cpp:150] Setting up conv5_26/x1
I1127 20:14:33.214290 13057 net.cpp:157] Top shape: 8 128 8 8 (65536)
I1127 20:14:33.214295 13057 net.cpp:165] Memory required for data: 4710834272
I1127 20:14:33.214303 13057 layer_factory.hpp:77] Creating layer conv5_26/x2/bn
I1127 20:14:33.214313 13057 net.cpp:100] Creating Layer conv5_26/x2/bn
I1127 20:14:33.214318 13057 net.cpp:434] conv5_26/x2/bn <- conv5_26/x1
I1127 20:14:33.214329 13057 net.cpp:408] conv5_26/x2/bn -> conv5_26/x2/bn
I1127 20:14:33.214676 13057 net.cpp:150] Setting up conv5_26/x2/bn
I1127 20:14:33.214694 13057 net.cpp:157] Top shape: 8 128 8 8 (65536)
I1127 20:14:33.214697 13057 net.cpp:165] Memory required for data: 4711096416
I1127 20:14:33.214707 13057 layer_factory.hpp:77] Creating layer conv5_26/x2/scale
I1127 20:14:33.214717 13057 net.cpp:100] Creating Layer conv5_26/x2/scale
I1127 20:14:33.214723 13057 net.cpp:434] conv5_26/x2/scale <- conv5_26/x2/bn
I1127 20:14:33.214731 13057 net.cpp:395] conv5_26/x2/scale -> conv5_26/x2/bn (in-place)
I1127 20:14:33.214802 13057 layer_factory.hpp:77] Creating layer conv5_26/x2/scale
I1127 20:14:33.214987 13057 net.cpp:150] Setting up conv5_26/x2/scale
I1127 20:14:33.215001 13057 net.cpp:157] Top shape: 8 128 8 8 (65536)
I1127 20:14:33.215005 13057 net.cpp:165] Memory required for data: 4711358560
I1127 20:14:33.215013 13057 layer_factory.hpp:77] Creating layer relu5_26/x2
I1127 20:14:33.215020 13057 net.cpp:100] Creating Layer relu5_26/x2
I1127 20:14:33.215024 13057 net.cpp:434] relu5_26/x2 <- conv5_26/x2/bn
I1127 20:14:33.215035 13057 net.cpp:395] relu5_26/x2 -> conv5_26/x2/bn (in-place)
I1127 20:14:33.215301 13057 net.cpp:150] Setting up relu5_26/x2
I1127 20:14:33.215318 13057 net.cpp:157] Top shape: 8 128 8 8 (65536)
I1127 20:14:33.215322 13057 net.cpp:165] Memory required for data: 4711620704
I1127 20:14:33.215327 13057 layer_factory.hpp:77] Creating layer conv5_26/x2
I1127 20:14:33.215342 13057 net.cpp:100] Creating Layer conv5_26/x2
I1127 20:14:33.215349 13057 net.cpp:434] conv5_26/x2 <- conv5_26/x2/bn
I1127 20:14:33.215355 13057 net.cpp:408] conv5_26/x2 -> conv5_26/x2
I1127 20:14:33.217859 13057 net.cpp:150] Setting up conv5_26/x2
I1127 20:14:33.217887 13057 net.cpp:157] Top shape: 8 32 8 8 (16384)
I1127 20:14:33.217892 13057 net.cpp:165] Memory required for data: 4711686240
I1127 20:14:33.217900 13057 layer_factory.hpp:77] Creating layer concat_5_26
I1127 20:14:33.217911 13057 net.cpp:100] Creating Layer concat_5_26
I1127 20:14:33.217917 13057 net.cpp:434] concat_5_26 <- concat_5_25_concat_5_25_0_split_1
I1127 20:14:33.217926 13057 net.cpp:434] concat_5_26 <- conv5_26/x2
I1127 20:14:33.217932 13057 net.cpp:408] concat_5_26 -> concat_5_26
I1127 20:14:33.217984 13057 net.cpp:150] Setting up concat_5_26
I1127 20:14:33.217993 13057 net.cpp:157] Top shape: 8 1728 8 8 (884736)
I1127 20:14:33.217996 13057 net.cpp:165] Memory required for data: 4715225184
I1127 20:14:33.218000 13057 layer_factory.hpp:77] Creating layer concat_5_26_concat_5_26_0_split
I1127 20:14:33.218008 13057 net.cpp:100] Creating Layer concat_5_26_concat_5_26_0_split
I1127 20:14:33.218013 13057 net.cpp:434] concat_5_26_concat_5_26_0_split <- concat_5_26
I1127 20:14:33.218020 13057 net.cpp:408] concat_5_26_concat_5_26_0_split -> concat_5_26_concat_5_26_0_split_0
I1127 20:14:33.218029 13057 net.cpp:408] concat_5_26_concat_5_26_0_split -> concat_5_26_concat_5_26_0_split_1
I1127 20:14:33.218091 13057 net.cpp:150] Setting up concat_5_26_concat_5_26_0_split
I1127 20:14:33.218098 13057 net.cpp:157] Top shape: 8 1728 8 8 (884736)
I1127 20:14:33.218103 13057 net.cpp:157] Top shape: 8 1728 8 8 (884736)
I1127 20:14:33.218106 13057 net.cpp:165] Memory required for data: 4722303072
I1127 20:14:33.218111 13057 layer_factory.hpp:77] Creating layer conv5_27/x1/bn
I1127 20:14:33.218118 13057 net.cpp:100] Creating Layer conv5_27/x1/bn
I1127 20:14:33.218127 13057 net.cpp:434] conv5_27/x1/bn <- concat_5_26_concat_5_26_0_split_0
I1127 20:14:33.218132 13057 net.cpp:408] conv5_27/x1/bn -> conv5_27/x1/bn
I1127 20:14:33.218555 13057 net.cpp:150] Setting up conv5_27/x1/bn
I1127 20:14:33.218575 13057 net.cpp:157] Top shape: 8 1728 8 8 (884736)
I1127 20:14:33.218580 13057 net.cpp:165] Memory required for data: 4725842016
I1127 20:14:33.218588 13057 layer_factory.hpp:77] Creating layer conv5_27/x1/scale
I1127 20:14:33.218597 13057 net.cpp:100] Creating Layer conv5_27/x1/scale
I1127 20:14:33.218603 13057 net.cpp:434] conv5_27/x1/scale <- conv5_27/x1/bn
I1127 20:14:33.218612 13057 net.cpp:395] conv5_27/x1/scale -> conv5_27/x1/bn (in-place)
I1127 20:14:33.218704 13057 layer_factory.hpp:77] Creating layer conv5_27/x1/scale
I1127 20:14:33.218924 13057 net.cpp:150] Setting up conv5_27/x1/scale
I1127 20:14:33.218940 13057 net.cpp:157] Top shape: 8 1728 8 8 (884736)
I1127 20:14:33.218945 13057 net.cpp:165] Memory required for data: 4729380960
I1127 20:14:33.218952 13057 layer_factory.hpp:77] Creating layer relu5_27/x1
I1127 20:14:33.218961 13057 net.cpp:100] Creating Layer relu5_27/x1
I1127 20:14:33.218967 13057 net.cpp:434] relu5_27/x1 <- conv5_27/x1/bn
I1127 20:14:33.218976 13057 net.cpp:395] relu5_27/x1 -> conv5_27/x1/bn (in-place)
I1127 20:14:33.219243 13057 net.cpp:150] Setting up relu5_27/x1
I1127 20:14:33.219261 13057 net.cpp:157] Top shape: 8 1728 8 8 (884736)
I1127 20:14:33.219265 13057 net.cpp:165] Memory required for data: 4732919904
I1127 20:14:33.219270 13057 layer_factory.hpp:77] Creating layer conv5_27/x1
I1127 20:14:33.219282 13057 net.cpp:100] Creating Layer conv5_27/x1
I1127 20:14:33.219288 13057 net.cpp:434] conv5_27/x1 <- conv5_27/x1/bn
I1127 20:14:33.219296 13057 net.cpp:408] conv5_27/x1 -> conv5_27/x1
I1127 20:14:33.223994 13057 net.cpp:150] Setting up conv5_27/x1
I1127 20:14:33.224025 13057 net.cpp:157] Top shape: 8 128 8 8 (65536)
I1127 20:14:33.224030 13057 net.cpp:165] Memory required for data: 4733182048
I1127 20:14:33.224037 13057 layer_factory.hpp:77] Creating layer conv5_27/x2/bn
I1127 20:14:33.224050 13057 net.cpp:100] Creating Layer conv5_27/x2/bn
I1127 20:14:33.224056 13057 net.cpp:434] conv5_27/x2/bn <- conv5_27/x1
I1127 20:14:33.224063 13057 net.cpp:408] conv5_27/x2/bn -> conv5_27/x2/bn
I1127 20:14:33.224486 13057 net.cpp:150] Setting up conv5_27/x2/bn
I1127 20:14:33.224505 13057 net.cpp:157] Top shape: 8 128 8 8 (65536)
I1127 20:14:33.224510 13057 net.cpp:165] Memory required for data: 4733444192
I1127 20:14:33.224519 13057 layer_factory.hpp:77] Creating layer conv5_27/x2/scale
I1127 20:14:33.224530 13057 net.cpp:100] Creating Layer conv5_27/x2/scale
I1127 20:14:33.224556 13057 net.cpp:434] conv5_27/x2/scale <- conv5_27/x2/bn
I1127 20:14:33.224565 13057 net.cpp:395] conv5_27/x2/scale -> conv5_27/x2/bn (in-place)
I1127 20:14:33.224639 13057 layer_factory.hpp:77] Creating layer conv5_27/x2/scale
I1127 20:14:33.224831 13057 net.cpp:150] Setting up conv5_27/x2/scale
I1127 20:14:33.224848 13057 net.cpp:157] Top shape: 8 128 8 8 (65536)
I1127 20:14:33.224853 13057 net.cpp:165] Memory required for data: 4733706336
I1127 20:14:33.224860 13057 layer_factory.hpp:77] Creating layer relu5_27/x2
I1127 20:14:33.224870 13057 net.cpp:100] Creating Layer relu5_27/x2
I1127 20:14:33.224875 13057 net.cpp:434] relu5_27/x2 <- conv5_27/x2/bn
I1127 20:14:33.224881 13057 net.cpp:395] relu5_27/x2 -> conv5_27/x2/bn (in-place)
I1127 20:14:33.226538 13057 net.cpp:150] Setting up relu5_27/x2
I1127 20:14:33.226569 13057 net.cpp:157] Top shape: 8 128 8 8 (65536)
I1127 20:14:33.226575 13057 net.cpp:165] Memory required for data: 4733968480
I1127 20:14:33.226580 13057 layer_factory.hpp:77] Creating layer conv5_27/x2
I1127 20:14:33.226590 13057 net.cpp:100] Creating Layer conv5_27/x2
I1127 20:14:33.226598 13057 net.cpp:434] conv5_27/x2 <- conv5_27/x2/bn
I1127 20:14:33.226609 13057 net.cpp:408] conv5_27/x2 -> conv5_27/x2
I1127 20:14:33.230631 13057 net.cpp:150] Setting up conv5_27/x2
I1127 20:14:33.230659 13057 net.cpp:157] Top shape: 8 32 8 8 (16384)
I1127 20:14:33.230664 13057 net.cpp:165] Memory required for data: 4734034016
I1127 20:14:33.230672 13057 layer_factory.hpp:77] Creating layer concat_5_27
I1127 20:14:33.230684 13057 net.cpp:100] Creating Layer concat_5_27
I1127 20:14:33.230706 13057 net.cpp:434] concat_5_27 <- concat_5_26_concat_5_26_0_split_1
I1127 20:14:33.230715 13057 net.cpp:434] concat_5_27 <- conv5_27/x2
I1127 20:14:33.230721 13057 net.cpp:408] concat_5_27 -> concat_5_27
I1127 20:14:33.230803 13057 net.cpp:150] Setting up concat_5_27
I1127 20:14:33.230813 13057 net.cpp:157] Top shape: 8 1760 8 8 (901120)
I1127 20:14:33.230816 13057 net.cpp:165] Memory required for data: 4737638496
I1127 20:14:33.230820 13057 layer_factory.hpp:77] Creating layer concat_5_27_concat_5_27_0_split
I1127 20:14:33.230829 13057 net.cpp:100] Creating Layer concat_5_27_concat_5_27_0_split
I1127 20:14:33.230834 13057 net.cpp:434] concat_5_27_concat_5_27_0_split <- concat_5_27
I1127 20:14:33.230842 13057 net.cpp:408] concat_5_27_concat_5_27_0_split -> concat_5_27_concat_5_27_0_split_0
I1127 20:14:33.230850 13057 net.cpp:408] concat_5_27_concat_5_27_0_split -> concat_5_27_concat_5_27_0_split_1
I1127 20:14:33.230916 13057 net.cpp:150] Setting up concat_5_27_concat_5_27_0_split
I1127 20:14:33.230938 13057 net.cpp:157] Top shape: 8 1760 8 8 (901120)
I1127 20:14:33.230945 13057 net.cpp:157] Top shape: 8 1760 8 8 (901120)
I1127 20:14:33.230949 13057 net.cpp:165] Memory required for data: 4744847456
I1127 20:14:33.230953 13057 layer_factory.hpp:77] Creating layer conv5_28/x1/bn
I1127 20:14:33.230962 13057 net.cpp:100] Creating Layer conv5_28/x1/bn
I1127 20:14:33.230967 13057 net.cpp:434] conv5_28/x1/bn <- concat_5_27_concat_5_27_0_split_0
I1127 20:14:33.230973 13057 net.cpp:408] conv5_28/x1/bn -> conv5_28/x1/bn
I1127 20:14:33.231415 13057 net.cpp:150] Setting up conv5_28/x1/bn
I1127 20:14:33.231433 13057 net.cpp:157] Top shape: 8 1760 8 8 (901120)
I1127 20:14:33.231438 13057 net.cpp:165] Memory required for data: 4748451936
I1127 20:14:33.231448 13057 layer_factory.hpp:77] Creating layer conv5_28/x1/scale
I1127 20:14:33.231459 13057 net.cpp:100] Creating Layer conv5_28/x1/scale
I1127 20:14:33.231465 13057 net.cpp:434] conv5_28/x1/scale <- conv5_28/x1/bn
I1127 20:14:33.231474 13057 net.cpp:395] conv5_28/x1/scale -> conv5_28/x1/bn (in-place)
I1127 20:14:33.231586 13057 layer_factory.hpp:77] Creating layer conv5_28/x1/scale
I1127 20:14:33.231830 13057 net.cpp:150] Setting up conv5_28/x1/scale
I1127 20:14:33.231848 13057 net.cpp:157] Top shape: 8 1760 8 8 (901120)
I1127 20:14:33.231851 13057 net.cpp:165] Memory required for data: 4752056416
I1127 20:14:33.231859 13057 layer_factory.hpp:77] Creating layer relu5_28/x1
I1127 20:14:33.231868 13057 net.cpp:100] Creating Layer relu5_28/x1
I1127 20:14:33.231873 13057 net.cpp:434] relu5_28/x1 <- conv5_28/x1/bn
I1127 20:14:33.231881 13057 net.cpp:395] relu5_28/x1 -> conv5_28/x1/bn (in-place)
I1127 20:14:33.232167 13057 net.cpp:150] Setting up relu5_28/x1
I1127 20:14:33.232187 13057 net.cpp:157] Top shape: 8 1760 8 8 (901120)
I1127 20:14:33.232192 13057 net.cpp:165] Memory required for data: 4755660896
I1127 20:14:33.232205 13057 layer_factory.hpp:77] Creating layer conv5_28/x1
I1127 20:14:33.232218 13057 net.cpp:100] Creating Layer conv5_28/x1
I1127 20:14:33.232223 13057 net.cpp:434] conv5_28/x1 <- conv5_28/x1/bn
I1127 20:14:33.232230 13057 net.cpp:408] conv5_28/x1 -> conv5_28/x1
I1127 20:14:33.235101 13057 net.cpp:150] Setting up conv5_28/x1
I1127 20:14:33.235131 13057 net.cpp:157] Top shape: 8 128 8 8 (65536)
I1127 20:14:33.235136 13057 net.cpp:165] Memory required for data: 4755923040
I1127 20:14:33.235143 13057 layer_factory.hpp:77] Creating layer conv5_28/x2/bn
I1127 20:14:33.235152 13057 net.cpp:100] Creating Layer conv5_28/x2/bn
I1127 20:14:33.235158 13057 net.cpp:434] conv5_28/x2/bn <- conv5_28/x1
I1127 20:14:33.235169 13057 net.cpp:408] conv5_28/x2/bn -> conv5_28/x2/bn
I1127 20:14:33.235543 13057 net.cpp:150] Setting up conv5_28/x2/bn
I1127 20:14:33.235561 13057 net.cpp:157] Top shape: 8 128 8 8 (65536)
I1127 20:14:33.235566 13057 net.cpp:165] Memory required for data: 4756185184
I1127 20:14:33.235575 13057 layer_factory.hpp:77] Creating layer conv5_28/x2/scale
I1127 20:14:33.235586 13057 net.cpp:100] Creating Layer conv5_28/x2/scale
I1127 20:14:33.235607 13057 net.cpp:434] conv5_28/x2/scale <- conv5_28/x2/bn
I1127 20:14:33.235613 13057 net.cpp:395] conv5_28/x2/scale -> conv5_28/x2/bn (in-place)
I1127 20:14:33.235687 13057 layer_factory.hpp:77] Creating layer conv5_28/x2/scale
I1127 20:14:33.235946 13057 net.cpp:150] Setting up conv5_28/x2/scale
I1127 20:14:33.235962 13057 net.cpp:157] Top shape: 8 128 8 8 (65536)
I1127 20:14:33.235967 13057 net.cpp:165] Memory required for data: 4756447328
I1127 20:14:33.235975 13057 layer_factory.hpp:77] Creating layer relu5_28/x2
I1127 20:14:33.235983 13057 net.cpp:100] Creating Layer relu5_28/x2
I1127 20:14:33.235988 13057 net.cpp:434] relu5_28/x2 <- conv5_28/x2/bn
I1127 20:14:33.235996 13057 net.cpp:395] relu5_28/x2 -> conv5_28/x2/bn (in-place)
I1127 20:14:33.236265 13057 net.cpp:150] Setting up relu5_28/x2
I1127 20:14:33.236284 13057 net.cpp:157] Top shape: 8 128 8 8 (65536)
I1127 20:14:33.236289 13057 net.cpp:165] Memory required for data: 4756709472
I1127 20:14:33.236294 13057 layer_factory.hpp:77] Creating layer conv5_28/x2
I1127 20:14:33.236307 13057 net.cpp:100] Creating Layer conv5_28/x2
I1127 20:14:33.236315 13057 net.cpp:434] conv5_28/x2 <- conv5_28/x2/bn
I1127 20:14:33.236323 13057 net.cpp:408] conv5_28/x2 -> conv5_28/x2
I1127 20:14:33.238905 13057 net.cpp:150] Setting up conv5_28/x2
I1127 20:14:33.238934 13057 net.cpp:157] Top shape: 8 32 8 8 (16384)
I1127 20:14:33.238940 13057 net.cpp:165] Memory required for data: 4756775008
I1127 20:14:33.238946 13057 layer_factory.hpp:77] Creating layer concat_5_28
I1127 20:14:33.238958 13057 net.cpp:100] Creating Layer concat_5_28
I1127 20:14:33.238965 13057 net.cpp:434] concat_5_28 <- concat_5_27_concat_5_27_0_split_1
I1127 20:14:33.238972 13057 net.cpp:434] concat_5_28 <- conv5_28/x2
I1127 20:14:33.238979 13057 net.cpp:408] concat_5_28 -> concat_5_28
I1127 20:14:33.239030 13057 net.cpp:150] Setting up concat_5_28
I1127 20:14:33.239038 13057 net.cpp:157] Top shape: 8 1792 8 8 (917504)
I1127 20:14:33.239042 13057 net.cpp:165] Memory required for data: 4760445024
I1127 20:14:33.239047 13057 layer_factory.hpp:77] Creating layer concat_5_28_concat_5_28_0_split
I1127 20:14:33.239053 13057 net.cpp:100] Creating Layer concat_5_28_concat_5_28_0_split
I1127 20:14:33.239058 13057 net.cpp:434] concat_5_28_concat_5_28_0_split <- concat_5_28
I1127 20:14:33.239066 13057 net.cpp:408] concat_5_28_concat_5_28_0_split -> concat_5_28_concat_5_28_0_split_0
I1127 20:14:33.239074 13057 net.cpp:408] concat_5_28_concat_5_28_0_split -> concat_5_28_concat_5_28_0_split_1
I1127 20:14:33.239135 13057 net.cpp:150] Setting up concat_5_28_concat_5_28_0_split
I1127 20:14:33.239141 13057 net.cpp:157] Top shape: 8 1792 8 8 (917504)
I1127 20:14:33.239146 13057 net.cpp:157] Top shape: 8 1792 8 8 (917504)
I1127 20:14:33.239150 13057 net.cpp:165] Memory required for data: 4767785056
I1127 20:14:33.239153 13057 layer_factory.hpp:77] Creating layer conv5_29/x1/bn
I1127 20:14:33.239163 13057 net.cpp:100] Creating Layer conv5_29/x1/bn
I1127 20:14:33.239168 13057 net.cpp:434] conv5_29/x1/bn <- concat_5_28_concat_5_28_0_split_0
I1127 20:14:33.239183 13057 net.cpp:408] conv5_29/x1/bn -> conv5_29/x1/bn
I1127 20:14:33.239579 13057 net.cpp:150] Setting up conv5_29/x1/bn
I1127 20:14:33.239596 13057 net.cpp:157] Top shape: 8 1792 8 8 (917504)
I1127 20:14:33.239600 13057 net.cpp:165] Memory required for data: 4771455072
I1127 20:14:33.239610 13057 layer_factory.hpp:77] Creating layer conv5_29/x1/scale
I1127 20:14:33.239619 13057 net.cpp:100] Creating Layer conv5_29/x1/scale
I1127 20:14:33.239624 13057 net.cpp:434] conv5_29/x1/scale <- conv5_29/x1/bn
I1127 20:14:33.239630 13057 net.cpp:395] conv5_29/x1/scale -> conv5_29/x1/bn (in-place)
I1127 20:14:33.239717 13057 layer_factory.hpp:77] Creating layer conv5_29/x1/scale
I1127 20:14:33.239931 13057 net.cpp:150] Setting up conv5_29/x1/scale
I1127 20:14:33.239948 13057 net.cpp:157] Top shape: 8 1792 8 8 (917504)
I1127 20:14:33.239951 13057 net.cpp:165] Memory required for data: 4775125088
I1127 20:14:33.239959 13057 layer_factory.hpp:77] Creating layer relu5_29/x1
I1127 20:14:33.239981 13057 net.cpp:100] Creating Layer relu5_29/x1
I1127 20:14:33.239990 13057 net.cpp:434] relu5_29/x1 <- conv5_29/x1/bn
I1127 20:14:33.239996 13057 net.cpp:395] relu5_29/x1 -> conv5_29/x1/bn (in-place)
I1127 20:14:33.240265 13057 net.cpp:150] Setting up relu5_29/x1
I1127 20:14:33.240283 13057 net.cpp:157] Top shape: 8 1792 8 8 (917504)
I1127 20:14:33.240288 13057 net.cpp:165] Memory required for data: 4778795104
I1127 20:14:33.240291 13057 layer_factory.hpp:77] Creating layer conv5_29/x1
I1127 20:14:33.240303 13057 net.cpp:100] Creating Layer conv5_29/x1
I1127 20:14:33.240309 13057 net.cpp:434] conv5_29/x1 <- conv5_29/x1/bn
I1127 20:14:33.240315 13057 net.cpp:408] conv5_29/x1 -> conv5_29/x1
I1127 20:14:33.244983 13057 net.cpp:150] Setting up conv5_29/x1
I1127 20:14:33.245012 13057 net.cpp:157] Top shape: 8 128 8 8 (65536)
I1127 20:14:33.245018 13057 net.cpp:165] Memory required for data: 4779057248
I1127 20:14:33.245025 13057 layer_factory.hpp:77] Creating layer conv5_29/x2/bn
I1127 20:14:33.245038 13057 net.cpp:100] Creating Layer conv5_29/x2/bn
I1127 20:14:33.245043 13057 net.cpp:434] conv5_29/x2/bn <- conv5_29/x1
I1127 20:14:33.245051 13057 net.cpp:408] conv5_29/x2/bn -> conv5_29/x2/bn
I1127 20:14:33.245436 13057 net.cpp:150] Setting up conv5_29/x2/bn
I1127 20:14:33.245455 13057 net.cpp:157] Top shape: 8 128 8 8 (65536)
I1127 20:14:33.245460 13057 net.cpp:165] Memory required for data: 4779319392
I1127 20:14:33.245470 13057 layer_factory.hpp:77] Creating layer conv5_29/x2/scale
I1127 20:14:33.245478 13057 net.cpp:100] Creating Layer conv5_29/x2/scale
I1127 20:14:33.245483 13057 net.cpp:434] conv5_29/x2/scale <- conv5_29/x2/bn
I1127 20:14:33.245493 13057 net.cpp:395] conv5_29/x2/scale -> conv5_29/x2/bn (in-place)
I1127 20:14:33.245565 13057 layer_factory.hpp:77] Creating layer conv5_29/x2/scale
I1127 20:14:33.245741 13057 net.cpp:150] Setting up conv5_29/x2/scale
I1127 20:14:33.245759 13057 net.cpp:157] Top shape: 8 128 8 8 (65536)
I1127 20:14:33.245764 13057 net.cpp:165] Memory required for data: 4779581536
I1127 20:14:33.245771 13057 layer_factory.hpp:77] Creating layer relu5_29/x2
I1127 20:14:33.245779 13057 net.cpp:100] Creating Layer relu5_29/x2
I1127 20:14:33.245784 13057 net.cpp:434] relu5_29/x2 <- conv5_29/x2/bn
I1127 20:14:33.245788 13057 net.cpp:395] relu5_29/x2 -> conv5_29/x2/bn (in-place)
I1127 20:14:33.246044 13057 net.cpp:150] Setting up relu5_29/x2
I1127 20:14:33.246062 13057 net.cpp:157] Top shape: 8 128 8 8 (65536)
I1127 20:14:33.246068 13057 net.cpp:165] Memory required for data: 4779843680
I1127 20:14:33.246073 13057 layer_factory.hpp:77] Creating layer conv5_29/x2
I1127 20:14:33.246081 13057 net.cpp:100] Creating Layer conv5_29/x2
I1127 20:14:33.246086 13057 net.cpp:434] conv5_29/x2 <- conv5_29/x2/bn
I1127 20:14:33.246096 13057 net.cpp:408] conv5_29/x2 -> conv5_29/x2
I1127 20:14:33.249881 13057 net.cpp:150] Setting up conv5_29/x2
I1127 20:14:33.249908 13057 net.cpp:157] Top shape: 8 32 8 8 (16384)
I1127 20:14:33.249913 13057 net.cpp:165] Memory required for data: 4779909216
I1127 20:14:33.249922 13057 layer_factory.hpp:77] Creating layer concat_5_29
I1127 20:14:33.249933 13057 net.cpp:100] Creating Layer concat_5_29
I1127 20:14:33.249939 13057 net.cpp:434] concat_5_29 <- concat_5_28_concat_5_28_0_split_1
I1127 20:14:33.249948 13057 net.cpp:434] concat_5_29 <- conv5_29/x2
I1127 20:14:33.249954 13057 net.cpp:408] concat_5_29 -> concat_5_29
I1127 20:14:33.250013 13057 net.cpp:150] Setting up concat_5_29
I1127 20:14:33.250021 13057 net.cpp:157] Top shape: 8 1824 8 8 (933888)
I1127 20:14:33.250025 13057 net.cpp:165] Memory required for data: 4783644768
I1127 20:14:33.250030 13057 layer_factory.hpp:77] Creating layer concat_5_29_concat_5_29_0_split
I1127 20:14:33.250039 13057 net.cpp:100] Creating Layer concat_5_29_concat_5_29_0_split
I1127 20:14:33.250044 13057 net.cpp:434] concat_5_29_concat_5_29_0_split <- concat_5_29
I1127 20:14:33.250053 13057 net.cpp:408] concat_5_29_concat_5_29_0_split -> concat_5_29_concat_5_29_0_split_0
I1127 20:14:33.250061 13057 net.cpp:408] concat_5_29_concat_5_29_0_split -> concat_5_29_concat_5_29_0_split_1
I1127 20:14:33.250144 13057 net.cpp:150] Setting up concat_5_29_concat_5_29_0_split
I1127 20:14:33.250151 13057 net.cpp:157] Top shape: 8 1824 8 8 (933888)
I1127 20:14:33.250156 13057 net.cpp:157] Top shape: 8 1824 8 8 (933888)
I1127 20:14:33.250159 13057 net.cpp:165] Memory required for data: 4791115872
I1127 20:14:33.250164 13057 layer_factory.hpp:77] Creating layer conv5_30/x1/bn
I1127 20:14:33.250175 13057 net.cpp:100] Creating Layer conv5_30/x1/bn
I1127 20:14:33.250180 13057 net.cpp:434] conv5_30/x1/bn <- concat_5_29_concat_5_29_0_split_0
I1127 20:14:33.250187 13057 net.cpp:408] conv5_30/x1/bn -> conv5_30/x1/bn
I1127 20:14:33.250586 13057 net.cpp:150] Setting up conv5_30/x1/bn
I1127 20:14:33.250603 13057 net.cpp:157] Top shape: 8 1824 8 8 (933888)
I1127 20:14:33.250607 13057 net.cpp:165] Memory required for data: 4794851424
I1127 20:14:33.250617 13057 layer_factory.hpp:77] Creating layer conv5_30/x1/scale
I1127 20:14:33.250628 13057 net.cpp:100] Creating Layer conv5_30/x1/scale
I1127 20:14:33.250634 13057 net.cpp:434] conv5_30/x1/scale <- conv5_30/x1/bn
I1127 20:14:33.250640 13057 net.cpp:395] conv5_30/x1/scale -> conv5_30/x1/bn (in-place)
I1127 20:14:33.250737 13057 layer_factory.hpp:77] Creating layer conv5_30/x1/scale
I1127 20:14:33.250958 13057 net.cpp:150] Setting up conv5_30/x1/scale
I1127 20:14:33.250975 13057 net.cpp:157] Top shape: 8 1824 8 8 (933888)
I1127 20:14:33.250979 13057 net.cpp:165] Memory required for data: 4798586976
I1127 20:14:33.250986 13057 layer_factory.hpp:77] Creating layer relu5_30/x1
I1127 20:14:33.250999 13057 net.cpp:100] Creating Layer relu5_30/x1
I1127 20:14:33.251005 13057 net.cpp:434] relu5_30/x1 <- conv5_30/x1/bn
I1127 20:14:33.251010 13057 net.cpp:395] relu5_30/x1 -> conv5_30/x1/bn (in-place)
I1127 20:14:33.251291 13057 net.cpp:150] Setting up relu5_30/x1
I1127 20:14:33.251309 13057 net.cpp:157] Top shape: 8 1824 8 8 (933888)
I1127 20:14:33.251314 13057 net.cpp:165] Memory required for data: 4802322528
I1127 20:14:33.251318 13057 layer_factory.hpp:77] Creating layer conv5_30/x1
I1127 20:14:33.251330 13057 net.cpp:100] Creating Layer conv5_30/x1
I1127 20:14:33.251338 13057 net.cpp:434] conv5_30/x1 <- conv5_30/x1/bn
I1127 20:14:33.251344 13057 net.cpp:408] conv5_30/x1 -> conv5_30/x1
I1127 20:14:33.254125 13057 net.cpp:150] Setting up conv5_30/x1
I1127 20:14:33.254153 13057 net.cpp:157] Top shape: 8 128 8 8 (65536)
I1127 20:14:33.254159 13057 net.cpp:165] Memory required for data: 4802584672
I1127 20:14:33.254166 13057 layer_factory.hpp:77] Creating layer conv5_30/x2/bn
I1127 20:14:33.254179 13057 net.cpp:100] Creating Layer conv5_30/x2/bn
I1127 20:14:33.254185 13057 net.cpp:434] conv5_30/x2/bn <- conv5_30/x1
I1127 20:14:33.254194 13057 net.cpp:408] conv5_30/x2/bn -> conv5_30/x2/bn
I1127 20:14:33.254571 13057 net.cpp:150] Setting up conv5_30/x2/bn
I1127 20:14:33.254586 13057 net.cpp:157] Top shape: 8 128 8 8 (65536)
I1127 20:14:33.254591 13057 net.cpp:165] Memory required for data: 4802846816
I1127 20:14:33.254601 13057 layer_factory.hpp:77] Creating layer conv5_30/x2/scale
I1127 20:14:33.254608 13057 net.cpp:100] Creating Layer conv5_30/x2/scale
I1127 20:14:33.254613 13057 net.cpp:434] conv5_30/x2/scale <- conv5_30/x2/bn
I1127 20:14:33.254622 13057 net.cpp:395] conv5_30/x2/scale -> conv5_30/x2/bn (in-place)
I1127 20:14:33.254691 13057 layer_factory.hpp:77] Creating layer conv5_30/x2/scale
I1127 20:14:33.254876 13057 net.cpp:150] Setting up conv5_30/x2/scale
I1127 20:14:33.254892 13057 net.cpp:157] Top shape: 8 128 8 8 (65536)
I1127 20:14:33.254896 13057 net.cpp:165] Memory required for data: 4803108960
I1127 20:14:33.254904 13057 layer_factory.hpp:77] Creating layer relu5_30/x2
I1127 20:14:33.254910 13057 net.cpp:100] Creating Layer relu5_30/x2
I1127 20:14:33.254915 13057 net.cpp:434] relu5_30/x2 <- conv5_30/x2/bn
I1127 20:14:33.254920 13057 net.cpp:395] relu5_30/x2 -> conv5_30/x2/bn (in-place)
I1127 20:14:33.256523 13057 net.cpp:150] Setting up relu5_30/x2
I1127 20:14:33.256575 13057 net.cpp:157] Top shape: 8 128 8 8 (65536)
I1127 20:14:33.256597 13057 net.cpp:165] Memory required for data: 4803371104
I1127 20:14:33.256603 13057 layer_factory.hpp:77] Creating layer conv5_30/x2
I1127 20:14:33.256621 13057 net.cpp:100] Creating Layer conv5_30/x2
I1127 20:14:33.256628 13057 net.cpp:434] conv5_30/x2 <- conv5_30/x2/bn
I1127 20:14:33.256635 13057 net.cpp:408] conv5_30/x2 -> conv5_30/x2
I1127 20:14:33.259181 13057 net.cpp:150] Setting up conv5_30/x2
I1127 20:14:33.259217 13057 net.cpp:157] Top shape: 8 32 8 8 (16384)
I1127 20:14:33.259223 13057 net.cpp:165] Memory required for data: 4803436640
I1127 20:14:33.259230 13057 layer_factory.hpp:77] Creating layer concat_5_30
I1127 20:14:33.259243 13057 net.cpp:100] Creating Layer concat_5_30
I1127 20:14:33.259253 13057 net.cpp:434] concat_5_30 <- concat_5_29_concat_5_29_0_split_1
I1127 20:14:33.259259 13057 net.cpp:434] concat_5_30 <- conv5_30/x2
I1127 20:14:33.259268 13057 net.cpp:408] concat_5_30 -> concat_5_30
I1127 20:14:33.259320 13057 net.cpp:150] Setting up concat_5_30
I1127 20:14:33.259326 13057 net.cpp:157] Top shape: 8 1856 8 8 (950272)
I1127 20:14:33.259330 13057 net.cpp:165] Memory required for data: 4807237728
I1127 20:14:33.259335 13057 layer_factory.hpp:77] Creating layer concat_5_30_concat_5_30_0_split
I1127 20:14:33.259341 13057 net.cpp:100] Creating Layer concat_5_30_concat_5_30_0_split
I1127 20:14:33.259346 13057 net.cpp:434] concat_5_30_concat_5_30_0_split <- concat_5_30
I1127 20:14:33.259356 13057 net.cpp:408] concat_5_30_concat_5_30_0_split -> concat_5_30_concat_5_30_0_split_0
I1127 20:14:33.259362 13057 net.cpp:408] concat_5_30_concat_5_30_0_split -> concat_5_30_concat_5_30_0_split_1
I1127 20:14:33.259423 13057 net.cpp:150] Setting up concat_5_30_concat_5_30_0_split
I1127 20:14:33.259440 13057 net.cpp:157] Top shape: 8 1856 8 8 (950272)
I1127 20:14:33.259445 13057 net.cpp:157] Top shape: 8 1856 8 8 (950272)
I1127 20:14:33.259449 13057 net.cpp:165] Memory required for data: 4814839904
I1127 20:14:33.259454 13057 layer_factory.hpp:77] Creating layer conv5_31/x1/bn
I1127 20:14:33.259460 13057 net.cpp:100] Creating Layer conv5_31/x1/bn
I1127 20:14:33.259465 13057 net.cpp:434] conv5_31/x1/bn <- concat_5_30_concat_5_30_0_split_0
I1127 20:14:33.259472 13057 net.cpp:408] conv5_31/x1/bn -> conv5_31/x1/bn
I1127 20:14:33.259871 13057 net.cpp:150] Setting up conv5_31/x1/bn
I1127 20:14:33.259888 13057 net.cpp:157] Top shape: 8 1856 8 8 (950272)
I1127 20:14:33.259892 13057 net.cpp:165] Memory required for data: 4818640992
I1127 20:14:33.259902 13057 layer_factory.hpp:77] Creating layer conv5_31/x1/scale
I1127 20:14:33.259912 13057 net.cpp:100] Creating Layer conv5_31/x1/scale
I1127 20:14:33.259918 13057 net.cpp:434] conv5_31/x1/scale <- conv5_31/x1/bn
I1127 20:14:33.259930 13057 net.cpp:395] conv5_31/x1/scale -> conv5_31/x1/bn (in-place)
I1127 20:14:33.260025 13057 layer_factory.hpp:77] Creating layer conv5_31/x1/scale
I1127 20:14:33.260264 13057 net.cpp:150] Setting up conv5_31/x1/scale
I1127 20:14:33.260282 13057 net.cpp:157] Top shape: 8 1856 8 8 (950272)
I1127 20:14:33.260285 13057 net.cpp:165] Memory required for data: 4822442080
I1127 20:14:33.260293 13057 layer_factory.hpp:77] Creating layer relu5_31/x1
I1127 20:14:33.260300 13057 net.cpp:100] Creating Layer relu5_31/x1
I1127 20:14:33.260308 13057 net.cpp:434] relu5_31/x1 <- conv5_31/x1/bn
I1127 20:14:33.260315 13057 net.cpp:395] relu5_31/x1 -> conv5_31/x1/bn (in-place)
I1127 20:14:33.260601 13057 net.cpp:150] Setting up relu5_31/x1
I1127 20:14:33.260619 13057 net.cpp:157] Top shape: 8 1856 8 8 (950272)
I1127 20:14:33.260624 13057 net.cpp:165] Memory required for data: 4826243168
I1127 20:14:33.260628 13057 layer_factory.hpp:77] Creating layer conv5_31/x1
I1127 20:14:33.260640 13057 net.cpp:100] Creating Layer conv5_31/x1
I1127 20:14:33.260645 13057 net.cpp:434] conv5_31/x1 <- conv5_31/x1/bn
I1127 20:14:33.260653 13057 net.cpp:408] conv5_31/x1 -> conv5_31/x1
I1127 20:14:33.265300 13057 net.cpp:150] Setting up conv5_31/x1
I1127 20:14:33.265329 13057 net.cpp:157] Top shape: 8 128 8 8 (65536)
I1127 20:14:33.265336 13057 net.cpp:165] Memory required for data: 4826505312
I1127 20:14:33.265357 13057 layer_factory.hpp:77] Creating layer conv5_31/x2/bn
I1127 20:14:33.265370 13057 net.cpp:100] Creating Layer conv5_31/x2/bn
I1127 20:14:33.265377 13057 net.cpp:434] conv5_31/x2/bn <- conv5_31/x1
I1127 20:14:33.265403 13057 net.cpp:408] conv5_31/x2/bn -> conv5_31/x2/bn
I1127 20:14:33.265769 13057 net.cpp:150] Setting up conv5_31/x2/bn
I1127 20:14:33.265786 13057 net.cpp:157] Top shape: 8 128 8 8 (65536)
I1127 20:14:33.265791 13057 net.cpp:165] Memory required for data: 4826767456
I1127 20:14:33.265801 13057 layer_factory.hpp:77] Creating layer conv5_31/x2/scale
I1127 20:14:33.265810 13057 net.cpp:100] Creating Layer conv5_31/x2/scale
I1127 20:14:33.265815 13057 net.cpp:434] conv5_31/x2/scale <- conv5_31/x2/bn
I1127 20:14:33.265821 13057 net.cpp:395] conv5_31/x2/scale -> conv5_31/x2/bn (in-place)
I1127 20:14:33.265897 13057 layer_factory.hpp:77] Creating layer conv5_31/x2/scale
I1127 20:14:33.266078 13057 net.cpp:150] Setting up conv5_31/x2/scale
I1127 20:14:33.266095 13057 net.cpp:157] Top shape: 8 128 8 8 (65536)
I1127 20:14:33.266099 13057 net.cpp:165] Memory required for data: 4827029600
I1127 20:14:33.266108 13057 layer_factory.hpp:77] Creating layer relu5_31/x2
I1127 20:14:33.266114 13057 net.cpp:100] Creating Layer relu5_31/x2
I1127 20:14:33.266119 13057 net.cpp:434] relu5_31/x2 <- conv5_31/x2/bn
I1127 20:14:33.266129 13057 net.cpp:395] relu5_31/x2 -> conv5_31/x2/bn (in-place)
I1127 20:14:33.266449 13057 net.cpp:150] Setting up relu5_31/x2
I1127 20:14:33.266469 13057 net.cpp:157] Top shape: 8 128 8 8 (65536)
I1127 20:14:33.266474 13057 net.cpp:165] Memory required for data: 4827291744
I1127 20:14:33.266479 13057 layer_factory.hpp:77] Creating layer conv5_31/x2
I1127 20:14:33.266491 13057 net.cpp:100] Creating Layer conv5_31/x2
I1127 20:14:33.266497 13057 net.cpp:434] conv5_31/x2 <- conv5_31/x2/bn
I1127 20:14:33.266505 13057 net.cpp:408] conv5_31/x2 -> conv5_31/x2
I1127 20:14:33.270531 13057 net.cpp:150] Setting up conv5_31/x2
I1127 20:14:33.270558 13057 net.cpp:157] Top shape: 8 32 8 8 (16384)
I1127 20:14:33.270565 13057 net.cpp:165] Memory required for data: 4827357280
I1127 20:14:33.270572 13057 layer_factory.hpp:77] Creating layer concat_5_31
I1127 20:14:33.270581 13057 net.cpp:100] Creating Layer concat_5_31
I1127 20:14:33.270587 13057 net.cpp:434] concat_5_31 <- concat_5_30_concat_5_30_0_split_1
I1127 20:14:33.270596 13057 net.cpp:434] concat_5_31 <- conv5_31/x2
I1127 20:14:33.270606 13057 net.cpp:408] concat_5_31 -> concat_5_31
I1127 20:14:33.270665 13057 net.cpp:150] Setting up concat_5_31
I1127 20:14:33.270673 13057 net.cpp:157] Top shape: 8 1888 8 8 (966656)
I1127 20:14:33.270678 13057 net.cpp:165] Memory required for data: 4831223904
I1127 20:14:33.270683 13057 layer_factory.hpp:77] Creating layer concat_5_31_concat_5_31_0_split
I1127 20:14:33.270692 13057 net.cpp:100] Creating Layer concat_5_31_concat_5_31_0_split
I1127 20:14:33.270697 13057 net.cpp:434] concat_5_31_concat_5_31_0_split <- concat_5_31
I1127 20:14:33.270704 13057 net.cpp:408] concat_5_31_concat_5_31_0_split -> concat_5_31_concat_5_31_0_split_0
I1127 20:14:33.270711 13057 net.cpp:408] concat_5_31_concat_5_31_0_split -> concat_5_31_concat_5_31_0_split_1
I1127 20:14:33.270777 13057 net.cpp:150] Setting up concat_5_31_concat_5_31_0_split
I1127 20:14:33.270784 13057 net.cpp:157] Top shape: 8 1888 8 8 (966656)
I1127 20:14:33.270789 13057 net.cpp:157] Top shape: 8 1888 8 8 (966656)
I1127 20:14:33.270793 13057 net.cpp:165] Memory required for data: 4838957152
I1127 20:14:33.270797 13057 layer_factory.hpp:77] Creating layer conv5_32/x1/bn
I1127 20:14:33.270807 13057 net.cpp:100] Creating Layer conv5_32/x1/bn
I1127 20:14:33.270812 13057 net.cpp:434] conv5_32/x1/bn <- concat_5_31_concat_5_31_0_split_0
I1127 20:14:33.270819 13057 net.cpp:408] conv5_32/x1/bn -> conv5_32/x1/bn
I1127 20:14:33.271239 13057 net.cpp:150] Setting up conv5_32/x1/bn
I1127 20:14:33.271257 13057 net.cpp:157] Top shape: 8 1888 8 8 (966656)
I1127 20:14:33.271262 13057 net.cpp:165] Memory required for data: 4842823776
I1127 20:14:33.271291 13057 layer_factory.hpp:77] Creating layer conv5_32/x1/scale
I1127 20:14:33.271302 13057 net.cpp:100] Creating Layer conv5_32/x1/scale
I1127 20:14:33.271308 13057 net.cpp:434] conv5_32/x1/scale <- conv5_32/x1/bn
I1127 20:14:33.271315 13057 net.cpp:395] conv5_32/x1/scale -> conv5_32/x1/bn (in-place)
I1127 20:14:33.271420 13057 layer_factory.hpp:77] Creating layer conv5_32/x1/scale
I1127 20:14:33.271657 13057 net.cpp:150] Setting up conv5_32/x1/scale
I1127 20:14:33.271675 13057 net.cpp:157] Top shape: 8 1888 8 8 (966656)
I1127 20:14:33.271679 13057 net.cpp:165] Memory required for data: 4846690400
I1127 20:14:33.271687 13057 layer_factory.hpp:77] Creating layer relu5_32/x1
I1127 20:14:33.271697 13057 net.cpp:100] Creating Layer relu5_32/x1
I1127 20:14:33.271703 13057 net.cpp:434] relu5_32/x1 <- conv5_32/x1/bn
I1127 20:14:33.271708 13057 net.cpp:395] relu5_32/x1 -> conv5_32/x1/bn (in-place)
I1127 20:14:33.271978 13057 net.cpp:150] Setting up relu5_32/x1
I1127 20:14:33.271997 13057 net.cpp:157] Top shape: 8 1888 8 8 (966656)
I1127 20:14:33.272002 13057 net.cpp:165] Memory required for data: 4850557024
I1127 20:14:33.272006 13057 layer_factory.hpp:77] Creating layer conv5_32/x1
I1127 20:14:33.272022 13057 net.cpp:100] Creating Layer conv5_32/x1
I1127 20:14:33.272028 13057 net.cpp:434] conv5_32/x1 <- conv5_32/x1/bn
I1127 20:14:33.272034 13057 net.cpp:408] conv5_32/x1 -> conv5_32/x1
I1127 20:14:33.274901 13057 net.cpp:150] Setting up conv5_32/x1
I1127 20:14:33.274931 13057 net.cpp:157] Top shape: 8 128 8 8 (65536)
I1127 20:14:33.274936 13057 net.cpp:165] Memory required for data: 4850819168
I1127 20:14:33.274945 13057 layer_factory.hpp:77] Creating layer conv5_32/x2/bn
I1127 20:14:33.274956 13057 net.cpp:100] Creating Layer conv5_32/x2/bn
I1127 20:14:33.274962 13057 net.cpp:434] conv5_32/x2/bn <- conv5_32/x1
I1127 20:14:33.274969 13057 net.cpp:408] conv5_32/x2/bn -> conv5_32/x2/bn
I1127 20:14:33.275357 13057 net.cpp:150] Setting up conv5_32/x2/bn
I1127 20:14:33.275374 13057 net.cpp:157] Top shape: 8 128 8 8 (65536)
I1127 20:14:33.275379 13057 net.cpp:165] Memory required for data: 4851081312
I1127 20:14:33.275389 13057 layer_factory.hpp:77] Creating layer conv5_32/x2/scale
I1127 20:14:33.275398 13057 net.cpp:100] Creating Layer conv5_32/x2/scale
I1127 20:14:33.275403 13057 net.cpp:434] conv5_32/x2/scale <- conv5_32/x2/bn
I1127 20:14:33.275413 13057 net.cpp:395] conv5_32/x2/scale -> conv5_32/x2/bn (in-place)
I1127 20:14:33.275488 13057 layer_factory.hpp:77] Creating layer conv5_32/x2/scale
I1127 20:14:33.275673 13057 net.cpp:150] Setting up conv5_32/x2/scale
I1127 20:14:33.275688 13057 net.cpp:157] Top shape: 8 128 8 8 (65536)
I1127 20:14:33.275693 13057 net.cpp:165] Memory required for data: 4851343456
I1127 20:14:33.275701 13057 layer_factory.hpp:77] Creating layer relu5_32/x2
I1127 20:14:33.275707 13057 net.cpp:100] Creating Layer relu5_32/x2
I1127 20:14:33.275712 13057 net.cpp:434] relu5_32/x2 <- conv5_32/x2/bn
I1127 20:14:33.275717 13057 net.cpp:395] relu5_32/x2 -> conv5_32/x2/bn (in-place)
I1127 20:14:33.275975 13057 net.cpp:150] Setting up relu5_32/x2
I1127 20:14:33.275993 13057 net.cpp:157] Top shape: 8 128 8 8 (65536)
I1127 20:14:33.275998 13057 net.cpp:165] Memory required for data: 4851605600
I1127 20:14:33.276003 13057 layer_factory.hpp:77] Creating layer conv5_32/x2
I1127 20:14:33.276016 13057 net.cpp:100] Creating Layer conv5_32/x2
I1127 20:14:33.276022 13057 net.cpp:434] conv5_32/x2 <- conv5_32/x2/bn
I1127 20:14:33.276028 13057 net.cpp:408] conv5_32/x2 -> conv5_32/x2
I1127 20:14:33.278606 13057 net.cpp:150] Setting up conv5_32/x2
I1127 20:14:33.278635 13057 net.cpp:157] Top shape: 8 32 8 8 (16384)
I1127 20:14:33.278640 13057 net.cpp:165] Memory required for data: 4851671136
I1127 20:14:33.278647 13057 layer_factory.hpp:77] Creating layer concat_5_32
I1127 20:14:33.278656 13057 net.cpp:100] Creating Layer concat_5_32
I1127 20:14:33.278662 13057 net.cpp:434] concat_5_32 <- concat_5_31_concat_5_31_0_split_1
I1127 20:14:33.278671 13057 net.cpp:434] concat_5_32 <- conv5_32/x2
I1127 20:14:33.278698 13057 net.cpp:408] concat_5_32 -> concat_5_32
I1127 20:14:33.278750 13057 net.cpp:150] Setting up concat_5_32
I1127 20:14:33.278761 13057 net.cpp:157] Top shape: 8 1920 8 8 (983040)
I1127 20:14:33.278765 13057 net.cpp:165] Memory required for data: 4855603296
I1127 20:14:33.278769 13057 layer_factory.hpp:77] Creating layer conv5_32/blk/bn
I1127 20:14:33.278777 13057 net.cpp:100] Creating Layer conv5_32/blk/bn
I1127 20:14:33.278782 13057 net.cpp:434] conv5_32/blk/bn <- concat_5_32
I1127 20:14:33.278791 13057 net.cpp:408] conv5_32/blk/bn -> conv5_32/blk/bn
I1127 20:14:33.279189 13057 net.cpp:150] Setting up conv5_32/blk/bn
I1127 20:14:33.279217 13057 net.cpp:157] Top shape: 8 1920 8 8 (983040)
I1127 20:14:33.279222 13057 net.cpp:165] Memory required for data: 4859535456
I1127 20:14:33.279232 13057 layer_factory.hpp:77] Creating layer conv5_32/blk/scale
I1127 20:14:33.279242 13057 net.cpp:100] Creating Layer conv5_32/blk/scale
I1127 20:14:33.279248 13057 net.cpp:434] conv5_32/blk/scale <- conv5_32/blk/bn
I1127 20:14:33.279254 13057 net.cpp:395] conv5_32/blk/scale -> conv5_32/blk/bn (in-place)
I1127 20:14:33.279346 13057 layer_factory.hpp:77] Creating layer conv5_32/blk/scale
I1127 20:14:33.279566 13057 net.cpp:150] Setting up conv5_32/blk/scale
I1127 20:14:33.279583 13057 net.cpp:157] Top shape: 8 1920 8 8 (983040)
I1127 20:14:33.279587 13057 net.cpp:165] Memory required for data: 4863467616
I1127 20:14:33.279594 13057 layer_factory.hpp:77] Creating layer relu5_32/blk
I1127 20:14:33.279602 13057 net.cpp:100] Creating Layer relu5_32/blk
I1127 20:14:33.279606 13057 net.cpp:434] relu5_32/blk <- conv5_32/blk/bn
I1127 20:14:33.279614 13057 net.cpp:395] relu5_32/blk -> conv5_32/blk/bn (in-place)
I1127 20:14:33.279862 13057 net.cpp:150] Setting up relu5_32/blk
I1127 20:14:33.279881 13057 net.cpp:157] Top shape: 8 1920 8 8 (983040)
I1127 20:14:33.279886 13057 net.cpp:165] Memory required for data: 4867399776
I1127 20:14:33.279891 13057 layer_factory.hpp:77] Creating layer pool5
I1127 20:14:33.279901 13057 net.cpp:100] Creating Layer pool5
I1127 20:14:33.279906 13057 net.cpp:434] pool5 <- conv5_32/blk/bn
I1127 20:14:33.279917 13057 net.cpp:408] pool5 -> pool5
I1127 20:14:33.282968 13057 net.cpp:150] Setting up pool5
I1127 20:14:33.282997 13057 net.cpp:157] Top shape: 8 1920 1 1 (15360)
I1127 20:14:33.283004 13057 net.cpp:165] Memory required for data: 4867461216
I1127 20:14:33.283008 13057 layer_factory.hpp:77] Creating layer fc6_my
I1127 20:14:33.283018 13057 net.cpp:100] Creating Layer fc6_my
I1127 20:14:33.283025 13057 net.cpp:434] fc6_my <- pool5
I1127 20:14:33.283036 13057 net.cpp:408] fc6_my -> fc6_my
I1127 20:14:33.286025 13057 net.cpp:150] Setting up fc6_my
I1127 20:14:33.286052 13057 net.cpp:157] Top shape: 8 80 1 1 (640)
I1127 20:14:33.286057 13057 net.cpp:165] Memory required for data: 4867463776
I1127 20:14:33.286067 13057 layer_factory.hpp:77] Creating layer fc6_my_fc6_my_0_split
I1127 20:14:33.286075 13057 net.cpp:100] Creating Layer fc6_my_fc6_my_0_split
I1127 20:14:33.286082 13057 net.cpp:434] fc6_my_fc6_my_0_split <- fc6_my
I1127 20:14:33.286088 13057 net.cpp:408] fc6_my_fc6_my_0_split -> fc6_my_fc6_my_0_split_0
I1127 20:14:33.286100 13057 net.cpp:408] fc6_my_fc6_my_0_split -> fc6_my_fc6_my_0_split_1
I1127 20:14:33.286177 13057 net.cpp:150] Setting up fc6_my_fc6_my_0_split
I1127 20:14:33.286185 13057 net.cpp:157] Top shape: 8 80 1 1 (640)
I1127 20:14:33.286190 13057 net.cpp:157] Top shape: 8 80 1 1 (640)
I1127 20:14:33.286195 13057 net.cpp:165] Memory required for data: 4867468896
I1127 20:14:33.286211 13057 layer_factory.hpp:77] Creating layer loss
I1127 20:14:33.286222 13057 net.cpp:100] Creating Layer loss
I1127 20:14:33.286227 13057 net.cpp:434] loss <- fc6_my_fc6_my_0_split_0
I1127 20:14:33.286234 13057 net.cpp:434] loss <- label_data_1_split_0
I1127 20:14:33.286242 13057 net.cpp:408] loss -> loss
…
