…
I1128 23:39:19.849337  1631 net.cpp:322] The NetState phase (0) differed from the phase (1) specified by a rule in layer data
I1128 23:39:19.849774  1631 net.cpp:322] The NetState phase (0) differed from the phase (1) specified by a rule in layer accuracy
I1128 23:39:19.852788  1631 net.cpp:58] Initializing net from parameters: 
state {
  phase: TRAIN
  level: 0
  stage: ""
}
layer {
  name: "data"
  type: "ImageData"
  top: "data"
  top: "label"
  include {
    phase: TRAIN
  }
  transform_param {
    mirror: true
    crop_size: 224
  }
  image_data_param {
    source: "../aichallenger_train_treated/treated_train_label.txt"
    batch_size: 16
    shuffle: true
  }
}
layer {
  name: "conv1"
  type: "Convolution"
  bottom: "data"
  top: "conv1"
  convolution_param {
    num_output: 64
    bias_term: false
    pad: 3
    kernel_size: 7
    stride: 2
  }
}
layer {
  name: "conv1/bn"
  type: "BatchNorm"
  bottom: "conv1"
  top: "conv1/bn"
  batch_norm_param {
    eps: 1e-05
  }
}
layer {
  name: "conv1/scale"
  type: "Scale"
  bottom: "conv1/bn"
  top: "conv1/bn"
  scale_param {
    bias_term: true
  }
}
layer {
  name: "relu1"
  type: "ReLU"
  bottom: "conv1/bn"
  top: "conv1/bn"
}
layer {
  name: "pool1"
  type: "Pooling"
  bottom: "conv1/bn"
  top: "pool1"
  pooling_param {
    pool: MAX
    kernel_size: 3
    stride: 2
    pad: 1
  }
}
layer {
  name: "conv2_1/x1/bn"
  type: "BatchNorm"
  bottom: "pool1"
  top: "conv2_1/x1/bn"
  batch_norm_param {
    eps: 1e-05
  }
}
layer {
  name: "conv2_1/x1/scale"
  type: "Scale"
  bottom: "conv2_1/x1/bn"
  top: "conv2_1/x1/bn"
  scale_param {
    bias_term: true
  }
}
layer {
  name: "relu2_1/x1"
  type: "ReLU"
  bottom: "conv2_1/x1/bn"
  top: "conv2_1/x1/bn"
}
layer {
  name: "conv2_1/x1"
  type: "Convolution"
  bottom: "conv2_1/x1/bn"
  top: "conv2_1/x1"
  convolution_param {
    num_output: 128
    bias_term: false
    kernel_size: 1
  }
}
layer {
  name: "conv2_1/x2/bn"
  type: "BatchNorm"
  bottom: "conv2_1/x1"
  top: "conv2_1/x2/bn"
  batch_norm_param {
    eps: 1e-05
  }
}
layer {
  name: "conv2_1/x2/scale"
  type: "Scale"
  bottom: "conv2_1/x2/bn"
  top: "conv2_1/x2/bn"
  scale_param {
    bias_term: true
  }
}
layer {
  name: "relu2_1/x2"
  type: "ReLU"
  bottom: "conv2_1/x2/bn"
  top: "conv2_1/x2/bn"
}
layer {
  name: "conv2_1/x2"
  type: "Convolution"
  bottom: "conv2_1/x2/bn"
  top: "conv2_1/x2"
  convolution_param {
    num_output: 32
    bias_term: false
    pad: 1
    kernel_size: 3
  }
}
layer {
  name: "concat_2_1"
  type: "Concat"
  bottom: "pool1"
  bottom: "conv2_1/x2"
  top: "concat_2_1"
}
layer {
  name: "conv2_2/x1/bn"
  type: "BatchNorm"
  bottom: "concat_2_1"
  top: "conv2_2/x1/bn"
  batch_norm_param {
    eps: 1e-05
  }
}
layer {
  name: "conv2_2/x1/scale"
  type: "Scale"
  bottom: "conv2_2/x1/bn"
  top: "conv2_2/x1/bn"
  scale_param {
    bias_term: true
  }
}
layer {
  name: "relu2_2/x1"
  type: "ReLU"
  bottom: "conv2_2/x1/bn"
  top: "conv2_2/x1/bn"
}
layer {
  name: "conv2_2/x1"
  type: "Convolution"
  bottom: "conv2_2/x1/bn"
  top: "conv2_2/x1"
  convolution_param {
    num_output: 128
    bias_term: false
    kernel_size: 1
  }
}
layer {
  name: "conv2_2/x2/bn"
  type: "BatchNorm"
  bottom: "conv2_2/x1"
  top: "conv2_2/x2/bn"
  batch_norm_param {
    eps: 1e-05
  }
}
layer {
  name: "conv2_2/x2/scale"
  type: "Scale"
  bottom: "conv2_2/x2/bn"
  top: "conv2_2/x2/bn"
  scale_param {
    bias_term: true
  }
}
layer {
  name: "relu2_2/x2"
  type: "ReLU"
  bottom: "conv2_2/x2/bn"
  top: "conv2_2/x2/bn"
}
layer {
  name: "conv2_2/x2"
  type: "Convolution"
  bottom: "conv2_2/x2/bn"
  top: "conv2_2/x2"
  convolution_param {
    num_output: 32
    bias_term: false
    pad: 1
    kernel_size: 3
  }
}
layer {
  name: "concat_2_2"
  type: "Concat"
  bottom: "concat_2_1"
  bottom: "conv2_2/x2"
  top: "concat_2_2"
}
layer {
  name: "conv2_3/x1/bn"
  type: "BatchNorm"
  bottom: "concat_2_2"
  top: "conv2_3/x1/bn"
  batch_norm_param {
    eps: 1e-05
  }
}
layer {
  name: "conv2_3/x1/scale"
  type: "Scale"
  bottom: "conv2_3/x1/bn"
  top: "conv2_3/x1/bn"
  scale_param {
    bias_term: true
  }
}
layer {
  name: "relu2_3/x1"
  type: "ReLU"
  bottom: "conv2_3/x1/bn"
  top: "conv2_3/x1/bn"
}
layer {
  name: "conv2_3/x1"
  type: "Convolution"
  bottom: "conv2_3/x1/bn"
  top: "conv2_3/x1"
  convolution_param {
    num_output: 128
    bias_term: false
    kernel_size: 1
  }
}
layer {
  name: "conv2_3/x2/bn"
  type: "BatchNorm"
  bottom: "conv2_3/x1"
  top: "conv2_3/x2/bn"
  batch_norm_param {
    eps: 1e-05
  }
}
layer {
  name: "conv2_3/x2/scale"
  type: "Scale"
  bottom: "conv2_3/x2/bn"
  top: "conv2_3/x2/bn"
  scale_param {
    bias_term: true
  }
}
layer {
  name: "relu2_3/x2"
  type: "ReLU"
  bottom: "conv2_3/x2/bn"
  top: "conv2_3/x2/bn"
}
layer {
  name: "conv2_3/x2"
  type: "Convolution"
  bottom: "conv2_3/x2/bn"
  top: "conv2_3/x2"
  convolution_param {
    num_output: 32
    bias_term: false
    pad: 1
    kernel_size: 3
  }
}
layer {
  name: "concat_2_3"
  type: "Concat"
  bottom: "concat_2_2"
  bottom: "conv2_3/x2"
  top: "concat_2_3"
}
layer {
  name: "conv2_4/x1/bn"
  type: "BatchNorm"
  bottom: "concat_2_3"
  top: "conv2_4/x1/bn"
  batch_norm_param {
    eps: 1e-05
  }
}
layer {
  name: "conv2_4/x1/scale"
  type: "Scale"
  bottom: "conv2_4/x1/bn"
  top: "conv2_4/x1/bn"
  scale_param {
    bias_term: true
  }
}
layer {
  name: "relu2_4/x1"
  type: "ReLU"
  bottom: "conv2_4/x1/bn"
  top: "conv2_4/x1/bn"
}
layer {
  name: "conv2_4/x1"
  type: "Convolution"
  bottom: "conv2_4/x1/bn"
  top: "conv2_4/x1"
  convolution_param {
    num_output: 128
    bias_term: false
    kernel_size: 1
  }
}
layer {
  name: "conv2_4/x2/bn"
  type: "BatchNorm"
  bottom: "conv2_4/x1"
  top: "conv2_4/x2/bn"
  batch_norm_param {
    eps: 1e-05
  }
}
layer {
  name: "conv2_4/x2/scale"
  type: "Scale"
  bottom: "conv2_4/x2/bn"
  top: "conv2_4/x2/bn"
  scale_param {
    bias_term: true
  }
}
layer {
  name: "relu2_4/x2"
  type: "ReLU"
  bottom: "conv2_4/x2/bn"
  top: "conv2_4/x2/bn"
}
layer {
  name: "conv2_4/x2"
  type: "Convolution"
  bottom: "conv2_4/x2/bn"
  top: "conv2_4/x2"
  convolution_param {
    num_output: 32
    bias_term: false
    pad: 1
    kernel_size: 3
  }
}
layer {
  name: "concat_2_4"
  type: "Concat"
  bottom: "concat_2_3"
  bottom: "conv2_4/x2"
  top: "concat_2_4"
}
layer {
  name: "conv2_5/x1/bn"
  type: "BatchNorm"
  bottom: "concat_2_4"
  top: "conv2_5/x1/bn"
  batch_norm_param {
    eps: 1e-05
  }
}
layer {
  name: "conv2_5/x1/scale"
  type: "Scale"
  bottom: "conv2_5/x1/bn"
  top: "conv2_5/x1/bn"
  scale_param {
    bias_term: true
  }
}
layer {
  name: "relu2_5/x1"
  type: "ReLU"
  bottom: "conv2_5/x1/bn"
  top: "conv2_5/x1/bn"
}
layer {
  name: "conv2_5/x1"
  type: "Convolution"
  bottom: "conv2_5/x1/bn"
  top: "conv2_5/x1"
  convolution_param {
    num_output: 128
    bias_term: false
    kernel_size: 1
  }
}
layer {
  name: "conv2_5/x2/bn"
  type: "BatchNorm"
  bottom: "conv2_5/x1"
  top: "conv2_5/x2/bn"
  batch_norm_param {
    eps: 1e-05
  }
}
layer {
  name: "conv2_5/x2/scale"
  type: "Scale"
  bottom: "conv2_5/x2/bn"
  top: "conv2_5/x2/bn"
  scale_param {
    bias_term: true
  }
}
layer {
  name: "relu2_5/x2"
  type: "ReLU"
  bottom: "conv2_5/x2/bn"
  top: "conv2_5/x2/bn"
}
layer {
  name: "conv2_5/x2"
  type: "Convolution"
  bottom: "conv2_5/x2/bn"
  top: "conv2_5/x2"
  convolution_param {
    num_output: 32
    bias_term: false
    pad: 1
    kernel_size: 3
  }
}
layer {
  name: "concat_2_5"
  type: "Concat"
  bottom: "concat_2_4"
  bottom: "conv2_5/x2"
  top: "concat_2_5"
}
layer {
  name: "conv2_6/x1/bn"
  type: "BatchNorm"
  bottom: "concat_2_5"
  top: "conv2_6/x1/bn"
  batch_norm_param {
    eps: 1e-05
  }
}
layer {
  name: "conv2_6/x1/scale"
  type: "Scale"
  bottom: "conv2_6/x1/bn"
  top: "conv2_6/x1/bn"
  scale_param {
    bias_term: true
  }
}
layer {
  name: "relu2_6/x1"
  type: "ReLU"
  bottom: "conv2_6/x1/bn"
  top: "conv2_6/x1/bn"
}
layer {
  name: "conv2_6/x1"
  type: "Convolution"
  bottom: "conv2_6/x1/bn"
  top: "conv2_6/x1"
  convolution_param {
    num_output: 128
    bias_term: false
    kernel_size: 1
  }
}
layer {
  name: "conv2_6/x2/bn"
  type: "BatchNorm"
  bottom: "conv2_6/x1"
  top: "conv2_6/x2/bn"
  batch_norm_param {
    eps: 1e-05
  }
}
layer {
  name: "conv2_6/x2/scale"
  type: "Scale"
  bottom: "conv2_6/x2/bn"
  top: "conv2_6/x2/bn"
  scale_param {
    bias_term: true
  }
}
layer {
  name: "relu2_6/x2"
  type: "ReLU"
  bottom: "conv2_6/x2/bn"
  top: "conv2_6/x2/bn"
}
layer {
  name: "conv2_6/x2"
  type: "Convolution"
  bottom: "conv2_6/x2/bn"
  top: "conv2_6/x2"
  convolution_param {
    num_output: 32
    bias_term: false
    pad: 1
    kernel_size: 3
  }
}
layer {
  name: "concat_2_6"
  type: "Concat"
  bottom: "concat_2_5"
  bottom: "conv2_6/x2"
  top: "concat_2_6"
}
layer {
  name: "conv2_6/blk/bn"
  type: "BatchNorm"
  bottom: "concat_2_6"
  top: "conv2_6/blk/bn"
  batch_norm_param {
    eps: 1e-05
  }
}
layer {
  name: "conv2_6/blk/scale"
  type: "Scale"
  bottom: "conv2_6/blk/bn"
  top: "conv2_6/blk/bn"
  scale_param {
    bias_term: true
  }
}
layer {
  name: "relu2_6/blk"
  type: "ReLU"
  bottom: "conv2_6/blk/bn"
  top: "conv2_6/blk/bn"
}
layer {
  name: "conv2_6/blk"
  type: "Convolution"
  bottom: "conv2_6/blk/bn"
  top: "conv2_6/blk"
  convolution_param {
    num_output: 128
    bias_term: false
    kernel_size: 1
  }
}
layer {
  name: "pool2_6"
  type: "Pooling"
  bottom: "conv2_6/blk"
  top: "pool2_6"
  pooling_param {
    pool: AVE
    kernel_size: 2
    stride: 2
  }
}
layer {
  name: "conv3_1/x1/bn"
  type: "BatchNorm"
  bottom: "pool2_6"
  top: "conv3_1/x1/bn"
  batch_norm_param {
    eps: 1e-05
  }
}
layer {
  name: "conv3_1/x1/scale"
  type: "Scale"
  bottom: "conv3_1/x1/bn"
  top: "conv3_1/x1/bn"
  scale_param {
    bias_term: true
  }
}
layer {
  name: "relu3_1/x1"
  type: "ReLU"
  bottom: "conv3_1/x1/bn"
  top: "conv3_1/x1/bn"
}
layer {
  name: "conv3_1/x1"
  type: "Convolution"
  bottom: "conv3_1/x1/bn"
  top: "conv3_1/x1"
  convolution_param {
    num_output: 128
    bias_term: false
    kernel_size: 1
  }
}
layer {
  name: "conv3_1/x2/bn"
  type: "BatchNorm"
  bottom: "conv3_1/x1"
  top: "conv3_1/x2/bn"
  batch_norm_param {
    eps: 1e-05
  }
}
layer {
  name: "conv3_1/x2/scale"
  type: "Scale"
  bottom: "conv3_1/x2/bn"
  top: "conv3_1/x2/bn"
  scale_param {
    bias_term: true
  }
}
layer {
  name: "relu3_1/x2"
  type: "ReLU"
  bottom: "conv3_1/x2/bn"
  top: "conv3_1/x2/bn"
}
layer {
  name: "conv3_1/x2"
  type: "Convolution"
  bottom: "conv3_1/x2/bn"
  top: "conv3_1/x2"
  convolution_param {
    num_output: 32
    bias_term: false
    pad: 1
    kernel_size: 3
  }
}
layer {
  name: "concat_3_1"
  type: "Concat"
  bottom: "pool2_6"
  bottom: "conv3_1/x2"
  top: "concat_3_1"
}
layer {
  name: "conv3_2/x1/bn"
  type: "BatchNorm"
  bottom: "concat_3_1"
  top: "conv3_2/x1/bn"
  batch_norm_param {
    eps: 1e-05
  }
}
layer {
  name: "conv3_2/x1/scale"
  type: "Scale"
  bottom: "conv3_2/x1/bn"
  top: "conv3_2/x1/bn"
  scale_param {
    bias_term: true
  }
}
layer {
  name: "relu3_2/x1"
  type: "ReLU"
  bottom: "conv3_2/x1/bn"
  top: "conv3_2/x1/bn"
}
layer {
  name: "conv3_2/x1"
  type: "Convolution"
  bottom: "conv3_2/x1/bn"
  top: "conv3_2/x1"
  convolution_param {
    num_output: 128
    bias_term: false
    kernel_size: 1
  }
}
layer {
  name: "conv3_2/x2/bn"
  type: "BatchNorm"
  bottom: "conv3_2/x1"
  top: "conv3_2/x2/bn"
  batch_norm_param {
    eps: 1e-05
  }
}
layer {
  name: "conv3_2/x2/scale"
  type: "Scale"
  bottom: "conv3_2/x2/bn"
  top: "conv3_2/x2/bn"
  scale_param {
    bias_term: true
  }
}
layer {
  name: "relu3_2/x2"
  type: "ReLU"
  bottom: "conv3_2/x2/bn"
  top: "conv3_2/x2/bn"
}
layer {
  name: "conv3_2/x2"
  type: "Convolution"
  bottom: "conv3_2/x2/bn"
  top: "conv3_2/x2"
  convolution_param {
    num_output: 32
    bias_term: false
    pad: 1
    kernel_size: 3
  }
}
layer {
  name: "concat_3_2"
  type: "Concat"
  bottom: "concat_3_1"
  bottom: "conv3_2/x2"
  top: "concat_3_2"
}
layer {
  name: "conv3_3/x1/bn"
  type: "BatchNorm"
  bottom: "concat_3_2"
  top: "conv3_3/x1/bn"
  batch_norm_param {
    eps: 1e-05
  }
}
layer {
  name: "conv3_3/x1/scale"
  type: "Scale"
  bottom: "conv3_3/x1/bn"
  top: "conv3_3/x1/bn"
  scale_param {
    bias_term: true
  }
}
layer {
  name: "relu3_3/x1"
  type: "ReLU"
  bottom: "conv3_3/x1/bn"
  top: "conv3_3/x1/bn"
}
layer {
  name: "conv3_3/x1"
  type: "Convolution"
  bottom: "conv3_3/x1/bn"
  top: "conv3_3/x1"
  convolution_param {
    num_output: 128
    bias_term: false
    kernel_size: 1
  }
}
layer {
  name: "conv3_3/x2/bn"
  type: "BatchNorm"
  bottom: "conv3_3/x1"
  top: "conv3_3/x2/bn"
  batch_norm_param {
    eps: 1e-05
  }
}
layer {
  name: "conv3_3/x2/scale"
  type: "Scale"
  bottom: "conv3_3/x2/bn"
  top: "conv3_3/x2/bn"
  scale_param {
    bias_term: true
  }
}
layer {
  name: "relu3_3/x2"
  type: "ReLU"
  bottom: "conv3_3/x2/bn"
  top: "conv3_3/x2/bn"
}
layer {
  name: "conv3_3/x2"
  type: "Convolution"
  bottom: "conv3_3/x2/bn"
  top: "conv3_3/x2"
  convolution_param {
    num_output: 32
    bias_term: false
    pad: 1
    kernel_size: 3
  }
}
layer {
  name: "concat_3_3"
  type: "Concat"
  bottom: "concat_3_2"
  bottom: "conv3_3/x2"
  top: "concat_3_3"
}
layer {
  name: "conv3_4/x1/bn"
  type: "BatchNorm"
  bottom: "concat_3_3"
  top: "conv3_4/x1/bn"
  batch_norm_param {
    eps: 1e-05
  }
}
layer {
  name: "conv3_4/x1/scale"
  type: "Scale"
  bottom: "conv3_4/x1/bn"
  top: "conv3_4/x1/bn"
  scale_param {
    bias_term: true
  }
}
layer {
  name: "relu3_4/x1"
  type: "ReLU"
  bottom: "conv3_4/x1/bn"
  top: "conv3_4/x1/bn"
}
layer {
  name: "conv3_4/x1"
  type: "Convolution"
  bottom: "conv3_4/x1/bn"
  top: "conv3_4/x1"
  convolution_param {
    num_output: 128
    bias_term: false
    kernel_size: 1
  }
}
layer {
  name: "conv3_4/x2/bn"
  type: "BatchNorm"
  bottom: "conv3_4/x1"
  top: "conv3_4/x2/bn"
  batch_norm_param {
    eps: 1e-05
  }
}
layer {
  name: "conv3_4/x2/scale"
  type: "Scale"
  bottom: "conv3_4/x2/bn"
  top: "conv3_4/x2/bn"
  scale_param {
    bias_term: true
  }
}
layer {
  name: "relu3_4/x2"
  type: "ReLU"
  bottom: "conv3_4/x2/bn"
  top: "conv3_4/x2/bn"
}
layer {
  name: "conv3_4/x2"
  type: "Convolution"
  bottom: "conv3_4/x2/bn"
  top: "conv3_4/x2"
  convolution_param {
    num_output: 32
    bias_term: false
    pad: 1
    kernel_size: 3
  }
}
layer {
  name: "concat_3_4"
  type: "Concat"
  bottom: "concat_3_3"
  bottom: "conv3_4/x2"
  top: "concat_3_4"
}
layer {
  name: "conv3_5/x1/bn"
  type: "BatchNorm"
  bottom: "concat_3_4"
  top: "conv3_5/x1/bn"
  batch_norm_param {
    eps: 1e-05
  }
}
layer {
  name: "conv3_5/x1/scale"
  type: "Scale"
  bottom: "conv3_5/x1/bn"
  top: "conv3_5/x1/bn"
  scale_param {
    bias_term: true
  }
}
layer {
  name: "relu3_5/x1"
  type: "ReLU"
  bottom: "conv3_5/x1/bn"
  top: "conv3_5/x1/bn"
}
layer {
  name: "conv3_5/x1"
  type: "Convolution"
  bottom: "conv3_5/x1/bn"
  top: "conv3_5/x1"
  convolution_param {
    num_output: 128
    bias_term: false
    kernel_size: 1
  }
}
layer {
  name: "conv3_5/x2/bn"
  type: "BatchNorm"
  bottom: "conv3_5/x1"
  top: "conv3_5/x2/bn"
  batch_norm_param {
    eps: 1e-05
  }
}
layer {
  name: "conv3_5/x2/scale"
  type: "Scale"
  bottom: "conv3_5/x2/bn"
  top: "conv3_5/x2/bn"
  scale_param {
    bias_term: true
  }
}
layer {
  name: "relu3_5/x2"
  type: "ReLU"
  bottom: "conv3_5/x2/bn"
  top: "conv3_5/x2/bn"
}
layer {
  name: "conv3_5/x2"
  type: "Convolution"
  bottom: "conv3_5/x2/bn"
  top: "conv3_5/x2"
  convolution_param {
    num_output: 32
    bias_term: false
    pad: 1
    kernel_size: 3
  }
}
layer {
  name: "concat_3_5"
  type: "Concat"
  bottom: "concat_3_4"
  bottom: "conv3_5/x2"
  top: "concat_3_5"
}
layer {
  name: "conv3_6/x1/bn"
  type: "BatchNorm"
  bottom: "concat_3_5"
  top: "conv3_6/x1/bn"
  batch_norm_param {
    eps: 1e-05
  }
}
layer {
  name: "conv3_6/x1/scale"
  type: "Scale"
  bottom: "conv3_6/x1/bn"
  top: "conv3_6/x1/bn"
  scale_param {
    bias_term: true
  }
}
layer {
  name: "relu3_6/x1"
  type: "ReLU"
  bottom: "conv3_6/x1/bn"
  top: "conv3_6/x1/bn"
}
layer {
  name: "conv3_6/x1"
  type: "Convolution"
  bottom: "conv3_6/x1/bn"
  top: "conv3_6/x1"
  convolution_param {
    num_output: 128
    bias_term: false
    kernel_size: 1
  }
}
layer {
  name: "conv3_6/x2/bn"
  type: "BatchNorm"
  bottom: "conv3_6/x1"
  top: "conv3_6/x2/bn"
  batch_norm_param {
    eps: 1e-05
  }
}
layer {
  name: "conv3_6/x2/scale"
  type: "Scale"
  bottom: "conv3_6/x2/bn"
  top: "conv3_6/x2/bn"
  scale_param {
    bias_term: true
  }
}
layer {
  name: "relu3_6/x2"
  type: "ReLU"
  bottom: "conv3_6/x2/bn"
  top: "conv3_6/x2/bn"
}
layer {
  name: "conv3_6/x2"
  type: "Convolution"
  bottom: "conv3_6/x2/bn"
  top: "conv3_6/x2"
  convolution_param {
    num_output: 32
    bias_term: false
    pad: 1
    kernel_size: 3
  }
}
layer {
  name: "concat_3_6"
  type: "Concat"
  bottom: "concat_3_5"
  bottom: "conv3_6/x2"
  top: "concat_3_6"
}
layer {
  name: "conv3_7/x1/bn"
  type: "BatchNorm"
  bottom: "concat_3_6"
  top: "conv3_7/x1/bn"
  batch_norm_param {
    eps: 1e-05
  }
}
layer {
  name: "conv3_7/x1/scale"
  type: "Scale"
  bottom: "conv3_7/x1/bn"
  top: "conv3_7/x1/bn"
  scale_param {
    bias_term: true
  }
}
layer {
  name: "relu3_7/x1"
  type: "ReLU"
  bottom: "conv3_7/x1/bn"
  top: "conv3_7/x1/bn"
}
layer {
  name: "conv3_7/x1"
  type: "Convolution"
  bottom: "conv3_7/x1/bn"
  top: "conv3_7/x1"
  convolution_param {
    num_output: 128
    bias_term: false
    kernel_size: 1
  }
}
layer {
  name: "conv3_7/x2/bn"
  type: "BatchNorm"
  bottom: "conv3_7/x1"
  top: "conv3_7/x2/bn"
  batch_norm_param {
    eps: 1e-05
  }
}
layer {
  name: "conv3_7/x2/scale"
  type: "Scale"
  bottom: "conv3_7/x2/bn"
  top: "conv3_7/x2/bn"
  scale_param {
    bias_term: true
  }
}
layer {
  name: "relu3_7/x2"
  type: "ReLU"
  bottom: "conv3_7/x2/bn"
  top: "conv3_7/x2/bn"
}
layer {
  name: "conv3_7/x2"
  type: "Convolution"
  bottom: "conv3_7/x2/bn"
  top: "conv3_7/x2"
  convolution_param {
    num_output: 32
    bias_term: false
    pad: 1
    kernel_size: 3
  }
}
layer {
  name: "concat_3_7"
  type: "Concat"
  bottom: "concat_3_6"
  bottom: "conv3_7/x2"
  top: "concat_3_7"
}
layer {
  name: "conv3_8/x1/bn"
  type: "BatchNorm"
  bottom: "concat_3_7"
  top: "conv3_8/x1/bn"
  batch_norm_param {
    eps: 1e-05
  }
}
layer {
  name: "conv3_8/x1/scale"
  type: "Scale"
  bottom: "conv3_8/x1/bn"
  top: "conv3_8/x1/bn"
  scale_param {
    bias_term: true
  }
}
layer {
  name: "relu3_8/x1"
  type: "ReLU"
  bottom: "conv3_8/x1/bn"
  top: "conv3_8/x1/bn"
}
layer {
  name: "conv3_8/x1"
  type: "Convolution"
  bottom: "conv3_8/x1/bn"
  top: "conv3_8/x1"
  convolution_param {
    num_output: 128
    bias_term: false
    kernel_size: 1
  }
}
layer {
  name: "conv3_8/x2/bn"
  type: "BatchNorm"
  bottom: "conv3_8/x1"
  top: "conv3_8/x2/bn"
  batch_norm_param {
    eps: 1e-05
  }
}
layer {
  name: "conv3_8/x2/scale"
  type: "Scale"
  bottom: "conv3_8/x2/bn"
  top: "conv3_8/x2/bn"
  scale_param {
    bias_term: true
  }
}
layer {
  name: "relu3_8/x2"
  type: "ReLU"
  bottom: "conv3_8/x2/bn"
  top: "conv3_8/x2/bn"
}
layer {
  name: "conv3_8/x2"
  type: "Convolution"
  bottom: "conv3_8/x2/bn"
  top: "conv3_8/x2"
  convolution_param {
    num_output: 32
    bias_term: false
    pad: 1
    kernel_size: 3
  }
}
layer {
  name: "concat_3_8"
  type: "Concat"
  bottom: "concat_3_7"
  bottom: "conv3_8/x2"
  top: "concat_3_8"
}
layer {
  name: "conv3_9/x1/bn"
  type: "BatchNorm"
  bottom: "concat_3_8"
  top: "conv3_9/x1/bn"
  batch_norm_param {
    eps: 1e-05
  }
}
layer {
  name: "conv3_9/x1/scale"
  type: "Scale"
  bottom: "conv3_9/x1/bn"
  top: "conv3_9/x1/bn"
  scale_param {
    bias_term: true
  }
}
layer {
  name: "relu3_9/x1"
  type: "ReLU"
  bottom: "conv3_9/x1/bn"
  top: "conv3_9/x1/bn"
}
layer {
  name: "conv3_9/x1"
  type: "Convolution"
  bottom: "conv3_9/x1/bn"
  top: "conv3_9/x1"
  convolution_param {
    num_output: 128
    bias_term: false
    kernel_size: 1
  }
}
layer {
  name: "conv3_9/x2/bn"
  type: "BatchNorm"
  bottom: "conv3_9/x1"
  top: "conv3_9/x2/bn"
  batch_norm_param {
    eps: 1e-05
  }
}
layer {
  name: "conv3_9/x2/scale"
  type: "Scale"
  bottom: "conv3_9/x2/bn"
  top: "conv3_9/x2/bn"
  scale_param {
    bias_term: true
  }
}
layer {
  name: "relu3_9/x2"
  type: "ReLU"
  bottom: "conv3_9/x2/bn"
  top: "conv3_9/x2/bn"
}
layer {
  name: "conv3_9/x2"
  type: "Convolution"
  bottom: "conv3_9/x2/bn"
  top: "conv3_9/x2"
  convolution_param {
    num_output: 32
    bias_term: false
    pad: 1
    kernel_size: 3
  }
}
layer {
  name: "concat_3_9"
  type: "Concat"
  bottom: "concat_3_8"
  bottom: "conv3_9/x2"
  top: "concat_3_9"
}
layer {
  name: "conv3_10/x1/bn"
  type: "BatchNorm"
  bottom: "concat_3_9"
  top: "conv3_10/x1/bn"
  batch_norm_param {
    eps: 1e-05
  }
}
layer {
  name: "conv3_10/x1/scale"
  type: "Scale"
  bottom: "conv3_10/x1/bn"
  top: "conv3_10/x1/bn"
  scale_param {
    bias_term: true
  }
}
layer {
  name: "relu3_10/x1"
  type: "ReLU"
  bottom: "conv3_10/x1/bn"
  top: "conv3_10/x1/bn"
}
layer {
  name: "conv3_10/x1"
  type: "Convolution"
  bottom: "conv3_10/x1/bn"
  top: "conv3_10/x1"
  convolution_param {
    num_output: 128
    bias_term: false
    kernel_size: 1
  }
}
layer {
  name: "conv3_10/x2/bn"
  type: "BatchNorm"
  bottom: "conv3_10/x1"
  top: "conv3_10/x2/bn"
  batch_norm_param {
    eps: 1e-05
  }
}
layer {
  name: "conv3_10/x2/scale"
  type: "Scale"
  bottom: "conv3_10/x2/bn"
  top: "conv3_10/x2/bn"
  scale_param {
    bias_term: true
  }
}
layer {
  name: "relu3_10/x2"
  type: "ReLU"
  bottom: "conv3_10/x2/bn"
  top: "conv3_10/x2/bn"
}
layer {
  name: "conv3_10/x2"
  type: "Convolution"
  bottom: "conv3_10/x2/bn"
  top: "conv3_10/x2"
  convolution_param {
    num_output: 32
    bias_term: false
    pad: 1
    kernel_size: 3
  }
}
layer {
  name: "concat_3_10"
  type: "Concat"
  bottom: "concat_3_9"
  bottom: "conv3_10/x2"
  top: "concat_3_10"
}
layer {
  name: "conv3_11/x1/bn"
  type: "BatchNorm"
  bottom: "concat_3_10"
  top: "conv3_11/x1/bn"
  batch_norm_param {
    eps: 1e-05
  }
}
layer {
  name: "conv3_11/x1/scale"
  type: "Scale"
  bottom: "conv3_11/x1/bn"
  top: "conv3_11/x1/bn"
  scale_param {
    bias_term: true
  }
}
layer {
  name: "relu3_11/x1"
  type: "ReLU"
  bottom: "conv3_11/x1/bn"
  top: "conv3_11/x1/bn"
}
layer {
  name: "conv3_11/x1"
  type: "Convolution"
  bottom: "conv3_11/x1/bn"
  top: "conv3_11/x1"
  convolution_param {
    num_output: 128
    bias_term: false
    kernel_size: 1
  }
}
layer {
  name: "conv3_11/x2/bn"
  type: "BatchNorm"
  bottom: "conv3_11/x1"
  top: "conv3_11/x2/bn"
  batch_norm_param {
    eps: 1e-05
  }
}
layer {
  name: "conv3_11/x2/scale"
  type: "Scale"
  bottom: "conv3_11/x2/bn"
  top: "conv3_11/x2/bn"
  scale_param {
    bias_term: true
  }
}
layer {
  name: "relu3_11/x2"
  type: "ReLU"
  bottom: "conv3_11/x2/bn"
  top: "conv3_11/x2/bn"
}
layer {
  name: "conv3_11/x2"
  type: "Convolution"
  bottom: "conv3_11/x2/bn"
  top: "conv3_11/x2"
  convolution_param {
    num_output: 32
    bias_term: false
    pad: 1
    kernel_size: 3
  }
}
layer {
  name: "concat_3_11"
  type: "Concat"
  bottom: "concat_3_10"
  bottom: "conv3_11/x2"
  top: "concat_3_11"
}
layer {
  name: "conv3_12/x1/bn"
  type: "BatchNorm"
  bottom: "concat_3_11"
  top: "conv3_12/x1/bn"
  batch_norm_param {
    eps: 1e-05
  }
}
layer {
  name: "conv3_12/x1/scale"
  type: "Scale"
  bottom: "conv3_12/x1/bn"
  top: "conv3_12/x1/bn"
  scale_param {
    bias_term: true
  }
}
layer {
  name: "relu3_12/x1"
  type: "ReLU"
  bottom: "conv3_12/x1/bn"
  top: "conv3_12/x1/bn"
}
layer {
  name: "conv3_12/x1"
  type: "Convolution"
  bottom: "conv3_12/x1/bn"
  top: "conv3_12/x1"
  convolution_param {
    num_output: 128
    bias_term: false
    kernel_size: 1
  }
}
layer {
  name: "conv3_12/x2/bn"
  type: "BatchNorm"
  bottom: "conv3_12/x1"
  top: "conv3_12/x2/bn"
  batch_norm_param {
    eps: 1e-05
  }
}
layer {
  name: "conv3_12/x2/scale"
  type: "Scale"
  bottom: "conv3_12/x2/bn"
  top: "conv3_12/x2/bn"
  scale_param {
    bias_term: true
  }
}
layer {
  name: "relu3_12/x2"
  type: "ReLU"
  bottom: "conv3_12/x2/bn"
  top: "conv3_12/x2/bn"
}
layer {
  name: "conv3_12/x2"
  type: "Convolution"
  bottom: "conv3_12/x2/bn"
  top: "conv3_12/x2"
  convolution_param {
    num_output: 32
    bias_term: false
    pad: 1
    kernel_size: 3
  }
}
layer {
  name: "concat_3_12"
  type: "Concat"
  bottom: "concat_3_11"
  bottom: "conv3_12/x2"
  top: "concat_3_12"
}
layer {
  name: "conv3_12/blk/bn"
  type: "BatchNorm"
  bottom: "concat_3_12"
  top: "conv3_12/blk/bn"
  batch_norm_param {
    eps: 1e-05
  }
}
layer {
  name: "conv3_12/blk/scale"
  type: "Scale"
  bottom: "conv3_12/blk/bn"
  top: "conv3_12/blk/bn"
  scale_param {
    bias_term: true
  }
}
layer {
  name: "relu3_12/blk"
  type: "ReLU"
  bottom: "conv3_12/blk/bn"
  top: "conv3_12/blk/bn"
}
layer {
  name: "conv3_12/blk"
  type: "Convolution"
  bottom: "conv3_12/blk/bn"
  top: "conv3_12/blk"
  convolution_param {
    num_output: 256
    bias_term: false
    kernel_size: 1
  }
}
layer {
  name: "pool3_12"
  type: "Pooling"
  bottom: "conv3_12/blk"
  top: "pool3_12"
  pooling_param {
    pool: AVE
    kernel_size: 2
    stride: 2
  }
}
layer {
  name: "conv4_1/x1/bn"
  type: "BatchNorm"
  bottom: "pool3_12"
  top: "conv4_1/x1/bn"
  batch_norm_param {
    eps: 1e-05
  }
}
layer {
  name: "conv4_1/x1/scale"
  type: "Scale"
  bottom: "conv4_1/x1/bn"
  top: "conv4_1/x1/bn"
  scale_param {
    bias_term: true
  }
}
layer {
  name: "relu4_1/x1"
  type: "ReLU"
  bottom: "conv4_1/x1/bn"
  top: "conv4_1/x1/bn"
}
layer {
  name: "conv4_1/x1"
  type: "Convolution"
  bottom: "conv4_1/x1/bn"
  top: "conv4_1/x1"
  convolution_param {
    num_output: 128
    bias_term: false
    kernel_size: 1
  }
}
layer {
  name: "conv4_1/x2/bn"
  type: "BatchNorm"
  bottom: "conv4_1/x1"
  top: "conv4_1/x2/bn"
  batch_norm_param {
    eps: 1e-05
  }
}
layer {
  name: "conv4_1/x2/scale"
  type: "Scale"
  bottom: "conv4_1/x2/bn"
  top: "conv4_1/x2/bn"
  scale_param {
    bias_term: true
  }
}
layer {
  name: "relu4_1/x2"
  type: "ReLU"
  bottom: "conv4_1/x2/bn"
  top: "conv4_1/x2/bn"
}
layer {
  name: "conv4_1/x2"
  type: "Convolution"
  bottom: "conv4_1/x2/bn"
  top: "conv4_1/x2"
  convolution_param {
    num_output: 32
    bias_term: false
    pad: 1
    kernel_size: 3
  }
}
layer {
  name: "concat_4_1"
  type: "Concat"
  bottom: "pool3_12"
  bottom: "conv4_1/x2"
  top: "concat_4_1"
}
layer {
  name: "conv4_2/x1/bn"
  type: "BatchNorm"
  bottom: "concat_4_1"
  top: "conv4_2/x1/bn"
  batch_norm_param {
    eps: 1e-05
  }
}
layer {
  name: "conv4_2/x1/scale"
  type: "Scale"
  bottom: "conv4_2/x1/bn"
  top: "conv4_2/x1/bn"
  scale_param {
    bias_term: true
  }
}
layer {
  name: "relu4_2/x1"
  type: "ReLU"
  bottom: "conv4_2/x1/bn"
  top: "conv4_2/x1/bn"
}
layer {
  name: "conv4_2/x1"
  type: "Convolution"
  bottom: "conv4_2/x1/bn"
  top: "conv4_2/x1"
  convolution_param {
    num_output: 128
    bias_term: false
    kernel_size: 1
  }
}
layer {
  name: "conv4_2/x2/bn"
  type: "BatchNorm"
  bottom: "conv4_2/x1"
  top: "conv4_2/x2/bn"
  batch_norm_param {
    eps: 1e-05
  }
}
layer {
  name: "conv4_2/x2/scale"
  type: "Scale"
  bottom: "conv4_2/x2/bn"
  top: "conv4_2/x2/bn"
  scale_param {
    bias_term: true
  }
}
layer {
  name: "relu4_2/x2"
  type: "ReLU"
  bottom: "conv4_2/x2/bn"
  top: "conv4_2/x2/bn"
}
layer {
  name: "conv4_2/x2"
  type: "Convolution"
  bottom: "conv4_2/x2/bn"
  top: "conv4_2/x2"
  convolution_param {
    num_output: 32
    bias_term: false
    pad: 1
    kernel_size: 3
  }
}
layer {
  name: "concat_4_2"
  type: "Concat"
  bottom: "concat_4_1"
  bottom: "conv4_2/x2"
  top: "concat_4_2"
}
layer {
  name: "conv4_3/x1/bn"
  type: "BatchNorm"
  bottom: "concat_4_2"
  top: "conv4_3/x1/bn"
  batch_norm_param {
    eps: 1e-05
  }
}
layer {
  name: "conv4_3/x1/scale"
  type: "Scale"
  bottom: "conv4_3/x1/bn"
  top: "conv4_3/x1/bn"
  scale_param {
    bias_term: true
  }
}
layer {
  name: "relu4_3/x1"
  type: "ReLU"
  bottom: "conv4_3/x1/bn"
  top: "conv4_3/x1/bn"
}
layer {
  name: "conv4_3/x1"
  type: "Convolution"
  bottom: "conv4_3/x1/bn"
  top: "conv4_3/x1"
  convolution_param {
    num_output: 128
    bias_term: false
    kernel_size: 1
  }
}
layer {
  name: "conv4_3/x2/bn"
  type: "BatchNorm"
  bottom: "conv4_3/x1"
  top: "conv4_3/x2/bn"
  batch_norm_param {
    eps: 1e-05
  }
}
layer {
  name: "conv4_3/x2/scale"
  type: "Scale"
  bottom: "conv4_3/x2/bn"
  top: "conv4_3/x2/bn"
  scale_param {
    bias_term: true
  }
}
layer {
  name: "relu4_3/x2"
  type: "ReLU"
  bottom: "conv4_3/x2/bn"
  top: "conv4_3/x2/bn"
}
layer {
  name: "conv4_3/x2"
  type: "Convolution"
  bottom: "conv4_3/x2/bn"
  top: "conv4_3/x2"
  convolution_param {
    num_output: 32
    bias_term: false
    pad: 1
    kernel_size: 3
  }
}
layer {
  name: "concat_4_3"
  type: "Concat"
  bottom: "concat_4_2"
  bottom: "conv4_3/x2"
  top: "concat_4_3"
}
layer {
  name: "conv4_4/x1/bn"
  type: "BatchNorm"
  bottom: "concat_4_3"
  top: "conv4_4/x1/bn"
  batch_norm_param {
    eps: 1e-05
  }
}
layer {
  name: "conv4_4/x1/scale"
  type: "Scale"
  bottom: "conv4_4/x1/bn"
  top: "conv4_4/x1/bn"
  scale_param {
    bias_term: true
  }
}
layer {
  name: "relu4_4/x1"
  type: "ReLU"
  bottom: "conv4_4/x1/bn"
  top: "conv4_4/x1/bn"
}
layer {
  name: "conv4_4/x1"
  type: "Convolution"
  bottom: "conv4_4/x1/bn"
  top: "conv4_4/x1"
  convolution_param {
    num_output: 128
    bias_term: false
    kernel_size: 1
  }
}
layer {
  name: "conv4_4/x2/bn"
  type: "BatchNorm"
  bottom: "conv4_4/x1"
  top: "conv4_4/x2/bn"
  batch_norm_param {
    eps: 1e-05
  }
}
layer {
  name: "conv4_4/x2/scale"
  type: "Scale"
  bottom: "conv4_4/x2/bn"
  top: "conv4_4/x2/bn"
  scale_param {
    bias_term: true
  }
}
layer {
  name: "relu4_4/x2"
  type: "ReLU"
  bottom: "conv4_4/x2/bn"
  top: "conv4_4/x2/bn"
}
layer {
  name: "conv4_4/x2"
  type: "Convolution"
  bottom: "conv4_4/x2/bn"
  top: "conv4_4/x2"
  convolution_param {
    num_output: 32
    bias_term: false
    pad: 1
    kernel_size: 3
  }
}
layer {
  name: "co
I1128 23:39:19.857489  1631 layer_factory.hpp:77] Creating layer data
I1128 23:39:19.857578  1631 net.cpp:100] Creating Layer data
I1128 23:39:19.857611  1631 net.cpp:408] data -> data
I1128 23:39:19.857671  1631 net.cpp:408] data -> label
I1128 23:39:19.858310  1631 image_data_layer.cpp:38] Opening file ../aichallenger_train_treated/treated_train_label.txt
I1128 23:39:19.887341  1631 image_data_layer.cpp:53] Shuffling data
I1128 23:39:19.892482  1631 image_data_layer.cpp:58] A total of 53879 images.
I1128 23:39:19.937685  1631 image_data_layer.cpp:85] output data size: 16,3,224,224
I1128 23:39:19.975610  1631 net.cpp:150] Setting up data
I1128 23:39:19.975842  1631 net.cpp:157] Top shape: 16 3 224 224 (2408448)
I1128 23:39:19.975873  1631 net.cpp:157] Top shape: 16 (16)
I1128 23:39:19.975888  1631 net.cpp:165] Memory required for data: 9633856
I1128 23:39:19.975911  1631 layer_factory.hpp:77] Creating layer conv1
I1128 23:39:19.975951  1631 net.cpp:100] Creating Layer conv1
I1128 23:39:19.975972  1631 net.cpp:434] conv1 <- data
I1128 23:39:19.976006  1631 net.cpp:408] conv1 -> conv1
I1128 23:39:20.458591  1631 net.cpp:150] Setting up conv1
I1128 23:39:20.458678  1631 net.cpp:157] Top shape: 16 64 112 112 (12845056)
I1128 23:39:20.458696  1631 net.cpp:165] Memory required for data: 61014080
I1128 23:39:20.458748  1631 layer_factory.hpp:77] Creating layer conv1/bn
I1128 23:39:20.458819  1631 net.cpp:100] Creating Layer conv1/bn
I1128 23:39:20.458839  1631 net.cpp:434] conv1/bn <- conv1
I1128 23:39:20.458859  1631 net.cpp:408] conv1/bn -> conv1/bn
I1128 23:39:20.459170  1631 net.cpp:150] Setting up conv1/bn
I1128 23:39:20.459195  1631 net.cpp:157] Top shape: 16 64 112 112 (12845056)
I1128 23:39:20.459209  1631 net.cpp:165] Memory required for data: 112394304
I1128 23:39:20.459234  1631 layer_factory.hpp:77] Creating layer conv1/scale
I1128 23:39:20.459262  1631 net.cpp:100] Creating Layer conv1/scale
I1128 23:39:20.459278  1631 net.cpp:434] conv1/scale <- conv1/bn
I1128 23:39:20.459295  1631 net.cpp:395] conv1/scale -> conv1/bn (in-place)
I1128 23:39:20.459429  1631 layer_factory.hpp:77] Creating layer conv1/scale
I1128 23:39:20.459630  1631 net.cpp:150] Setting up conv1/scale
I1128 23:39:20.459655  1631 net.cpp:157] Top shape: 16 64 112 112 (12845056)
I1128 23:39:20.459667  1631 net.cpp:165] Memory required for data: 163774528
I1128 23:39:20.459688  1631 layer_factory.hpp:77] Creating layer relu1
I1128 23:39:20.459712  1631 net.cpp:100] Creating Layer relu1
I1128 23:39:20.459727  1631 net.cpp:434] relu1 <- conv1/bn
I1128 23:39:20.459743  1631 net.cpp:395] relu1 -> conv1/bn (in-place)
I1128 23:39:20.459998  1631 net.cpp:150] Setting up relu1
I1128 23:39:20.460026  1631 net.cpp:157] Top shape: 16 64 112 112 (12845056)
I1128 23:39:20.460041  1631 net.cpp:165] Memory required for data: 215154752
I1128 23:39:20.460053  1631 layer_factory.hpp:77] Creating layer pool1
I1128 23:39:20.460077  1631 net.cpp:100] Creating Layer pool1
I1128 23:39:20.460090  1631 net.cpp:434] pool1 <- conv1/bn
I1128 23:39:20.460108  1631 net.cpp:408] pool1 -> pool1
I1128 23:39:20.460197  1631 net.cpp:150] Setting up pool1
I1128 23:39:20.460222  1631 net.cpp:157] Top shape: 16 64 57 57 (3326976)
I1128 23:39:20.460234  1631 net.cpp:165] Memory required for data: 228462656
I1128 23:39:20.460248  1631 layer_factory.hpp:77] Creating layer pool1_pool1_0_split
I1128 23:39:20.460268  1631 net.cpp:100] Creating Layer pool1_pool1_0_split
I1128 23:39:20.460281  1631 net.cpp:434] pool1_pool1_0_split <- pool1
I1128 23:39:20.460297  1631 net.cpp:408] pool1_pool1_0_split -> pool1_pool1_0_split_0
I1128 23:39:20.460314  1631 net.cpp:408] pool1_pool1_0_split -> pool1_pool1_0_split_1
I1128 23:39:20.460378  1631 net.cpp:150] Setting up pool1_pool1_0_split
I1128 23:39:20.460399  1631 net.cpp:157] Top shape: 16 64 57 57 (3326976)
I1128 23:39:20.460413  1631 net.cpp:157] Top shape: 16 64 57 57 (3326976)
I1128 23:39:20.460427  1631 net.cpp:165] Memory required for data: 255078464
I1128 23:39:20.460439  1631 layer_factory.hpp:77] Creating layer conv2_1/x1/bn
I1128 23:39:20.460455  1631 net.cpp:100] Creating Layer conv2_1/x1/bn
I1128 23:39:20.460469  1631 net.cpp:434] conv2_1/x1/bn <- pool1_pool1_0_split_0
I1128 23:39:20.460485  1631 net.cpp:408] conv2_1/x1/bn -> conv2_1/x1/bn
I1128 23:39:20.462990  1631 net.cpp:150] Setting up conv2_1/x1/bn
I1128 23:39:20.463027  1631 net.cpp:157] Top shape: 16 64 57 57 (3326976)
I1128 23:39:20.463042  1631 net.cpp:165] Memory required for data: 268386368
I1128 23:39:20.463066  1631 layer_factory.hpp:77] Creating layer conv2_1/x1/scale
I1128 23:39:20.463089  1631 net.cpp:100] Creating Layer conv2_1/x1/scale
I1128 23:39:20.463104  1631 net.cpp:434] conv2_1/x1/scale <- conv2_1/x1/bn
I1128 23:39:20.463120  1631 net.cpp:395] conv2_1/x1/scale -> conv2_1/x1/bn (in-place)
I1128 23:39:20.463189  1631 layer_factory.hpp:77] Creating layer conv2_1/x1/scale
I1128 23:39:20.463376  1631 net.cpp:150] Setting up conv2_1/x1/scale
I1128 23:39:20.463409  1631 net.cpp:157] Top shape: 16 64 57 57 (3326976)
I1128 23:39:20.463424  1631 net.cpp:165] Memory required for data: 281694272
I1128 23:39:20.463443  1631 layer_factory.hpp:77] Creating layer relu2_1/x1
I1128 23:39:20.463460  1631 net.cpp:100] Creating Layer relu2_1/x1
I1128 23:39:20.463474  1631 net.cpp:434] relu2_1/x1 <- conv2_1/x1/bn
I1128 23:39:20.463490  1631 net.cpp:395] relu2_1/x1 -> conv2_1/x1/bn (in-place)
I1128 23:39:20.464821  1631 net.cpp:150] Setting up relu2_1/x1
I1128 23:39:20.464875  1631 net.cpp:157] Top shape: 16 64 57 57 (3326976)
I1128 23:39:20.464892  1631 net.cpp:165] Memory required for data: 295002176
I1128 23:39:20.464921  1631 layer_factory.hpp:77] Creating layer conv2_1/x1
I1128 23:39:20.464944  1631 net.cpp:100] Creating Layer conv2_1/x1
I1128 23:39:20.464958  1631 net.cpp:434] conv2_1/x1 <- conv2_1/x1/bn
I1128 23:39:20.464977  1631 net.cpp:408] conv2_1/x1 -> conv2_1/x1
I1128 23:39:20.466912  1631 net.cpp:150] Setting up conv2_1/x1
I1128 23:39:20.466950  1631 net.cpp:157] Top shape: 16 128 57 57 (6653952)
I1128 23:39:20.466965  1631 net.cpp:165] Memory required for data: 321617984
I1128 23:39:20.466982  1631 layer_factory.hpp:77] Creating layer conv2_1/x2/bn
I1128 23:39:20.467001  1631 net.cpp:100] Creating Layer conv2_1/x2/bn
I1128 23:39:20.467015  1631 net.cpp:434] conv2_1/x2/bn <- conv2_1/x1
I1128 23:39:20.467032  1631 net.cpp:408] conv2_1/x2/bn -> conv2_1/x2/bn
I1128 23:39:20.467344  1631 net.cpp:150] Setting up conv2_1/x2/bn
I1128 23:39:20.467372  1631 net.cpp:157] Top shape: 16 128 57 57 (6653952)
I1128 23:39:20.467386  1631 net.cpp:165] Memory required for data: 348233792
I1128 23:39:20.467411  1631 layer_factory.hpp:77] Creating layer conv2_1/x2/scale
I1128 23:39:20.467432  1631 net.cpp:100] Creating Layer conv2_1/x2/scale
I1128 23:39:20.467445  1631 net.cpp:434] conv2_1/x2/scale <- conv2_1/x2/bn
I1128 23:39:20.467468  1631 net.cpp:395] conv2_1/x2/scale -> conv2_1/x2/bn (in-place)
I1128 23:39:20.467540  1631 layer_factory.hpp:77] Creating layer conv2_1/x2/scale
I1128 23:39:20.467715  1631 net.cpp:150] Setting up conv2_1/x2/scale
I1128 23:39:20.467739  1631 net.cpp:157] Top shape: 16 128 57 57 (6653952)
I1128 23:39:20.467751  1631 net.cpp:165] Memory required for data: 374849600
I1128 23:39:20.467773  1631 layer_factory.hpp:77] Creating layer relu2_1/x2
I1128 23:39:20.467803  1631 net.cpp:100] Creating Layer relu2_1/x2
I1128 23:39:20.467819  1631 net.cpp:434] relu2_1/x2 <- conv2_1/x2/bn
I1128 23:39:20.467931  1631 net.cpp:395] relu2_1/x2 -> conv2_1/x2/bn (in-place)
I1128 23:39:22.557760  1631 net.cpp:150] Setting up relu2_1/x2
I1128 23:39:22.557863  1631 net.cpp:157] Top shape: 16 128 57 57 (6653952)
I1128 23:39:22.557893  1631 net.cpp:165] Memory required for data: 401465408
I1128 23:39:22.557919  1631 layer_factory.hpp:77] Creating layer conv2_1/x2
I1128 23:39:22.557966  1631 net.cpp:100] Creating Layer conv2_1/x2
I1128 23:39:22.557992  1631 net.cpp:434] conv2_1/x2 <- conv2_1/x2/bn
I1128 23:39:22.558029  1631 net.cpp:408] conv2_1/x2 -> conv2_1/x2
I1128 23:39:22.566210  1631 net.cpp:150] Setting up conv2_1/x2
I1128 23:39:22.566299  1631 net.cpp:157] Top shape: 16 32 57 57 (1663488)
I1128 23:39:22.566330  1631 net.cpp:165] Memory required for data: 408119360
I1128 23:39:22.566367  1631 layer_factory.hpp:77] Creating layer concat_2_1
I1128 23:39:22.566426  1631 net.cpp:100] Creating Layer concat_2_1
I1128 23:39:22.566460  1631 net.cpp:434] concat_2_1 <- pool1_pool1_0_split_1
I1128 23:39:22.566493  1631 net.cpp:434] concat_2_1 <- conv2_1/x2
I1128 23:39:22.566526  1631 net.cpp:408] concat_2_1 -> concat_2_1
I1128 23:39:22.566638  1631 net.cpp:150] Setting up concat_2_1
I1128 23:39:22.566679  1631 net.cpp:157] Top shape: 16 96 57 57 (4990464)
I1128 23:39:22.566704  1631 net.cpp:165] Memory required for data: 428081216
I1128 23:39:22.566730  1631 layer_factory.hpp:77] Creating layer concat_2_1_concat_2_1_0_split
I1128 23:39:22.566784  1631 net.cpp:100] Creating Layer concat_2_1_concat_2_1_0_split
I1128 23:39:22.566812  1631 net.cpp:434] concat_2_1_concat_2_1_0_split <- concat_2_1
I1128 23:39:22.566855  1631 net.cpp:408] concat_2_1_concat_2_1_0_split -> concat_2_1_concat_2_1_0_split_0
I1128 23:39:22.566896  1631 net.cpp:408] concat_2_1_concat_2_1_0_split -> concat_2_1_concat_2_1_0_split_1
I1128 23:39:22.567018  1631 net.cpp:150] Setting up concat_2_1_concat_2_1_0_split
I1128 23:39:22.567057  1631 net.cpp:157] Top shape: 16 96 57 57 (4990464)
I1128 23:39:22.567085  1631 net.cpp:157] Top shape: 16 96 57 57 (4990464)
I1128 23:39:22.567109  1631 net.cpp:165] Memory required for data: 468004928
I1128 23:39:22.567174  1631 layer_factory.hpp:77] Creating layer conv2_2/x1/bn
I1128 23:39:22.567220  1631 net.cpp:100] Creating Layer conv2_2/x1/bn
I1128 23:39:22.567272  1631 net.cpp:434] conv2_2/x1/bn <- concat_2_1_concat_2_1_0_split_0
I1128 23:39:22.567358  1631 net.cpp:408] conv2_2/x1/bn -> conv2_2/x1/bn
I1128 23:39:22.567888  1631 net.cpp:150] Setting up conv2_2/x1/bn
I1128 23:39:22.567934  1631 net.cpp:157] Top shape: 16 96 57 57 (4990464)
I1128 23:39:22.567960  1631 net.cpp:165] Memory required for data: 487966784
I1128 23:39:22.567999  1631 layer_factory.hpp:77] Creating layer conv2_2/x1/scale
I1128 23:39:22.568034  1631 net.cpp:100] Creating Layer conv2_2/x1/scale
I1128 23:39:22.568061  1631 net.cpp:434] conv2_2/x1/scale <- conv2_2/x1/bn
I1128 23:39:22.568104  1631 net.cpp:395] conv2_2/x1/scale -> conv2_2/x1/bn (in-place)
I1128 23:39:22.568243  1631 layer_factory.hpp:77] Creating layer conv2_2/x1/scale
I1128 23:39:22.568575  1631 net.cpp:150] Setting up conv2_2/x1/scale
I1128 23:39:22.568616  1631 net.cpp:157] Top shape: 16 96 57 57 (4990464)
I1128 23:39:22.568641  1631 net.cpp:165] Memory required for data: 507928640
I1128 23:39:22.568675  1631 layer_factory.hpp:77] Creating layer relu2_2/x1
I1128 23:39:22.568707  1631 net.cpp:100] Creating Layer relu2_2/x1
I1128 23:39:22.568747  1631 net.cpp:434] relu2_2/x1 <- conv2_2/x1/bn
I1128 23:39:22.568791  1631 net.cpp:395] relu2_2/x1 -> conv2_2/x1/bn (in-place)
I1128 23:39:22.569231  1631 net.cpp:150] Setting up relu2_2/x1
I1128 23:39:22.569275  1631 net.cpp:157] Top shape: 16 96 57 57 (4990464)
I1128 23:39:22.569299  1631 net.cpp:165] Memory required for data: 527890496
I1128 23:39:22.569324  1631 layer_factory.hpp:77] Creating layer conv2_2/x1
I1128 23:39:22.569366  1631 net.cpp:100] Creating Layer conv2_2/x1
I1128 23:39:22.569394  1631 net.cpp:434] conv2_2/x1 <- conv2_2/x1/bn
I1128 23:39:22.569483  1631 net.cpp:408] conv2_2/x1 -> conv2_2/x1
I1128 23:39:22.572886  1631 net.cpp:150] Setting up conv2_2/x1
I1128 23:39:22.572950  1631 net.cpp:157] Top shape: 16 128 57 57 (6653952)
I1128 23:39:22.572978  1631 net.cpp:165] Memory required for data: 554506304
I1128 23:39:22.573007  1631 layer_factory.hpp:77] Creating layer conv2_2/x2/bn
I1128 23:39:22.573043  1631 net.cpp:100] Creating Layer conv2_2/x2/bn
I1128 23:39:22.573071  1631 net.cpp:434] conv2_2/x2/bn <- conv2_2/x1
I1128 23:39:22.573104  1631 net.cpp:408] conv2_2/x2/bn -> conv2_2/x2/bn
I1128 23:39:22.573526  1631 net.cpp:150] Setting up conv2_2/x2/bn
I1128 23:39:22.573565  1631 net.cpp:157] Top shape: 16 128 57 57 (6653952)
I1128 23:39:22.573588  1631 net.cpp:165] Memory required for data: 581122112
I1128 23:39:22.573623  1631 layer_factory.hpp:77] Creating layer conv2_2/x2/scale
I1128 23:39:22.573654  1631 net.cpp:100] Creating Layer conv2_2/x2/scale
I1128 23:39:22.573680  1631 net.cpp:434] conv2_2/x2/scale <- conv2_2/x2/bn
I1128 23:39:22.573709  1631 net.cpp:395] conv2_2/x2/scale -> conv2_2/x2/bn (in-place)
I1128 23:39:22.573840  1631 layer_factory.hpp:77] Creating layer conv2_2/x2/scale
I1128 23:39:22.574097  1631 net.cpp:150] Setting up conv2_2/x2/scale
I1128 23:39:22.574134  1631 net.cpp:157] Top shape: 16 128 57 57 (6653952)
I1128 23:39:22.574157  1631 net.cpp:165] Memory required for data: 607737920
I1128 23:39:22.574189  1631 layer_factory.hpp:77] Creating layer relu2_2/x2
I1128 23:39:22.574219  1631 net.cpp:100] Creating Layer relu2_2/x2
I1128 23:39:22.574244  1631 net.cpp:434] relu2_2/x2 <- conv2_2/x2/bn
I1128 23:39:22.574275  1631 net.cpp:395] relu2_2/x2 -> conv2_2/x2/bn (in-place)
I1128 23:39:22.574661  1631 net.cpp:150] Setting up relu2_2/x2
I1128 23:39:22.574703  1631 net.cpp:157] Top shape: 16 128 57 57 (6653952)
I1128 23:39:22.574728  1631 net.cpp:165] Memory required for data: 634353728
I1128 23:39:22.574766  1631 layer_factory.hpp:77] Creating layer conv2_2/x2
I1128 23:39:22.574803  1631 net.cpp:100] Creating Layer conv2_2/x2
I1128 23:39:22.574831  1631 net.cpp:434] conv2_2/x2 <- conv2_2/x2/bn
I1128 23:39:22.574863  1631 net.cpp:408] conv2_2/x2 -> conv2_2/x2
I1128 23:39:22.578281  1631 net.cpp:150] Setting up conv2_2/x2
I1128 23:39:22.578344  1631 net.cpp:157] Top shape: 16 32 57 57 (1663488)
I1128 23:39:22.578372  1631 net.cpp:165] Memory required for data: 641007680
I1128 23:39:22.578420  1631 layer_factory.hpp:77] Creating layer concat_2_2
I1128 23:39:22.578454  1631 net.cpp:100] Creating Layer concat_2_2
I1128 23:39:22.578480  1631 net.cpp:434] concat_2_2 <- concat_2_1_concat_2_1_0_split_1
I1128 23:39:22.578507  1631 net.cpp:434] concat_2_2 <- conv2_2/x2
I1128 23:39:22.578537  1631 net.cpp:408] concat_2_2 -> concat_2_2
I1128 23:39:22.578624  1631 net.cpp:150] Setting up concat_2_2
I1128 23:39:22.578660  1631 net.cpp:157] Top shape: 16 128 57 57 (6653952)
I1128 23:39:22.578685  1631 net.cpp:165] Memory required for data: 667623488
I1128 23:39:22.578709  1631 layer_factory.hpp:77] Creating layer concat_2_2_concat_2_2_0_split
I1128 23:39:22.578754  1631 net.cpp:100] Creating Layer concat_2_2_concat_2_2_0_split
I1128 23:39:22.578785  1631 net.cpp:434] concat_2_2_concat_2_2_0_split <- concat_2_2
I1128 23:39:22.578815  1631 net.cpp:408] concat_2_2_concat_2_2_0_split -> concat_2_2_concat_2_2_0_split_0
I1128 23:39:22.578847  1631 net.cpp:408] concat_2_2_concat_2_2_0_split -> concat_2_2_concat_2_2_0_split_1
I1128 23:39:22.578953  1631 net.cpp:150] Setting up concat_2_2_concat_2_2_0_split
I1128 23:39:22.578996  1631 net.cpp:157] Top shape: 16 128 57 57 (6653952)
I1128 23:39:22.579020  1631 net.cpp:157] Top shape: 16 128 57 57 (6653952)
I1128 23:39:22.579041  1631 net.cpp:165] Memory required for data: 720855104
I1128 23:39:22.579063  1631 layer_factory.hpp:77] Creating layer conv2_3/x1/bn
I1128 23:39:22.579097  1631 net.cpp:100] Creating Layer conv2_3/x1/bn
I1128 23:39:22.579121  1631 net.cpp:434] conv2_3/x1/bn <- concat_2_2_concat_2_2_0_split_0
I1128 23:39:22.579147  1631 net.cpp:408] conv2_3/x1/bn -> conv2_3/x1/bn
I1128 23:39:22.579567  1631 net.cpp:150] Setting up conv2_3/x1/bn
I1128 23:39:22.579609  1631 net.cpp:157] Top shape: 16 128 57 57 (6653952)
I1128 23:39:22.579630  1631 net.cpp:165] Memory required for data: 747470912
I1128 23:39:22.579676  1631 layer_factory.hpp:77] Creating layer conv2_3/x1/scale
I1128 23:39:22.579707  1631 net.cpp:100] Creating Layer conv2_3/x1/scale
I1128 23:39:22.579730  1631 net.cpp:434] conv2_3/x1/scale <- conv2_3/x1/bn
I1128 23:39:22.579769  1631 net.cpp:395] conv2_3/x1/scale -> conv2_3/x1/bn (in-place)
I1128 23:39:22.579881  1631 layer_factory.hpp:77] Creating layer conv2_3/x1/scale
I1128 23:39:22.580130  1631 net.cpp:150] Setting up conv2_3/x1/scale
I1128 23:39:22.580166  1631 net.cpp:157] Top shape: 16 128 57 57 (6653952)
I1128 23:39:22.580188  1631 net.cpp:165] Memory required for data: 774086720
I1128 23:39:22.580217  1631 layer_factory.hpp:77] Creating layer relu2_3/x1
I1128 23:39:22.580255  1631 net.cpp:100] Creating Layer relu2_3/x1
I1128 23:39:22.580281  1631 net.cpp:434] relu2_3/x1 <- conv2_3/x1/bn
I1128 23:39:22.580307  1631 net.cpp:395] relu2_3/x1 -> conv2_3/x1/bn (in-place)
I1128 23:39:22.580690  1631 net.cpp:150] Setting up relu2_3/x1
I1128 23:39:22.580731  1631 net.cpp:157] Top shape: 16 128 57 57 (6653952)
I1128 23:39:22.580765  1631 net.cpp:165] Memory required for data: 800702528
I1128 23:39:22.580788  1631 layer_factory.hpp:77] Creating layer conv2_3/x1
I1128 23:39:22.580828  1631 net.cpp:100] Creating Layer conv2_3/x1
I1128 23:39:22.580855  1631 net.cpp:434] conv2_3/x1 <- conv2_3/x1/bn
I1128 23:39:22.580893  1631 net.cpp:408] conv2_3/x1 -> conv2_3/x1
I1128 23:39:22.584158  1631 net.cpp:150] Setting up conv2_3/x1
I1128 23:39:22.584225  1631 net.cpp:157] Top shape: 16 128 57 57 (6653952)
I1128 23:39:22.584254  1631 net.cpp:165] Memory required for data: 827318336
I1128 23:39:22.584282  1631 layer_factory.hpp:77] Creating layer conv2_3/x2/bn
I1128 23:39:22.584313  1631 net.cpp:100] Creating Layer conv2_3/x2/bn
I1128 23:39:22.584338  1631 net.cpp:434] conv2_3/x2/bn <- conv2_3/x1
I1128 23:39:22.584378  1631 net.cpp:408] conv2_3/x2/bn -> conv2_3/x2/bn
I1128 23:39:22.584822  1631 net.cpp:150] Setting up conv2_3/x2/bn
I1128 23:39:22.584874  1631 net.cpp:157] Top shape: 16 128 57 57 (6653952)
I1128 23:39:22.584897  1631 net.cpp:165] Memory required for data: 853934144
I1128 23:39:22.584930  1631 layer_factory.hpp:77] Creating layer conv2_3/x2/scale
I1128 23:39:22.584993  1631 net.cpp:100] Creating Layer conv2_3/x2/scale
I1128 23:39:22.585022  1631 net.cpp:434] conv2_3/x2/scale <- conv2_3/x2/bn
I1128 23:39:22.585050  1631 net.cpp:395] conv2_3/x2/scale -> conv2_3/x2/bn (in-place)
I1128 23:39:22.585166  1631 layer_factory.hpp:77] Creating layer conv2_3/x2/scale
I1128 23:39:22.585441  1631 net.cpp:150] Setting up conv2_3/x2/scale
I1128 23:39:22.585477  1631 net.cpp:157] Top shape: 16 128 57 57 (6653952)
I1128 23:39:22.585500  1631 net.cpp:165] Memory required for data: 880549952
I1128 23:39:22.585530  1631 layer_factory.hpp:77] Creating layer relu2_3/x2
I1128 23:39:22.585556  1631 net.cpp:100] Creating Layer relu2_3/x2
I1128 23:39:22.585580  1631 net.cpp:434] relu2_3/x2 <- conv2_3/x2/bn
I1128 23:39:22.585615  1631 net.cpp:395] relu2_3/x2 -> conv2_3/x2/bn (in-place)
I1128 23:39:22.585999  1631 net.cpp:150] Setting up relu2_3/x2
I1128 23:39:22.586040  1631 net.cpp:157] Top shape: 16 128 57 57 (6653952)
I1128 23:39:22.586062  1631 net.cpp:165] Memory required for data: 907165760
I1128 23:39:22.586084  1631 layer_factory.hpp:77] Creating layer conv2_3/x2
I1128 23:39:22.586124  1631 net.cpp:100] Creating Layer conv2_3/x2
I1128 23:39:22.586158  1631 net.cpp:434] conv2_3/x2 <- conv2_3/x2/bn
I1128 23:39:22.586186  1631 net.cpp:408] conv2_3/x2 -> conv2_3/x2
I1128 23:39:22.589470  1631 net.cpp:150] Setting up conv2_3/x2
I1128 23:39:22.589526  1631 net.cpp:157] Top shape: 16 32 57 57 (1663488)
I1128 23:39:22.589550  1631 net.cpp:165] Memory required for data: 913819712
I1128 23:39:22.589576  1631 layer_factory.hpp:77] Creating layer concat_2_3
I1128 23:39:22.589617  1631 net.cpp:100] Creating Layer concat_2_3
I1128 23:39:22.589643  1631 net.cpp:434] concat_2_3 <- concat_2_2_concat_2_2_0_split_1
I1128 23:39:22.589668  1631 net.cpp:434] concat_2_3 <- conv2_3/x2
I1128 23:39:22.589694  1631 net.cpp:408] concat_2_3 -> concat_2_3
I1128 23:39:22.589781  1631 net.cpp:150] Setting up concat_2_3
I1128 23:39:22.589813  1631 net.cpp:157] Top shape: 16 160 57 57 (8317440)
I1128 23:39:22.589833  1631 net.cpp:165] Memory required for data: 947089472
I1128 23:39:22.589854  1631 layer_factory.hpp:77] Creating layer concat_2_3_concat_2_3_0_split
I1128 23:39:22.589891  1631 net.cpp:100] Creating Layer concat_2_3_concat_2_3_0_split
I1128 23:39:22.589916  1631 net.cpp:434] concat_2_3_concat_2_3_0_split <- concat_2_3
I1128 23:39:22.589946  1631 net.cpp:408] concat_2_3_concat_2_3_0_split -> concat_2_3_concat_2_3_0_split_0
I1128 23:39:22.589975  1631 net.cpp:408] concat_2_3_concat_2_3_0_split -> concat_2_3_concat_2_3_0_split_1
I1128 23:39:22.590067  1631 net.cpp:150] Setting up concat_2_3_concat_2_3_0_split
I1128 23:39:22.590096  1631 net.cpp:157] Top shape: 16 160 57 57 (8317440)
I1128 23:39:22.590119  1631 net.cpp:157] Top shape: 16 160 57 57 (8317440)
I1128 23:39:22.590138  1631 net.cpp:165] Memory required for data: 1013628992
I1128 23:39:22.590159  1631 layer_factory.hpp:77] Creating layer conv2_4/x1/bn
I1128 23:39:22.590188  1631 net.cpp:100] Creating Layer conv2_4/x1/bn
I1128 23:39:22.590210  1631 net.cpp:434] conv2_4/x1/bn <- concat_2_3_concat_2_3_0_split_0
I1128 23:39:22.590235  1631 net.cpp:408] conv2_4/x1/bn -> conv2_4/x1/bn
I1128 23:39:22.590620  1631 net.cpp:150] Setting up conv2_4/x1/bn
I1128 23:39:22.590652  1631 net.cpp:157] Top shape: 16 160 57 57 (8317440)
I1128 23:39:22.590673  1631 net.cpp:165] Memory required for data: 1046898752
I1128 23:39:22.590704  1631 layer_factory.hpp:77] Creating layer conv2_4/x1/scale
I1128 23:39:22.590744  1631 net.cpp:100] Creating Layer conv2_4/x1/scale
I1128 23:39:22.590770  1631 net.cpp:434] conv2_4/x1/scale <- conv2_4/x1/bn
I1128 23:39:22.590795  1631 net.cpp:395] conv2_4/x1/scale -> conv2_4/x1/bn (in-place)
I1128 23:39:22.590900  1631 layer_factory.hpp:77] Creating layer conv2_4/x1/scale
I1128 23:39:22.591138  1631 net.cpp:150] Setting up conv2_4/x1/scale
I1128 23:39:22.591183  1631 net.cpp:157] Top shape: 16 160 57 57 (8317440)
I1128 23:39:22.591205  1631 net.cpp:165] Memory required for data: 1080168512
I1128 23:39:22.591245  1631 layer_factory.hpp:77] Creating layer relu2_4/x1
I1128 23:39:22.591275  1631 net.cpp:100] Creating Layer relu2_4/x1
I1128 23:39:22.591298  1631 net.cpp:434] relu2_4/x1 <- conv2_4/x1/bn
I1128 23:39:22.591351  1631 net.cpp:395] relu2_4/x1 -> conv2_4/x1/bn (in-place)
I1128 23:39:22.593360  1631 net.cpp:150] Setting up relu2_4/x1
I1128 23:39:22.593436  1631 net.cpp:157] Top shape: 16 160 57 57 (8317440)
I1128 23:39:22.593461  1631 net.cpp:165] Memory required for data: 1113438272
I1128 23:39:22.593482  1631 layer_factory.hpp:77] Creating layer conv2_4/x1
I1128 23:39:22.593515  1631 net.cpp:100] Creating Layer conv2_4/x1
I1128 23:39:22.593539  1631 net.cpp:434] conv2_4/x1 <- conv2_4/x1/bn
I1128 23:39:22.593566  1631 net.cpp:408] conv2_4/x1 -> conv2_4/x1
I1128 23:39:22.596604  1631 net.cpp:150] Setting up conv2_4/x1
I1128 23:39:22.596660  1631 net.cpp:157] Top shape: 16 128 57 57 (6653952)
I1128 23:39:22.596683  1631 net.cpp:165] Memory required for data: 1140054080
I1128 23:39:22.596710  1631 layer_factory.hpp:77] Creating layer conv2_4/x2/bn
I1128 23:39:22.596752  1631 net.cpp:100] Creating Layer conv2_4/x2/bn
I1128 23:39:22.596779  1631 net.cpp:434] conv2_4/x2/bn <- conv2_4/x1
I1128 23:39:22.596809  1631 net.cpp:408] conv2_4/x2/bn -> conv2_4/x2/bn
I1128 23:39:22.597221  1631 net.cpp:150] Setting up conv2_4/x2/bn
I1128 23:39:22.597257  1631 net.cpp:157] Top shape: 16 128 57 57 (6653952)
I1128 23:39:22.597277  1631 net.cpp:165] Memory required for data: 1166669888
I1128 23:39:22.597308  1631 layer_factory.hpp:77] Creating layer conv2_4/x2/scale
I1128 23:39:22.597335  1631 net.cpp:100] Creating Layer conv2_4/x2/scale
I1128 23:39:22.597358  1631 net.cpp:434] conv2_4/x2/scale <- conv2_4/x2/bn
I1128 23:39:22.597383  1631 net.cpp:395] conv2_4/x2/scale -> conv2_4/x2/bn (in-place)
I1128 23:39:22.597496  1631 layer_factory.hpp:77] Creating layer conv2_4/x2/scale
I1128 23:39:22.597756  1631 net.cpp:150] Setting up conv2_4/x2/scale
I1128 23:39:22.597791  1631 net.cpp:157] Top shape: 16 128 57 57 (6653952)
I1128 23:39:22.597811  1631 net.cpp:165] Memory required for data: 1193285696
I1128 23:39:22.597839  1631 layer_factory.hpp:77] Creating layer relu2_4/x2
I1128 23:39:22.597874  1631 net.cpp:100] Creating Layer relu2_4/x2
I1128 23:39:22.597898  1631 net.cpp:434] relu2_4/x2 <- conv2_4/x2/bn
I1128 23:39:22.597923  1631 net.cpp:395] relu2_4/x2 -> conv2_4/x2/bn (in-place)
I1128 23:39:22.598289  1631 net.cpp:150] Setting up relu2_4/x2
I1128 23:39:22.598327  1631 net.cpp:157] Top shape: 16 128 57 57 (6653952)
I1128 23:39:22.598348  1631 net.cpp:165] Memory required for data: 1219901504
I1128 23:39:22.598371  1631 layer_factory.hpp:77] Creating layer conv2_4/x2
I1128 23:39:22.598408  1631 net.cpp:100] Creating Layer conv2_4/x2
I1128 23:39:22.598434  1631 net.cpp:434] conv2_4/x2 <- conv2_4/x2/bn
I1128 23:39:22.598460  1631 net.cpp:408] conv2_4/x2 -> conv2_4/x2
I1128 23:39:22.602955  1631 net.cpp:150] Setting up conv2_4/x2
I1128 23:39:22.603010  1631 net.cpp:157] Top shape: 16 32 57 57 (1663488)
I1128 23:39:22.603032  1631 net.cpp:165] Memory required for data: 1226555456
I1128 23:39:22.603058  1631 layer_factory.hpp:77] Creating layer concat_2_4
I1128 23:39:22.603093  1631 net.cpp:100] Creating Layer concat_2_4
I1128 23:39:22.603118  1631 net.cpp:434] concat_2_4 <- concat_2_3_concat_2_3_0_split_1
I1128 23:39:22.603142  1631 net.cpp:434] concat_2_4 <- conv2_4/x2
I1128 23:39:22.603168  1631 net.cpp:408] concat_2_4 -> concat_2_4
I1128 23:39:22.603255  1631 net.cpp:150] Setting up concat_2_4
I1128 23:39:22.603287  1631 net.cpp:157] Top shape: 16 192 57 57 (9980928)
I1128 23:39:22.603340  1631 net.cpp:165] Memory required for data: 1266479168
I1128 23:39:22.603368  1631 layer_factory.hpp:77] Creating layer concat_2_4_concat_2_4_0_split
I1128 23:39:22.603404  1631 net.cpp:100] Creating Layer concat_2_4_concat_2_4_0_split
I1128 23:39:22.603435  1631 net.cpp:434] concat_2_4_concat_2_4_0_split <- concat_2_4
I1128 23:39:22.603483  1631 net.cpp:408] concat_2_4_concat_2_4_0_split -> concat_2_4_concat_2_4_0_split_0
I1128 23:39:22.603533  1631 net.cpp:408] concat_2_4_concat_2_4_0_split -> concat_2_4_concat_2_4_0_split_1
I1128 23:39:22.603642  1631 net.cpp:150] Setting up concat_2_4_concat_2_4_0_split
I1128 23:39:22.603673  1631 net.cpp:157] Top shape: 16 192 57 57 (9980928)
I1128 23:39:22.603694  1631 net.cpp:157] Top shape: 16 192 57 57 (9980928)
I1128 23:39:22.603713  1631 net.cpp:165] Memory required for data: 1346326592
I1128 23:39:22.603734  1631 layer_factory.hpp:77] Creating layer conv2_5/x1/bn
I1128 23:39:22.603776  1631 net.cpp:100] Creating Layer conv2_5/x1/bn
I1128 23:39:22.603801  1631 net.cpp:434] conv2_5/x1/bn <- concat_2_4_concat_2_4_0_split_0
I1128 23:39:22.603824  1631 net.cpp:408] conv2_5/x1/bn -> conv2_5/x1/bn
I1128 23:39:22.604209  1631 net.cpp:150] Setting up conv2_5/x1/bn
I1128 23:39:22.604243  1631 net.cpp:157] Top shape: 16 192 57 57 (9980928)
I1128 23:39:22.604262  1631 net.cpp:165] Memory required for data: 1386250304
I1128 23:39:22.604291  1631 layer_factory.hpp:77] Creating layer conv2_5/x1/scale
I1128 23:39:22.604326  1631 net.cpp:100] Creating Layer conv2_5/x1/scale
I1128 23:39:22.604348  1631 net.cpp:434] conv2_5/x1/scale <- conv2_5/x1/bn
I1128 23:39:22.604373  1631 net.cpp:395] conv2_5/x1/scale -> conv2_5/x1/bn (in-place)
I1128 23:39:22.604485  1631 layer_factory.hpp:77] Creating layer conv2_5/x1/scale
I1128 23:39:22.604758  1631 net.cpp:150] Setting up conv2_5/x1/scale
I1128 23:39:22.604791  1631 net.cpp:157] Top shape: 16 192 57 57 (9980928)
I1128 23:39:22.604810  1631 net.cpp:165] Memory required for data: 1426174016
I1128 23:39:22.604836  1631 layer_factory.hpp:77] Creating layer relu2_5/x1
I1128 23:39:22.604869  1631 net.cpp:100] Creating Layer relu2_5/x1
I1128 23:39:22.604892  1631 net.cpp:434] relu2_5/x1 <- conv2_5/x1/bn
I1128 23:39:22.604915  1631 net.cpp:395] relu2_5/x1 -> conv2_5/x1/bn (in-place)
I1128 23:39:22.605271  1631 net.cpp:150] Setting up relu2_5/x1
I1128 23:39:22.605309  1631 net.cpp:157] Top shape: 16 192 57 57 (9980928)
I1128 23:39:22.605329  1631 net.cpp:165] Memory required for data: 1466097728
I1128 23:39:22.605348  1631 layer_factory.hpp:77] Creating layer conv2_5/x1
I1128 23:39:22.605388  1631 net.cpp:100] Creating Layer conv2_5/x1
I1128 23:39:22.605412  1631 net.cpp:434] conv2_5/x1 <- conv2_5/x1/bn
I1128 23:39:22.605438  1631 net.cpp:408] conv2_5/x1 -> conv2_5/x1
I1128 23:39:22.608403  1631 net.cpp:150] Setting up conv2_5/x1
I1128 23:39:22.608455  1631 net.cpp:157] Top shape: 16 128 57 57 (6653952)
I1128 23:39:22.608477  1631 net.cpp:165] Memory required for data: 1492713536
I1128 23:39:22.608503  1631 layer_factory.hpp:77] Creating layer conv2_5/x2/bn
I1128 23:39:22.608539  1631 net.cpp:100] Creating Layer conv2_5/x2/bn
I1128 23:39:22.608564  1631 net.cpp:434] conv2_5/x2/bn <- conv2_5/x1
I1128 23:39:22.608590  1631 net.cpp:408] conv2_5/x2/bn -> conv2_5/x2/bn
I1128 23:39:22.609011  1631 net.cpp:150] Setting up conv2_5/x2/bn
I1128 23:39:22.609045  1631 net.cpp:157] Top shape: 16 128 57 57 (6653952)
I1128 23:39:22.609063  1631 net.cpp:165] Memory required for data: 1519329344
I1128 23:39:22.609091  1631 layer_factory.hpp:77] Creating layer conv2_5/x2/scale
I1128 23:39:22.609117  1631 net.cpp:100] Creating Layer conv2_5/x2/scale
I1128 23:39:22.609136  1631 net.cpp:434] conv2_5/x2/scale <- conv2_5/x2/bn
I1128 23:39:22.609167  1631 net.cpp:395] conv2_5/x2/scale -> conv2_5/x2/bn (in-place)
I1128 23:39:22.609272  1631 layer_factory.hpp:77] Creating layer conv2_5/x2/scale
I1128 23:39:22.609508  1631 net.cpp:150] Setting up conv2_5/x2/scale
I1128 23:39:22.609546  1631 net.cpp:157] Top shape: 16 128 57 57 (6653952)
I1128 23:39:22.609566  1631 net.cpp:165] Memory required for data: 1545945152
I1128 23:39:22.609614  1631 layer_factory.hpp:77] Creating layer relu2_5/x2
I1128 23:39:22.609642  1631 net.cpp:100] Creating Layer relu2_5/x2
I1128 23:39:22.609663  1631 net.cpp:434] relu2_5/x2 <- conv2_5/x2/bn
I1128 23:39:22.609685  1631 net.cpp:395] relu2_5/x2 -> conv2_5/x2/bn (in-place)
I1128 23:39:22.610043  1631 net.cpp:150] Setting up relu2_5/x2
I1128 23:39:22.610085  1631 net.cpp:157] Top shape: 16 128 57 57 (6653952)
I1128 23:39:22.610124  1631 net.cpp:165] Memory required for data: 1572560960
I1128 23:39:22.610146  1631 layer_factory.hpp:77] Creating layer conv2_5/x2
I1128 23:39:22.610172  1631 net.cpp:100] Creating Layer conv2_5/x2
I1128 23:39:22.610191  1631 net.cpp:434] conv2_5/x2 <- conv2_5/x2/bn
I1128 23:39:22.610222  1631 net.cpp:408] conv2_5/x2 -> conv2_5/x2
I1128 23:39:22.613047  1631 net.cpp:150] Setting up conv2_5/x2
I1128 23:39:22.613097  1631 net.cpp:157] Top shape: 16 32 57 57 (1663488)
I1128 23:39:22.613118  1631 net.cpp:165] Memory required for data: 1579214912
I1128 23:39:22.613143  1631 layer_factory.hpp:77] Creating layer concat_2_5
I1128 23:39:22.613168  1631 net.cpp:100] Creating Layer concat_2_5
I1128 23:39:22.613188  1631 net.cpp:434] concat_2_5 <- concat_2_4_concat_2_4_0_split_1
I1128 23:39:22.613211  1631 net.cpp:434] concat_2_5 <- conv2_5/x2
I1128 23:39:22.613243  1631 net.cpp:408] concat_2_5 -> concat_2_5
I1128 23:39:22.613324  1631 net.cpp:150] Setting up concat_2_5
I1128 23:39:22.613353  1631 net.cpp:157] Top shape: 16 224 57 57 (11644416)
I1128 23:39:22.613371  1631 net.cpp:165] Memory required for data: 1625792576
I1128 23:39:22.613390  1631 layer_factory.hpp:77] Creating layer concat_2_5_concat_2_5_0_split
I1128 23:39:22.613412  1631 net.cpp:100] Creating Layer concat_2_5_concat_2_5_0_split
I1128 23:39:22.613432  1631 net.cpp:434] concat_2_5_concat_2_5_0_split <- concat_2_5
I1128 23:39:22.613456  1631 net.cpp:408] concat_2_5_concat_2_5_0_split -> concat_2_5_concat_2_5_0_split_0
I1128 23:39:22.613488  1631 net.cpp:408] concat_2_5_concat_2_5_0_split -> concat_2_5_concat_2_5_0_split_1
I1128 23:39:22.613581  1631 net.cpp:150] Setting up concat_2_5_concat_2_5_0_split
I1128 23:39:22.613610  1631 net.cpp:157] Top shape: 16 224 57 57 (11644416)
I1128 23:39:22.613631  1631 net.cpp:157] Top shape: 16 224 57 57 (11644416)
I1128 23:39:22.613647  1631 net.cpp:165] Memory required for data: 1718947904
I1128 23:39:22.613665  1631 layer_factory.hpp:77] Creating layer conv2_6/x1/bn
I1128 23:39:22.613696  1631 net.cpp:100] Creating Layer conv2_6/x1/bn
I1128 23:39:22.613719  1631 net.cpp:434] conv2_6/x1/bn <- concat_2_5_concat_2_5_0_split_0
I1128 23:39:22.613751  1631 net.cpp:408] conv2_6/x1/bn -> conv2_6/x1/bn
I1128 23:39:22.614127  1631 net.cpp:150] Setting up conv2_6/x1/bn
I1128 23:39:22.614158  1631 net.cpp:157] Top shape: 16 224 57 57 (11644416)
I1128 23:39:22.614177  1631 net.cpp:165] Memory required for data: 1765525568
I1128 23:39:22.614204  1631 layer_factory.hpp:77] Creating layer conv2_6/x1/scale
I1128 23:39:22.614229  1631 net.cpp:100] Creating Layer conv2_6/x1/scale
I1128 23:39:22.614249  1631 net.cpp:434] conv2_6/x1/scale <- conv2_6/x1/bn
I1128 23:39:22.614271  1631 net.cpp:395] conv2_6/x1/scale -> conv2_6/x1/bn (in-place)
I1128 23:39:22.614380  1631 layer_factory.hpp:77] Creating layer conv2_6/x1/scale
I1128 23:39:22.614632  1631 net.cpp:150] Setting up conv2_6/x1/scale
I1128 23:39:22.614662  1631 net.cpp:157] Top shape: 16 224 57 57 (11644416)
I1128 23:39:22.614681  1631 net.cpp:165] Memory required for data: 1812103232
I1128 23:39:22.614706  1631 layer_factory.hpp:77] Creating layer relu2_6/x1
I1128 23:39:22.614729  1631 net.cpp:100] Creating Layer relu2_6/x1
I1128 23:39:22.614758  1631 net.cpp:434] relu2_6/x1 <- conv2_6/x1/bn
I1128 23:39:22.614780  1631 net.cpp:395] relu2_6/x1 -> conv2_6/x1/bn (in-place)
I1128 23:39:22.615114  1631 net.cpp:150] Setting up relu2_6/x1
I1128 23:39:22.615149  1631 net.cpp:157] Top shape: 16 224 57 57 (11644416)
I1128 23:39:22.615167  1631 net.cpp:165] Memory required for data: 1858680896
I1128 23:39:22.615187  1631 layer_factory.hpp:77] Creating layer conv2_6/x1
I1128 23:39:22.615219  1631 net.cpp:100] Creating Layer conv2_6/x1
I1128 23:39:22.615242  1631 net.cpp:434] conv2_6/x1 <- conv2_6/x1/bn
I1128 23:39:22.615267  1631 net.cpp:408] conv2_6/x1 -> conv2_6/x1
I1128 23:39:22.618134  1631 net.cpp:150] Setting up conv2_6/x1
I1128 23:39:22.618204  1631 net.cpp:157] Top shape: 16 128 57 57 (6653952)
I1128 23:39:22.618228  1631 net.cpp:165] Memory required for data: 1885296704
I1128 23:39:22.618268  1631 layer_factory.hpp:77] Creating layer conv2_6/x2/bn
I1128 23:39:22.618302  1631 net.cpp:100] Creating Layer conv2_6/x2/bn
I1128 23:39:22.618327  1631 net.cpp:434] conv2_6/x2/bn <- conv2_6/x1
I1128 23:39:22.618351  1631 net.cpp:408] conv2_6/x2/bn -> conv2_6/x2/bn
I1128 23:39:22.618721  1631 net.cpp:150] Setting up conv2_6/x2/bn
I1128 23:39:22.618767  1631 net.cpp:157] Top shape: 16 128 57 57 (6653952)
I1128 23:39:22.618787  1631 net.cpp:165] Memory required for data: 1911912512
I1128 23:39:22.618813  1631 layer_factory.hpp:77] Creating layer conv2_6/x2/scale
I1128 23:39:22.618846  1631 net.cpp:100] Creating Layer conv2_6/x2/scale
I1128 23:39:22.618870  1631 net.cpp:434] conv2_6/x2/scale <- conv2_6/x2/bn
I1128 23:39:22.618892  1631 net.cpp:395] conv2_6/x2/scale -> conv2_6/x2/bn (in-place)
I1128 23:39:22.619004  1631 layer_factory.hpp:77] Creating layer conv2_6/x2/scale
I1128 23:39:22.619230  1631 net.cpp:150] Setting up conv2_6/x2/scale
I1128 23:39:22.619259  1631 net.cpp:157] Top shape: 16 128 57 57 (6653952)
I1128 23:39:22.619277  1631 net.cpp:165] Memory required for data: 1938528320
I1128 23:39:22.619300  1631 layer_factory.hpp:77] Creating layer relu2_6/x2
I1128 23:39:22.619369  1631 net.cpp:100] Creating Layer relu2_6/x2
I1128 23:39:22.619392  1631 net.cpp:434] relu2_6/x2 <- conv2_6/x2/bn
I1128 23:39:22.619415  1631 net.cpp:395] relu2_6/x2 -> conv2_6/x2/bn (in-place)
I1128 23:39:22.619745  1631 net.cpp:150] Setting up relu2_6/x2
I1128 23:39:22.619779  1631 net.cpp:157] Top shape: 16 128 57 57 (6653952)
I1128 23:39:22.619797  1631 net.cpp:165] Memory required for data: 1965144128
I1128 23:39:22.619817  1631 layer_factory.hpp:77] Creating layer conv2_6/x2
I1128 23:39:22.619860  1631 net.cpp:100] Creating Layer conv2_6/x2
I1128 23:39:22.619884  1631 net.cpp:434] conv2_6/x2 <- conv2_6/x2/bn
I1128 23:39:22.619913  1631 net.cpp:408] conv2_6/x2 -> conv2_6/x2
I1128 23:39:22.625257  1631 net.cpp:150] Setting up conv2_6/x2
I1128 23:39:22.625306  1631 net.cpp:157] Top shape: 16 32 57 57 (1663488)
I1128 23:39:22.625326  1631 net.cpp:165] Memory required for data: 1971798080
I1128 23:39:22.625350  1631 layer_factory.hpp:77] Creating layer concat_2_6
I1128 23:39:22.625375  1631 net.cpp:100] Creating Layer concat_2_6
I1128 23:39:22.625394  1631 net.cpp:434] concat_2_6 <- concat_2_5_concat_2_5_0_split_1
I1128 23:39:22.625416  1631 net.cpp:434] concat_2_6 <- conv2_6/x2
I1128 23:39:22.625447  1631 net.cpp:408] concat_2_6 -> concat_2_6
I1128 23:39:22.625528  1631 net.cpp:150] Setting up concat_2_6
I1128 23:39:22.625556  1631 net.cpp:157] Top shape: 16 256 57 57 (13307904)
I1128 23:39:22.625573  1631 net.cpp:165] Memory required for data: 2025029696
I1128 23:39:22.625591  1631 layer_factory.hpp:77] Creating layer conv2_6/blk/bn
I1128 23:39:22.625613  1631 net.cpp:100] Creating Layer conv2_6/blk/bn
I1128 23:39:22.625632  1631 net.cpp:434] conv2_6/blk/bn <- concat_2_6
I1128 23:39:22.625661  1631 net.cpp:408] conv2_6/blk/bn -> conv2_6/blk/bn
I1128 23:39:22.626024  1631 net.cpp:150] Setting up conv2_6/blk/bn
I1128 23:39:22.626055  1631 net.cpp:157] Top shape: 16 256 57 57 (13307904)
I1128 23:39:22.626072  1631 net.cpp:165] Memory required for data: 2078261312
I1128 23:39:22.626098  1631 layer_factory.hpp:77] Creating layer conv2_6/blk/scale
I1128 23:39:22.626129  1631 net.cpp:100] Creating Layer conv2_6/blk/scale
I1128 23:39:22.626150  1631 net.cpp:434] conv2_6/blk/scale <- conv2_6/blk/bn
I1128 23:39:22.626173  1631 net.cpp:395] conv2_6/blk/scale -> conv2_6/blk/bn (in-place)
I1128 23:39:22.626267  1631 layer_factory.hpp:77] Creating layer conv2_6/blk/scale
I1128 23:39:22.626497  1631 net.cpp:150] Setting up conv2_6/blk/scale
I1128 23:39:22.626528  1631 net.cpp:157] Top shape: 16 256 57 57 (13307904)
I1128 23:39:22.626544  1631 net.cpp:165] Memory required for data: 2131492928
I1128 23:39:22.626569  1631 layer_factory.hpp:77] Creating layer relu2_6/blk
I1128 23:39:22.626610  1631 net.cpp:100] Creating Layer relu2_6/blk
I1128 23:39:22.626631  1631 net.cpp:434] relu2_6/blk <- conv2_6/blk/bn
I1128 23:39:22.626674  1631 net.cpp:395] relu2_6/blk -> conv2_6/blk/bn (in-place)
I1128 23:39:22.628367  1631 net.cpp:150] Setting up relu2_6/blk
I1128 23:39:22.628412  1631 net.cpp:157] Top shape: 16 256 57 57 (13307904)
I1128 23:39:22.628432  1631 net.cpp:165] Memory required for data: 2184724544
I1128 23:39:22.628450  1631 layer_factory.hpp:77] Creating layer conv2_6/blk
I1128 23:39:22.628484  1631 net.cpp:100] Creating Layer conv2_6/blk
I1128 23:39:22.628506  1631 net.cpp:434] conv2_6/blk <- conv2_6/blk/bn
I1128 23:39:22.628530  1631 net.cpp:408] conv2_6/blk -> conv2_6/blk
I1128 23:39:22.631091  1631 net.cpp:150] Setting up conv2_6/blk
I1128 23:39:22.631136  1631 net.cpp:157] Top shape: 16 128 57 57 (6653952)
I1128 23:39:22.631155  1631 net.cpp:165] Memory required for data: 2211340352
I1128 23:39:22.631175  1631 layer_factory.hpp:77] Creating layer pool2_6
I1128 23:39:22.631208  1631 net.cpp:100] Creating Layer pool2_6
I1128 23:39:22.631229  1631 net.cpp:434] pool2_6 <- conv2_6/blk
I1128 23:39:22.631250  1631 net.cpp:408] pool2_6 -> pool2_6
I1128 23:39:22.631681  1631 net.cpp:150] Setting up pool2_6
I1128 23:39:22.631719  1631 net.cpp:157] Top shape: 16 128 29 29 (1722368)
I1128 23:39:22.631747  1631 net.cpp:165] Memory required for data: 2218229824
I1128 23:39:22.631765  1631 layer_factory.hpp:77] Creating layer pool2_6_pool2_6_0_split
I1128 23:39:22.631788  1631 net.cpp:100] Creating Layer pool2_6_pool2_6_0_split
I1128 23:39:22.631805  1631 net.cpp:434] pool2_6_pool2_6_0_split <- pool2_6
I1128 23:39:22.631834  1631 net.cpp:408] pool2_6_pool2_6_0_split -> pool2_6_pool2_6_0_split_0
I1128 23:39:22.631860  1631 net.cpp:408] pool2_6_pool2_6_0_split -> pool2_6_pool2_6_0_split_1
I1128 23:39:22.631945  1631 net.cpp:150] Setting up pool2_6_pool2_6_0_split
I1128 23:39:22.631978  1631 net.cpp:157] Top shape: 16 128 29 29 (1722368)
I1128 23:39:22.631997  1631 net.cpp:157] Top shape: 16 128 29 29 (1722368)
I1128 23:39:22.632014  1631 net.cpp:165] Memory required for data: 2232008768
I1128 23:39:22.632030  1631 layer_factory.hpp:77] Creating layer conv3_1/x1/bn
I1128 23:39:22.632051  1631 net.cpp:100] Creating Layer conv3_1/x1/bn
I1128 23:39:22.632068  1631 net.cpp:434] conv3_1/x1/bn <- pool2_6_pool2_6_0_split_0
I1128 23:39:22.632089  1631 net.cpp:408] conv3_1/x1/bn -> conv3_1/x1/bn
I1128 23:39:22.634862  1631 net.cpp:150] Setting up conv3_1/x1/bn
I1128 23:39:22.634904  1631 net.cpp:157] Top shape: 16 128 29 29 (1722368)
I1128 23:39:22.634922  1631 net.cpp:165] Memory required for data: 2238898240
I1128 23:39:22.634948  1631 layer_factory.hpp:77] Creating layer conv3_1/x1/scale
I1128 23:39:22.634980  1631 net.cpp:100] Creating Layer conv3_1/x1/scale
I1128 23:39:22.635001  1631 net.cpp:434] conv3_1/x1/scale <- conv3_1/x1/bn
I1128 23:39:22.635022  1631 net.cpp:395] conv3_1/x1/scale -> conv3_1/x1/bn (in-place)
I1128 23:39:22.635123  1631 layer_factory.hpp:77] Creating layer conv3_1/x1/scale
I1128 23:39:22.635380  1631 net.cpp:150] Setting up conv3_1/x1/scale
I1128 23:39:22.635419  1631 net.cpp:157] Top shape: 16 128 29 29 (1722368)
I1128 23:39:22.635437  1631 net.cpp:165] Memory required for data: 2245787712
I1128 23:39:22.635462  1631 layer_factory.hpp:77] Creating layer relu3_1/x1
I1128 23:39:22.635491  1631 net.cpp:100] Creating Layer relu3_1/x1
I1128 23:39:22.635512  1631 net.cpp:434] relu3_1/x1 <- conv3_1/x1/bn
I1128 23:39:22.635538  1631 net.cpp:395] relu3_1/x1 -> conv3_1/x1/bn (in-place)
I1128 23:39:22.635891  1631 net.cpp:150] Setting up relu3_1/x1
I1128 23:39:22.635926  1631 net.cpp:157] Top shape: 16 128 29 29 (1722368)
I1128 23:39:22.635942  1631 net.cpp:165] Memory required for data: 2252677184
I1128 23:39:22.635960  1631 layer_factory.hpp:77] Creating layer conv3_1/x1
I1128 23:39:22.635983  1631 net.cpp:100] Creating Layer conv3_1/x1
I1128 23:39:22.636003  1631 net.cpp:434] conv3_1/x1 <- conv3_1/x1/bn
I1128 23:39:22.636024  1631 net.cpp:408] conv3_1/x1 -> conv3_1/x1
I1128 23:39:22.638561  1631 net.cpp:150] Setting up conv3_1/x1
I1128 23:39:22.638612  1631 net.cpp:157] Top shape: 16 128 29 29 (1722368)
I1128 23:39:22.638633  1631 net.cpp:165] Memory required for data: 2259566656
I1128 23:39:22.638676  1631 layer_factory.hpp:77] Creating layer conv3_1/x2/bn
I1128 23:39:22.638702  1631 net.cpp:100] Creating Layer conv3_1/x2/bn
I1128 23:39:22.638720  1631 net.cpp:434] conv3_1/x2/bn <- conv3_1/x1
I1128 23:39:22.638756  1631 net.cpp:408] conv3_1/x2/bn -> conv3_1/x2/bn
I1128 23:39:22.639099  1631 net.cpp:150] Setting up conv3_1/x2/bn
I1128 23:39:22.639139  1631 net.cpp:157] Top shape: 16 128 29 29 (1722368)
I1128 23:39:22.639155  1631 net.cpp:165] Memory required for data: 2266456128
I1128 23:39:22.639179  1631 layer_factory.hpp:77] Creating layer conv3_1/x2/scale
I1128 23:39:22.639200  1631 net.cpp:100] Creating Layer conv3_1/x2/scale
I1128 23:39:22.639217  1631 net.cpp:434] conv3_1/x2/scale <- conv3_1/x2/bn
I1128 23:39:22.639248  1631 net.cpp:395] conv3_1/x2/scale -> conv3_1/x2/bn (in-place)
I1128 23:39:22.639384  1631 layer_factory.hpp:77] Creating layer conv3_1/x2/scale
I1128 23:39:22.639595  1631 net.cpp:150] Setting up conv3_1/x2/scale
I1128 23:39:22.639621  1631 net.cpp:157] Top shape: 16 128 29 29 (1722368)
I1128 23:39:22.639637  1631 net.cpp:165] Memory required for data: 2273345600
I1128 23:39:22.639659  1631 layer_factory.hpp:77] Creating layer relu3_1/x2
I1128 23:39:22.639679  1631 net.cpp:100] Creating Layer relu3_1/x2
I1128 23:39:22.639696  1631 net.cpp:434] relu3_1/x2 <- conv3_1/x2/bn
I1128 23:39:22.639715  1631 net.cpp:395] relu3_1/x2 -> conv3_1/x2/bn (in-place)
I1128 23:39:22.640024  1631 net.cpp:150] Setting up relu3_1/x2
I1128 23:39:22.640055  1631 net.cpp:157] Top shape: 16 128 29 29 (1722368)
I1128 23:39:22.640071  1631 net.cpp:165] Memory required for data: 2280235072
I1128 23:39:22.640087  1631 layer_factory.hpp:77] Creating layer conv3_1/x2
I1128 23:39:22.640118  1631 net.cpp:100] Creating Layer conv3_1/x2
I1128 23:39:22.640138  1631 net.cpp:434] conv3_1/x2 <- conv3_1/x2/bn
I1128 23:39:22.640166  1631 net.cpp:408] conv3_1/x2 -> conv3_1/x2
I1128 23:39:22.642570  1631 net.cpp:150] Setting up conv3_1/x2
I1128 23:39:22.642611  1631 net.cpp:157] Top shape: 16 32 29 29 (430592)
I1128 23:39:22.642629  1631 net.cpp:165] Memory required for data: 2281957440
I1128 23:39:22.642650  1631 layer_factory.hpp:77] Creating layer concat_3_1
I1128 23:39:22.642679  1631 net.cpp:100] Creating Layer concat_3_1
I1128 23:39:22.642699  1631 net.cpp:434] concat_3_1 <- pool2_6_pool2_6_0_split_1
I1128 23:39:22.642719  1631 net.cpp:434] concat_3_1 <- conv3_1/x2
I1128 23:39:22.642750  1631 net.cpp:408] concat_3_1 -> concat_3_1
I1128 23:39:22.642823  1631 net.cpp:150] Setting up concat_3_1
I1128 23:39:22.642848  1631 net.cpp:157] Top shape: 16 160 29 29 (2152960)
I1128 23:39:22.642864  1631 net.cpp:165] Memory required for data: 2290569280
I1128 23:39:22.642880  1631 layer_factory.hpp:77] Creating layer concat_3_1_concat_3_1_0_split
I1128 23:39:22.642900  1631 net.cpp:100] Creating Layer concat_3_1_concat_3_1_0_split
I1128 23:39:22.642917  1631 net.cpp:434] concat_3_1_concat_3_1_0_split <- concat_3_1
I1128 23:39:22.642946  1631 net.cpp:408] concat_3_1_concat_3_1_0_split -> concat_3_1_concat_3_1_0_split_0
I1128 23:39:22.642971  1631 net.cpp:408] concat_3_1_concat_3_1_0_split -> concat_3_1_concat_3_1_0_split_1
I1128 23:39:22.643059  1631 net.cpp:150] Setting up concat_3_1_concat_3_1_0_split
I1128 23:39:22.643085  1631 net.cpp:157] Top shape: 16 160 29 29 (2152960)
I1128 23:39:22.643101  1631 net.cpp:157] Top shape: 16 160 29 29 (2152960)
I1128 23:39:22.643116  1631 net.cpp:165] Memory required for data: 2307792960
I1128 23:39:22.643132  1631 layer_factory.hpp:77] Creating layer conv3_2/x1/bn
I1128 23:39:22.643152  1631 net.cpp:100] Creating Layer conv3_2/x1/bn
I1128 23:39:22.643178  1631 net.cpp:434] conv3_2/x1/bn <- concat_3_1_concat_3_1_0_split_0
I1128 23:39:22.643199  1631 net.cpp:408] conv3_2/x1/bn -> conv3_2/x1/bn
I1128 23:39:22.643550  1631 net.cpp:150] Setting up conv3_2/x1/bn
I1128 23:39:22.643599  1631 net.cpp:157] Top shape: 16 160 29 29 (2152960)
I1128 23:39:22.643617  1631 net.cpp:165] Memory required for data: 2316404800
I1128 23:39:22.643641  1631 layer_factory.hpp:77] Creating layer conv3_2/x1/scale
I1128 23:39:22.643679  1631 net.cpp:100] Creating Layer conv3_2/x1/scale
I1128 23:39:22.643697  1631 net.cpp:434] conv3_2/x1/scale <- conv3_2/x1/bn
I1128 23:39:22.643724  1631 net.cpp:395] conv3_2/x1/scale -> conv3_2/x1/bn (in-place)
I1128 23:39:22.643827  1631 layer_factory.hpp:77] Creating layer conv3_2/x1/scale
I1128 23:39:22.644044  1631 net.cpp:150] Setting up conv3_2/x1/scale
I1128 23:39:22.644071  1631 net.cpp:157] Top shape: 16 160 29 29 (2152960)
I1128 23:39:22.644088  1631 net.cpp:165] Memory required for data: 2325016640
I1128 23:39:22.644109  1631 layer_factory.hpp:77] Creating layer relu3_2/x1
I1128 23:39:22.644129  1631 net.cpp:100] Creating Layer relu3_2/x1
I1128 23:39:22.644145  1631 net.cpp:434] relu3_2/x1 <- conv3_2/x1/bn
I1128 23:39:22.644172  1631 net.cpp:395] relu3_2/x1 -> conv3_2/x1/bn (in-place)
I1128 23:39:22.644470  1631 net.cpp:150] Setting up relu3_2/x1
I1128 23:39:22.644501  1631 net.cpp:157] Top shape: 16 160 29 29 (2152960)
I1128 23:39:22.644517  1631 net.cpp:165] Memory required for data: 2333628480
I1128 23:39:22.644533  1631 layer_factory.hpp:77] Creating layer conv3_2/x1
I1128 23:39:22.644562  1631 net.cpp:100] Creating Layer conv3_2/x1
I1128 23:39:22.644582  1631 net.cpp:434] conv3_2/x1 <- conv3_2/x1/bn
I1128 23:39:22.644609  1631 net.cpp:408] conv3_2/x1 -> conv3_2/x1
I1128 23:39:22.647028  1631 net.cpp:150] Setting up conv3_2/x1
I1128 23:39:22.647071  1631 net.cpp:157] Top shape: 16 128 29 29 (1722368)
I1128 23:39:22.647089  1631 net.cpp:165] Memory required for data: 2340517952
I1128 23:39:22.647109  1631 layer_factory.hpp:77] Creating layer conv3_2/x2/bn
I1128 23:39:22.647138  1631 net.cpp:100] Creating Layer conv3_2/x2/bn
I1128 23:39:22.647159  1631 net.cpp:434] conv3_2/x2/bn <- conv3_2/x1
I1128 23:39:22.647187  1631 net.cpp:408] conv3_2/x2/bn -> conv3_2/x2/bn
I1128 23:39:22.647552  1631 net.cpp:150] Setting up conv3_2/x2/bn
I1128 23:39:22.647585  1631 net.cpp:157] Top shape: 16 128 29 29 (1722368)
I1128 23:39:22.647601  1631 net.cpp:165] Memory required for data: 2347407424
I1128 23:39:22.647625  1631 layer_factory.hpp:77] Creating layer conv3_2/x2/scale
I1128 23:39:22.647647  1631 net.cpp:100] Creating Layer conv3_2/x2/scale
I1128 23:39:22.647665  1631 net.cpp:434] conv3_2/x2/scale <- conv3_2/x2/bn
I1128 23:39:22.647683  1631 net.cpp:395] conv3_2/x2/scale -> conv3_2/x2/bn (in-place)
I1128 23:39:22.647790  1631 layer_factory.hpp:77] Creating layer conv3_2/x2/scale
I1128 23:39:22.647999  1631 net.cpp:150] Setting up conv3_2/x2/scale
I1128 23:39:22.648025  1631 net.cpp:157] Top shape: 16 128 29 29 (1722368)
I1128 23:39:22.648041  1631 net.cpp:165] Memory required for data: 2354296896
I1128 23:39:22.648062  1631 layer_factory.hpp:77] Creating layer relu3_2/x2
I1128 23:39:22.648082  1631 net.cpp:100] Creating Layer relu3_2/x2
I1128 23:39:22.648100  1631 net.cpp:434] relu3_2/x2 <- conv3_2/x2/bn
I1128 23:39:22.648128  1631 net.cpp:395] relu3_2/x2 -> conv3_2/x2/bn (in-place)
I1128 23:39:22.649632  1631 net.cpp:150] Setting up relu3_2/x2
I1128 23:39:22.649672  1631 net.cpp:157] Top shape: 16 128 29 29 (1722368)
I1128 23:39:22.649688  1631 net.cpp:165] Memory required for data: 2361186368
I1128 23:39:22.649704  1631 layer_factory.hpp:77] Creating layer conv3_2/x2
I1128 23:39:22.649744  1631 net.cpp:100] Creating Layer conv3_2/x2
I1128 23:39:22.649766  1631 net.cpp:434] conv3_2/x2 <- conv3_2/x2/bn
I1128 23:39:22.649794  1631 net.cpp:408] conv3_2/x2 -> conv3_2/x2
I1128 23:39:22.652112  1631 net.cpp:150] Setting up conv3_2/x2
I1128 23:39:22.652151  1631 net.cpp:157] Top shape: 16 32 29 29 (430592)
I1128 23:39:22.652169  1631 net.cpp:165] Memory required for data: 2362908736
I1128 23:39:22.652189  1631 layer_factory.hpp:77] Creating layer concat_3_2
I1128 23:39:22.652209  1631 net.cpp:100] Creating Layer concat_3_2
I1128 23:39:22.652226  1631 net.cpp:434] concat_3_2 <- concat_3_1_concat_3_1_0_split_1
I1128 23:39:22.652256  1631 net.cpp:434] concat_3_2 <- conv3_2/x2
I1128 23:39:22.652281  1631 net.cpp:408] concat_3_2 -> concat_3_2
I1128 23:39:22.652353  1631 net.cpp:150] Setting up concat_3_2
I1128 23:39:22.652376  1631 net.cpp:157] Top shape: 16 192 29 29 (2583552)
I1128 23:39:22.652390  1631 net.cpp:165] Memory required for data: 2373242944
I1128 23:39:22.652406  1631 layer_factory.hpp:77] Creating layer concat_3_2_concat_3_2_0_split
I1128 23:39:22.652427  1631 net.cpp:100] Creating Layer concat_3_2_concat_3_2_0_split
I1128 23:39:22.652444  1631 net.cpp:434] concat_3_2_concat_3_2_0_split <- concat_3_2
I1128 23:39:22.652463  1631 net.cpp:408] concat_3_2_concat_3_2_0_split -> concat_3_2_concat_3_2_0_split_0
I1128 23:39:22.652494  1631 net.cpp:408] concat_3_2_concat_3_2_0_split -> concat_3_2_concat_3_2_0_split_1
I1128 23:39:22.652571  1631 net.cpp:150] Setting up concat_3_2_concat_3_2_0_split
I1128 23:39:22.652595  1631 net.cpp:157] Top shape: 16 192 29 29 (2583552)
I1128 23:39:22.652611  1631 net.cpp:157] Top shape: 16 192 29 29 (2583552)
I1128 23:39:22.652626  1631 net.cpp:165] Memory required for data: 2393911360
I1128 23:39:22.652642  1631 layer_factory.hpp:77] Creating layer conv3_3/x1/bn
I1128 23:39:22.652663  1631 net.cpp:100] Creating Layer conv3_3/x1/bn
I1128 23:39:22.652680  1631 net.cpp:434] conv3_3/x1/bn <- concat_3_2_concat_3_2_0_split_0
I1128 23:39:22.652699  1631 net.cpp:408] conv3_3/x1/bn -> conv3_3/x1/bn
I1128 23:39:22.653002  1631 net.cpp:150] Setting up conv3_3/x1/bn
I1128 23:39:22.653028  1631 net.cpp:157] Top shape: 16 192 29 29 (2583552)
I1128 23:39:22.653044  1631 net.cpp:165] Memory required for data: 2404245568
I1128 23:39:22.653066  1631 layer_factory.hpp:77] Creating layer conv3_3/x1/scale
I1128 23:39:22.653086  1631 net.cpp:100] Creating Layer conv3_3/x1/scale
I1128 23:39:22.653102  1631 net.cpp:434] conv3_3/x1/scale <- conv3_3/x1/bn
I1128 23:39:22.653121  1631 net.cpp:395] conv3_3/x1/scale -> conv3_3/x1/bn (in-place)
I1128 23:39:22.653203  1631 layer_factory.hpp:77] Creating layer conv3_3/x1/scale
I1128 23:39:22.653384  1631 net.cpp:150] Setting up conv3_3/x1/scale
I1128 23:39:22.653411  1631 net.cpp:157] Top shape: 16 192 29 29 (2583552)
I1128 23:39:22.653426  1631 net.cpp:165] Memory required for data: 2414579776
I1128 23:39:22.653446  1631 layer_factory.hpp:77] Creating layer relu3_3/x1
I1128 23:39:22.653466  1631 net.cpp:100] Creating Layer relu3_3/x1
I1128 23:39:22.653482  1631 net.cpp:434] relu3_3/x1 <- conv3_3/x1/bn
I1128 23:39:22.653501  1631 net.cpp:395] relu3_3/x1 -> conv3_3/x1/bn (in-place)
I1128 23:39:22.654925  1631 net.cpp:150] Setting up relu3_3/x1
I1128 23:39:22.654964  1631 net.cpp:157] Top shape: 16 192 29 29 (2583552)
I1128 23:39:22.654980  1631 net.cpp:165] Memory required for data: 2424913984
I1128 23:39:22.654996  1631 layer_factory.hpp:77] Creating layer conv3_3/x1
I1128 23:39:22.655021  1631 net.cpp:100] Creating Layer conv3_3/x1
I1128 23:39:22.655041  1631 net.cpp:434] conv3_3/x1 <- conv3_3/x1/bn
I1128 23:39:22.655061  1631 net.cpp:408] conv3_3/x1 -> conv3_3/x1
I1128 23:39:22.657346  1631 net.cpp:150] Setting up conv3_3/x1
I1128 23:39:22.657387  1631 net.cpp:157] Top shape: 16 128 29 29 (1722368)
I1128 23:39:22.657404  1631 net.cpp:165] Memory required for data: 2431803456
I1128 23:39:22.657424  1631 layer_factory.hpp:77] Creating layer conv3_3/x2/bn
I1128 23:39:22.657449  1631 net.cpp:100] Creating Layer conv3_3/x2/bn
I1128 23:39:22.657467  1631 net.cpp:434] conv3_3/x2/bn <- conv3_3/x1
I1128 23:39:22.657487  1631 net.cpp:408] conv3_3/x2/bn -> conv3_3/x2/bn
I1128 23:39:22.657789  1631 net.cpp:150] Setting up conv3_3/x2/bn
I1128 23:39:22.657816  1631 net.cpp:157] Top shape: 16 128 29 29 (1722368)
I1128 23:39:22.657831  1631 net.cpp:165] Memory required for data: 2438692928
I1128 23:39:22.657855  1631 layer_factory.hpp:77] Creating layer conv3_3/x2/scale
I1128 23:39:22.657874  1631 net.cpp:100] Creating Layer conv3_3/x2/scale
I1128 23:39:22.657891  1631 net.cpp:434] conv3_3/x2/scale <- conv3_3/x2/bn
I1128 23:39:22.657912  1631 net.cpp:395] conv3_3/x2/scale -> conv3_3/x2/bn (in-place)
I1128 23:39:22.658006  1631 layer_factory.hpp:77] Creating layer conv3_3/x2/scale
I1128 23:39:22.658179  1631 net.cpp:150] Setting up conv3_3/x2/scale
I1128 23:39:22.658213  1631 net.cpp:157] Top shape: 16 128 29 29 (1722368)
I1128 23:39:22.658229  1631 net.cpp:165] Memory required for data: 2445582400
I1128 23:39:22.658249  1631 layer_factory.hpp:77] Creating layer relu3_3/x2
I1128 23:39:22.658272  1631 net.cpp:100] Creating Layer relu3_3/x2
I1128 23:39:22.658288  1631 net.cpp:434] relu3_3/x2 <- conv3_3/x2/bn
I1128 23:39:22.658306  1631 net.cpp:395] relu3_3/x2 -> conv3_3/x2/bn (in-place)
I1128 23:39:22.658576  1631 net.cpp:150] Setting up relu3_3/x2
I1128 23:39:22.658603  1631 net.cpp:157] Top shape: 16 128 29 29 (1722368)
I1128 23:39:22.658619  1631 net.cpp:165] Memory required for data: 2452471872
I1128 23:39:22.658634  1631 layer_factory.hpp:77] Creating layer conv3_3/x2
I1128 23:39:22.658656  1631 net.cpp:100] Creating Layer conv3_3/x2
I1128 23:39:22.658674  1631 net.cpp:434] conv3_3/x2 <- conv3_3/x2/bn
I1128 23:39:22.658695  1631 net.cpp:408] conv3_3/x2 -> conv3_3/x2
I1128 23:39:22.660817  1631 net.cpp:150] Setting up conv3_3/x2
I1128 23:39:22.660859  1631 net.cpp:157] Top shape: 16 32 29 29 (430592)
I1128 23:39:22.660876  1631 net.cpp:165] Memory required for data: 2454194240
I1128 23:39:22.660895  1631 layer_factory.hpp:77] Creating layer concat_3_3
I1128 23:39:22.660915  1631 net.cpp:100] Creating Layer concat_3_3
I1128 23:39:22.660933  1631 net.cpp:434] concat_3_3 <- concat_3_2_concat_3_2_0_split_1
I1128 23:39:22.660950  1631 net.cpp:434] concat_3_3 <- conv3_3/x2
I1128 23:39:22.660971  1631 net.cpp:408] concat_3_3 -> concat_3_3
I1128 23:39:22.661031  1631 net.cpp:150] Setting up concat_3_3
I1128 23:39:22.661057  1631 net.cpp:157] Top shape: 16 224 29 29 (3014144)
I1128 23:39:22.661072  1631 net.cpp:165] Memory required for data: 2466250816
I1128 23:39:22.661087  1631 layer_factory.hpp:77] Creating layer concat_3_3_concat_3_3_0_split
I1128 23:39:22.661105  1631 net.cpp:100] Creating Layer concat_3_3_concat_3_3_0_split
I1128 23:39:22.661121  1631 net.cpp:434] concat_3_3_concat_3_3_0_split <- concat_3_3
I1128 23:39:22.661139  1631 net.cpp:408] concat_3_3_concat_3_3_0_split -> concat_3_3_concat_3_3_0_split_0
I1128 23:39:22.661159  1631 net.cpp:408] concat_3_3_concat_3_3_0_split -> concat_3_3_concat_3_3_0_split_1
I1128 23:39:22.661231  1631 net.cpp:150] Setting up concat_3_3_concat_3_3_0_split
I1128 23:39:22.661253  1631 net.cpp:157] Top shape: 16 224 29 29 (3014144)
I1128 23:39:22.661268  1631 net.cpp:157] Top shape: 16 224 29 29 (3014144)
I1128 23:39:22.661283  1631 net.cpp:165] Memory required for data: 2490363968
I1128 23:39:22.661298  1631 layer_factory.hpp:77] Creating layer conv3_4/x1/bn
I1128 23:39:22.661317  1631 net.cpp:100] Creating Layer conv3_4/x1/bn
I1128 23:39:22.661334  1631 net.cpp:434] conv3_4/x1/bn <- concat_3_3_concat_3_3_0_split_0
I1128 23:39:22.661352  1631 net.cpp:408] conv3_4/x1/bn -> conv3_4/x1/bn
I1128 23:39:22.661629  1631 net.cpp:150] Setting up conv3_4/x1/bn
I1128 23:39:22.661653  1631 net.cpp:157] Top shape: 16 224 29 29 (3014144)
I1128 23:39:22.661667  1631 net.cpp:165] Memory required for data: 2502420544
I1128 23:39:22.661689  1631 layer_factory.hpp:77] Creating layer conv3_4/x1/scale
I1128 23:39:22.661707  1631 net.cpp:100] Creating Layer conv3_4/x1/scale
I1128 23:39:22.661723  1631 net.cpp:434] conv3_4/x1/scale <- conv3_4/x1/bn
I1128 23:39:22.661751  1631 net.cpp:395] conv3_4/x1/scale -> conv3_4/x1/bn (in-place)
I1128 23:39:22.661834  1631 layer_factory.hpp:77] Creating layer conv3_4/x1/scale
I1128 23:39:22.662014  1631 net.cpp:150] Setting up conv3_4/x1/scale
I1128 23:39:22.662040  1631 net.cpp:157] Top shape: 16 224 29 29 (3014144)
I1128 23:39:22.662055  1631 net.cpp:165] Memory required for data: 2514477120
I1128 23:39:22.662073  1631 layer_factory.hpp:77] Creating layer relu3_4/x1
I1128 23:39:22.662092  1631 net.cpp:100] Creating Layer relu3_4/x1
I1128 23:39:22.662108  1631 net.cpp:434] relu3_4/x1 <- conv3_4/x1/bn
I1128 23:39:22.662137  1631 net.cpp:395] relu3_4/x1 -> conv3_4/x1/bn (in-place)
I1128 23:39:22.662394  1631 net.cpp:150] Setting up relu3_4/x1
I1128 23:39:22.662421  1631 net.cpp:157] Top shape: 16 224 29 29 (3014144)
I1128 23:39:22.662447  1631 net.cpp:165] Memory required for data: 2526533696
I1128 23:39:22.662463  1631 layer_factory.hpp:77] Creating layer conv3_4/x1
I1128 23:39:22.662484  1631 net.cpp:100] Creating Layer conv3_4/x1
I1128 23:39:22.662500  1631 net.cpp:434] conv3_4/x1 <- conv3_4/x1/bn
I1128 23:39:22.662521  1631 net.cpp:408] conv3_4/x1 -> conv3_4/x1
I1128 23:39:22.664672  1631 net.cpp:150] Setting up conv3_4/x1
I1128 23:39:22.664714  1631 net.cpp:157] Top shape: 16 128 29 29 (1722368)
I1128 23:39:22.664731  1631 net.cpp:165] Memory required for data: 2533423168
I1128 23:39:22.664762  1631 layer_factory.hpp:77] Creating layer conv3_4/x2/bn
I1128 23:39:22.664786  1631 net.cpp:100] Creating Layer conv3_4/x2/bn
I1128 23:39:22.664804  1631 net.cpp:434] conv3_4/x2/bn <- conv3_4/x1
I1128 23:39:22.664824  1631 net.cpp:408] conv3_4/x2/bn -> conv3_4/x2/bn
I1128 23:39:22.665104  1631 net.cpp:150] Setting up conv3_4/x2/bn
I1128 23:39:22.665129  1631 net.cpp:157] Top shape: 16 128 29 29 (1722368)
I1128 23:39:22.665143  1631 net.cpp:165] Memory required for data: 2540312640
I1128 23:39:22.665186  1631 layer_factory.hpp:77] Creating layer conv3_4/x2/scale
I1128 23:39:22.665208  1631 net.cpp:100] Creating Layer conv3_4/x2/scale
I1128 23:39:22.665225  1631 net.cpp:434] conv3_4/x2/scale <- conv3_4/x2/bn
I1128 23:39:22.665243  1631 net.cpp:395] conv3_4/x2/scale -> conv3_4/x2/bn (in-place)
I1128 23:39:22.665324  1631 layer_factory.hpp:77] Creating layer conv3_4/x2/scale
I1128 23:39:22.665493  1631 net.cpp:150] Setting up conv3_4/x2/scale
I1128 23:39:22.665518  1631 net.cpp:157] Top shape: 16 128 29 29 (1722368)
I1128 23:39:22.665532  1631 net.cpp:165] Memory required for data: 2547202112
I1128 23:39:22.665551  1631 layer_factory.hpp:77] Creating layer relu3_4/x2
I1128 23:39:22.665570  1631 net.cpp:100] Creating Layer relu3_4/x2
I1128 23:39:22.665585  1631 net.cpp:434] relu3_4/x2 <- conv3_4/x2/bn
I1128 23:39:22.665606  1631 net.cpp:395] relu3_4/x2 -> conv3_4/x2/bn (in-place)
I1128 23:39:22.665875  1631 net.cpp:150] Setting up relu3_4/x2
I1128 23:39:22.665905  1631 net.cpp:157] Top shape: 16 128 29 29 (1722368)
I1128 23:39:22.665920  1631 net.cpp:165] Memory required for data: 2554091584
I1128 23:39:22.665935  1631 layer_factory.hpp:77] Creating layer conv3_4/x2
I1128 23:39:22.665959  1631 net.cpp:100] Creating Layer conv3_4/x2
I1128 23:39:22.665977  1631 net.cpp:434] conv3_4/x2 <- conv3_4/x2/bn
I1128 23:39:22.666018  1631 net.cpp:408] conv3_4/x2 -> conv3_4/x2
I1128 23:39:22.671450  1631 net.cpp:150] Setting up conv3_4/x2
I1128 23:39:22.671490  1631 net.cpp:157] Top shape: 16 32 29 29 (430592)
I1128 23:39:22.671507  1631 net.cpp:165] Memory required for data: 2555813952
I1128 23:39:22.671527  1631 layer_factory.hpp:77] Creating layer concat_3_4
I1128 23:39:22.671560  1631 net.cpp:100] Creating Layer concat_3_4
I1128 23:39:22.671581  1631 net.cpp:434] concat_3_4 <- concat_3_3_concat_3_3_0_split_1
I1128 23:39:22.671600  1631 net.cpp:434] concat_3_4 <- conv3_4/x2
I1128 23:39:22.671619  1631 net.cpp:408] concat_3_4 -> concat_3_4
I1128 23:39:22.671682  1631 net.cpp:150] Setting up concat_3_4
I1128 23:39:22.671705  1631 net.cpp:157] Top shape: 16 256 29 29 (3444736)
I1128 23:39:22.671720  1631 net.cpp:165] Memory required for data: 2569592896
I1128 23:39:22.671743  1631 layer_factory.hpp:77] Creating layer concat_3_4_concat_3_4_0_split
I1128 23:39:22.671772  1631 net.cpp:100] Creating Layer concat_3_4_concat_3_4_0_split
I1128 23:39:22.671792  1631 net.cpp:434] concat_3_4_concat_3_4_0_split <- concat_3_4
I1128 23:39:22.671815  1631 net.cpp:408] concat_3_4_concat_3_4_0_split -> concat_3_4_concat_3_4_0_split_0
I1128 23:39:22.671839  1631 net.cpp:408] concat_3_4_concat_3_4_0_split -> concat_3_4_concat_3_4_0_split_1
I1128 23:39:22.671921  1631 net.cpp:150] Setting up concat_3_4_concat_3_4_0_split
I1128 23:39:22.671944  1631 net.cpp:157] Top shape: 16 256 29 29 (3444736)
I1128 23:39:22.671980  1631 net.cpp:157] Top shape: 16 256 29 29 (3444736)
I1128 23:39:22.671996  1631 net.cpp:165] Memory required for data: 2597150784
I1128 23:39:22.672025  1631 layer_factory.hpp:77] Creating layer conv3_5/x1/bn
I1128 23:39:22.672052  1631 net.cpp:100] Creating Layer conv3_5/x1/bn
I1128 23:39:22.672070  1631 net.cpp:434] conv3_5/x1/bn <- concat_3_4_concat_3_4_0_split_0
I1128 23:39:22.672088  1631 net.cpp:408] conv3_5/x1/bn -> conv3_5/x1/bn
I1128 23:39:22.672389  1631 net.cpp:150] Setting up conv3_5/x1/bn
I1128 23:39:22.672417  1631 net.cpp:157] Top shape: 16 256 29 29 (3444736)
I1128 23:39:22.672431  1631 net.cpp:165] Memory required for data: 2610929728
I1128 23:39:22.672453  1631 layer_factory.hpp:77] Creating layer conv3_5/x1/scale
I1128 23:39:22.672473  1631 net.cpp:100] Creating Layer conv3_5/x1/scale
I1128 23:39:22.672489  1631 net.cpp:434] conv3_5/x1/scale <- conv3_5/x1/bn
I1128 23:39:22.672516  1631 net.cpp:395] conv3_5/x1/scale -> conv3_5/x1/bn (in-place)
I1128 23:39:22.672607  1631 layer_factory.hpp:77] Creating layer conv3_5/x1/scale
I1128 23:39:22.672811  1631 net.cpp:150] Setting up conv3_5/x1/scale
I1128 23:39:22.672842  1631 net.cpp:157] Top shape: 16 256 29 29 (3444736)
I1128 23:39:22.672857  1631 net.cpp:165] Memory required for data: 2624708672
I1128 23:39:22.672878  1631 layer_factory.hpp:77] Creating layer relu3_5/x1
I1128 23:39:22.672897  1631 net.cpp:100] Creating Layer relu3_5/x1
I1128 23:39:22.672914  1631 net.cpp:434] relu3_5/x1 <- conv3_5/x1/bn
I1128 23:39:22.672930  1631 net.cpp:395] relu3_5/x1 -> conv3_5/x1/bn (in-place)
I1128 23:39:22.673215  1631 net.cpp:150] Setting up relu3_5/x1
I1128 23:39:22.673244  1631 net.cpp:157] Top shape: 16 256 29 29 (3444736)
I1128 23:39:22.673259  1631 net.cpp:165] Memory required for data: 2638487616
I1128 23:39:22.673274  1631 layer_factory.hpp:77] Creating layer conv3_5/x1
I1128 23:39:22.673295  1631 net.cpp:100] Creating Layer conv3_5/x1
I1128 23:39:22.673311  1631 net.cpp:434] conv3_5/x1 <- conv3_5/x1/bn
I1128 23:39:22.673338  1631 net.cpp:408] conv3_5/x1 -> conv3_5/x1
I1128 23:39:22.675619  1631 net.cpp:150] Setting up conv3_5/x1
I1128 23:39:22.675662  1631 net.cpp:157] Top shape: 16 128 29 29 (1722368)
I1128 23:39:22.675678  1631 net.cpp:165] Memory required for data: 2645377088
I1128 23:39:22.675696  1631 layer_factory.hpp:77] Creating layer conv3_5/x2/bn
I1128 23:39:22.675725  1631 net.cpp:100] Creating Layer conv3_5/x2/bn
I1128 23:39:22.675755  1631 net.cpp:434] conv3_5/x2/bn <- conv3_5/x1
I1128 23:39:22.675776  1631 net.cpp:408] conv3_5/x2/bn -> conv3_5/x2/bn
I1128 23:39:22.676095  1631 net.cpp:150] Setting up conv3_5/x2/bn
I1128 23:39:22.676122  1631 net.cpp:157] Top shape: 16 128 29 29 (1722368)
I1128 23:39:22.676136  1631 net.cpp:165] Memory required for data: 2652266560
I1128 23:39:22.676167  1631 layer_factory.hpp:77] Creating layer conv3_5/x2/scale
I1128 23:39:22.676190  1631 net.cpp:100] Creating Layer conv3_5/x2/scale
I1128 23:39:22.676206  1631 net.cpp:434] conv3_5/x2/scale <- conv3_5/x2/bn
I1128 23:39:22.676224  1631 net.cpp:395] conv3_5/x2/scale -> conv3_5/x2/bn (in-place)
I1128 23:39:22.676311  1631 layer_factory.hpp:77] Creating layer conv3_5/x2/scale
I1128 23:39:22.676527  1631 net.cpp:150] Setting up conv3_5/x2/scale
I1128 23:39:22.676554  1631 net.cpp:157] Top shape: 16 128 29 29 (1722368)
I1128 23:39:22.676568  1631 net.cpp:165] Memory required for data: 2659156032
I1128 23:39:22.676587  1631 layer_factory.hpp:77] Creating layer relu3_5/x2
I1128 23:39:22.676614  1631 net.cpp:100] Creating Layer relu3_5/x2
I1128 23:39:22.676631  1631 net.cpp:434] relu3_5/x2 <- conv3_5/x2/bn
I1128 23:39:22.676650  1631 net.cpp:395] relu3_5/x2 -> conv3_5/x2/bn (in-place)
I1128 23:39:22.678055  1631 net.cpp:150] Setting up relu3_5/x2
I1128 23:39:22.678094  1631 net.cpp:157] Top shape: 16 128 29 29 (1722368)
I1128 23:39:22.678110  1631 net.cpp:165] Memory required for data: 2666045504
I1128 23:39:22.678127  1631 layer_factory.hpp:77] Creating layer conv3_5/x2
I1128 23:39:22.678155  1631 net.cpp:100] Creating Layer conv3_5/x2
I1128 23:39:22.678191  1631 net.cpp:434] conv3_5/x2 <- conv3_5/x2/bn
I1128 23:39:22.678213  1631 net.cpp:408] conv3_5/x2 -> conv3_5/x2
I1128 23:39:22.679363  1631 net.cpp:150] Setting up conv3_5/x2
I1128 23:39:22.679426  1631 net.cpp:157] Top shape: 16 32 29 29 (430592)
I1128 23:39:22.679446  1631 net.cpp:165] Memory required for data: 2667767872
I1128 23:39:22.679466  1631 layer_factory.hpp:77] Creating layer concat_3_5
I1128 23:39:22.679486  1631 net.cpp:100] Creating Layer concat_3_5
I1128 23:39:22.679502  1631 net.cpp:434] concat_3_5 <- concat_3_4_concat_3_4_0_split_1
I1128 23:39:22.679522  1631 net.cpp:434] concat_3_5 <- conv3_5/x2
I1128 23:39:22.679540  1631 net.cpp:408] concat_3_5 -> concat_3_5
I1128 23:39:22.679611  1631 net.cpp:150] Setting up concat_3_5
I1128 23:39:22.679636  1631 net.cpp:157] Top shape: 16 288 29 29 (3875328)
I1128 23:39:22.679651  1631 net.cpp:165] Memory required for data: 2683269184
I1128 23:39:22.679666  1631 layer_factory.hpp:77] Creating layer concat_3_5_concat_3_5_0_split
I1128 23:39:22.679684  1631 net.cpp:100] Creating Layer concat_3_5_concat_3_5_0_split
I1128 23:39:22.679700  1631 net.cpp:434] concat_3_5_concat_3_5_0_split <- concat_3_5
I1128 23:39:22.679726  1631 net.cpp:408] concat_3_5_concat_3_5_0_split -> concat_3_5_concat_3_5_0_split_0
I1128 23:39:22.679759  1631 net.cpp:408] concat_3_5_concat_3_5_0_split -> concat_3_5_concat_3_5_0_split_1
I1128 23:39:22.679847  1631 net.cpp:150] Setting up concat_3_5_concat_3_5_0_split
I1128 23:39:22.679872  1631 net.cpp:157] Top shape: 16 288 29 29 (3875328)
I1128 23:39:22.679888  1631 net.cpp:157] Top shape: 16 288 29 29 (3875328)
I1128 23:39:22.679901  1631 net.cpp:165] Memory required for data: 2714271808
I1128 23:39:22.679916  1631 layer_factory.hpp:77] Creating layer conv3_6/x1/bn
I1128 23:39:22.679934  1631 net.cpp:100] Creating Layer conv3_6/x1/bn
I1128 23:39:22.679950  1631 net.cpp:434] conv3_6/x1/bn <- concat_3_5_concat_3_5_0_split_0
I1128 23:39:22.679975  1631 net.cpp:408] conv3_6/x1/bn -> conv3_6/x1/bn
I1128 23:39:22.680294  1631 net.cpp:150] Setting up conv3_6/x1/bn
I1128 23:39:22.680320  1631 net.cpp:157] Top shape: 16 288 29 29 (3875328)
I1128 23:39:22.680335  1631 net.cpp:165] Memory required for data: 2729773120
I1128 23:39:22.680362  1631 layer_factory.hpp:77] Creating layer conv3_6/x1/scale
I1128 23:39:22.680384  1631 net.cpp:100] Creating Layer conv3_6/x1/scale
I1128 23:39:22.680400  1631 net.cpp:434] conv3_6/x1/scale <- conv3_6/x1/bn
I1128 23:39:22.680418  1631 net.cpp:395] conv3_6/x1/scale -> conv3_6/x1/bn (in-place)
I1128 23:39:22.680510  1631 layer_factory.hpp:77] Creating layer conv3_6/x1/scale
I1128 23:39:22.680721  1631 net.cpp:150] Setting up conv3_6/x1/scale
I1128 23:39:22.680754  1631 net.cpp:157] Top shape: 16 288 29 29 (3875328)
I1128 23:39:22.680769  1631 net.cpp:165] Memory required for data: 2745274432
I1128 23:39:22.680789  1631 layer_factory.hpp:77] Creating layer relu3_6/x1
I1128 23:39:22.680809  1631 net.cpp:100] Creating Layer relu3_6/x1
I1128 23:39:22.680824  1631 net.cpp:434] relu3_6/x1 <- conv3_6/x1/bn
I1128 23:39:22.680848  1631 net.cpp:395] relu3_6/x1 -> conv3_6/x1/bn (in-place)
I1128 23:39:22.682246  1631 net.cpp:150] Setting up relu3_6/x1
I1128 23:39:22.682286  1631 net.cpp:157] Top shape: 16 288 29 29 (3875328)
I1128 23:39:22.682301  1631 net.cpp:165] Memory required for data: 2760775744
I1128 23:39:22.682317  1631 layer_factory.hpp:77] Creating layer conv3_6/x1
I1128 23:39:22.682346  1631 net.cpp:100] Creating Layer conv3_6/x1
I1128 23:39:22.682366  1631 net.cpp:434] conv3_6/x1 <- conv3_6/x1/bn
I1128 23:39:22.682392  1631 net.cpp:408] conv3_6/x1 -> conv3_6/x1
I1128 23:39:22.684726  1631 net.cpp:150] Setting up conv3_6/x1
I1128 23:39:22.684777  1631 net.cpp:157] Top shape: 16 128 29 29 (1722368)
I1128 23:39:22.684794  1631 net.cpp:165] Memory required for data: 2767665216
I1128 23:39:22.684814  1631 layer_factory.hpp:77] Creating layer conv3_6/x2/bn
I1128 23:39:22.684844  1631 net.cpp:100] Creating Layer conv3_6/x2/bn
I1128 23:39:22.684864  1631 net.cpp:434] conv3_6/x2/bn <- conv3_6/x1
I1128 23:39:22.684906  1631 net.cpp:408] conv3_6/x2/bn -> conv3_6/x2/bn
I1128 23:39:22.685233  1631 net.cpp:150] Setting up conv3_6/x2/bn
I1128 23:39:22.685261  1631 net.cpp:157] Top shape: 16 128 29 29 (1722368)
I1128 23:39:22.685290  1631 net.cpp:165] Memory required for data: 2774554688
I1128 23:39:22.685314  1631 layer_factory.hpp:77] Creating layer conv3_6/x2/scale
I1128 23:39:22.685334  1631 net.cpp:100] Creating Layer conv3_6/x2/scale
I1128 23:39:22.685350  1631 net.cpp:434] conv3_6/x2/scale <- conv3_6/x2/bn
I1128 23:39:22.685369  1631 net.cpp:395] conv3_6/x2/scale -> conv3_6/x2/bn (in-place)
I1128 23:39:22.685462  1631 layer_factory.hpp:77] Creating layer conv3_6/x2/scale
I1128 23:39:22.685659  1631 net.cpp:150] Setting up conv3_6/x2/scale
I1128 23:39:22.685686  1631 net.cpp:157] Top shape: 16 128 29 29 (1722368)
I1128 23:39:22.685700  1631 net.cpp:165] Memory required for data: 2781444160
I1128 23:39:22.685720  1631 layer_factory.hpp:77] Creating layer relu3_6/x2
I1128 23:39:22.685773  1631 net.cpp:100] Creating Layer relu3_6/x2
I1128 23:39:22.685796  1631 net.cpp:434] relu3_6/x2 <- conv3_6/x2/bn
I1128 23:39:22.685814  1631 net.cpp:395] relu3_6/x2 -> conv3_6/x2/bn (in-place)
I1128 23:39:22.686100  1631 net.cpp:150] Setting up relu3_6/x2
I1128 23:39:22.686130  1631 net.cpp:157] Top shape: 16 128 29 29 (1722368)
I1128 23:39:22.686144  1631 net.cpp:165] Memory required for data: 2788333632
I1128 23:39:22.686161  1631 layer_factory.hpp:77] Creating layer conv3_6/x2
I1128 23:39:22.686192  1631 net.cpp:100] Creating Layer conv3_6/x2
I1128 23:39:22.686215  1631 net.cpp:434] conv3_6/x2 <- conv3_6/x2/bn
I1128 23:39:22.686236  1631 net.cpp:408] conv3_6/x2 -> conv3_6/x2
I1128 23:39:22.689658  1631 net.cpp:150] Setting up conv3_6/x2
I1128 23:39:22.689702  1631 net.cpp:157] Top shape: 16 32 29 29 (430592)
I1128 23:39:22.689719  1631 net.cpp:165] Memory required for data: 2790056000
I1128 23:39:22.689745  1631 layer_factory.hpp:77] Creating layer concat_3_6
I1128 23:39:22.689776  1631 net.cpp:100] Creating Layer concat_3_6
I1128 23:39:22.689796  1631 net.cpp:434] concat_3_6 <- concat_3_5_concat_3_5_0_split_1
I1128 23:39:22.689815  1631 net.cpp:434] concat_3_6 <- conv3_6/x2
I1128 23:39:22.689834  1631 net.cpp:408] concat_3_6 -> concat_3_6
I1128 23:39:22.689910  1631 net.cpp:150] Setting up concat_3_6
I1128 23:39:22.689935  1631 net.cpp:157] Top shape: 16 320 29 29 (4305920)
I1128 23:39:22.689949  1631 net.cpp:165] Memory required for data: 2807279680
I1128 23:39:22.689965  1631 layer_factory.hpp:77] Creating layer concat_3_6_concat_3_6_0_split
I1128 23:39:22.689983  1631 net.cpp:100] Creating Layer concat_3_6_concat_3_6_0_split
I1128 23:39:22.689999  1631 net.cpp:434] concat_3_6_concat_3_6_0_split <- concat_3_6
I1128 23:39:22.690024  1631 net.cpp:408] concat_3_6_concat_3_6_0_split -> concat_3_6_concat_3_6_0_split_0
I1128 23:39:22.690048  1631 net.cpp:408] concat_3_6_concat_3_6_0_split -> concat_3_6_concat_3_6_0_split_1
I1128 23:39:22.690130  1631 net.cpp:150] Setting up concat_3_6_concat_3_6_0_split
I1128 23:39:22.690155  1631 net.cpp:157] Top shape: 16 320 29 29 (4305920)
I1128 23:39:22.690171  1631 net.cpp:157] Top shape: 16 320 29 29 (4305920)
I1128 23:39:22.690186  1631 net.cpp:165] Memory required for data: 2841727040
I1128 23:39:22.690201  1631 layer_factory.hpp:77] Creating layer conv3_7/x1/bn
I1128 23:39:22.690227  1631 net.cpp:100] Creating Layer conv3_7/x1/bn
I1128 23:39:22.690245  1631 net.cpp:434] conv3_7/x1/bn <- concat_3_6_concat_3_6_0_split_0
I1128 23:39:22.690270  1631 net.cpp:408] conv3_7/x1/bn -> conv3_7/x1/bn
I1128 23:39:22.690589  1631 net.cpp:150] Setting up conv3_7/x1/bn
I1128 23:39:22.690618  1631 net.cpp:157] Top shape: 16 320 29 29 (4305920)
I1128 23:39:22.690631  1631 net.cpp:165] Memory required for data: 2858950720
I1128 23:39:22.690654  1631 layer_factory.hpp:77] Creating layer conv3_7/x1/scale
I1128 23:39:22.690673  1631 net.cpp:100] Creating Layer conv3_7/x1/scale
I1128 23:39:22.690690  1631 net.cpp:434] conv3_7/x1/scale <- conv3_7/x1/bn
I1128 23:39:22.690707  1631 net.cpp:395] conv3_7/x1/scale -> conv3_7/x1/bn (in-place)
I1128 23:39:22.690834  1631 layer_factory.hpp:77] Creating layer conv3_7/x1/scale
I1128 23:39:22.691051  1631 net.cpp:150] Setting up conv3_7/x1/scale
I1128 23:39:22.691090  1631 net.cpp:157] Top shape: 16 320 29 29 (4305920)
I1128 23:39:22.691105  1631 net.cpp:165] Memory required for data: 2876174400
I1128 23:39:22.691125  1631 layer_factory.hpp:77] Creating layer relu3_7/x1
I1128 23:39:22.691144  1631 net.cpp:100] Creating Layer relu3_7/x1
I1128 23:39:22.691161  1631 net.cpp:434] relu3_7/x1 <- conv3_7/x1/bn
I1128 23:39:22.691185  1631 net.cpp:395] relu3_7/x1 -> conv3_7/x1/bn (in-place)
I1128 23:39:22.691517  1631 net.cpp:150] Setting up relu3_7/x1
I1128 23:39:22.691551  1631 net.cpp:157] Top shape: 16 320 29 29 (4305920)
I1128 23:39:22.691567  1631 net.cpp:165] Memory required for data: 2893398080
I1128 23:39:22.691582  1631 layer_factory.hpp:77] Creating layer conv3_7/x1
I1128 23:39:22.691610  1631 net.cpp:100] Creating Layer conv3_7/x1
I1128 23:39:22.691632  1631 net.cpp:434] conv3_7/x1 <- conv3_7/x1/bn
I1128 23:39:22.691651  1631 net.cpp:408] conv3_7/x1 -> conv3_7/x1
I1128 23:39:22.695078  1631 net.cpp:150] Setting up conv3_7/x1
I1128 23:39:22.695121  1631 net.cpp:157] Top shape: 16 128 29 29 (1722368)
I1128 23:39:22.695137  1631 net.cpp:165] Memory required for data: 2900287552
I1128 23:39:22.695155  1631 layer_factory.hpp:77] Creating layer conv3_7/x2/bn
I1128 23:39:22.695176  1631 net.cpp:100] Creating Layer conv3_7/x2/bn
I1128 23:39:22.695194  1631 net.cpp:434] conv3_7/x2/bn <- conv3_7/x1
I1128 23:39:22.695222  1631 net.cpp:408] conv3_7/x2/bn -> conv3_7/x2/bn
I1128 23:39:22.695595  1631 net.cpp:150] Setting up conv3_7/x2/bn
I1128 23:39:22.695626  1631 net.cpp:157] Top shape: 16 128 29 29 (1722368)
I1128 23:39:22.695641  1631 net.cpp:165] Memory required for data: 2907177024
I1128 23:39:22.695663  1631 layer_factory.hpp:77] Creating layer conv3_7/x2/scale
I1128 23:39:22.695693  1631 net.cpp:100] Creating Layer conv3_7/x2/scale
I1128 23:39:22.695713  1631 net.cpp:434] conv3_7/x2/scale <- conv3_7/x2/bn
I1128 23:39:22.695739  1631 net.cpp:395] conv3_7/x2/scale -> conv3_7/x2/bn (in-place)
I1128 23:39:22.695834  1631 layer_factory.hpp:77] Creating layer conv3_7/x2/scale
I1128 23:39:22.696038  1631 net.cpp:150] Setting up conv3_7/x2/scale
I1128 23:39:22.696065  1631 net.cpp:157] Top shape: 16 128 29 29 (1722368)
I1128 23:39:22.696079  1631 net.cpp:165] Memory required for data: 2914066496
I1128 23:39:22.696099  1631 layer_factory.hpp:77] Creating layer relu3_7/x2
I1128 23:39:22.696118  1631 net.cpp:100] Creating Layer relu3_7/x2
I1128 23:39:22.696135  1631 net.cpp:434] relu3_7/x2 <- conv3_7/x2/bn
I1128 23:39:22.696158  1631 net.cpp:395] relu3_7/x2 -> conv3_7/x2/bn (in-place)
I1128 23:39:22.696447  1631 net.cpp:150] Setting up relu3_7/x2
I1128 23:39:22.696476  1631 net.cpp:157] Top shape: 16 128 29 29 (1722368)
I1128 23:39:22.696491  1631 net.cpp:165] Memory required for data: 2920955968
I1128 23:39:22.696507  1631 layer_factory.hpp:77] Creating layer conv3_7/x2
I1128 23:39:22.696534  1631 net.cpp:100] Creating Layer conv3_7/x2
I1128 23:39:22.696554  1631 net.cpp:434] conv3_7/x2 <- conv3_7/x2/bn
I1128 23:39:22.696580  1631 net.cpp:408] conv3_7/x2 -> conv3_7/x2
I1128 23:39:22.698858  1631 net.cpp:150] Setting up conv3_7/x2
I1128 23:39:22.698899  1631 net.cpp:157] Top shape: 16 32 29 29 (430592)
I1128 23:39:22.698915  1631 net.cpp:165] Memory required for data: 2922678336
I1128 23:39:22.698935  1631 layer_factory.hpp:77] Creating layer concat_3_7
I1128 23:39:22.698963  1631 net.cpp:100] Creating Layer concat_3_7
I1128 23:39:22.698983  1631 net.cpp:434] concat_3_7 <- concat_3_6_concat_3_6_0_split_1
I1128 23:39:22.699002  1631 net.cpp:434] concat_3_7 <- conv3_7/x2
I1128 23:39:22.699023  1631 net.cpp:408] concat_3_7 -> concat_3_7
I1128 23:39:22.699090  1631 net.cpp:150] Setting up concat_3_7
I1128 23:39:22.699112  1631 net.cpp:157] Top shape: 16 352 29 29 (4736512)
I1128 23:39:22.699126  1631 net.cpp:165] Memory required for data: 2941624384
I1128 23:39:22.699141  1631 layer_factory.hpp:77] Creating layer concat_3_7_concat_3_7_0_split
I1128 23:39:22.699182  1631 net.cpp:100] Creating Layer concat_3_7_concat_3_7_0_split
I1128 23:39:22.699200  1631 net.cpp:434] concat_3_7_concat_3_7_0_split <- concat_3_7
I1128 23:39:22.699256  1631 net.cpp:408] concat_3_7_concat_3_7_0_split -> concat_3_7_concat_3_7_0_split_0
I1128 23:39:22.699282  1631 net.cpp:408] concat_3_7_concat_3_7_0_split -> concat_3_7_concat_3_7_0_split_1
I1128 23:39:22.699404  1631 net.cpp:150] Setting up concat_3_7_concat_3_7_0_split
I1128 23:39:22.699440  1631 net.cpp:157] Top shape: 16 352 29 29 (4736512)
I1128 23:39:22.699456  1631 net.cpp:157] Top shape: 16 352 29 29 (4736512)
I1128 23:39:22.699470  1631 net.cpp:165] Memory required for data: 2979516480
I1128 23:39:22.699486  1631 layer_factory.hpp:77] Creating layer conv3_8/x1/bn
I1128 23:39:22.699504  1631 net.cpp:100] Creating Layer conv3_8/x1/bn
I1128 23:39:22.699530  1631 net.cpp:434] conv3_8/x1/bn <- concat_3_7_concat_3_7_0_split_0
I1128 23:39:22.699551  1631 net.cpp:408] conv3_8/x1/bn -> conv3_8/x1/bn
I1128 23:39:22.699874  1631 net.cpp:150] Setting up conv3_8/x1/bn
I1128 23:39:22.699903  1631 net.cpp:157] Top shape: 16 352 29 29 (4736512)
I1128 23:39:22.699918  1631 net.cpp:165] Memory required for data: 2998462528
I1128 23:39:22.699939  1631 layer_factory.hpp:77] Creating layer conv3_8/x1/scale
I1128 23:39:22.699960  1631 net.cpp:100] Creating Layer conv3_8/x1/scale
I1128 23:39:22.699976  1631 net.cpp:434] conv3_8/x1/scale <- conv3_8/x1/bn
I1128 23:39:22.700004  1631 net.cpp:395] conv3_8/x1/scale -> conv3_8/x1/bn (in-place)
I1128 23:39:22.700103  1631 layer_factory.hpp:77] Creating layer conv3_8/x1/scale
I1128 23:39:22.700318  1631 net.cpp:150] Setting up conv3_8/x1/scale
I1128 23:39:22.700345  1631 net.cpp:157] Top shape: 16 352 29 29 (4736512)
I1128 23:39:22.700359  1631 net.cpp:165] Memory required for data: 3017408576
I1128 23:39:22.700379  1631 layer_factory.hpp:77] Creating layer relu3_8/x1
I1128 23:39:22.700398  1631 net.cpp:100] Creating Layer relu3_8/x1
I1128 23:39:22.700414  1631 net.cpp:434] relu3_8/x1 <- conv3_8/x1/bn
I1128 23:39:22.700441  1631 net.cpp:395] relu3_8/x1 -> conv3_8/x1/bn (in-place)
I1128 23:39:22.700723  1631 net.cpp:150] Setting up relu3_8/x1
I1128 23:39:22.700762  1631 net.cpp:157] Top shape: 16 352 29 29 (4736512)
I1128 23:39:22.700778  1631 net.cpp:165] Memory required for data: 3036354624
I1128 23:39:22.700793  1631 layer_factory.hpp:77] Creating layer conv3_8/x1
I1128 23:39:22.700821  1631 net.cpp:100] Creating Layer conv3_8/x1
I1128 23:39:22.700840  1631 net.cpp:434] conv3_8/x1 <- conv3_8/x1/bn
I1128 23:39:22.700862  1631 net.cpp:408] conv3_8/x1 -> conv3_8/x1
I1128 23:39:22.703176  1631 net.cpp:150] Setting up conv3_8/x1
I1128 23:39:22.703217  1631 net.cpp:157] Top shape: 16 128 29 29 (1722368)
I1128 23:39:22.703233  1631 net.cpp:165] Memory required for data: 3043244096
I1128 23:39:22.703253  1631 layer_factory.hpp:77] Creating layer conv3_8/x2/bn
I1128 23:39:22.703280  1631 net.cpp:100] Creating Layer conv3_8/x2/bn
I1128 23:39:22.703299  1631 net.cpp:434] conv3_8/x2/bn <- conv3_8/x1
I1128 23:39:22.703354  1631 net.cpp:408] conv3_8/x2/bn -> conv3_8/x2/bn
I1128 23:39:22.703686  1631 net.cpp:150] Setting up conv3_8/x2/bn
I1128 23:39:22.703714  1631 net.cpp:157] Top shape: 16 128 29 29 (1722368)
I1128 23:39:22.703729  1631 net.cpp:165] Memory required for data: 3050133568
I1128 23:39:22.703761  1631 layer_factory.hpp:77] Creating layer conv3_8/x2/scale
I1128 23:39:22.703783  1631 net.cpp:100] Creating Layer conv3_8/x2/scale
I1128 23:39:22.703799  1631 net.cpp:434] conv3_8/x2/scale <- conv3_8/x2/bn
I1128 23:39:22.703817  1631 net.cpp:395] conv3_8/x2/scale -> conv3_8/x2/bn (in-place)
I1128 23:39:22.703915  1631 layer_factory.hpp:77] Creating layer conv3_8/x2/scale
I1128 23:39:22.704118  1631 net.cpp:150] Setting up conv3_8/x2/scale
I1128 23:39:22.704144  1631 net.cpp:157] Top shape: 16 128 29 29 (1722368)
I1128 23:39:22.704159  1631 net.cpp:165] Memory required for data: 3057023040
I1128 23:39:22.704179  1631 layer_factory.hpp:77] Creating layer relu3_8/x2
I1128 23:39:22.704221  1631 net.cpp:100] Creating Layer relu3_8/x2
I1128 23:39:22.704239  1631 net.cpp:434] relu3_8/x2 <- conv3_8/x2/bn
I1128 23:39:22.704257  1631 net.cpp:395] relu3_8/x2 -> conv3_8/x2/bn (in-place)
I1128 23:39:22.705679  1631 net.cpp:150] Setting up relu3_8/x2
I1128 23:39:22.705718  1631 net.cpp:157] Top shape: 16 128 29 29 (1722368)
I1128 23:39:22.705742  1631 net.cpp:165] Memory required for data: 3063912512
I1128 23:39:22.705760  1631 layer_factory.hpp:77] Creating layer conv3_8/x2
I1128 23:39:22.705788  1631 net.cpp:100] Creating Layer conv3_8/x2
I1128 23:39:22.705808  1631 net.cpp:434] conv3_8/x2 <- conv3_8/x2/bn
I1128 23:39:22.705835  1631 net.cpp:408] conv3_8/x2 -> conv3_8/x2
I1128 23:39:22.708112  1631 net.cpp:150] Setting up conv3_8/x2
I1128 23:39:22.708153  1631 net.cpp:157] Top shape: 16 32 29 29 (430592)
I1128 23:39:22.708168  1631 net.cpp:165] Memory required for data: 3065634880
I1128 23:39:22.708189  1631 layer_factory.hpp:77] Creating layer concat_3_8
I1128 23:39:22.708209  1631 net.cpp:100] Creating Layer concat_3_8
I1128 23:39:22.708226  1631 net.cpp:434] concat_3_8 <- concat_3_7_concat_3_7_0_split_1
I1128 23:39:22.708245  1631 net.cpp:434] concat_3_8 <- conv3_8/x2
I1128 23:39:22.708276  1631 net.cpp:408] concat_3_8 -> concat_3_8
I1128 23:39:22.708341  1631 net.cpp:150] Setting up concat_3_8
I1128 23:39:22.708365  1631 net.cpp:157] Top shape: 16 384 29 29 (5167104)
I1128 23:39:22.708379  1631 net.cpp:165] Memory required for data: 3086303296
I1128 23:39:22.708395  1631 layer_factory.hpp:77] Creating layer concat_3_8_concat_3_8_0_split
I1128 23:39:22.708421  1631 net.cpp:100] Creating Layer concat_3_8_concat_3_8_0_split
I1128 23:39:22.708441  1631 net.cpp:434] concat_3_8_concat_3_8_0_split <- concat_3_8
I1128 23:39:22.708458  1631 net.cpp:408] concat_3_8_concat_3_8_0_split -> concat_3_8_concat_3_8_0_split_0
I1128 23:39:22.708487  1631 net.cpp:408] concat_3_8_concat_3_8_0_split -> concat_3_8_concat_3_8_0_split_1
I1128 23:39:22.708570  1631 net.cpp:150] Setting up concat_3_8_concat_3_8_0_split
I1128 23:39:22.708595  1631 net.cpp:157] Top shape: 16 384 29 29 (5167104)
I1128 23:39:22.708611  1631 net.cpp:157] Top shape: 16 384 29 29 (5167104)
I1128 23:39:22.708624  1631 net.cpp:165] Memory required for data: 3127640128
I1128 23:39:22.708639  1631 layer_factory.hpp:77] Creating layer conv3_9/x1/bn
I1128 23:39:22.708664  1631 net.cpp:100] Creating Layer conv3_9/x1/bn
I1128 23:39:22.708683  1631 net.cpp:434] conv3_9/x1/bn <- concat_3_8_concat_3_8_0_split_0
I1128 23:39:22.708701  1631 net.cpp:408] conv3_9/x1/bn -> conv3_9/x1/bn
I1128 23:39:22.709018  1631 net.cpp:150] Setting up conv3_9/x1/bn
I1128 23:39:22.709048  1631 net.cpp:157] Top shape: 16 384 29 29 (5167104)
I1128 23:39:22.709062  1631 net.cpp:165] Memory required for data: 3148308544
I1128 23:39:22.709084  1631 layer_factory.hpp:77] Creating layer conv3_9/x1/scale
I1128 23:39:22.709103  1631 net.cpp:100] Creating Layer conv3_9/x1/scale
I1128 23:39:22.709120  1631 net.cpp:434] conv3_9/x1/scale <- conv3_9/x1/bn
I1128 23:39:22.709146  1631 net.cpp:395] conv3_9/x1/scale -> conv3_9/x1/bn (in-place)
I1128 23:39:22.709244  1631 layer_factory.hpp:77] Creating layer conv3_9/x1/scale
I1128 23:39:22.709442  1631 net.cpp:150] Setting up conv3_9/x1/scale
I1128 23:39:22.709475  1631 net.cpp:157] Top shape: 16 384 29 29 (5167104)
I1128 23:39:22.709491  1631 net.cpp:165] Memory required for data: 3168976960
I1128 23:39:22.709511  1631 layer_factory.hpp:77] Creating layer relu3_9/x1
I1128 23:39:22.709532  1631 net.cpp:100] Creating Layer relu3_9/x1
I1128 23:39:22.709547  1631 net.cpp:434] relu3_9/x1 <- conv3_9/x1/bn
I1128 23:39:22.709565  1631 net.cpp:395] relu3_9/x1 -> conv3_9/x1/bn (in-place)
I1128 23:39:22.710973  1631 net.cpp:150] Setting up relu3_9/x1
I1128 23:39:22.711011  1631 net.cpp:157] Top shape: 16 384 29 29 (5167104)
I1128 23:39:22.711028  1631 net.cpp:165] Memory required for data: 3189645376
I1128 23:39:22.711043  1631 layer_factory.hpp:77] Creating layer conv3_9/x1
I1128 23:39:22.711072  1631 net.cpp:100] Creating Layer conv3_9/x1
I1128 23:39:22.711112  1631 net.cpp:434] conv3_9/x1 <- conv3_9/x1/bn
I1128 23:39:22.711133  1631 net.cpp:408] conv3_9/x1 -> conv3_9/x1
I1128 23:39:22.713449  1631 net.cpp:150] Setting up conv3_9/x1
I1128 23:39:22.713507  1631 net.cpp:157] Top shape: 16 128 29 29 (1722368)
I1128 23:39:22.713524  1631 net.cpp:165] Memory required for data: 3196534848
I1128 23:39:22.713543  1631 layer_factory.hpp:77] Creating layer conv3_9/x2/bn
I1128 23:39:22.713572  1631 net.cpp:100] Creating Layer conv3_9/x2/bn
I1128 23:39:22.713593  1631 net.cpp:434] conv3_9/x2/bn <- conv3_9/x1
I1128 23:39:22.713613  1631 net.cpp:408] conv3_9/x2/bn -> conv3_9/x2/bn
I1128 23:39:22.713958  1631 net.cpp:150] Setting up conv3_9/x2/bn
I1128 23:39:22.713987  1631 net.cpp:157] Top shape: 16 128 29 29 (1722368)
I1128 23:39:22.714001  1631 net.cpp:165] Memory required for data: 3203424320
I1128 23:39:22.714025  1631 layer_factory.hpp:77] Creating layer conv3_9/x2/scale
I1128 23:39:22.714045  1631 net.cpp:100] Creating Layer conv3_9/x2/scale
I1128 23:39:22.714061  1631 net.cpp:434] conv3_9/x2/scale <- conv3_9/x2/bn
I1128 23:39:22.714085  1631 net.cpp:395] conv3_9/x2/scale -> conv3_9/x2/bn (in-place)
I1128 23:39:22.714181  1631 layer_factory.hpp:77] Creating layer conv3_9/x2/scale
I1128 23:39:22.714385  1631 net.cpp:150] Setting up conv3_9/x2/scale
I1128 23:39:22.714412  1631 net.cpp:157] Top shape: 16 128 29 29 (1722368)
I1128 23:39:22.714426  1631 net.cpp:165] Memory required for data: 3210313792
I1128 23:39:22.714447  1631 layer_factory.hpp:77] Creating layer relu3_9/x2
I1128 23:39:22.714473  1631 net.cpp:100] Creating Layer relu3_9/x2
I1128 23:39:22.714490  1631 net.cpp:434] relu3_9/x2 <- conv3_9/x2/bn
I1128 23:39:22.714509  1631 net.cpp:395] relu3_9/x2 -> conv3_9/x2/bn (in-place)
I1128 23:39:22.714809  1631 net.cpp:150] Setting up relu3_9/x2
I1128 23:39:22.714839  1631 net.cpp:157] Top shape: 16 128 29 29 (1722368)
I1128 23:39:22.714854  1631 net.cpp:165] Memory required for data: 3217203264
I1128 23:39:22.714870  1631 layer_factory.hpp:77] Creating layer conv3_9/x2
I1128 23:39:22.714897  1631 net.cpp:100] Creating Layer conv3_9/x2
I1128 23:39:22.714917  1631 net.cpp:434] conv3_9/x2 <- conv3_9/x2/bn
I1128 23:39:22.714936  1631 net.cpp:408] conv3_9/x2 -> conv3_9/x2
I1128 23:39:22.717249  1631 net.cpp:150] Setting up conv3_9/x2
I1128 23:39:22.717293  1631 net.cpp:157] Top shape: 16 32 29 29 (430592)
I1128 23:39:22.717310  1631 net.cpp:165] Memory required for data: 3218925632
I1128 23:39:22.717329  1631 layer_factory.hpp:77] Creating layer concat_3_9
I1128 23:39:22.717357  1631 net.cpp:100] Creating Layer concat_3_9
I1128 23:39:22.717377  1631 net.cpp:434] concat_3_9 <- concat_3_8_concat_3_8_0_split_1
I1128 23:39:22.717396  1631 net.cpp:434] concat_3_9 <- conv3_9/x2
I1128 23:39:22.717417  1631 net.cpp:408] concat_3_9 -> concat_3_9
I1128 23:39:22.717489  1631 net.cpp:150] Setting up concat_3_9
I1128 23:39:22.717514  1631 net.cpp:157] Top shape: 16 416 29 29 (5597696)
I1128 23:39:22.717528  1631 net.cpp:165] Memory required for data: 3241316416
I1128 23:39:22.717543  1631 layer_factory.hpp:77] Creating layer concat_3_9_concat_3_9_0_split
I1128 23:39:22.717561  1631 net.cpp:100] Creating Layer concat_3_9_concat_3_9_0_split
I1128 23:39:22.717578  1631 net.cpp:434] concat_3_9_concat_3_9_0_split <- concat_3_9
I1128 23:39:22.717603  1631 net.cpp:408] concat_3_9_concat_3_9_0_split -> concat_3_9_concat_3_9_0_split_0
I1128 23:39:22.717628  1631 net.cpp:408] concat_3_9_concat_3_9_0_split -> concat_3_9_concat_3_9_0_split_1
I1128 23:39:22.717710  1631 net.cpp:150] Setting up concat_3_9_concat_3_9_0_split
I1128 23:39:22.717743  1631 net.cpp:157] Top shape: 16 416 29 29 (5597696)
I1128 23:39:22.717761  1631 net.cpp:157] Top shape: 16 416 29 29 (5597696)
I1128 23:39:22.717775  1631 net.cpp:165] Memory required for data: 3286097984
I1128 23:39:22.717789  1631 layer_factory.hpp:77] Creating layer conv3_10/x1/bn
I1128 23:39:22.717815  1631 net.cpp:100] Creating Layer conv3_10/x1/bn
I1128 23:39:22.717834  1631 net.cpp:434] conv3_10/x1/bn <- concat_3_9_concat_3_9_0_split_0
I1128 23:39:22.717859  1631 net.cpp:408] conv3_10/x1/bn -> conv3_10/x1/bn
I1128 23:39:22.718200  1631 net.cpp:150] Setting up conv3_10/x1/bn
I1128 23:39:22.718228  1631 net.cpp:157] Top shape: 16 416 29 29 (5597696)
I1128 23:39:22.718258  1631 net.cpp:165] Memory required for data: 3308488768
I1128 23:39:22.718281  1631 layer_factory.hpp:77] Creating layer conv3_10/x1/scale
I1128 23:39:22.718302  1631 net.cpp:100] Creating Layer conv3_10/x1/scale
I1128 23:39:22.718318  1631 net.cpp:434] conv3_10/x1/scale <- conv3_10/x1/bn
I1128 23:39:22.718336  1631 net.cpp:395] conv3_10/x1/scale -> conv3_10/x1/bn (in-place)
I1128 23:39:22.718437  1631 layer_factory.hpp:77] Creating layer conv3_10/x1/scale
I1128 23:39:22.718657  1631 net.cpp:150] Setting up conv3_10/x1/scale
I1128 23:39:22.718684  1631 net.cpp:157] Top shape: 16 416 29 29 (5597696)
I1128 23:39:22.718698  1631 net.cpp:165] Memory required for data: 3330879552
I1128 23:39:22.718719  1631 layer_factory.hpp:77] Creating layer relu3_10/x1
I1128 23:39:22.718749  1631 net.cpp:100] Creating Layer relu3_10/x1
I1128 23:39:22.718767  1631 net.cpp:434] relu3_10/x1 <- conv3_10/x1/bn
I1128 23:39:22.718791  1631 net.cpp:395] relu3_10/x1 -> conv3_10/x1/bn (in-place)
I1128 23:39:22.719075  1631 net.cpp:150] Setting up relu3_10/x1
I1128 23:39:22.719105  1631 net.cpp:157] Top shape: 16 416 29 29 (5597696)
I1128 23:39:22.719120  1631 net.cpp:165] Memory required for data: 3353270336
I1128 23:39:22.719135  1631 layer_factory.hpp:77] Creating layer conv3_10/x1
I1128 23:39:22.719163  1631 net.cpp:100] Creating Layer conv3_10/x1
I1128 23:39:22.719182  1631 net.cpp:434] conv3_10/x1 <- conv3_10/x1/bn
I1128 23:39:22.719202  1631 net.cpp:408] conv3_10/x1 -> conv3_10/x1
I1128 23:39:22.721554  1631 net.cpp:150] Setting up conv3_10/x1
I1128 23:39:22.721597  1631 net.cpp:157] Top shape: 16 128 29 29 (1722368)
I1128 23:39:22.721613  1631 net.cpp:165] Memory required for data: 3360159808
I1128 23:39:22.721633  1631 layer_factory.hpp:77] Creating layer conv3_10/x2/bn
I1128 23:39:22.721662  1631 net.cpp:100] Creating Layer conv3_10/x2/bn
I1128 23:39:22.721683  1631 net.cpp:434] conv3_10/x2/bn <- conv3_10/x1
I1128 23:39:22.721702  1631 net.cpp:408] conv3_10/x2/bn -> conv3_10/x2/bn
I1128 23:39:22.722043  1631 net.cpp:150] Setting up conv3_10/x2/bn
I1128 23:39:22.722070  1631 net.cpp:157] Top shape: 16 128 29 29 (1722368)
I1128 23:39:22.722085  1631 net.cpp:165] Memory required for data: 3367049280
I1128 23:39:22.722115  1631 layer_factory.hpp:77] Creating layer conv3_10/x2/scale
I1128 23:39:22.722137  1631 net.cpp:100] Creating Layer conv3_10/x2/scale
I1128 23:39:22.722154  1631 net.cpp:434] conv3_10/x2/scale <- conv3_10/x2/bn
I1128 23:39:22.722172  1631 net.cpp:395] conv3_10/x2/scale -> conv3_10/x2/bn (in-place)
I1128 23:39:22.722263  1631 layer_factory.hpp:77] Creating layer conv3_10/x2/scale
I1128 23:39:22.722473  1631 net.cpp:150] Setting up conv3_10/x2/scale
I1128 23:39:22.722501  1631 net.cpp:157] Top shape: 16 128 29 29 (1722368)
I1128 23:39:22.722514  1631 net.cpp:165] Memory required for data: 3373938752
I1128 23:39:22.722534  1631 layer_factory.hpp:77] Creating layer relu3_10/x2
I1128 23:39:22.722559  1631 net.cpp:100] Creating Layer relu3_10/x2
I1128 23:39:22.722579  1631 net.cpp:434] relu3_10/x2 <- conv3_10/x2/bn
I1128 23:39:22.722596  1631 net.cpp:395] relu3_10/x2 -> conv3_10/x2/bn (in-place)
I1128 23:39:22.722889  1631 net.cpp:150] Setting up relu3_10/x2
I1128 23:39:22.722919  1631 net.cpp:157] Top shape: 16 128 29 29 (1722368)
I1128 23:39:22.722934  1631 net.cpp:165] Memory required for data: 3380828224
I1128 23:39:22.722949  1631 layer_factory.hpp:77] Creating layer conv3_10/x2
I1128 23:39:22.722978  1631 net.cpp:100] Creating Layer conv3_10/x2
I1128 23:39:22.722997  1631 net.cpp:434] conv3_10/x2 <- conv3_10/x2/bn
I1128 23:39:22.723016  1631 net.cpp:408] conv3_10/x2 -> conv3_10/x2
I1128 23:39:22.726449  1631 net.cpp:150] Setting up conv3_10/x2
I1128 23:39:22.726491  1631 net.cpp:157] Top shape: 16 32 29 29 (430592)
I1128 23:39:22.726508  1631 net.cpp:165] Memory required for data: 3382550592
I1128 23:39:22.726536  1631 layer_factory.hpp:77] Creating layer concat_3_10
I1128 23:39:22.726575  1631 net.cpp:100] Creating Layer concat_3_10
I1128 23:39:22.726594  1631 net.cpp:434] concat_3_10 <- concat_3_9_concat_3_9_0_split_1
I1128 23:39:22.726629  1631 net.cpp:434] concat_3_10 <- conv3_10/x2
I1128 23:39:22.726649  1631 net.cpp:408] concat_3_10 -> concat_3_10
I1128 23:39:22.726723  1631 net.cpp:150] Setting up concat_3_10
I1128 23:39:22.726760  1631 net.cpp:157] Top shape: 16 448 29 29 (6028288)
I1128 23:39:22.726775  1631 net.cpp:165] Memory required for data: 3406663744
I1128 23:39:22.726791  1631 layer_factory.hpp:77] Creating layer concat_3_10_concat_3_10_0_split
I1128 23:39:22.726809  1631 net.cpp:100] Creating Layer concat_3_10_concat_3_10_0_split
I1128 23:39:22.726825  1631 net.cpp:434] concat_3_10_concat_3_10_0_split <- concat_3_10
I1128 23:39:22.726851  1631 net.cpp:408] concat_3_10_concat_3_10_0_split -> concat_3_10_concat_3_10_0_split_0
I1128 23:39:22.726876  1631 net.cpp:408] concat_3_10_concat_3_10_0_split -> concat_3_10_concat_3_10_0_split_1
I1128 23:39:22.726968  1631 net.cpp:150] Setting up concat_3_10_concat_3_10_0_split
I1128 23:39:22.726992  1631 net.cpp:157] Top shape: 16 448 29 29 (6028288)
I1128 23:39:22.727008  1631 net.cpp:157] Top shape: 16 448 29 29 (6028288)
I1128 23:39:22.727022  1631 net.cpp:165] Memory required for data: 3454890048
I1128 23:39:22.727037  1631 layer_factory.hpp:77] Creating layer conv3_11/x1/bn
I1128 23:39:22.727062  1631 net.cpp:100] Creating Layer conv3_11/x1/bn
I1128 23:39:22.727082  1631 net.cpp:434] conv3_11/x1/bn <- concat_3_10_concat_3_10_0_split_0
I1128 23:39:22.727100  1631 net.cpp:408] conv3_11/x1/bn -> conv3_11/x1/bn
I1128 23:39:22.727470  1631 net.cpp:150] Setting up conv3_11/x1/bn
I1128 23:39:22.727502  1631 net.cpp:157] Top shape: 16 448 29 29 (6028288)
I1128 23:39:22.727517  1631 net.cpp:165] Memory required for data: 3479003200
I1128 23:39:22.727540  1631 layer_factory.hpp:77] Creating layer conv3_11/x1/scale
I1128 23:39:22.727560  1631 net.cpp:100] Creating Layer conv3_11/x1/scale
I1128 23:39:22.727577  1631 net.cpp:434] conv3_11/x1/scale <- conv3_11/x1/bn
I1128 23:39:22.727603  1631 net.cpp:395] conv3_11/x1/scale -> conv3_11/x1/bn (in-place)
I1128 23:39:22.727704  1631 layer_factory.hpp:77] Creating layer conv3_11/x1/scale
I1128 23:39:22.727936  1631 net.cpp:150] Setting up conv3_11/x1/scale
I1128 23:39:22.727964  1631 net.cpp:157] Top shape: 16 448 29 29 (6028288)
I1128 23:39:22.727978  1631 net.cpp:165] Memory required for data: 3503116352
I1128 23:39:22.727998  1631 layer_factory.hpp:77] Creating layer relu3_11/x1
I1128 23:39:22.728018  1631 net.cpp:100] Creating Layer relu3_11/x1
I1128 23:39:22.728034  1631 net.cpp:434] relu3_11/x1 <- conv3_11/x1/bn
I1128 23:39:22.728058  1631 net.cpp:395] relu3_11/x1 -> conv3_11/x1/bn (in-place)
I1128 23:39:22.728346  1631 net.cpp:150] Setting up relu3_11/x1
I1128 23:39:22.728375  1631 net.cpp:157] Top shape: 16 448 29 29 (6028288)
I1128 23:39:22.728390  1631 net.cpp:165] Memory required for data: 3527229504
I1128 23:39:22.728406  1631 layer_factory.hpp:77] Creating layer conv3_11/x1
I1128 23:39:22.728433  1631 net.cpp:100] Creating Layer conv3_11/x1
I1128 23:39:22.728452  1631 net.cpp:434] conv3_11/x1 <- conv3_11/x1/bn
I1128 23:39:22.728478  1631 net.cpp:408] conv3_11/x1 -> conv3_11/x1
I1128 23:39:22.733085  1631 net.cpp:150] Setting up conv3_11/x1
I1128 23:39:22.733129  1631 net.cpp:157] Top shape: 16 128 29 29 (1722368)
I1128 23:39:22.733145  1631 net.cpp:165] Memory required for data: 3534118976
I1128 23:39:22.733165  1631 layer_factory.hpp:77] Creating layer conv3_11/x2/bn
I1128 23:39:22.733194  1631 net.cpp:100] Creating Layer conv3_11/x2/bn
I1128 23:39:22.733214  1631 net.cpp:434] conv3_11/x2/bn <- conv3_11/x1
I1128 23:39:22.733234  1631 net.cpp:408] conv3_11/x2/bn -> conv3_11/x2/bn
I1128 23:39:22.733577  1631 net.cpp:150] Setting up conv3_11/x2/bn
I1128 23:39:22.733604  1631 net.cpp:157] Top shape: 16 128 29 29 (1722368)
I1128 23:39:22.733619  1631 net.cpp:165] Memory required for data: 3541008448
I1128 23:39:22.733647  1631 layer_factory.hpp:77] Creating layer conv3_11/x2/scale
I1128 23:39:22.733685  1631 net.cpp:100] Creating Layer conv3_11/x2/scale
I1128 23:39:22.733705  1631 net.cpp:434] conv3_11/x2/scale <- conv3_11/x2/bn
I1128 23:39:22.733747  1631 net.cpp:395] conv3_11/x2/scale -> conv3_11/x2/bn (in-place)
I1128 23:39:22.733844  1631 layer_factory.hpp:77] Creating layer conv3_11/x2/scale
I1128 23:39:22.734055  1631 net.cpp:150] Setting up conv3_11/x2/scale
I1128 23:39:22.734083  1631 net.cpp:157] Top shape: 16 128 29 29 (1722368)
I1128 23:39:22.734097  1631 net.cpp:165] Memory required for data: 3547897920
I1128 23:39:22.734117  1631 layer_factory.hpp:77] Creating layer relu3_11/x2
I1128 23:39:22.734143  1631 net.cpp:100] Creating Layer relu3_11/x2
I1128 23:39:22.734163  1631 net.cpp:434] relu3_11/x2 <- conv3_11/x2/bn
I1128 23:39:22.734180  1631 net.cpp:395] relu3_11/x2 -> conv3_11/x2/bn (in-place)
I1128 23:39:22.735626  1631 net.cpp:150] Setting up relu3_11/x2
I1128 23:39:22.735666  1631 net.cpp:157] Top shape: 16 128 29 29 (1722368)
I1128 23:39:22.735682  1631 net.cpp:165] Memory required for data: 3554787392
I1128 23:39:22.735698  1631 layer_factory.hpp:77] Creating layer conv3_11/x2
I1128 23:39:22.735728  1631 net.cpp:100] Creating Layer conv3_11/x2
I1128 23:39:22.735756  1631 net.cpp:434] conv3_11/x2 <- conv3_11/x2/bn
I1128 23:39:22.735777  1631 net.cpp:408] conv3_11/x2 -> conv3_11/x2
I1128 23:39:22.736943  1631 net.cpp:150] Setting up conv3_11/x2
I1128 23:39:22.736979  1631 net.cpp:157] Top shape: 16 32 29 29 (430592)
I1128 23:39:22.736994  1631 net.cpp:165] Memory required for data: 3556509760
I1128 23:39:22.737012  1631 layer_factory.hpp:77] Creating layer concat_3_11
I1128 23:39:22.737032  1631 net.cpp:100] Creating Layer concat_3_11
I1128 23:39:22.737061  1631 net.cpp:434] concat_3_11 <- concat_3_10_concat_3_10_0_split_1
I1128 23:39:22.737080  1631 net.cpp:434] concat_3_11 <- conv3_11/x2
I1128 23:39:22.737099  1631 net.cpp:408] concat_3_11 -> concat_3_11
I1128 23:39:22.737164  1631 net.cpp:150] Setting up concat_3_11
I1128 23:39:22.737187  1631 net.cpp:157] Top shape: 16 480 29 29 (6458880)
I1128 23:39:22.737201  1631 net.cpp:165] Memory required for data: 3582345280
I1128 23:39:22.737216  1631 layer_factory.hpp:77] Creating layer concat_3_11_concat_3_11_0_split
I1128 23:39:22.737243  1631 net.cpp:100] Creating Layer concat_3_11_concat_3_11_0_split
I1128 23:39:22.737262  1631 net.cpp:434] concat_3_11_concat_3_11_0_split <- concat_3_11
I1128 23:39:22.737282  1631 net.cpp:408] concat_3_11_concat_3_11_0_split -> concat_3_11_concat_3_11_0_split_0
I1128 23:39:22.737309  1631 net.cpp:408] concat_3_11_concat_3_11_0_split -> concat_3_11_concat_3_11_0_split_1
I1128 23:39:22.737413  1631 net.cpp:150] Setting up concat_3_11_concat_3_11_0_split
I1128 23:39:22.737443  1631 net.cpp:157] Top shape: 16 480 29 29 (6458880)
I1128 23:39:22.737463  1631 net.cpp:157] Top shape: 16 480 29 29 (6458880)
I1128 23:39:22.737478  1631 net.cpp:165] Memory required for data: 3634016320
I1128 23:39:22.737493  1631 layer_factory.hpp:77] Creating layer conv3_12/x1/bn
I1128 23:39:22.737519  1631 net.cpp:100] Creating Layer conv3_12/x1/bn
I1128 23:39:22.737536  1631 net.cpp:434] conv3_12/x1/bn <- concat_3_11_concat_3_11_0_split_0
I1128 23:39:22.737555  1631 net.cpp:408] conv3_12/x1/bn -> conv3_12/x1/bn
I1128 23:39:22.737892  1631 net.cpp:150] Setting up conv3_12/x1/bn
I1128 23:39:22.737920  1631 net.cpp:157] Top shape: 16 480 29 29 (6458880)
I1128 23:39:22.737936  1631 net.cpp:165] Memory required for data: 3659851840
I1128 23:39:22.737957  1631 layer_factory.hpp:77] Creating layer conv3_12/x1/scale
I1128 23:39:22.737983  1631 net.cpp:100] Creating Layer conv3_12/x1/scale
I1128 23:39:22.738003  1631 net.cpp:434] conv3_12/x1/scale <- conv3_12/x1/bn
I1128 23:39:22.738020  1631 net.cpp:395] conv3_12/x1/scale -> conv3_12/x1/bn (in-place)
I1128 23:39:22.738123  1631 layer_factory.hpp:77] Creating layer conv3_12/x1/scale
I1128 23:39:22.738346  1631 net.cpp:150] Setting up conv3_12/x1/scale
I1128 23:39:22.738373  1631 net.cpp:157] Top shape: 16 480 29 29 (6458880)
I1128 23:39:22.738405  1631 net.cpp:165] Memory required for data: 3685687360
I1128 23:39:22.738427  1631 layer_factory.hpp:77] Creating layer relu3_12/x1
I1128 23:39:22.738466  1631 net.cpp:100] Creating Layer relu3_12/x1
I1128 23:39:22.738487  1631 net.cpp:434] relu3_12/x1 <- conv3_12/x1/bn
I1128 23:39:22.738504  1631 net.cpp:395] relu3_12/x1 -> conv3_12/x1/bn (in-place)
I1128 23:39:22.739953  1631 net.cpp:150] Setting up relu3_12/x1
I1128 23:39:22.740000  1631 net.cpp:157] Top shape: 16 480 29 29 (6458880)
I1128 23:39:22.740020  1631 net.cpp:165] Memory required for data: 3711522880
I1128 23:39:22.740034  1631 layer_factory.hpp:77] Creating layer conv3_12/x1
I1128 23:39:22.740056  1631 net.cpp:100] Creating Layer conv3_12/x1
I1128 23:39:22.740073  1631 net.cpp:434] conv3_12/x1 <- conv3_12/x1/bn
I1128 23:39:22.740100  1631 net.cpp:408] conv3_12/x1 -> conv3_12/x1
I1128 23:39:22.742413  1631 net.cpp:150] Setting up conv3_12/x1
I1128 23:39:22.742455  1631 net.cpp:157] Top shape: 16 128 29 29 (1722368)
I1128 23:39:22.742471  1631 net.cpp:165] Memory required for data: 3718412352
I1128 23:39:22.742491  1631 layer_factory.hpp:77] Creating layer conv3_12/x2/bn
I1128 23:39:22.742517  1631 net.cpp:100] Creating Layer conv3_12/x2/bn
I1128 23:39:22.742538  1631 net.cpp:434] conv3_12/x2/bn <- conv3_12/x1
I1128 23:39:22.742558  1631 net.cpp:408] conv3_12/x2/bn -> conv3_12/x2/bn
I1128 23:39:22.742909  1631 net.cpp:150] Setting up conv3_12/x2/bn
I1128 23:39:22.742938  1631 net.cpp:157] Top shape: 16 128 29 29 (1722368)
I1128 23:39:22.742952  1631 net.cpp:165] Memory required for data: 3725301824
I1128 23:39:22.742974  1631 layer_factory.hpp:77] Creating layer conv3_12/x2/scale
I1128 23:39:22.743001  1631 net.cpp:100] Creating Layer conv3_12/x2/scale
I1128 23:39:22.743021  1631 net.cpp:434] conv3_12/x2/scale <- conv3_12/x2/bn
I1128 23:39:22.743039  1631 net.cpp:395] conv3_12/x2/scale -> conv3_12/x2/bn (in-place)
I1128 23:39:22.743132  1631 layer_factory.hpp:77] Creating layer conv3_12/x2/scale
I1128 23:39:22.743378  1631 net.cpp:150] Setting up conv3_12/x2/scale
I1128 23:39:22.743414  1631 net.cpp:157] Top shape: 16 128 29 29 (1722368)
I1128 23:39:22.743430  1631 net.cpp:165] Memory required for data: 3732191296
I1128 23:39:22.743450  1631 layer_factory.hpp:77] Creating layer relu3_12/x2
I1128 23:39:22.743477  1631 net.cpp:100] Creating Layer relu3_12/x2
I1128 23:39:22.743497  1631 net.cpp:434] relu3_12/x2 <- conv3_12/x2/bn
I1128 23:39:22.743515  1631 net.cpp:395] relu3_12/x2 -> conv3_12/x2/bn (in-place)
I1128 23:39:22.743814  1631 net.cpp:150] Setting up relu3_12/x2
I1128 23:39:22.743846  1631 net.cpp:157] Top shape: 16 128 29 29 (1722368)
I1128 23:39:22.743861  1631 net.cpp:165] Memory required for data: 3739080768
I1128 23:39:22.743876  1631 layer_factory.hpp:77] Creating layer conv3_12/x2
I1128 23:39:22.743908  1631 net.cpp:100] Creating Layer conv3_12/x2
I1128 23:39:22.743927  1631 net.cpp:434] conv3_12/x2 <- conv3_12/x2/bn
I1128 23:39:22.743947  1631 net.cpp:408] conv3_12/x2 -> conv3_12/x2
I1128 23:39:22.747370  1631 net.cpp:150] Setting up conv3_12/x2
I1128 23:39:22.747416  1631 net.cpp:157] Top shape: 16 32 29 29 (430592)
I1128 23:39:22.747433  1631 net.cpp:165] Memory required for data: 3740803136
I1128 23:39:22.747452  1631 layer_factory.hpp:77] Creating layer concat_3_12
I1128 23:39:22.747473  1631 net.cpp:100] Creating Layer concat_3_12
I1128 23:39:22.747489  1631 net.cpp:434] concat_3_12 <- concat_3_11_concat_3_11_0_split_1
I1128 23:39:22.747509  1631 net.cpp:434] concat_3_12 <- conv3_12/x2
I1128 23:39:22.747537  1631 net.cpp:408] concat_3_12 -> concat_3_12
I1128 23:39:22.747619  1631 net.cpp:150] Setting up concat_3_12
I1128 23:39:22.747644  1631 net.cpp:157] Top shape: 16 512 29 29 (6889472)
I1128 23:39:22.747659  1631 net.cpp:165] Memory required for data: 3768361024
I1128 23:39:22.747674  1631 layer_factory.hpp:77] Creating layer conv3_12/blk/bn
I1128 23:39:22.747694  1631 net.cpp:100] Creating Layer conv3_12/blk/bn
I1128 23:39:22.747709  1631 net.cpp:434] conv3_12/blk/bn <- concat_3_12
I1128 23:39:22.747747  1631 net.cpp:408] conv3_12/blk/bn -> conv3_12/blk/bn
I1128 23:39:22.748106  1631 net.cpp:150] Setting up conv3_12/blk/bn
I1128 23:39:22.748136  1631 net.cpp:157] Top shape: 16 512 29 29 (6889472)
I1128 23:39:22.748164  1631 net.cpp:165] Memory required for data: 3795918912
I1128 23:39:22.748188  1631 layer_factory.hpp:77] Creating layer conv3_12/blk/scale
I1128 23:39:22.748216  1631 net.cpp:100] Creating Layer conv3_12/blk/scale
I1128 23:39:22.748236  1631 net.cpp:434] conv3_12/blk/scale <- conv3_12/blk/bn
I1128 23:39:22.748255  1631 net.cpp:395] conv3_12/blk/scale -> conv3_12/blk/bn (in-place)
I1128 23:39:22.748353  1631 layer_factory.hpp:77] Creating layer conv3_12/blk/scale
I1128 23:39:22.748564  1631 net.cpp:150] Setting up conv3_12/blk/scale
I1128 23:39:22.748591  1631 net.cpp:157] Top shape: 16 512 29 29 (6889472)
I1128 23:39:22.748605  1631 net.cpp:165] Memory required for data: 3823476800
I1128 23:39:22.748625  1631 layer_factory.hpp:77] Creating layer relu3_12/blk
I1128 23:39:22.748644  1631 net.cpp:100] Creating Layer relu3_12/blk
I1128 23:39:22.748661  1631 net.cpp:434] relu3_12/blk <- conv3_12/blk/bn
I1128 23:39:22.748685  1631 net.cpp:395] relu3_12/blk -> conv3_12/blk/bn (in-place)
I1128 23:39:22.748984  1631 net.cpp:150] Setting up relu3_12/blk
I1128 23:39:22.749016  1631 net.cpp:157] Top shape: 16 512 29 29 (6889472)
I1128 23:39:22.749032  1631 net.cpp:165] Memory required for data: 3851034688
I1128 23:39:22.749047  1631 layer_factory.hpp:77] Creating layer conv3_12/blk
I1128 23:39:22.749073  1631 net.cpp:100] Creating Layer conv3_12/blk
I1128 23:39:22.749092  1631 net.cpp:434] conv3_12/blk <- conv3_12/blk/bn
I1128 23:39:22.749119  1631 net.cpp:408] conv3_12/blk -> conv3_12/blk
I1128 23:39:22.753789  1631 net.cpp:150] Setting up conv3_12/blk
I1128 23:39:22.753834  1631 net.cpp:157] Top shape: 16 256 29 29 (3444736)
I1128 23:39:22.753850  1631 net.cpp:165] Memory required for data: 3864813632
I1128 23:39:22.753870  1631 layer_factory.hpp:77] Creating layer pool3_12
I1128 23:39:22.753892  1631 net.cpp:100] Creating Layer pool3_12
I1128 23:39:22.753909  1631 net.cpp:434] pool3_12 <- conv3_12/blk
I1128 23:39:22.753937  1631 net.cpp:408] pool3_12 -> pool3_12
I1128 23:39:22.754269  1631 net.cpp:150] Setting up pool3_12
I1128 23:39:22.754307  1631 net.cpp:157] Top shape: 16 256 15 15 (921600)
I1128 23:39:22.754324  1631 net.cpp:165] Memory required for data: 3868500032
I1128 23:39:22.754340  1631 layer_factory.hpp:77] Creating layer pool3_12_pool3_12_0_split
I1128 23:39:22.754359  1631 net.cpp:100] Creating Layer pool3_12_pool3_12_0_split
I1128 23:39:22.754375  1631 net.cpp:434] pool3_12_pool3_12_0_split <- pool3_12
I1128 23:39:22.754395  1631 net.cpp:408] pool3_12_pool3_12_0_split -> pool3_12_pool3_12_0_split_0
I1128 23:39:22.754415  1631 net.cpp:408] pool3_12_pool3_12_0_split -> pool3_12_pool3_12_0_split_1
I1128 23:39:22.754509  1631 net.cpp:150] Setting up pool3_12_pool3_12_0_split
I1128 23:39:22.754534  1631 net.cpp:157] Top shape: 16 256 15 15 (921600)
I1128 23:39:22.754550  1631 net.cpp:157] Top shape: 16 256 15 15 (921600)
I1128 23:39:22.754564  1631 net.cpp:165] Memory required for data: 3875872832
I1128 23:39:22.754578  1631 layer_factory.hpp:77] Creating layer conv4_1/x1/bn
I1128 23:39:22.754603  1631 net.cpp:100] Creating Layer conv4_1/x1/bn
I1128 23:39:22.754622  1631 net.cpp:434] conv4_1/x1/bn <- pool3_12_pool3_12_0_split_0
I1128 23:39:22.754642  1631 net.cpp:408] conv4_1/x1/bn -> conv4_1/x1/bn
I1128 23:39:22.754978  1631 net.cpp:150] Setting up conv4_1/x1/bn
I1128 23:39:22.755005  1631 net.cpp:157] Top shape: 16 256 15 15 (921600)
I1128 23:39:22.755020  1631 net.cpp:165] Memory required for data: 3879559232
I1128 23:39:22.755048  1631 layer_factory.hpp:77] Creating layer conv4_1/x1/scale
I1128 23:39:22.755070  1631 net.cpp:100] Creating Layer conv4_1/x1/scale
I1128 23:39:22.755087  1631 net.cpp:434] conv4_1/x1/scale <- conv4_1/x1/bn
I1128 23:39:22.755105  1631 net.cpp:395] conv4_1/x1/scale -> conv4_1/x1/bn (in-place)
I1128 23:39:22.755198  1631 layer_factory.hpp:77] Creating layer conv4_1/x1/scale
I1128 23:39:22.755468  1631 net.cpp:150] Setting up conv4_1/x1/scale
I1128 23:39:22.755501  1631 net.cpp:157] Top shape: 16 256 15 15 (921600)
I1128 23:39:22.755515  1631 net.cpp:165] Memory required for data: 3883245632
I1128 23:39:22.755553  1631 layer_factory.hpp:77] Creating layer relu4_1/x1
I1128 23:39:22.755579  1631 net.cpp:100] Creating Layer relu4_1/x1
I1128 23:39:22.755599  1631 net.cpp:434] relu4_1/x1 <- conv4_1/x1/bn
I1128 23:39:22.755616  1631 net.cpp:395] relu4_1/x1 -> conv4_1/x1/bn (in-place)
I1128 23:39:22.755903  1631 net.cpp:150] Setting up relu4_1/x1
I1128 23:39:22.755933  1631 net.cpp:157] Top shape: 16 256 15 15 (921600)
I1128 23:39:22.755947  1631 net.cpp:165] Memory required for data: 3886932032
I1128 23:39:22.755964  1631 layer_factory.hpp:77] Creating layer conv4_1/x1
I1128 23:39:22.755990  1631 net.cpp:100] Creating Layer conv4_1/x1
I1128 23:39:22.756011  1631 net.cpp:434] conv4_1/x1 <- conv4_1/x1/bn
I1128 23:39:22.756037  1631 net.cpp:408] conv4_1/x1 -> conv4_1/x1
I1128 23:39:22.759496  1631 net.cpp:150] Setting up conv4_1/x1
I1128 23:39:22.759537  1631 net.cpp:157] Top shape: 16 128 15 15 (460800)
I1128 23:39:22.759553  1631 net.cpp:165] Memory required for data: 3888775232
I1128 23:39:22.759573  1631 layer_factory.hpp:77] Creating layer conv4_1/x2/bn
I1128 23:39:22.759601  1631 net.cpp:100] Creating Layer conv4_1/x2/bn
I1128 23:39:22.759621  1631 net.cpp:434] conv4_1/x2/bn <- conv4_1/x1
I1128 23:39:22.759641  1631 net.cpp:408] conv4_1/x2/bn -> conv4_1/x2/bn
I1128 23:39:22.759989  1631 net.cpp:150] Setting up conv4_1/x2/bn
I1128 23:39:22.760017  1631 net.cpp:157] Top shape: 16 128 15 15 (460800)
I1128 23:39:22.760031  1631 net.cpp:165] Memory required for data: 3890618432
I1128 23:39:22.760062  1631 layer_factory.hpp:77] Creating layer conv4_1/x2/scale
I1128 23:39:22.760087  1631 net.cpp:100] Creating Layer conv4_1/x2/scale
I1128 23:39:22.760103  1631 net.cpp:434] conv4_1/x2/scale <- conv4_1/x2/bn
I1128 23:39:22.760121  1631 net.cpp:395] conv4_1/x2/scale -> conv4_1/x2/bn (in-place)
I1128 23:39:22.760217  1631 layer_factory.hpp:77] Creating layer conv4_1/x2/scale
I1128 23:39:22.760426  1631 net.cpp:150] Setting up conv4_1/x2/scale
I1128 23:39:22.760452  1631 net.cpp:157] Top shape: 16 128 15 15 (460800)
I1128 23:39:22.760466  1631 net.cpp:165] Memory required for data: 3892461632
I1128 23:39:22.760486  1631 layer_factory.hpp:77] Creating layer relu4_1/x2
I1128 23:39:22.760511  1631 net.cpp:100] Creating Layer relu4_1/x2
I1128 23:39:22.760530  1631 net.cpp:434] relu4_1/x2 <- conv4_1/x2/bn
I1128 23:39:22.760548  1631 net.cpp:395] relu4_1/x2 -> conv4_1/x2/bn (in-place)
I1128 23:39:22.761963  1631 net.cpp:150] Setting up relu4_1/x2
I1128 23:39:22.762003  1631 net.cpp:157] Top shape: 16 128 15 15 (460800)
I1128 23:39:22.762019  1631 net.cpp:165] Memory required for data: 3894304832
I1128 23:39:22.762034  1631 layer_factory.hpp:77] Creating layer conv4_1/x2
I1128 23:39:22.762056  1631 net.cpp:100] Creating Layer conv4_1/x2
I1128 23:39:22.762074  1631 net.cpp:434] conv4_1/x2 <- conv4_1/x2/bn
I1128 23:39:22.762101  1631 net.cpp:408] conv4_1/x2 -> conv4_1/x2
I1128 23:39:22.764472  1631 net.cpp:150] Setting up conv4_1/x2
I1128 23:39:22.764513  1631 net.cpp:157] Top shape: 16 32 15 15 (115200)
I1128 23:39:22.764529  1631 net.cpp:165] Memory required for data: 3894765632
I1128 23:39:22.764549  1631 layer_factory.hpp:77] Creating layer concat_4_1
I1128 23:39:22.764569  1631 net.cpp:100] Creating Layer concat_4_1
I1128 23:39:22.764586  1631 net.cpp:434] concat_4_1 <- pool3_12_pool3_12_0_split_1
I1128 23:39:22.764605  1631 net.cpp:434] concat_4_1 <- conv4_1/x2
I1128 23:39:22.764632  1631 net.cpp:408] concat_4_1 -> concat_4_1
I1128 23:39:22.764703  1631 net.cpp:150] Setting up concat_4_1
I1128 23:39:22.764741  1631 net.cpp:157] Top shape: 16 288 15 15 (1036800)
I1128 23:39:22.764760  1631 net.cpp:165] Memory required for data: 3898912832
I1128 23:39:22.764776  1631 layer_factory.hpp:77] Creating layer concat_4_1_concat_4_1_0_split
I1128 23:39:22.764794  1631 net.cpp:100] Creating Layer concat_4_1_concat_4_1_0_split
I1128 23:39:22.764828  1631 net.cpp:434] concat_4_1_concat_4_1_0_split <- concat_4_1
I1128 23:39:22.764850  1631 net.cpp:408] concat_4_1_concat_4_1_0_split -> concat_4_1_concat_4_1_0_split_0
I1128 23:39:22.764886  1631 net.cpp:408] concat_4_1_concat_4_1_0_split -> concat_4_1_concat_4_1_0_split_1
I1128 23:39:22.764982  1631 net.cpp:150] Setting up concat_4_1_concat_4_1_0_split
I1128 23:39:22.765007  1631 net.cpp:157] Top shape: 16 288 15 15 (1036800)
I1128 23:39:22.765023  1631 net.cpp:157] Top shape: 16 288 15 15 (1036800)
I1128 23:39:22.765038  1631 net.cpp:165] Memory required for data: 3907207232
I1128 23:39:22.765053  1631 layer_factory.hpp:77] Creating layer conv4_2/x1/bn
I1128 23:39:22.765079  1631 net.cpp:100] Creating Layer conv4_2/x1/bn
I1128 23:39:22.765096  1631 net.cpp:434] conv4_2/x1/bn <- concat_4_1_concat_4_1_0_split_0
I1128 23:39:22.765115  1631 net.cpp:408] conv4_2/x1/bn -> conv4_2/x1/bn
I1128 23:39:22.765453  1631 net.cpp:150] Setting up conv4_2/x1/bn
I1128 23:39:22.765480  1631 net.cpp:157] Top shape: 16 288 15 15 (1036800)
I1128 23:39:22.765496  1631 net.cpp:165] Memory required for data: 3911354432
I1128 23:39:22.765516  1631 layer_factory.hpp:77] Creating layer conv4_2/x1/scale
I1128 23:39:22.765537  1631 net.cpp:100] Creating Layer conv4_2/x1/scale
I1128 23:39:22.765552  1631 net.cpp:434] conv4_2/x1/scale <- conv4_2/x1/bn
I1128 23:39:22.765570  1631 net.cpp:395] conv4_2/x1/scale -> conv4_2/x1/bn (in-place)
I1128 23:39:22.765676  1631 layer_factory.hpp:77] Creating layer conv4_2/x1/scale
I1128 23:39:22.765910  1631 net.cpp:150] Setting up conv4_2/x1/scale
I1128 23:39:22.765944  1631 net.cpp:157] Top shape: 16 288 15 15 (1036800)
I1128 23:39:22.765960  1631 net.cpp:165] Memory required for data: 3915501632
I1128 23:39:22.765980  1631 layer_factory.hpp:77] Creating layer relu4_2/x1
I1128 23:39:22.765998  1631 net.cpp:100] Creating Layer relu4_2/x1
I1128 23:39:22.766014  1631 net.cpp:434] relu4_2/x1 <- conv4_2/x1/bn
I1128 23:39:22.766032  1631 net.cpp:395] relu4_2/x1 -> conv4_2/x1/bn (in-place)
I1128 23:39:22.767477  1631 net.cpp:150] Setting up relu4_2/x1
I1128 23:39:22.767516  1631 net.cpp:157] Top shape: 16 288 15 15 (1036800)
I1128 23:39:22.767532  1631 net.cpp:165] Memory required for data: 3919648832
I1128 23:39:22.767549  1631 layer_factory.hpp:77] Creating layer conv4_2/x1
I1128 23:39:22.767577  1631 net.cpp:100] Creating Layer conv4_2/x1
I1128 23:39:22.767597  1631 net.cpp:434] conv4_2/x1 <- conv4_2/x1/bn
I1128 23:39:22.767617  1631 net.cpp:408] conv4_2/x1 -> conv4_2/x1
I1128 23:39:22.769963  1631 net.cpp:150] Setting up conv4_2/x1
I1128 23:39:22.770010  1631 net.cpp:157] Top shape: 16 128 15 15 (460800)
I1128 23:39:22.770030  1631 net.cpp:165] Memory required for data: 3921492032
I1128 23:39:22.770050  1631 layer_factory.hpp:77] Creating layer conv4_2/x2/bn
I1128 23:39:22.770071  1631 net.cpp:100] Creating Layer conv4_2/x2/bn
I1128 23:39:22.770087  1631 net.cpp:434] conv4_2/x2/bn <- conv4_2/x1
I1128 23:39:22.770113  1631 net.cpp:408] conv4_2/x2/bn -> conv4_2/x2/bn
I1128 23:39:22.770455  1631 net.cpp:150] Setting up conv4_2/x2/bn
I1128 23:39:22.770483  1631 net.cpp:157] Top shape: 16 128 15 15 (460800)
I1128 23:39:22.770498  1631 net.cpp:165] Memory required for data: 3923335232
I1128 23:39:22.770519  1631 layer_factory.hpp:77] Creating layer conv4_2/x2/scale
I1128 23:39:22.770545  1631 net.cpp:100] Creating Layer conv4_2/x2/scale
I1128 23:39:22.770565  1631 net.cpp:434] conv4_2/x2/scale <- conv4_2/x2/bn
I1128 23:39:22.770583  1631 net.cpp:395] conv4_2/x2/scale -> conv4_2/x2/bn (in-place)
I1128 23:39:22.770694  1631 layer_factory.hpp:77] Creating layer conv4_2/x2/scale
…
I1128 23:39:24.578977  1631 net.cpp:408] conv5_24/x2 -> conv5_24/x2
I1128 23:39:24.581111  1631 net.cpp:150] Setting up conv5_24/x2
I1128 23:39:24.581146  1631 net.cpp:157] Top shape: 8 32 8 8 (16384)
I1128 23:39:24.581159  1631 net.cpp:165] Memory required for data: 4668170336
I1128 23:39:24.581195  1631 layer_factory.hpp:77] Creating layer concat_5_24
I1128 23:39:24.581214  1631 net.cpp:100] Creating Layer concat_5_24
I1128 23:39:24.581235  1631 net.cpp:434] concat_5_24 <- concat_5_23_concat_5_23_0_split_1
I1128 23:39:24.581252  1631 net.cpp:434] concat_5_24 <- conv5_24/x2
I1128 23:39:24.581267  1631 net.cpp:408] concat_5_24 -> concat_5_24
I1128 23:39:24.581328  1631 net.cpp:150] Setting up concat_5_24
I1128 23:39:24.581347  1631 net.cpp:157] Top shape: 8 1664 8 8 (851968)
I1128 23:39:24.581358  1631 net.cpp:165] Memory required for data: 4671578208
I1128 23:39:24.581370  1631 layer_factory.hpp:77] Creating layer concat_5_24_concat_5_24_0_split
I1128 23:39:24.581393  1631 net.cpp:100] Creating Layer concat_5_24_concat_5_24_0_split
I1128 23:39:24.581418  1631 net.cpp:434] concat_5_24_concat_5_24_0_split <- concat_5_24
I1128 23:39:24.581435  1631 net.cpp:408] concat_5_24_concat_5_24_0_split -> concat_5_24_concat_5_24_0_split_0
I1128 23:39:24.581457  1631 net.cpp:408] concat_5_24_concat_5_24_0_split -> concat_5_24_concat_5_24_0_split_1
I1128 23:39:24.581542  1631 net.cpp:150] Setting up concat_5_24_concat_5_24_0_split
I1128 23:39:24.581562  1631 net.cpp:157] Top shape: 8 1664 8 8 (851968)
I1128 23:39:24.581574  1631 net.cpp:157] Top shape: 8 1664 8 8 (851968)
I1128 23:39:24.581584  1631 net.cpp:165] Memory required for data: 4678393952
I1128 23:39:24.581596  1631 layer_factory.hpp:77] Creating layer conv5_25/x1/bn
I1128 23:39:24.581617  1631 net.cpp:100] Creating Layer conv5_25/x1/bn
I1128 23:39:24.581632  1631 net.cpp:434] conv5_25/x1/bn <- concat_5_24_concat_5_24_0_split_0
I1128 23:39:24.581647  1631 net.cpp:408] conv5_25/x1/bn -> conv5_25/x1/bn
I1128 23:39:24.582011  1631 net.cpp:150] Setting up conv5_25/x1/bn
I1128 23:39:24.582034  1631 net.cpp:157] Top shape: 8 1664 8 8 (851968)
I1128 23:39:24.582046  1631 net.cpp:165] Memory required for data: 4681801824
I1128 23:39:24.582063  1631 layer_factory.hpp:77] Creating layer conv5_25/x1/scale
I1128 23:39:24.582084  1631 net.cpp:100] Creating Layer conv5_25/x1/scale
I1128 23:39:24.582100  1631 net.cpp:434] conv5_25/x1/scale <- conv5_25/x1/bn
I1128 23:39:24.582115  1631 net.cpp:395] conv5_25/x1/scale -> conv5_25/x1/bn (in-place)
I1128 23:39:24.582224  1631 layer_factory.hpp:77] Creating layer conv5_25/x1/scale
I1128 23:39:24.582460  1631 net.cpp:150] Setting up conv5_25/x1/scale
I1128 23:39:24.582481  1631 net.cpp:157] Top shape: 8 1664 8 8 (851968)
I1128 23:39:24.582492  1631 net.cpp:165] Memory required for data: 4685209696
I1128 23:39:24.582507  1631 layer_factory.hpp:77] Creating layer relu5_25/x1
I1128 23:39:24.582523  1631 net.cpp:100] Creating Layer relu5_25/x1
I1128 23:39:24.582536  1631 net.cpp:434] relu5_25/x1 <- conv5_25/x1/bn
I1128 23:39:24.582551  1631 net.cpp:395] relu5_25/x1 -> conv5_25/x1/bn (in-place)
I1128 23:39:24.582805  1631 net.cpp:150] Setting up relu5_25/x1
I1128 23:39:24.582830  1631 net.cpp:157] Top shape: 8 1664 8 8 (851968)
I1128 23:39:24.582842  1631 net.cpp:165] Memory required for data: 4688617568
I1128 23:39:24.582854  1631 layer_factory.hpp:77] Creating layer conv5_25/x1
I1128 23:39:24.582870  1631 net.cpp:100] Creating Layer conv5_25/x1
I1128 23:39:24.582883  1631 net.cpp:434] conv5_25/x1 <- conv5_25/x1/bn
I1128 23:39:24.582906  1631 net.cpp:408] conv5_25/x1 -> conv5_25/x1
I1128 23:39:24.588318  1631 net.cpp:150] Setting up conv5_25/x1
I1128 23:39:24.588353  1631 net.cpp:157] Top shape: 8 128 8 8 (65536)
I1128 23:39:24.588367  1631 net.cpp:165] Memory required for data: 4688879712
I1128 23:39:24.588382  1631 layer_factory.hpp:77] Creating layer conv5_25/x2/bn
I1128 23:39:24.588405  1631 net.cpp:100] Creating Layer conv5_25/x2/bn
I1128 23:39:24.588421  1631 net.cpp:434] conv5_25/x2/bn <- conv5_25/x1
I1128 23:39:24.588438  1631 net.cpp:408] conv5_25/x2/bn -> conv5_25/x2/bn
I1128 23:39:24.588760  1631 net.cpp:150] Setting up conv5_25/x2/bn
I1128 23:39:24.588783  1631 net.cpp:157] Top shape: 8 128 8 8 (65536)
I1128 23:39:24.588794  1631 net.cpp:165] Memory required for data: 4689141856
I1128 23:39:24.588812  1631 layer_factory.hpp:77] Creating layer conv5_25/x2/scale
I1128 23:39:24.588842  1631 net.cpp:100] Creating Layer conv5_25/x2/scale
I1128 23:39:24.588857  1631 net.cpp:434] conv5_25/x2/scale <- conv5_25/x2/bn
I1128 23:39:24.588872  1631 net.cpp:395] conv5_25/x2/scale -> conv5_25/x2/bn (in-place)
I1128 23:39:24.588965  1631 layer_factory.hpp:77] Creating layer conv5_25/x2/scale
I1128 23:39:24.589159  1631 net.cpp:150] Setting up conv5_25/x2/scale
I1128 23:39:24.589180  1631 net.cpp:157] Top shape: 8 128 8 8 (65536)
I1128 23:39:24.589191  1631 net.cpp:165] Memory required for data: 4689404000
I1128 23:39:24.589206  1631 layer_factory.hpp:77] Creating layer relu5_25/x2
I1128 23:39:24.589222  1631 net.cpp:100] Creating Layer relu5_25/x2
I1128 23:39:24.589242  1631 net.cpp:434] relu5_25/x2 <- conv5_25/x2/bn
I1128 23:39:24.589269  1631 net.cpp:395] relu5_25/x2 -> conv5_25/x2/bn (in-place)
I1128 23:39:24.589514  1631 net.cpp:150] Setting up relu5_25/x2
I1128 23:39:24.589537  1631 net.cpp:157] Top shape: 8 128 8 8 (65536)
I1128 23:39:24.589548  1631 net.cpp:165] Memory required for data: 4689666144
I1128 23:39:24.589560  1631 layer_factory.hpp:77] Creating layer conv5_25/x2
I1128 23:39:24.589582  1631 net.cpp:100] Creating Layer conv5_25/x2
I1128 23:39:24.589598  1631 net.cpp:434] conv5_25/x2 <- conv5_25/x2/bn
I1128 23:39:24.589619  1631 net.cpp:408] conv5_25/x2 -> conv5_25/x2
I1128 23:39:24.592746  1631 net.cpp:150] Setting up conv5_25/x2
I1128 23:39:24.592780  1631 net.cpp:157] Top shape: 8 32 8 8 (16384)
I1128 23:39:24.592793  1631 net.cpp:165] Memory required for data: 4689731680
I1128 23:39:24.592816  1631 layer_factory.hpp:77] Creating layer concat_5_25
I1128 23:39:24.592835  1631 net.cpp:100] Creating Layer concat_5_25
I1128 23:39:24.592849  1631 net.cpp:434] concat_5_25 <- concat_5_24_concat_5_24_0_split_1
I1128 23:39:24.592865  1631 net.cpp:434] concat_5_25 <- conv5_25/x2
I1128 23:39:24.592886  1631 net.cpp:408] concat_5_25 -> concat_5_25
I1128 23:39:24.592952  1631 net.cpp:150] Setting up concat_5_25
I1128 23:39:24.592972  1631 net.cpp:157] Top shape: 8 1696 8 8 (868352)
I1128 23:39:24.592983  1631 net.cpp:165] Memory required for data: 4693205088
I1128 23:39:24.592994  1631 layer_factory.hpp:77] Creating layer concat_5_25_concat_5_25_0_split
I1128 23:39:24.593008  1631 net.cpp:100] Creating Layer concat_5_25_concat_5_25_0_split
I1128 23:39:24.593021  1631 net.cpp:434] concat_5_25_concat_5_25_0_split <- concat_5_25
I1128 23:39:24.593044  1631 net.cpp:408] concat_5_25_concat_5_25_0_split -> concat_5_25_concat_5_25_0_split_0
I1128 23:39:24.593065  1631 net.cpp:408] concat_5_25_concat_5_25_0_split -> concat_5_25_concat_5_25_0_split_1
I1128 23:39:24.593152  1631 net.cpp:150] Setting up concat_5_25_concat_5_25_0_split
I1128 23:39:24.593173  1631 net.cpp:157] Top shape: 8 1696 8 8 (868352)
I1128 23:39:24.593184  1631 net.cpp:157] Top shape: 8 1696 8 8 (868352)
I1128 23:39:24.593195  1631 net.cpp:165] Memory required for data: 4700151904
I1128 23:39:24.593206  1631 layer_factory.hpp:77] Creating layer conv5_26/x1/bn
I1128 23:39:24.593227  1631 net.cpp:100] Creating Layer conv5_26/x1/bn
I1128 23:39:24.593242  1631 net.cpp:434] conv5_26/x1/bn <- concat_5_25_concat_5_25_0_split_0
I1128 23:39:24.593258  1631 net.cpp:408] conv5_26/x1/bn -> conv5_26/x1/bn
I1128 23:39:24.593610  1631 net.cpp:150] Setting up conv5_26/x1/bn
I1128 23:39:24.593632  1631 net.cpp:157] Top shape: 8 1696 8 8 (868352)
I1128 23:39:24.593643  1631 net.cpp:165] Memory required for data: 4703625312
I1128 23:39:24.593662  1631 layer_factory.hpp:77] Creating layer conv5_26/x1/scale
I1128 23:39:24.593677  1631 net.cpp:100] Creating Layer conv5_26/x1/scale
I1128 23:39:24.593691  1631 net.cpp:434] conv5_26/x1/scale <- conv5_26/x1/bn
I1128 23:39:24.593719  1631 net.cpp:395] conv5_26/x1/scale -> conv5_26/x1/bn (in-place)
I1128 23:39:24.593837  1631 layer_factory.hpp:77] Creating layer conv5_26/x1/scale
I1128 23:39:24.594082  1631 net.cpp:150] Setting up conv5_26/x1/scale
I1128 23:39:24.594105  1631 net.cpp:157] Top shape: 8 1696 8 8 (868352)
I1128 23:39:24.594115  1631 net.cpp:165] Memory required for data: 4707098720
I1128 23:39:24.594146  1631 layer_factory.hpp:77] Creating layer relu5_26/x1
I1128 23:39:24.594162  1631 net.cpp:100] Creating Layer relu5_26/x1
I1128 23:39:24.594175  1631 net.cpp:434] relu5_26/x1 <- conv5_26/x1/bn
I1128 23:39:24.594194  1631 net.cpp:395] relu5_26/x1 -> conv5_26/x1/bn (in-place)
I1128 23:39:24.594445  1631 net.cpp:150] Setting up relu5_26/x1
I1128 23:39:24.594470  1631 net.cpp:157] Top shape: 8 1696 8 8 (868352)
I1128 23:39:24.594481  1631 net.cpp:165] Memory required for data: 4710572128
I1128 23:39:24.594492  1631 layer_factory.hpp:77] Creating layer conv5_26/x1
I1128 23:39:24.594516  1631 net.cpp:100] Creating Layer conv5_26/x1
I1128 23:39:24.594532  1631 net.cpp:434] conv5_26/x1 <- conv5_26/x1/bn
I1128 23:39:24.594565  1631 net.cpp:408] conv5_26/x1 -> conv5_26/x1
I1128 23:39:24.596856  1631 net.cpp:150] Setting up conv5_26/x1
I1128 23:39:24.596890  1631 net.cpp:157] Top shape: 8 128 8 8 (65536)
I1128 23:39:24.596904  1631 net.cpp:165] Memory required for data: 4710834272
I1128 23:39:24.596918  1631 layer_factory.hpp:77] Creating layer conv5_26/x2/bn
I1128 23:39:24.596941  1631 net.cpp:100] Creating Layer conv5_26/x2/bn
I1128 23:39:24.596957  1631 net.cpp:434] conv5_26/x2/bn <- conv5_26/x1
I1128 23:39:24.596973  1631 net.cpp:408] conv5_26/x2/bn -> conv5_26/x2/bn
I1128 23:39:24.597292  1631 net.cpp:150] Setting up conv5_26/x2/bn
I1128 23:39:24.597314  1631 net.cpp:157] Top shape: 8 128 8 8 (65536)
I1128 23:39:24.597326  1631 net.cpp:165] Memory required for data: 4711096416
I1128 23:39:24.597342  1631 layer_factory.hpp:77] Creating layer conv5_26/x2/scale
I1128 23:39:24.597358  1631 net.cpp:100] Creating Layer conv5_26/x2/scale
I1128 23:39:24.597373  1631 net.cpp:434] conv5_26/x2/scale <- conv5_26/x2/bn
I1128 23:39:24.597388  1631 net.cpp:395] conv5_26/x2/scale -> conv5_26/x2/bn (in-place)
I1128 23:39:24.597481  1631 layer_factory.hpp:77] Creating layer conv5_26/x2/scale
I1128 23:39:24.597676  1631 net.cpp:150] Setting up conv5_26/x2/scale
I1128 23:39:24.597703  1631 net.cpp:157] Top shape: 8 128 8 8 (65536)
I1128 23:39:24.597717  1631 net.cpp:165] Memory required for data: 4711358560
I1128 23:39:24.597733  1631 layer_factory.hpp:77] Creating layer relu5_26/x2
I1128 23:39:24.597754  1631 net.cpp:100] Creating Layer relu5_26/x2
I1128 23:39:24.597769  1631 net.cpp:434] relu5_26/x2 <- conv5_26/x2/bn
I1128 23:39:24.597782  1631 net.cpp:395] relu5_26/x2 -> conv5_26/x2/bn (in-place)
I1128 23:39:24.598023  1631 net.cpp:150] Setting up relu5_26/x2
I1128 23:39:24.598047  1631 net.cpp:157] Top shape: 8 128 8 8 (65536)
I1128 23:39:24.598058  1631 net.cpp:165] Memory required for data: 4711620704
I1128 23:39:24.598069  1631 layer_factory.hpp:77] Creating layer conv5_26/x2
I1128 23:39:24.598093  1631 net.cpp:100] Creating Layer conv5_26/x2
I1128 23:39:24.598107  1631 net.cpp:434] conv5_26/x2 <- conv5_26/x2/bn
I1128 23:39:24.598129  1631 net.cpp:408] conv5_26/x2 -> conv5_26/x2
I1128 23:39:24.600255  1631 net.cpp:150] Setting up conv5_26/x2
I1128 23:39:24.600289  1631 net.cpp:157] Top shape: 8 32 8 8 (16384)
I1128 23:39:24.600301  1631 net.cpp:165] Memory required for data: 4711686240
I1128 23:39:24.600317  1631 layer_factory.hpp:77] Creating layer concat_5_26
I1128 23:39:24.600333  1631 net.cpp:100] Creating Layer concat_5_26
I1128 23:39:24.600347  1631 net.cpp:434] concat_5_26 <- concat_5_25_concat_5_25_0_split_1
I1128 23:39:24.600363  1631 net.cpp:434] concat_5_26 <- conv5_26/x2
I1128 23:39:24.600384  1631 net.cpp:408] concat_5_26 -> concat_5_26
I1128 23:39:24.600448  1631 net.cpp:150] Setting up concat_5_26
I1128 23:39:24.600474  1631 net.cpp:157] Top shape: 8 1728 8 8 (884736)
I1128 23:39:24.600487  1631 net.cpp:165] Memory required for data: 4715225184
I1128 23:39:24.600499  1631 layer_factory.hpp:77] Creating layer concat_5_26_concat_5_26_0_split
I1128 23:39:24.600515  1631 net.cpp:100] Creating Layer concat_5_26_concat_5_26_0_split
I1128 23:39:24.600528  1631 net.cpp:434] concat_5_26_concat_5_26_0_split <- concat_5_26
I1128 23:39:24.600543  1631 net.cpp:408] concat_5_26_concat_5_26_0_split -> concat_5_26_concat_5_26_0_split_0
I1128 23:39:24.600575  1631 net.cpp:408] concat_5_26_concat_5_26_0_split -> concat_5_26_concat_5_26_0_split_1
I1128 23:39:24.600666  1631 net.cpp:150] Setting up concat_5_26_concat_5_26_0_split
I1128 23:39:24.600687  1631 net.cpp:157] Top shape: 8 1728 8 8 (884736)
I1128 23:39:24.600706  1631 net.cpp:157] Top shape: 8 1728 8 8 (884736)
I1128 23:39:24.600718  1631 net.cpp:165] Memory required for data: 4722303072
I1128 23:39:24.600730  1631 layer_factory.hpp:77] Creating layer conv5_27/x1/bn
I1128 23:39:24.600750  1631 net.cpp:100] Creating Layer conv5_27/x1/bn
I1128 23:39:24.600766  1631 net.cpp:434] conv5_27/x1/bn <- concat_5_26_concat_5_26_0_split_0
I1128 23:39:24.600782  1631 net.cpp:408] conv5_27/x1/bn -> conv5_27/x1/bn
I1128 23:39:24.601161  1631 net.cpp:150] Setting up conv5_27/x1/bn
I1128 23:39:24.601184  1631 net.cpp:157] Top shape: 8 1728 8 8 (884736)
I1128 23:39:24.601196  1631 net.cpp:165] Memory required for data: 4725842016
I1128 23:39:24.601212  1631 layer_factory.hpp:77] Creating layer conv5_27/x1/scale
I1128 23:39:24.601228  1631 net.cpp:100] Creating Layer conv5_27/x1/scale
I1128 23:39:24.601243  1631 net.cpp:434] conv5_27/x1/scale <- conv5_27/x1/bn
I1128 23:39:24.601256  1631 net.cpp:395] conv5_27/x1/scale -> conv5_27/x1/bn (in-place)
I1128 23:39:24.601373  1631 layer_factory.hpp:77] Creating layer conv5_27/x1/scale
I1128 23:39:24.601614  1631 net.cpp:150] Setting up conv5_27/x1/scale
I1128 23:39:24.601641  1631 net.cpp:157] Top shape: 8 1728 8 8 (884736)
I1128 23:39:24.601655  1631 net.cpp:165] Memory required for data: 4729380960
I1128 23:39:24.601670  1631 layer_factory.hpp:77] Creating layer relu5_27/x1
I1128 23:39:24.601685  1631 net.cpp:100] Creating Layer relu5_27/x1
I1128 23:39:24.601706  1631 net.cpp:434] relu5_27/x1 <- conv5_27/x1/bn
I1128 23:39:24.601722  1631 net.cpp:395] relu5_27/x1 -> conv5_27/x1/bn (in-place)
I1128 23:39:24.601970  1631 net.cpp:150] Setting up relu5_27/x1
I1128 23:39:24.601999  1631 net.cpp:157] Top shape: 8 1728 8 8 (884736)
I1128 23:39:24.602010  1631 net.cpp:165] Memory required for data: 4732919904
I1128 23:39:24.602022  1631 layer_factory.hpp:77] Creating layer conv5_27/x1
I1128 23:39:24.602038  1631 net.cpp:100] Creating Layer conv5_27/x1
I1128 23:39:24.602052  1631 net.cpp:434] conv5_27/x1 <- conv5_27/x1/bn
I1128 23:39:24.602074  1631 net.cpp:408] conv5_27/x1 -> conv5_27/x1
I1128 23:39:24.605787  1631 net.cpp:150] Setting up conv5_27/x1
I1128 23:39:24.605821  1631 net.cpp:157] Top shape: 8 128 8 8 (65536)
I1128 23:39:24.605835  1631 net.cpp:165] Memory required for data: 4733182048
I1128 23:39:24.605850  1631 layer_factory.hpp:77] Creating layer conv5_27/x2/bn
I1128 23:39:24.605873  1631 net.cpp:100] Creating Layer conv5_27/x2/bn
I1128 23:39:24.605890  1631 net.cpp:434] conv5_27/x2/bn <- conv5_27/x1
I1128 23:39:24.605906  1631 net.cpp:408] conv5_27/x2/bn -> conv5_27/x2/bn
I1128 23:39:24.606228  1631 net.cpp:150] Setting up conv5_27/x2/bn
I1128 23:39:24.606251  1631 net.cpp:157] Top shape: 8 128 8 8 (65536)
I1128 23:39:24.606262  1631 net.cpp:165] Memory required for data: 4733444192
I1128 23:39:24.606279  1631 layer_factory.hpp:77] Creating layer conv5_27/x2/scale
I1128 23:39:24.606295  1631 net.cpp:100] Creating Layer conv5_27/x2/scale
I1128 23:39:24.606309  1631 net.cpp:434] conv5_27/x2/scale <- conv5_27/x2/bn
I1128 23:39:24.606329  1631 net.cpp:395] conv5_27/x2/scale -> conv5_27/x2/bn (in-place)
I1128 23:39:24.606422  1631 layer_factory.hpp:77] Creating layer conv5_27/x2/scale
I1128 23:39:24.606624  1631 net.cpp:150] Setting up conv5_27/x2/scale
I1128 23:39:24.606647  1631 net.cpp:157] Top shape: 8 128 8 8 (65536)
I1128 23:39:24.606657  1631 net.cpp:165] Memory required for data: 4733706336
I1128 23:39:24.606673  1631 layer_factory.hpp:77] Creating layer relu5_27/x2
I1128 23:39:24.606688  1631 net.cpp:100] Creating Layer relu5_27/x2
I1128 23:39:24.606709  1631 net.cpp:434] relu5_27/x2 <- conv5_27/x2/bn
I1128 23:39:24.606724  1631 net.cpp:395] relu5_27/x2 -> conv5_27/x2/bn (in-place)
I1128 23:39:24.608032  1631 net.cpp:150] Setting up relu5_27/x2
I1128 23:39:24.608078  1631 net.cpp:157] Top shape: 8 128 8 8 (65536)
I1128 23:39:24.608093  1631 net.cpp:165] Memory required for data: 4733968480
I1128 23:39:24.608105  1631 layer_factory.hpp:77] Creating layer conv5_27/x2
I1128 23:39:24.608131  1631 net.cpp:100] Creating Layer conv5_27/x2
I1128 23:39:24.608148  1631 net.cpp:434] conv5_27/x2 <- conv5_27/x2/bn
I1128 23:39:24.608165  1631 net.cpp:408] conv5_27/x2 -> conv5_27/x2
I1128 23:39:24.611292  1631 net.cpp:150] Setting up conv5_27/x2
I1128 23:39:24.611344  1631 net.cpp:157] Top shape: 8 32 8 8 (16384)
I1128 23:39:24.611359  1631 net.cpp:165] Memory required for data: 4734034016
I1128 23:39:24.611374  1631 layer_factory.hpp:77] Creating layer concat_5_27
I1128 23:39:24.611399  1631 net.cpp:100] Creating Layer concat_5_27
I1128 23:39:24.611428  1631 net.cpp:434] concat_5_27 <- concat_5_26_concat_5_26_0_split_1
I1128 23:39:24.611445  1631 net.cpp:434] concat_5_27 <- conv5_27/x2
I1128 23:39:24.611461  1631 net.cpp:408] concat_5_27 -> concat_5_27
I1128 23:39:24.611534  1631 net.cpp:150] Setting up concat_5_27
I1128 23:39:24.611554  1631 net.cpp:157] Top shape: 8 1760 8 8 (901120)
I1128 23:39:24.611565  1631 net.cpp:165] Memory required for data: 4737638496
I1128 23:39:24.611577  1631 layer_factory.hpp:77] Creating layer concat_5_27_concat_5_27_0_split
I1128 23:39:24.611593  1631 net.cpp:100] Creating Layer concat_5_27_concat_5_27_0_split
I1128 23:39:24.611605  1631 net.cpp:434] concat_5_27_concat_5_27_0_split <- concat_5_27
I1128 23:39:24.611626  1631 net.cpp:408] concat_5_27_concat_5_27_0_split -> concat_5_27_concat_5_27_0_split_0
I1128 23:39:24.611645  1631 net.cpp:408] concat_5_27_concat_5_27_0_split -> concat_5_27_concat_5_27_0_split_1
I1128 23:39:24.611742  1631 net.cpp:150] Setting up concat_5_27_concat_5_27_0_split
I1128 23:39:24.611763  1631 net.cpp:157] Top shape: 8 1760 8 8 (901120)
I1128 23:39:24.611774  1631 net.cpp:157] Top shape: 8 1760 8 8 (901120)
I1128 23:39:24.611785  1631 net.cpp:165] Memory required for data: 4744847456
I1128 23:39:24.611798  1631 layer_factory.hpp:77] Creating layer conv5_28/x1/bn
I1128 23:39:24.611819  1631 net.cpp:100] Creating Layer conv5_28/x1/bn
I1128 23:39:24.611835  1631 net.cpp:434] conv5_28/x1/bn <- concat_5_27_concat_5_27_0_split_0
I1128 23:39:24.611855  1631 net.cpp:408] conv5_28/x1/bn -> conv5_28/x1/bn
I1128 23:39:24.612223  1631 net.cpp:150] Setting up conv5_28/x1/bn
I1128 23:39:24.612246  1631 net.cpp:157] Top shape: 8 1760 8 8 (901120)
I1128 23:39:24.612257  1631 net.cpp:165] Memory required for data: 4748451936
I1128 23:39:24.612275  1631 layer_factory.hpp:77] Creating layer conv5_28/x1/scale
I1128 23:39:24.612291  1631 net.cpp:100] Creating Layer conv5_28/x1/scale
I1128 23:39:24.612304  1631 net.cpp:434] conv5_28/x1/scale <- conv5_28/x1/bn
I1128 23:39:24.612324  1631 net.cpp:395] conv5_28/x1/scale -> conv5_28/x1/bn (in-place)
I1128 23:39:24.612447  1631 layer_factory.hpp:77] Creating layer conv5_28/x1/scale
I1128 23:39:24.612694  1631 net.cpp:150] Setting up conv5_28/x1/scale
I1128 23:39:24.612723  1631 net.cpp:157] Top shape: 8 1760 8 8 (901120)
I1128 23:39:24.612735  1631 net.cpp:165] Memory required for data: 4752056416
I1128 23:39:24.612751  1631 layer_factory.hpp:77] Creating layer relu5_28/x1
I1128 23:39:24.612766  1631 net.cpp:100] Creating Layer relu5_28/x1
I1128 23:39:24.612779  1631 net.cpp:434] relu5_28/x1 <- conv5_28/x1/bn
I1128 23:39:24.612798  1631 net.cpp:395] relu5_28/x1 -> conv5_28/x1/bn (in-place)
I1128 23:39:24.613049  1631 net.cpp:150] Setting up relu5_28/x1
I1128 23:39:24.613071  1631 net.cpp:157] Top shape: 8 1760 8 8 (901120)
I1128 23:39:24.613083  1631 net.cpp:165] Memory required for data: 4755660896
I1128 23:39:24.613095  1631 layer_factory.hpp:77] Creating layer conv5_28/x1
I1128 23:39:24.613117  1631 net.cpp:100] Creating Layer conv5_28/x1
I1128 23:39:24.613132  1631 net.cpp:434] conv5_28/x1 <- conv5_28/x1/bn
I1128 23:39:24.613154  1631 net.cpp:408] conv5_28/x1 -> conv5_28/x1
I1128 23:39:24.615520  1631 net.cpp:150] Setting up conv5_28/x1
I1128 23:39:24.615555  1631 net.cpp:157] Top shape: 8 128 8 8 (65536)
I1128 23:39:24.615582  1631 net.cpp:165] Memory required for data: 4755923040
I1128 23:39:24.615600  1631 layer_factory.hpp:77] Creating layer conv5_28/x2/bn
I1128 23:39:24.615622  1631 net.cpp:100] Creating Layer conv5_28/x2/bn
I1128 23:39:24.615638  1631 net.cpp:434] conv5_28/x2/bn <- conv5_28/x1
I1128 23:39:24.615654  1631 net.cpp:408] conv5_28/x2/bn -> conv5_28/x2/bn
I1128 23:39:24.615990  1631 net.cpp:150] Setting up conv5_28/x2/bn
I1128 23:39:24.616014  1631 net.cpp:157] Top shape: 8 128 8 8 (65536)
I1128 23:39:24.616024  1631 net.cpp:165] Memory required for data: 4756185184
I1128 23:39:24.616042  1631 layer_factory.hpp:77] Creating layer conv5_28/x2/scale
I1128 23:39:24.616057  1631 net.cpp:100] Creating Layer conv5_28/x2/scale
I1128 23:39:24.616086  1631 net.cpp:434] conv5_28/x2/scale <- conv5_28/x2/bn
I1128 23:39:24.616101  1631 net.cpp:395] conv5_28/x2/scale -> conv5_28/x2/bn (in-place)
I1128 23:39:24.616197  1631 layer_factory.hpp:77] Creating layer conv5_28/x2/scale
I1128 23:39:24.616397  1631 net.cpp:150] Setting up conv5_28/x2/scale
I1128 23:39:24.616420  1631 net.cpp:157] Top shape: 8 128 8 8 (65536)
I1128 23:39:24.616430  1631 net.cpp:165] Memory required for data: 4756447328
I1128 23:39:24.616446  1631 layer_factory.hpp:77] Creating layer relu5_28/x2
I1128 23:39:24.616466  1631 net.cpp:100] Creating Layer relu5_28/x2
I1128 23:39:24.616482  1631 net.cpp:434] relu5_28/x2 <- conv5_28/x2/bn
I1128 23:39:24.616495  1631 net.cpp:395] relu5_28/x2 -> conv5_28/x2/bn (in-place)
I1128 23:39:24.616752  1631 net.cpp:150] Setting up relu5_28/x2
I1128 23:39:24.616777  1631 net.cpp:157] Top shape: 8 128 8 8 (65536)
I1128 23:39:24.616788  1631 net.cpp:165] Memory required for data: 4756709472
I1128 23:39:24.616801  1631 layer_factory.hpp:77] Creating layer conv5_28/x2
I1128 23:39:24.616822  1631 net.cpp:100] Creating Layer conv5_28/x2
I1128 23:39:24.616838  1631 net.cpp:434] conv5_28/x2 <- conv5_28/x2/bn
I1128 23:39:24.616859  1631 net.cpp:408] conv5_28/x2 -> conv5_28/x2
I1128 23:39:24.618976  1631 net.cpp:150] Setting up conv5_28/x2
I1128 23:39:24.619012  1631 net.cpp:157] Top shape: 8 32 8 8 (16384)
I1128 23:39:24.619026  1631 net.cpp:165] Memory required for data: 4756775008
I1128 23:39:24.619041  1631 layer_factory.hpp:77] Creating layer concat_5_28
I1128 23:39:24.619057  1631 net.cpp:100] Creating Layer concat_5_28
I1128 23:39:24.619071  1631 net.cpp:434] concat_5_28 <- concat_5_27_concat_5_27_0_split_1
I1128 23:39:24.619087  1631 net.cpp:434] concat_5_28 <- conv5_28/x2
I1128 23:39:24.619102  1631 net.cpp:408] concat_5_28 -> concat_5_28
I1128 23:39:24.619173  1631 net.cpp:150] Setting up concat_5_28
I1128 23:39:24.619192  1631 net.cpp:157] Top shape: 8 1792 8 8 (917504)
I1128 23:39:24.619204  1631 net.cpp:165] Memory required for data: 4760445024
I1128 23:39:24.619215  1631 layer_factory.hpp:77] Creating layer concat_5_28_concat_5_28_0_split
I1128 23:39:24.619235  1631 net.cpp:100] Creating Layer concat_5_28_concat_5_28_0_split
I1128 23:39:24.619251  1631 net.cpp:434] concat_5_28_concat_5_28_0_split <- concat_5_28
I1128 23:39:24.619266  1631 net.cpp:408] concat_5_28_concat_5_28_0_split -> concat_5_28_concat_5_28_0_split_0
I1128 23:39:24.619284  1631 net.cpp:408] concat_5_28_concat_5_28_0_split -> concat_5_28_concat_5_28_0_split_1
I1128 23:39:24.619395  1631 net.cpp:150] Setting up concat_5_28_concat_5_28_0_split
I1128 23:39:24.619418  1631 net.cpp:157] Top shape: 8 1792 8 8 (917504)
I1128 23:39:24.619431  1631 net.cpp:157] Top shape: 8 1792 8 8 (917504)
I1128 23:39:24.619442  1631 net.cpp:165] Memory required for data: 4767785056
I1128 23:39:24.619454  1631 layer_factory.hpp:77] Creating layer conv5_29/x1/bn
I1128 23:39:24.619469  1631 net.cpp:100] Creating Layer conv5_29/x1/bn
I1128 23:39:24.619483  1631 net.cpp:434] conv5_29/x1/bn <- concat_5_28_concat_5_28_0_split_0
I1128 23:39:24.619504  1631 net.cpp:408] conv5_29/x1/bn -> conv5_29/x1/bn
I1128 23:39:24.619880  1631 net.cpp:150] Setting up conv5_29/x1/bn
I1128 23:39:24.619904  1631 net.cpp:157] Top shape: 8 1792 8 8 (917504)
I1128 23:39:24.619930  1631 net.cpp:165] Memory required for data: 4771455072
I1128 23:39:24.619951  1631 layer_factory.hpp:77] Creating layer conv5_29/x1/scale
I1128 23:39:24.619971  1631 net.cpp:100] Creating Layer conv5_29/x1/scale
I1128 23:39:24.619987  1631 net.cpp:434] conv5_29/x1/scale <- conv5_29/x1/bn
I1128 23:39:24.620002  1631 net.cpp:395] conv5_29/x1/scale -> conv5_29/x1/bn (in-place)
I1128 23:39:24.620110  1631 layer_factory.hpp:77] Creating layer conv5_29/x1/scale
I1128 23:39:24.620348  1631 net.cpp:150] Setting up conv5_29/x1/scale
I1128 23:39:24.620370  1631 net.cpp:157] Top shape: 8 1792 8 8 (917504)
I1128 23:39:24.620381  1631 net.cpp:165] Memory required for data: 4775125088
I1128 23:39:24.620398  1631 layer_factory.hpp:77] Creating layer relu5_29/x1
I1128 23:39:24.620429  1631 net.cpp:100] Creating Layer relu5_29/x1
I1128 23:39:24.620445  1631 net.cpp:434] relu5_29/x1 <- conv5_29/x1/bn
I1128 23:39:24.620460  1631 net.cpp:395] relu5_29/x1 -> conv5_29/x1/bn (in-place)
I1128 23:39:24.620707  1631 net.cpp:150] Setting up relu5_29/x1
I1128 23:39:24.620733  1631 net.cpp:157] Top shape: 8 1792 8 8 (917504)
I1128 23:39:24.620743  1631 net.cpp:165] Memory required for data: 4778795104
I1128 23:39:24.620756  1631 layer_factory.hpp:77] Creating layer conv5_29/x1
I1128 23:39:24.620777  1631 net.cpp:100] Creating Layer conv5_29/x1
I1128 23:39:24.620793  1631 net.cpp:434] conv5_29/x1 <- conv5_29/x1/bn
I1128 23:39:24.620813  1631 net.cpp:408] conv5_29/x1 -> conv5_29/x1
I1128 23:39:24.625126  1631 net.cpp:150] Setting up conv5_29/x1
I1128 23:39:24.625161  1631 net.cpp:157] Top shape: 8 128 8 8 (65536)
I1128 23:39:24.625174  1631 net.cpp:165] Memory required for data: 4779057248
I1128 23:39:24.625190  1631 layer_factory.hpp:77] Creating layer conv5_29/x2/bn
I1128 23:39:24.625212  1631 net.cpp:100] Creating Layer conv5_29/x2/bn
I1128 23:39:24.625228  1631 net.cpp:434] conv5_29/x2/bn <- conv5_29/x1
I1128 23:39:24.625249  1631 net.cpp:408] conv5_29/x2/bn -> conv5_29/x2/bn
I1128 23:39:24.625574  1631 net.cpp:150] Setting up conv5_29/x2/bn
I1128 23:39:24.625597  1631 net.cpp:157] Top shape: 8 128 8 8 (65536)
I1128 23:39:24.625607  1631 net.cpp:165] Memory required for data: 4779319392
I1128 23:39:24.625625  1631 layer_factory.hpp:77] Creating layer conv5_29/x2/scale
I1128 23:39:24.625641  1631 net.cpp:100] Creating Layer conv5_29/x2/scale
I1128 23:39:24.625654  1631 net.cpp:434] conv5_29/x2/scale <- conv5_29/x2/bn
I1128 23:39:24.625669  1631 net.cpp:395] conv5_29/x2/scale -> conv5_29/x2/bn (in-place)
I1128 23:39:24.625772  1631 layer_factory.hpp:77] Creating layer conv5_29/x2/scale
I1128 23:39:24.625974  1631 net.cpp:150] Setting up conv5_29/x2/scale
I1128 23:39:24.625995  1631 net.cpp:157] Top shape: 8 128 8 8 (65536)
I1128 23:39:24.626006  1631 net.cpp:165] Memory required for data: 4779581536
I1128 23:39:24.626022  1631 layer_factory.hpp:77] Creating layer relu5_29/x2
I1128 23:39:24.626039  1631 net.cpp:100] Creating Layer relu5_29/x2
I1128 23:39:24.626051  1631 net.cpp:434] relu5_29/x2 <- conv5_29/x2/bn
I1128 23:39:24.626070  1631 net.cpp:395] relu5_29/x2 -> conv5_29/x2/bn (in-place)
I1128 23:39:24.626317  1631 net.cpp:150] Setting up relu5_29/x2
I1128 23:39:24.626340  1631 net.cpp:157] Top shape: 8 128 8 8 (65536)
I1128 23:39:24.626353  1631 net.cpp:165] Memory required for data: 4779843680
I1128 23:39:24.626364  1631 layer_factory.hpp:77] Creating layer conv5_29/x2
I1128 23:39:24.626385  1631 net.cpp:100] Creating Layer conv5_29/x2
I1128 23:39:24.626401  1631 net.cpp:434] conv5_29/x2 <- conv5_29/x2/bn
I1128 23:39:24.626416  1631 net.cpp:408] conv5_29/x2 -> conv5_29/x2
I1128 23:39:24.629580  1631 net.cpp:150] Setting up conv5_29/x2
I1128 23:39:24.629613  1631 net.cpp:157] Top shape: 8 32 8 8 (16384)
I1128 23:39:24.629627  1631 net.cpp:165] Memory required for data: 4779909216
I1128 23:39:24.629642  1631 layer_factory.hpp:77] Creating layer concat_5_29
I1128 23:39:24.629664  1631 net.cpp:100] Creating Layer concat_5_29
I1128 23:39:24.629680  1631 net.cpp:434] concat_5_29 <- concat_5_28_concat_5_28_0_split_1
I1128 23:39:24.629715  1631 net.cpp:434] concat_5_29 <- conv5_29/x2
I1128 23:39:24.629734  1631 net.cpp:408] concat_5_29 -> concat_5_29
I1128 23:39:24.629807  1631 net.cpp:150] Setting up concat_5_29
I1128 23:39:24.629828  1631 net.cpp:157] Top shape: 8 1824 8 8 (933888)
I1128 23:39:24.629839  1631 net.cpp:165] Memory required for data: 4783644768
I1128 23:39:24.629851  1631 layer_factory.hpp:77] Creating layer concat_5_29_concat_5_29_0_split
I1128 23:39:24.629866  1631 net.cpp:100] Creating Layer concat_5_29_concat_5_29_0_split
I1128 23:39:24.629879  1631 net.cpp:434] concat_5_29_concat_5_29_0_split <- concat_5_29
I1128 23:39:24.629900  1631 net.cpp:408] concat_5_29_concat_5_29_0_split -> concat_5_29_concat_5_29_0_split_0
I1128 23:39:24.629920  1631 net.cpp:408] concat_5_29_concat_5_29_0_split -> concat_5_29_concat_5_29_0_split_1
I1128 23:39:24.630022  1631 net.cpp:150] Setting up concat_5_29_concat_5_29_0_split
I1128 23:39:24.630041  1631 net.cpp:157] Top shape: 8 1824 8 8 (933888)
I1128 23:39:24.630054  1631 net.cpp:157] Top shape: 8 1824 8 8 (933888)
I1128 23:39:24.630064  1631 net.cpp:165] Memory required for data: 4791115872
I1128 23:39:24.630076  1631 layer_factory.hpp:77] Creating layer conv5_30/x1/bn
I1128 23:39:24.630097  1631 net.cpp:100] Creating Layer conv5_30/x1/bn
I1128 23:39:24.630112  1631 net.cpp:434] conv5_30/x1/bn <- concat_5_29_concat_5_29_0_split_0
I1128 23:39:24.630133  1631 net.cpp:408] conv5_30/x1/bn -> conv5_30/x1/bn
I1128 23:39:24.630493  1631 net.cpp:150] Setting up conv5_30/x1/bn
I1128 23:39:24.630517  1631 net.cpp:157] Top shape: 8 1824 8 8 (933888)
I1128 23:39:24.630527  1631 net.cpp:165] Memory required for data: 4794851424
I1128 23:39:24.630544  1631 layer_factory.hpp:77] Creating layer conv5_30/x1/scale
I1128 23:39:24.630560  1631 net.cpp:100] Creating Layer conv5_30/x1/scale
I1128 23:39:24.630573  1631 net.cpp:434] conv5_30/x1/scale <- conv5_30/x1/bn
I1128 23:39:24.630587  1631 net.cpp:395] conv5_30/x1/scale -> conv5_30/x1/bn (in-place)
I1128 23:39:24.630729  1631 layer_factory.hpp:77] Creating layer conv5_30/x1/scale
I1128 23:39:24.630981  1631 net.cpp:150] Setting up conv5_30/x1/scale
I1128 23:39:24.631003  1631 net.cpp:157] Top shape: 8 1824 8 8 (933888)
I1128 23:39:24.631014  1631 net.cpp:165] Memory required for data: 4798586976
I1128 23:39:24.631029  1631 layer_factory.hpp:77] Creating layer relu5_30/x1
I1128 23:39:24.631044  1631 net.cpp:100] Creating Layer relu5_30/x1
I1128 23:39:24.631058  1631 net.cpp:434] relu5_30/x1 <- conv5_30/x1/bn
I1128 23:39:24.631072  1631 net.cpp:395] relu5_30/x1 -> conv5_30/x1/bn (in-place)
I1128 23:39:24.631361  1631 net.cpp:150] Setting up relu5_30/x1
I1128 23:39:24.631388  1631 net.cpp:157] Top shape: 8 1824 8 8 (933888)
I1128 23:39:24.631400  1631 net.cpp:165] Memory required for data: 4802322528
I1128 23:39:24.631413  1631 layer_factory.hpp:77] Creating layer conv5_30/x1
I1128 23:39:24.631434  1631 net.cpp:100] Creating Layer conv5_30/x1
I1128 23:39:24.631450  1631 net.cpp:434] conv5_30/x1 <- conv5_30/x1/bn
I1128 23:39:24.631467  1631 net.cpp:408] conv5_30/x1 -> conv5_30/x1
I1128 23:39:24.633749  1631 net.cpp:150] Setting up conv5_30/x1
I1128 23:39:24.633782  1631 net.cpp:157] Top shape: 8 128 8 8 (65536)
I1128 23:39:24.633795  1631 net.cpp:165] Memory required for data: 4802584672
I1128 23:39:24.633810  1631 layer_factory.hpp:77] Creating layer conv5_30/x2/bn
I1128 23:39:24.633832  1631 net.cpp:100] Creating Layer conv5_30/x2/bn
I1128 23:39:24.633849  1631 net.cpp:434] conv5_30/x2/bn <- conv5_30/x1
I1128 23:39:24.633870  1631 net.cpp:408] conv5_30/x2/bn -> conv5_30/x2/bn
I1128 23:39:24.634194  1631 net.cpp:150] Setting up conv5_30/x2/bn
I1128 23:39:24.634217  1631 net.cpp:157] Top shape: 8 128 8 8 (65536)
I1128 23:39:24.634227  1631 net.cpp:165] Memory required for data: 4802846816
I1128 23:39:24.634244  1631 layer_factory.hpp:77] Creating layer conv5_30/x2/scale
I1128 23:39:24.634259  1631 net.cpp:100] Creating Layer conv5_30/x2/scale
I1128 23:39:24.634274  1631 net.cpp:434] conv5_30/x2/scale <- conv5_30/x2/bn
I1128 23:39:24.634287  1631 net.cpp:395] conv5_30/x2/scale -> conv5_30/x2/bn (in-place)
I1128 23:39:24.634397  1631 layer_factory.hpp:77] Creating layer conv5_30/x2/scale
I1128 23:39:24.634600  1631 net.cpp:150] Setting up conv5_30/x2/scale
I1128 23:39:24.634623  1631 net.cpp:157] Top shape: 8 128 8 8 (65536)
I1128 23:39:24.634634  1631 net.cpp:165] Memory required for data: 4803108960
I1128 23:39:24.634649  1631 layer_factory.hpp:77] Creating layer relu5_30/x2
I1128 23:39:24.634663  1631 net.cpp:100] Creating Layer relu5_30/x2
I1128 23:39:24.634676  1631 net.cpp:434] relu5_30/x2 <- conv5_30/x2/bn
I1128 23:39:24.634696  1631 net.cpp:395] relu5_30/x2 -> conv5_30/x2/bn (in-place)
I1128 23:39:24.636132  1631 net.cpp:150] Setting up relu5_30/x2
I1128 23:39:24.636164  1631 net.cpp:157] Top shape: 8 128 8 8 (65536)
I1128 23:39:24.636190  1631 net.cpp:165] Memory required for data: 4803371104
I1128 23:39:24.636204  1631 layer_factory.hpp:77] Creating layer conv5_30/x2
I1128 23:39:24.636229  1631 net.cpp:100] Creating Layer conv5_30/x2
I1128 23:39:24.636245  1631 net.cpp:434] conv5_30/x2 <- conv5_30/x2/bn
I1128 23:39:24.636262  1631 net.cpp:408] conv5_30/x2 -> conv5_30/x2
I1128 23:39:24.638383  1631 net.cpp:150] Setting up conv5_30/x2
I1128 23:39:24.638415  1631 net.cpp:157] Top shape: 8 32 8 8 (16384)
I1128 23:39:24.638427  1631 net.cpp:165] Memory required for data: 4803436640
I1128 23:39:24.638442  1631 layer_factory.hpp:77] Creating layer concat_5_30
I1128 23:39:24.638464  1631 net.cpp:100] Creating Layer concat_5_30
I1128 23:39:24.638480  1631 net.cpp:434] concat_5_30 <- concat_5_29_concat_5_29_0_split_1
I1128 23:39:24.638496  1631 net.cpp:434] concat_5_30 <- conv5_30/x2
I1128 23:39:24.638512  1631 net.cpp:408] concat_5_30 -> concat_5_30
I1128 23:39:24.638581  1631 net.cpp:150] Setting up concat_5_30
I1128 23:39:24.638602  1631 net.cpp:157] Top shape: 8 1856 8 8 (950272)
I1128 23:39:24.638612  1631 net.cpp:165] Memory required for data: 4807237728
I1128 23:39:24.638625  1631 layer_factory.hpp:77] Creating layer concat_5_30_concat_5_30_0_split
I1128 23:39:24.638640  1631 net.cpp:100] Creating Layer concat_5_30_concat_5_30_0_split
I1128 23:39:24.638653  1631 net.cpp:434] concat_5_30_concat_5_30_0_split <- concat_5_30
I1128 23:39:24.638674  1631 net.cpp:408] concat_5_30_concat_5_30_0_split -> concat_5_30_concat_5_30_0_split_0
I1128 23:39:24.638695  1631 net.cpp:408] concat_5_30_concat_5_30_0_split -> concat_5_30_concat_5_30_0_split_1
I1128 23:39:24.638789  1631 net.cpp:150] Setting up concat_5_30_concat_5_30_0_split
I1128 23:39:24.638810  1631 net.cpp:157] Top shape: 8 1856 8 8 (950272)
I1128 23:39:24.638823  1631 net.cpp:157] Top shape: 8 1856 8 8 (950272)
I1128 23:39:24.638833  1631 net.cpp:165] Memory required for data: 4814839904
I1128 23:39:24.638845  1631 layer_factory.hpp:77] Creating layer conv5_31/x1/bn
I1128 23:39:24.638865  1631 net.cpp:100] Creating Layer conv5_31/x1/bn
I1128 23:39:24.638880  1631 net.cpp:434] conv5_31/x1/bn <- concat_5_30_concat_5_30_0_split_0
I1128 23:39:24.638901  1631 net.cpp:408] conv5_31/x1/bn -> conv5_31/x1/bn
I1128 23:39:24.639271  1631 net.cpp:150] Setting up conv5_31/x1/bn
I1128 23:39:24.639293  1631 net.cpp:157] Top shape: 8 1856 8 8 (950272)
I1128 23:39:24.639324  1631 net.cpp:165] Memory required for data: 4818640992
I1128 23:39:24.639348  1631 layer_factory.hpp:77] Creating layer conv5_31/x1/scale
I1128 23:39:24.639364  1631 net.cpp:100] Creating Layer conv5_31/x1/scale
I1128 23:39:24.639379  1631 net.cpp:434] conv5_31/x1/scale <- conv5_31/x1/bn
I1128 23:39:24.639398  1631 net.cpp:395] conv5_31/x1/scale -> conv5_31/x1/bn (in-place)
I1128 23:39:24.639523  1631 layer_factory.hpp:77] Creating layer conv5_31/x1/scale
I1128 23:39:24.639781  1631 net.cpp:150] Setting up conv5_31/x1/scale
I1128 23:39:24.639804  1631 net.cpp:157] Top shape: 8 1856 8 8 (950272)
I1128 23:39:24.639816  1631 net.cpp:165] Memory required for data: 4822442080
I1128 23:39:24.639832  1631 layer_factory.hpp:77] Creating layer relu5_31/x1
I1128 23:39:24.639847  1631 net.cpp:100] Creating Layer relu5_31/x1
I1128 23:39:24.639859  1631 net.cpp:434] relu5_31/x1 <- conv5_31/x1/bn
I1128 23:39:24.639897  1631 net.cpp:395] relu5_31/x1 -> conv5_31/x1/bn (in-place)
I1128 23:39:24.640161  1631 net.cpp:150] Setting up relu5_31/x1
I1128 23:39:24.640184  1631 net.cpp:157] Top shape: 8 1856 8 8 (950272)
I1128 23:39:24.640197  1631 net.cpp:165] Memory required for data: 4826243168
I1128 23:39:24.640208  1631 layer_factory.hpp:77] Creating layer conv5_31/x1
I1128 23:39:24.640229  1631 net.cpp:100] Creating Layer conv5_31/x1
I1128 23:39:24.640245  1631 net.cpp:434] conv5_31/x1 <- conv5_31/x1/bn
I1128 23:39:24.640265  1631 net.cpp:408] conv5_31/x1 -> conv5_31/x1
I1128 23:39:24.644670  1631 net.cpp:150] Setting up conv5_31/x1
I1128 23:39:24.644711  1631 net.cpp:157] Top shape: 8 128 8 8 (65536)
I1128 23:39:24.644726  1631 net.cpp:165] Memory required for data: 4826505312
I1128 23:39:24.644757  1631 layer_factory.hpp:77] Creating layer conv5_31/x2/bn
I1128 23:39:24.644780  1631 net.cpp:100] Creating Layer conv5_31/x2/bn
I1128 23:39:24.644796  1631 net.cpp:434] conv5_31/x2/bn <- conv5_31/x1
I1128 23:39:24.644812  1631 net.cpp:408] conv5_31/x2/bn -> conv5_31/x2/bn
I1128 23:39:24.645156  1631 net.cpp:150] Setting up conv5_31/x2/bn
I1128 23:39:24.645179  1631 net.cpp:157] Top shape: 8 128 8 8 (65536)
I1128 23:39:24.645190  1631 net.cpp:165] Memory required for data: 4826767456
I1128 23:39:24.645207  1631 layer_factory.hpp:77] Creating layer conv5_31/x2/scale
I1128 23:39:24.645229  1631 net.cpp:100] Creating Layer conv5_31/x2/scale
I1128 23:39:24.645244  1631 net.cpp:434] conv5_31/x2/scale <- conv5_31/x2/bn
I1128 23:39:24.645259  1631 net.cpp:395] conv5_31/x2/scale -> conv5_31/x2/bn (in-place)
I1128 23:39:24.645350  1631 layer_factory.hpp:77] Creating layer conv5_31/x2/scale
I1128 23:39:24.645555  1631 net.cpp:150] Setting up conv5_31/x2/scale
I1128 23:39:24.645576  1631 net.cpp:157] Top shape: 8 128 8 8 (65536)
I1128 23:39:24.645586  1631 net.cpp:165] Memory required for data: 4827029600
I1128 23:39:24.645602  1631 layer_factory.hpp:77] Creating layer relu5_31/x2
I1128 23:39:24.645617  1631 net.cpp:100] Creating Layer relu5_31/x2
I1128 23:39:24.645630  1631 net.cpp:434] relu5_31/x2 <- conv5_31/x2/bn
I1128 23:39:24.645649  1631 net.cpp:395] relu5_31/x2 -> conv5_31/x2/bn (in-place)
I1128 23:39:24.645905  1631 net.cpp:150] Setting up relu5_31/x2
I1128 23:39:24.645928  1631 net.cpp:157] Top shape: 8 128 8 8 (65536)
I1128 23:39:24.645941  1631 net.cpp:165] Memory required for data: 4827291744
I1128 23:39:24.645952  1631 layer_factory.hpp:77] Creating layer conv5_31/x2
I1128 23:39:24.645974  1631 net.cpp:100] Creating Layer conv5_31/x2
I1128 23:39:24.645990  1631 net.cpp:434] conv5_31/x2 <- conv5_31/x2/bn
I1128 23:39:24.646011  1631 net.cpp:408] conv5_31/x2 -> conv5_31/x2
I1128 23:39:24.649196  1631 net.cpp:150] Setting up conv5_31/x2
I1128 23:39:24.649230  1631 net.cpp:157] Top shape: 8 32 8 8 (16384)
I1128 23:39:24.649243  1631 net.cpp:165] Memory required for data: 4827357280
I1128 23:39:24.649258  1631 layer_factory.hpp:77] Creating layer concat_5_31
I1128 23:39:24.649274  1631 net.cpp:100] Creating Layer concat_5_31
I1128 23:39:24.649288  1631 net.cpp:434] concat_5_31 <- concat_5_30_concat_5_30_0_split_1
I1128 23:39:24.649304  1631 net.cpp:434] concat_5_31 <- conv5_31/x2
I1128 23:39:24.649327  1631 net.cpp:408] concat_5_31 -> concat_5_31
I1128 23:39:24.649402  1631 net.cpp:150] Setting up concat_5_31
I1128 23:39:24.649422  1631 net.cpp:157] Top shape: 8 1888 8 8 (966656)
I1128 23:39:24.649433  1631 net.cpp:165] Memory required for data: 4831223904
I1128 23:39:24.649444  1631 layer_factory.hpp:77] Creating layer concat_5_31_concat_5_31_0_split
I1128 23:39:24.649459  1631 net.cpp:100] Creating Layer concat_5_31_concat_5_31_0_split
I1128 23:39:24.649473  1631 net.cpp:434] concat_5_31_concat_5_31_0_split <- concat_5_31
I1128 23:39:24.649488  1631 net.cpp:408] concat_5_31_concat_5_31_0_split -> concat_5_31_concat_5_31_0_split_0
I1128 23:39:24.649511  1631 net.cpp:408] concat_5_31_concat_5_31_0_split -> concat_5_31_concat_5_31_0_split_1
I1128 23:39:24.649600  1631 net.cpp:150] Setting up concat_5_31_concat_5_31_0_split
I1128 23:39:24.649633  1631 net.cpp:157] Top shape: 8 1888 8 8 (966656)
I1128 23:39:24.649647  1631 net.cpp:157] Top shape: 8 1888 8 8 (966656)
I1128 23:39:24.649657  1631 net.cpp:165] Memory required for data: 4838957152
I1128 23:39:24.649669  1631 layer_factory.hpp:77] Creating layer conv5_32/x1/bn
I1128 23:39:24.649693  1631 net.cpp:100] Creating Layer conv5_32/x1/bn
I1128 23:39:24.649716  1631 net.cpp:434] conv5_32/x1/bn <- concat_5_31_concat_5_31_0_split_0
I1128 23:39:24.649734  1631 net.cpp:408] conv5_32/x1/bn -> conv5_32/x1/bn
I1128 23:39:24.650118  1631 net.cpp:150] Setting up conv5_32/x1/bn
I1128 23:39:24.650141  1631 net.cpp:157] Top shape: 8 1888 8 8 (966656)
I1128 23:39:24.650153  1631 net.cpp:165] Memory required for data: 4842823776
I1128 23:39:24.650184  1631 layer_factory.hpp:77] Creating layer conv5_32/x1/scale
I1128 23:39:24.650205  1631 net.cpp:100] Creating Layer conv5_32/x1/scale
I1128 23:39:24.650220  1631 net.cpp:434] conv5_32/x1/scale <- conv5_32/x1/bn
I1128 23:39:24.650234  1631 net.cpp:395] conv5_32/x1/scale -> conv5_32/x1/bn (in-place)
I1128 23:39:24.650359  1631 layer_factory.hpp:77] Creating layer conv5_32/x1/scale
I1128 23:39:24.650616  1631 net.cpp:150] Setting up conv5_32/x1/scale
I1128 23:39:24.650638  1631 net.cpp:157] Top shape: 8 1888 8 8 (966656)
I1128 23:39:24.650650  1631 net.cpp:165] Memory required for data: 4846690400
I1128 23:39:24.650665  1631 layer_factory.hpp:77] Creating layer relu5_32/x1
I1128 23:39:24.650681  1631 net.cpp:100] Creating Layer relu5_32/x1
I1128 23:39:24.650693  1631 net.cpp:434] relu5_32/x1 <- conv5_32/x1/bn
I1128 23:39:24.650715  1631 net.cpp:395] relu5_32/x1 -> conv5_32/x1/bn (in-place)
I1128 23:39:24.650988  1631 net.cpp:150] Setting up relu5_32/x1
I1128 23:39:24.651012  1631 net.cpp:157] Top shape: 8 1888 8 8 (966656)
I1128 23:39:24.651023  1631 net.cpp:165] Memory required for data: 4850557024
I1128 23:39:24.651036  1631 layer_factory.hpp:77] Creating layer conv5_32/x1
I1128 23:39:24.651058  1631 net.cpp:100] Creating Layer conv5_32/x1
I1128 23:39:24.651074  1631 net.cpp:434] conv5_32/x1 <- conv5_32/x1/bn
I1128 23:39:24.651090  1631 net.cpp:408] conv5_32/x1 -> conv5_32/x1
I1128 23:39:24.653451  1631 net.cpp:150] Setting up conv5_32/x1
I1128 23:39:24.653486  1631 net.cpp:157] Top shape: 8 128 8 8 (65536)
I1128 23:39:24.653498  1631 net.cpp:165] Memory required for data: 4850819168
I1128 23:39:24.653514  1631 layer_factory.hpp:77] Creating layer conv5_32/x2/bn
I1128 23:39:24.653537  1631 net.cpp:100] Creating Layer conv5_32/x2/bn
I1128 23:39:24.653553  1631 net.cpp:434] conv5_32/x2/bn <- conv5_32/x1
I1128 23:39:24.653574  1631 net.cpp:408] conv5_32/x2/bn -> conv5_32/x2/bn
I1128 23:39:24.653914  1631 net.cpp:150] Setting up conv5_32/x2/bn
I1128 23:39:24.653937  1631 net.cpp:157] Top shape: 8 128 8 8 (65536)
I1128 23:39:24.653949  1631 net.cpp:165] Memory required for data: 4851081312
I1128 23:39:24.653965  1631 layer_factory.hpp:77] Creating layer conv5_32/x2/scale
I1128 23:39:24.653981  1631 net.cpp:100] Creating Layer conv5_32/x2/scale
I1128 23:39:24.653995  1631 net.cpp:434] conv5_32/x2/scale <- conv5_32/x2/bn
I1128 23:39:24.654009  1631 net.cpp:395] conv5_32/x2/scale -> conv5_32/x2/bn (in-place)
I1128 23:39:24.654106  1631 layer_factory.hpp:77] Creating layer conv5_32/x2/scale
I1128 23:39:24.654315  1631 net.cpp:150] Setting up conv5_32/x2/scale
I1128 23:39:24.654336  1631 net.cpp:157] Top shape: 8 128 8 8 (65536)
I1128 23:39:24.654347  1631 net.cpp:165] Memory required for data: 4851343456
I1128 23:39:24.654363  1631 layer_factory.hpp:77] Creating layer relu5_32/x2
I1128 23:39:24.654378  1631 net.cpp:100] Creating Layer relu5_32/x2
I1128 23:39:24.654392  1631 net.cpp:434] relu5_32/x2 <- conv5_32/x2/bn
I1128 23:39:24.654412  1631 net.cpp:395] relu5_32/x2 -> conv5_32/x2/bn (in-place)
I1128 23:39:24.654669  1631 net.cpp:150] Setting up relu5_32/x2
I1128 23:39:24.654692  1631 net.cpp:157] Top shape: 8 128 8 8 (65536)
I1128 23:39:24.654711  1631 net.cpp:165] Memory required for data: 4851605600
I1128 23:39:24.654724  1631 layer_factory.hpp:77] Creating layer conv5_32/x2
I1128 23:39:24.654762  1631 net.cpp:100] Creating Layer conv5_32/x2
I1128 23:39:24.654778  1631 net.cpp:434] conv5_32/x2 <- conv5_32/x2/bn
I1128 23:39:24.654793  1631 net.cpp:408] conv5_32/x2 -> conv5_32/x2
I1128 23:39:24.656949  1631 net.cpp:150] Setting up conv5_32/x2
I1128 23:39:24.656982  1631 net.cpp:157] Top shape: 8 32 8 8 (16384)
I1128 23:39:24.656996  1631 net.cpp:165] Memory required for data: 4851671136
I1128 23:39:24.657011  1631 layer_factory.hpp:77] Creating layer concat_5_32
I1128 23:39:24.657034  1631 net.cpp:100] Creating Layer concat_5_32
I1128 23:39:24.657050  1631 net.cpp:434] concat_5_32 <- concat_5_31_concat_5_31_0_split_1
I1128 23:39:24.657065  1631 net.cpp:434] concat_5_32 <- conv5_32/x2
I1128 23:39:24.657097  1631 net.cpp:408] concat_5_32 -> concat_5_32
I1128 23:39:24.657169  1631 net.cpp:150] Setting up concat_5_32
I1128 23:39:24.657191  1631 net.cpp:157] Top shape: 8 1920 8 8 (983040)
I1128 23:39:24.657202  1631 net.cpp:165] Memory required for data: 4855603296
I1128 23:39:24.657213  1631 layer_factory.hpp:77] Creating layer conv5_32/blk/bn
I1128 23:39:24.657234  1631 net.cpp:100] Creating Layer conv5_32/blk/bn
I1128 23:39:24.657249  1631 net.cpp:434] conv5_32/blk/bn <- concat_5_32
I1128 23:39:24.657265  1631 net.cpp:408] conv5_32/blk/bn -> conv5_32/blk/bn
I1128 23:39:24.657649  1631 net.cpp:150] Setting up conv5_32/blk/bn
I1128 23:39:24.657671  1631 net.cpp:157] Top shape: 8 1920 8 8 (983040)
I1128 23:39:24.657682  1631 net.cpp:165] Memory required for data: 4859535456
I1128 23:39:24.657706  1631 layer_factory.hpp:77] Creating layer conv5_32/blk/scale
I1128 23:39:24.657724  1631 net.cpp:100] Creating Layer conv5_32/blk/scale
I1128 23:39:24.657737  1631 net.cpp:434] conv5_32/blk/scale <- conv5_32/blk/bn
I1128 23:39:24.657758  1631 net.cpp:395] conv5_32/blk/scale -> conv5_32/blk/bn (in-place)
I1128 23:39:24.657872  1631 layer_factory.hpp:77] Creating layer conv5_32/blk/scale
I1128 23:39:24.658121  1631 net.cpp:150] Setting up conv5_32/blk/scale
I1128 23:39:24.658148  1631 net.cpp:157] Top shape: 8 1920 8 8 (983040)
I1128 23:39:24.658160  1631 net.cpp:165] Memory required for data: 4863467616
I1128 23:39:24.658176  1631 layer_factory.hpp:77] Creating layer relu5_32/blk
I1128 23:39:24.658191  1631 net.cpp:100] Creating Layer relu5_32/blk
I1128 23:39:24.658205  1631 net.cpp:434] relu5_32/blk <- conv5_32/blk/bn
I1128 23:39:24.658218  1631 net.cpp:395] relu5_32/blk -> conv5_32/blk/bn (in-place)
I1128 23:39:24.658468  1631 net.cpp:150] Setting up relu5_32/blk
I1128 23:39:24.658493  1631 net.cpp:157] Top shape: 8 1920 8 8 (983040)
I1128 23:39:24.658504  1631 net.cpp:165] Memory required for data: 4867399776
I1128 23:39:24.658515  1631 layer_factory.hpp:77] Creating layer pool5
I1128 23:39:24.658537  1631 net.cpp:100] Creating Layer pool5
I1128 23:39:24.658552  1631 net.cpp:434] pool5 <- conv5_32/blk/bn
I1128 23:39:24.658571  1631 net.cpp:408] pool5 -> pool5
I1128 23:39:24.661046  1631 net.cpp:150] Setting up pool5
I1128 23:39:24.661079  1631 net.cpp:157] Top shape: 8 1920 1 1 (15360)
I1128 23:39:24.661092  1631 net.cpp:165] Memory required for data: 4867461216
I1128 23:39:24.661105  1631 layer_factory.hpp:77] Creating layer fc6_my
I1128 23:39:24.661129  1631 net.cpp:100] Creating Layer fc6_my
I1128 23:39:24.661144  1631 net.cpp:434] fc6_my <- pool5
I1128 23:39:24.661161  1631 net.cpp:408] fc6_my -> fc6_my
I1128 23:39:24.663748  1631 net.cpp:150] Setting up fc6_my
I1128 23:39:24.663781  1631 net.cpp:157] Top shape: 8 80 1 1 (640)
I1128 23:39:24.663794  1631 net.cpp:165] Memory required for data: 4867463776
I1128 23:39:24.663811  1631 layer_factory.hpp:77] Creating layer fc6_my_fc6_my_0_split
I1128 23:39:24.663827  1631 net.cpp:100] Creating Layer fc6_my_fc6_my_0_split
I1128 23:39:24.663848  1631 net.cpp:434] fc6_my_fc6_my_0_split <- fc6_my
I1128 23:39:24.663866  1631 net.cpp:408] fc6_my_fc6_my_0_split -> fc6_my_fc6_my_0_split_0
I1128 23:39:24.663883  1631 net.cpp:408] fc6_my_fc6_my_0_split -> fc6_my_fc6_my_0_split_1
I1128 23:39:24.663976  1631 net.cpp:150] Setting up fc6_my_fc6_my_0_split
I1128 23:39:24.664010  1631 net.cpp:157] Top shape: 8 80 1 1 (640)
I1128 23:39:24.664023  1631 net.cpp:157] Top shape: 8 80 1 1 (640)
I1128 23:39:24.664033  1631 net.cpp:165] Memory required for data: 4867468896
I1128 23:39:24.664046  1631 layer_factory.hpp:77] Creating layer loss
I1128 23:39:24.664060  1631 net.cpp:100] Creating Layer loss
I1128 23:39:24.664073  1631 net.cpp:434] loss <- fc6_my_fc6_my_0_split_0
I1128 23:39:24.664088  1631 net.cpp:434] loss <- label_data_1_split_0
I1128 23:39:24.664103  1631 net.cpp:408] loss -> loss
…
