…
I1019 22:49:54.513139 20515 net.cpp:322] The NetState phase (0) differed from the phase (1) specified by a rule in layer data
I1019 22:49:54.513556 20515 net.cpp:322] The NetState phase (0) differed from the phase (1) specified by a rule in layer accuracy
I1019 22:49:54.515687 20515 net.cpp:58] Initializing net from parameters: 
state {
  phase: TRAIN
  level: 0
  stage: ""
}
layer {
  name: "data"
  type: "Data"
  top: "data"
  top: "label"
  include {
    phase: TRAIN
  }
  transform_param {
    mirror: true
    crop_size: 224
  }
  data_param {
    source: "/data/zhangming/aichallenger/img_train_lmdb"
    batch_size: 16
    backend: LMDB
  }
}
layer {
  name: "conv1"
  type: "Convolution"
  bottom: "data"
  top: "conv1"
  convolution_param {
    num_output: 64
    bias_term: false
    pad: 3
    kernel_size: 7
    stride: 2
  }
}
layer {
  name: "bn_conv1"
  type: "BatchNorm"
  bottom: "conv1"
  top: "conv1"
}
layer {
  name: "scale_conv1"
  type: "Scale"
  bottom: "conv1"
  top: "conv1"
  param {
    lr_mult: 1
    decay_mult: 1
  }
  param {
    lr_mult: 1
    decay_mult: 0
  }
  scale_param {
    bias_term: true
  }
}
layer {
  name: "conv1_relu"
  type: "ReLU"
  bottom: "conv1"
  top: "conv1"
}
layer {
  name: "pool1"
  type: "Pooling"
  bottom: "conv1"
  top: "pool1"
  pooling_param {
    pool: MAX
    kernel_size: 3
    stride: 2
  }
}
layer {
  name: "res2a_branch1"
  type: "Convolution"
  bottom: "pool1"
  top: "res2a_branch1"
  convolution_param {
    num_output: 256
    bias_term: false
    pad: 0
    kernel_size: 1
    stride: 1
  }
}
layer {
  name: "bn2a_branch1"
  type: "BatchNorm"
  bottom: "res2a_branch1"
  top: "res2a_branch1"
}
layer {
  name: "scale2a_branch1"
  type: "Scale"
  bottom: "res2a_branch1"
  top: "res2a_branch1"
  param {
    lr_mult: 1
    decay_mult: 1
  }
  param {
    lr_mult: 1
    decay_mult: 0
  }
  scale_param {
    bias_term: true
  }
}
layer {
  name: "res2a_branch2a"
  type: "Convolution"
  bottom: "pool1"
  top: "res2a_branch2a"
  convolution_param {
    num_output: 64
    bias_term: false
    pad: 0
    kernel_size: 1
    stride: 1
  }
}
layer {
  name: "bn2a_branch2a"
  type: "BatchNorm"
  bottom: "res2a_branch2a"
  top: "res2a_branch2a"
}
layer {
  name: "scale2a_branch2a"
  type: "Scale"
  bottom: "res2a_branch2a"
  top: "res2a_branch2a"
  param {
    lr_mult: 1
    decay_mult: 1
  }
  param {
    lr_mult: 1
    decay_mult: 0
  }
  scale_param {
    bias_term: true
  }
}
layer {
  name: "res2a_branch2a_relu"
  type: "ReLU"
  bottom: "res2a_branch2a"
  top: "res2a_branch2a"
}
layer {
  name: "res2a_branch2b"
  type: "Convolution"
  bottom: "res2a_branch2a"
  top: "res2a_branch2b"
  convolution_param {
    num_output: 64
    bias_term: false
    pad: 1
    kernel_size: 3
    stride: 1
  }
}
layer {
  name: "bn2a_branch2b"
  type: "BatchNorm"
  bottom: "res2a_branch2b"
  top: "res2a_branch2b"
}
layer {
  name: "scale2a_branch2b"
  type: "Scale"
  bottom: "res2a_branch2b"
  top: "res2a_branch2b"
  param {
    lr_mult: 1
    decay_mult: 1
  }
  param {
    lr_mult: 1
    decay_mult: 0
  }
  scale_param {
    bias_term: true
  }
}
layer {
  name: "res2a_branch2b_relu"
  type: "ReLU"
  bottom: "res2a_branch2b"
  top: "res2a_branch2b"
}
layer {
  name: "res2a_branch2c"
  type: "Convolution"
  bottom: "res2a_branch2b"
  top: "res2a_branch2c"
  convolution_param {
    num_output: 256
    bias_term: false
    pad: 0
    kernel_size: 1
    stride: 1
  }
}
layer {
  name: "bn2a_branch2c"
  type: "BatchNorm"
  bottom: "res2a_branch2c"
  top: "res2a_branch2c"
}
layer {
  name: "scale2a_branch2c"
  type: "Scale"
  bottom: "res2a_branch2c"
  top: "res2a_branch2c"
  param {
    lr_mult: 1
    decay_mult: 1
  }
  param {
    lr_mult: 1
    decay_mult: 0
  }
  scale_param {
    bias_term: true
  }
}
layer {
  name: "res2a"
  type: "Eltwise"
  bottom: "res2a_branch1"
  bottom: "res2a_branch2c"
  top: "res2a"
}
layer {
  name: "res2a_relu"
  type: "ReLU"
  bottom: "res2a"
  top: "res2a"
}
layer {
  name: "res2b_branch2a"
  type: "Convolution"
  bottom: "res2a"
  top: "res2b_branch2a"
  convolution_param {
    num_output: 64
    bias_term: false
    pad: 0
    kernel_size: 1
    stride: 1
  }
}
layer {
  name: "bn2b_branch2a"
  type: "BatchNorm"
  bottom: "res2b_branch2a"
  top: "res2b_branch2a"
}
layer {
  name: "scale2b_branch2a"
  type: "Scale"
  bottom: "res2b_branch2a"
  top: "res2b_branch2a"
  param {
    lr_mult: 1
    decay_mult: 1
  }
  param {
    lr_mult: 1
    decay_mult: 0
  }
  scale_param {
    bias_term: true
  }
}
layer {
  name: "res2b_branch2a_relu"
  type: "ReLU"
  bottom: "res2b_branch2a"
  top: "res2b_branch2a"
}
layer {
  name: "res2b_branch2b"
  type: "Convolution"
  bottom: "res2b_branch2a"
  top: "res2b_branch2b"
  convolution_param {
    num_output: 64
    bias_term: false
    pad: 1
    kernel_size: 3
    stride: 1
  }
}
layer {
  name: "bn2b_branch2b"
  type: "BatchNorm"
  bottom: "res2b_branch2b"
  top: "res2b_branch2b"
}
layer {
  name: "scale2b_branch2b"
  type: "Scale"
  bottom: "res2b_branch2b"
  top: "res2b_branch2b"
  param {
    lr_mult: 1
    decay_mult: 1
  }
  param {
    lr_mult: 1
    decay_mult: 0
  }
  scale_param {
    bias_term: true
  }
}
layer {
  name: "res2b_branch2b_relu"
  type: "ReLU"
  bottom: "res2b_branch2b"
  top: "res2b_branch2b"
}
layer {
  name: "res2b_branch2c"
  type: "Convolution"
  bottom: "res2b_branch2b"
  top: "res2b_branch2c"
  convolution_param {
    num_output: 256
    bias_term: false
    pad: 0
    kernel_size: 1
    stride: 1
  }
}
layer {
  name: "bn2b_branch2c"
  type: "BatchNorm"
  bottom: "res2b_branch2c"
  top: "res2b_branch2c"
}
layer {
  name: "scale2b_branch2c"
  type: "Scale"
  bottom: "res2b_branch2c"
  top: "res2b_branch2c"
  param {
    lr_mult: 1
    decay_mult: 1
  }
  param {
    lr_mult: 1
    decay_mult: 0
  }
  scale_param {
    bias_term: true
  }
}
layer {
  name: "res2b"
  type: "Eltwise"
  bottom: "res2a"
  bottom: "res2b_branch2c"
  top: "res2b"
}
layer {
  name: "res2b_relu"
  type: "ReLU"
  bottom: "res2b"
  top: "res2b"
}
layer {
  name: "res2c_branch2a"
  type: "Convolution"
  bottom: "res2b"
  top: "res2c_branch2a"
  convolution_param {
    num_output: 64
    bias_term: false
    pad: 0
    kernel_size: 1
    stride: 1
  }
}
layer {
  name: "bn2c_branch2a"
  type: "BatchNorm"
  bottom: "res2c_branch2a"
  top: "res2c_branch2a"
}
layer {
  name: "scale2c_branch2a"
  type: "Scale"
  bottom: "res2c_branch2a"
  top: "res2c_branch2a"
  param {
    lr_mult: 1
    decay_mult: 1
  }
  param {
    lr_mult: 1
    decay_mult: 0
  }
  scale_param {
    bias_term: true
  }
}
layer {
  name: "res2c_branch2a_relu"
  type: "ReLU"
  bottom: "res2c_branch2a"
  top: "res2c_branch2a"
}
layer {
  name: "res2c_branch2b"
  type: "Convolution"
  bottom: "res2c_branch2a"
  top: "res2c_branch2b"
  convolution_param {
    num_output: 64
    bias_term: false
    pad: 1
    kernel_size: 3
    stride: 1
  }
}
layer {
  name: "bn2c_branch2b"
  type: "BatchNorm"
  bottom: "res2c_branch2b"
  top: "res2c_branch2b"
}
layer {
  name: "scale2c_branch2b"
  type: "Scale"
  bottom: "res2c_branch2b"
  top: "res2c_branch2b"
  param {
    lr_mult: 1
    decay_mult: 1
  }
  param {
    lr_mult: 1
    decay_mult: 0
  }
  scale_param {
    bias_term: true
  }
}
layer {
  name: "res2c_branch2b_relu"
  type: "ReLU"
  bottom: "res2c_branch2b"
  top: "res2c_branch2b"
}
layer {
  name: "res2c_branch2c"
  type: "Convolution"
  bottom: "res2c_branch2b"
  top: "res2c_branch2c"
  convolution_param {
    num_output: 256
    bias_term: false
    pad: 0
    kernel_size: 1
    stride: 1
  }
}
layer {
  name: "bn2c_branch2c"
  type: "BatchNorm"
  bottom: "res2c_branch2c"
  top: "res2c_branch2c"
}
layer {
  name: "scale2c_branch2c"
  type: "Scale"
  bottom: "res2c_branch2c"
  top: "res2c_branch2c"
  param {
    lr_mult: 1
    decay_mult: 1
  }
  param {
    lr_mult: 1
    decay_mult: 0
  }
  scale_param {
    bias_term: true
  }
}
layer {
  name: "res2c"
  type: "Eltwise"
  bottom: "res2b"
  bottom: "res2c_branch2c"
  top: "res2c"
}
layer {
  name: "res2c_relu"
  type: "ReLU"
  bottom: "res2c"
  top: "res2c"
}
layer {
  name: "res3a_branch1"
  type: "Convolution"
  bottom: "res2c"
  top: "res3a_branch1"
  convolution_param {
    num_output: 512
    bias_term: false
    pad: 0
    kernel_size: 1
    stride: 2
  }
}
layer {
  name: "bn3a_branch1"
  type: "BatchNorm"
  bottom: "res3a_branch1"
  top: "res3a_branch1"
}
layer {
  name: "scale3a_branch1"
  type: "Scale"
  bottom: "res3a_branch1"
  top: "res3a_branch1"
  param {
    lr_mult: 1
    decay_mult: 1
  }
  param {
    lr_mult: 1
    decay_mult: 0
  }
  scale_param {
    bias_term: true
  }
}
layer {
  name: "res3a_branch2a"
  type: "Convolution"
  bottom: "res2c"
  top: "res3a_branch2a"
  convolution_param {
    num_output: 128
    bias_term: false
    pad: 0
    kernel_size: 1
    stride: 2
  }
}
layer {
  name: "bn3a_branch2a"
  type: "BatchNorm"
  bottom: "res3a_branch2a"
  top: "res3a_branch2a"
}
layer {
  name: "scale3a_branch2a"
  type: "Scale"
  bottom: "res3a_branch2a"
  top: "res3a_branch2a"
  param {
    lr_mult: 1
    decay_mult: 1
  }
  param {
    lr_mult: 1
    decay_mult: 0
  }
  scale_param {
    bias_term: true
  }
}
layer {
  name: "res3a_branch2a_relu"
  type: "ReLU"
  bottom: "res3a_branch2a"
  top: "res3a_branch2a"
}
layer {
  name: "res3a_branch2b"
  type: "Convolution"
  bottom: "res3a_branch2a"
  top: "res3a_branch2b"
  convolution_param {
    num_output: 128
    bias_term: false
    pad: 1
    kernel_size: 3
    stride: 1
  }
}
layer {
  name: "bn3a_branch2b"
  type: "BatchNorm"
  bottom: "res3a_branch2b"
  top: "res3a_branch2b"
}
layer {
  name: "scale3a_branch2b"
  type: "Scale"
  bottom: "res3a_branch2b"
  top: "res3a_branch2b"
  param {
    lr_mult: 1
    decay_mult: 1
  }
  param {
    lr_mult: 1
    decay_mult: 0
  }
  scale_param {
    bias_term: true
  }
}
layer {
  name: "res3a_branch2b_relu"
  type: "ReLU"
  bottom: "res3a_branch2b"
  top: "res3a_branch2b"
}
layer {
  name: "res3a_branch2c"
  type: "Convolution"
  bottom: "res3a_branch2b"
  top: "res3a_branch2c"
  convolution_param {
    num_output: 512
    bias_term: false
    pad: 0
    kernel_size: 1
    stride: 1
  }
}
layer {
  name: "bn3a_branch2c"
  type: "BatchNorm"
  bottom: "res3a_branch2c"
  top: "res3a_branch2c"
}
layer {
  name: "scale3a_branch2c"
  type: "Scale"
  bottom: "res3a_branch2c"
  top: "res3a_branch2c"
  param {
    lr_mult: 1
    decay_mult: 1
  }
  param {
    lr_mult: 1
    decay_mult: 0
  }
  scale_param {
    bias_term: true
  }
}
layer {
  name: "res3a"
  type: "Eltwise"
  bottom: "res3a_branch1"
  bottom: "res3a_branch2c"
  top: "res3a"
}
layer {
  name: "res3a_relu"
  type: "ReLU"
  bottom: "res3a"
  top: "res3a"
}
layer {
  name: "res3b1_branch2a"
  type: "Convolution"
  bottom: "res3a"
  top: "res3b1_branch2a"
  convolution_param {
    num_output: 128
    bias_term: false
    pad: 0
    kernel_size: 1
    stride: 1
  }
}
layer {
  name: "bn3b1_branch2a"
  type: "BatchNorm"
  bottom: "res3b1_branch2a"
  top: "res3b1_branch2a"
}
layer {
  name: "scale3b1_branch2a"
  type: "Scale"
  bottom: "res3b1_branch2a"
  top: "res3b1_branch2a"
  param {
    lr_mult: 1
    decay_mult: 1
  }
  param {
    lr_mult: 1
    decay_mult: 0
  }
  scale_param {
    bias_term: true
  }
}
layer {
  name: "res3b1_branch2a_relu"
  type: "ReLU"
  bottom: "res3b1_branch2a"
  top: "res3b1_branch2a"
}
layer {
  name: "res3b1_branch2b"
  type: "Convolution"
  bottom: "res3b1_branch2a"
  top: "res3b1_branch2b"
  convolution_param {
    num_output: 128
    bias_term: false
    pad: 1
    kernel_size: 3
    stride: 1
  }
}
layer {
  name: "bn3b1_branch2b"
  type: "BatchNorm"
  bottom: "res3b1_branch2b"
  top: "res3b1_branch2b"
}
layer {
  name: "scale3b1_branch2b"
  type: "Scale"
  bottom: "res3b1_branch2b"
  top: "res3b1_branch2b"
  param {
    lr_mult: 1
    decay_mult: 1
  }
  param {
    lr_mult: 1
    decay_mult: 0
  }
  scale_param {
    bias_term: true
  }
}
layer {
  name: "res3b1_branch2b_relu"
  type: "ReLU"
  bottom: "res3b1_branch2b"
  top: "res3b1_branch2b"
}
layer {
  name: "res3b1_branch2c"
  type: "Convolution"
  bottom: "res3b1_branch2b"
  top: "res3b1_branch2c"
  convolution_param {
    num_output: 512
    bias_term: false
    pad: 0
    kernel_size: 1
    stride: 1
  }
}
layer {
  name: "bn3b1_branch2c"
  type: "BatchNorm"
  bottom: "res3b1_branch2c"
  top: "res3b1_branch2c"
}
layer {
  name: "scale3b1_branch2c"
  type: "Scale"
  bottom: "res3b1_branch2c"
  top: "res3b1_branch2c"
  param {
    lr_mult: 1
    decay_mult: 1
  }
  param {
    lr_mult: 1
    decay_mult: 0
  }
  scale_param {
    bias_term: true
  }
}
layer {
  name: "res3b1"
  type: "Eltwise"
  bottom: "res3a"
  bottom: "res3b1_branch2c"
  top: "res3b1"
}
layer {
  name: "res3b1_relu"
  type: "ReLU"
  bottom: "res3b1"
  top: "res3b1"
}
layer {
  name: "res3b2_branch2a"
  type: "Convolution"
  bottom: "res3b1"
  top: "res3b2_branch2a"
  convolution_param {
    num_output: 128
    bias_term: false
    pad: 0
    kernel_size: 1
    stride: 1
  }
}
layer {
  name: "bn3b2_branch2a"
  type: "BatchNorm"
  bottom: "res3b2_branch2a"
  top: "res3b2_branch2a"
}
layer {
  name: "scale3b2_branch2a"
  type: "Scale"
  bottom: "res3b2_branch2a"
  top: "res3b2_branch2a"
  param {
    lr_mult: 1
    decay_mult: 1
  }
  param {
    lr_mult: 1
    decay_mult: 0
  }
  scale_param {
    bias_term: true
  }
}
layer {
  name: "res3b2_branch2a_relu"
  type: "ReLU"
  bottom: "res3b2_branch2a"
  top: "res3b2_branch2a"
}
layer {
  name: "res3b2_branch2b"
  type: "Convolution"
  bottom: "res3b2_branch2a"
  top: "res3b2_branch2b"
  convolution_param {
    num_output: 128
    bias_term: false
    pad: 1
    kernel_size: 3
    stride: 1
  }
}
layer {
  name: "bn3b2_branch2b"
  type: "BatchNorm"
  bottom: "res3b2_branch2b"
  top: "res3b2_branch2b"
}
layer {
  name: "scale3b2_branch2b"
  type: "Scale"
  bottom: "res3b2_branch2b"
  top: "res3b2_branch2b"
  param {
    lr_mult: 1
    decay_mult: 1
  }
  param {
    lr_mult: 1
    decay_mult: 0
  }
  scale_param {
    bias_term: true
  }
}
layer {
  name: "res3b2_branch2b_relu"
  type: "ReLU"
  bottom: "res3b2_branch2b"
  top: "res3b2_branch2b"
}
layer {
  name: "res3b2_branch2c"
  type: "Convolution"
  bottom: "res3b2_branch2b"
  top: "res3b2_branch2c"
  convolution_param {
    num_output: 512
    bias_term: false
    pad: 0
    kernel_size: 1
    stride: 1
  }
}
layer {
  name: "bn3b2_branch2c"
  type: "BatchNorm"
  bottom: "res3b2_branch2c"
  top: "res3b2_branch2c"
}
layer {
  name: "scale3b2_branch2c"
  type: "Scale"
  bottom: "res3b2_branch2c"
  top: "res3b2_branch2c"
  param {
    lr_mult: 1
    decay_mult: 1
  }
  param {
    lr_mult: 1
    decay_mult: 0
  }
  scale_param {
    bias_term: true
  }
}
layer {
  name: "res3b2"
  type: "Eltwise"
  bottom: "res3b1"
  bottom: "res3b2_branch2c"
  top: "res3b2"
}
layer {
  name: "res3b2_relu"
  type: "ReLU"
  bottom: "res3b2"
  top: "res3b2"
}
layer {
  name: "res3b3_branch2a"
  type: "Convolution"
  bottom: "res3b2"
  top: "res3b3_branch2a"
  convolution_param {
    num_output: 128
    bias_term: false
    pad: 0
    kernel_size: 1
    stride: 1
  }
}
layer {
  name: "bn3b3_branch2a"
  type: "BatchNorm"
  bottom: "res3b3_branch2a"
  top: "res3b3_branch2a"
}
layer {
  name: "scale3b3_branch2a"
  type: "Scale"
  bottom: "res3b3_branch2a"
  top: "res3b3_branch2a"
  param {
    lr_mult: 1
    decay_mult: 1
  }
  param {
    lr_mult: 1
    decay_mult: 0
  }
  scale_param {
    bias_term: true
  }
}
layer {
  name: "res3b3_branch2a_relu"
  type: "ReLU"
  bottom: "res3b3_branch2a"
  top: "res3b3_branch2a"
}
layer {
  name: "res3b3_branch2b"
  type: "Convolution"
  bottom: "res3b3_branch2a"
  top: "res3b3_branch2b"
  convolution_param {
    num_output: 128
    bias_term: false
    pad: 1
    kernel_size: 3
    stride: 1
  }
}
layer {
  name: "bn3b3_branch2b"
  type: "BatchNorm"
  bottom: "res3b3_branch2b"
  top: "res3b3_branch2b"
}
layer {
  name: "scale3b3_branch2b"
  type: "Scale"
  bottom: "res3b3_branch2b"
  top: "res3b3_branch2b"
  param {
    lr_mult: 1
    decay_mult: 1
  }
  param {
    lr_mult: 1
    decay_mult: 0
  }
  scale_param {
    bias_term: true
  }
}
layer {
  name: "res3b3_branch2b_relu"
  type: "ReLU"
  bottom: "res3b3_branch2b"
  top: "res3b3_branch2b"
}
layer {
  name: "res3b3_branch2c"
  type: "Convolution"
  bottom: "res3b3_branch2b"
  top: "res3b3_branch2c"
  convolution_param {
    num_output: 512
    bias_term: false
    pad: 0
    kernel_size: 1
    stride: 1
  }
}
layer {
  name: "bn3b3_branch2c"
  type: "BatchNorm"
  bottom: "res3b3_branch2c"
  top: "res3b3_branch2c"
}
layer {
  name: "scale3b3_branch2c"
  type: "Scale"
  bottom: "res3b3_branch2c"
  top: "res3b3_branch2c"
  param {
    lr_mult: 1
    decay_mult: 1
  }
  param {
    lr_mult: 1
    decay_mult: 0
  }
  scale_param {
    bias_term: true
  }
}
layer {
  name: "res3b3"
  type: "Eltwise"
  bottom: "res3b2"
  bottom: "res3b3_branch2c"
  top: "res3b3"
}
layer {
  name: "res3b3_relu"
  type: "ReLU"
  bottom: "res3b3"
  top: "res3b3"
}
layer {
  name: "res3b4_branch2a"
  type: "Convolution"
  bottom: "res3b3"
  top: "res3b4_branch2a"
  convolution_param {
    num_output: 128
    bias_term: false
    pad: 0
    kernel_size: 1
    stride: 1
  }
}
layer {
  name: "bn3b4_branch2a"
  type: "BatchNorm"
  bottom: "res3b4_branch2a"
  top: "res3b4_branch2a"
}
layer {
  name: "scale3b4_branch2a"
  type: "Scale"
  bottom: "res3b4_branch2a"
  top: "res3b4_branch2a"
  param {
    lr_mult: 1
    decay_mult: 1
  }
  param {
    lr_mult: 1
    decay_mult: 0
  }
  scale_param {
    bias_term: true
  }
}
layer {
  name: "res3b4_branch2a_relu"
  type: "ReLU"
  bottom: "res3b4_branch2a"
  top: "res3b4_branch2a"
}
layer {
  name: "res3b4_branch2b"
  type: "Convolution"
  bottom: "res3b4_branch2a"
  top: "res3b4_branch2b"
  convolution_param {
    num_output: 128
    bias_term: false
    pad: 1
    kernel_size: 3
    stride: 1
  }
}
layer {
  name: "bn3b4_branch2b"
  type: "BatchNorm"
  bottom: "res3b4_branch2b"
  top: "res3b4_branch2b"
}
layer {
  name: "scale3b4_branch2b"
  type: "Scale"
  bottom: "res3b4_branch2b"
  top: "res3b4_branch2b"
  param {
    lr_mult: 1
    decay_mult: 1
  }
  param {
    lr_mult: 1
    decay_mult: 0
  }
  scale_param {
    bias_term: true
  }
}
layer {
  name: "res3b4_branch2b_relu"
  type: "ReLU"
  bottom: "res3b4_branch2b"
  top: "res3b4_branch2b"
}
layer {
  name: "res3b4_branch2c"
  type: "Convolution"
  bottom: "res3b4_branch2b"
  top: "res3b4_branch2c"
  convolution_param {
    num_output: 512
    bias_term: false
    pad: 0
    kernel_size: 1
    stride: 1
  }
}
layer {
  name: "bn3b4_branch2c"
  type: "BatchNorm"
  bottom: "res3b4_branch2c"
  top: "res3b4_branch2c"
}
layer {
  name: "scale3b4_branch2c"
  type: "Scale"
  bottom: "res3b4_branch2c"
  top: "res3b4_branch2c"
  param {
    lr_mult: 1
    decay_mult: 1
  }
  param {
    lr_mult: 1
    decay_mult: 0
  }
  scale_param {
    bias_term: true
  }
}
layer {
  name: "res3b4"
  type: "Eltwise"
  bottom: "res3b3"
  bottom: "res3b4_branch2c"
  top: "res3b4"
}
layer {
  name: "res3b4_relu"
  type: "ReLU"
  bottom: "res3b4"
  top: "res3b4"
}
layer {
  name: "res3b5_branch2a"
  type: "Convolution"
  bottom: "res3b4"
  top: "res3b5_branch2a"
  convolution_param {
    num_output: 128
    bias_term: false
    pad: 0
    kernel_size: 1
    stride: 1
  }
}
layer {
  name: "bn3b5_branch2a"
  type: "BatchNorm"
  bottom: "res3b5_branch2a"
  top: "res3b5_branch2a"
}
layer {
  name: "scale3b5_branch2a"
  type: "Scale"
  bottom: "res3b5_branch2a"
  top: "res3b5_branch2a"
  param {
    lr_mult: 1
    decay_mult: 1
  }
  param {
    lr_mult: 1
    decay_mult: 0
  }
  scale_param {
    bias_term: true
  }
}
layer {
  name: "res3b5_branch2a_relu"
  type: "ReLU"
  bottom: "res3b5_branch2a"
  top: "res3b5_branch2a"
}
layer {
  name: "res3b5_branch2b"
  type: "Convolution"
  bottom: "res3b5_branch2a"
  top: "res3b5_branch2b"
  convolution_param {
    num_output: 128
    bias_term: false
    pad: 1
    kernel_size: 3
    stride: 1
  }
}
layer {
  name: "bn3b5_branch2b"
  type: "BatchNorm"
  bottom: "res3b5_branch2b"
  top: "res3b5_branch2b"
}
layer {
  name: "scale3b5_branch2b"
  type: "Scale"
  bottom: "res3b5_branch2b"
  top: "res3b5_branch2b"
  param {
    lr_mult: 1
    decay_mult: 1
  }
  param {
    lr_mult: 1
    decay_mult: 0
  }
  scale_param {
    bias_term: true
  }
}
layer {
  name: "res3b5_branch2b_relu"
  type: "ReLU"
  bottom: "res3b5_branch2b"
  top: "res3b5_branch2b"
}
layer {
  name: "res3b5_branch2c"
  type: "Convolution"
  bottom: "res3b5_branch2b"
  top: "res3b5_branch2c"
  convolution_param {
    num_output: 512
    bias_term: false
    pad: 0
    kernel_size: 1
    stride: 1
  }
}
layer {
  name: "bn3b5_branch2c"
  type: "BatchNorm"
  bottom: "res3b5_branch2c"
  top: "res3b5_branch2c"
}
layer {
  name: "scale3b5_branch2c"
  type: "Scale"
  bottom: "res3b5_branch2c"
  top: "res3b5_branch2c"
  param {
    lr_mult: 1
    decay_mult: 1
  }
  param {
    lr_mult: 1
    decay_mult: 0
  }
  scale_param {
    bias_term: true
  }
}
layer {
  name: "res3b5"
  type: "Eltwise"
  bottom: "res3b4"
  bottom: "res3b5_branch2c"
  top: "res3b5"
}
layer {
  name: "res3b5_relu"
  type: "ReLU"
  bottom: "res3b5"
  top: "res3b5"
}
layer {
  name: "res3b6_branch2a"
  type: "Convolution"
  bottom: "res3b5"
  top: "res3b6_branch2a"
  convolution_param {
    num_output: 128
    bias_term: false
    pad: 0
    kernel_size: 1
    stride: 1
  }
}
layer {
  name: "bn3b6_branch2a"
  type: "BatchNorm"
  bottom: "res3b6_branch2a"
  top: "res3b6_branch2a"
}
layer {
  name: "scale3b6_branch2a"
  type: "Scale"
  bottom: "res3b6_branch2a"
  top: "res3b6_branch2a"
  param {
    lr_mult: 1
    decay_mult: 1
  }
  param {
    lr_mult: 1
    decay_mult: 0
  }
  scale_param {
    bias_term: true
  }
}
layer {
  name: "res3b6_branch2a_relu"
  type: "ReLU"
  bottom: "res3b6_branch2a"
  top: "res3b6_branch2a"
}
layer {
  name: "res3b6_branch2b"
  type: "Convolution"
  bottom: "res3b6_branch2a"
  top: "res3b6_branch2b"
  convolution_param {
    num_output: 128
    bias_term: false
    pad: 1
    kernel_size: 3
    stride: 1
  }
}
layer {
  name: "bn3b6_branch2b"
  type: "BatchNorm"
  bottom: "res3b6_branch2b"
  top: "res3b6_branch2b"
}
layer {
  name: "scale3b6_branch2b"
  type: "Scale"
  bottom: "res3b6_branch2b"
  top: "res3b6_branch2b"
  param {
    lr_mult: 1
    decay_mult: 1
  }
  param {
    lr_mult: 1
    decay_mult: 0
  }
  scale_param {
    bias_term: true
  }
}
layer {
  name: "res3b6_branch2b_relu"
  type: "ReLU"
  bottom: "res3b6_branch2b"
  top: "res3b6_branch2b"
}
layer {
  name: "res3b6_branch2c"
  type: "Convolution"
  bottom: "res3b6_branch2b"
  top: "res3b6_branch2c"
  convolution_param {
    num_output: 512
    bias_term: false
    pad: 0
    kernel_size: 1
    stride: 1
  }
}
layer {
  name: "bn3b6_branch2c"
  type: "BatchNorm"
  bottom: "res3b6_branch2c"
  top: "res3b6_branch2c"
}
layer {
  name: "scale3b6_branch2c"
  type: "Scale"
  bottom: "res3b6_branch2c"
  top: "res3b6_branch2c"
  param {
    lr_mult: 1
    decay_mult: 1
  }
  param {
    lr_mult: 1
    decay_mult: 0
  }
  scale_param {
    bias_term: true
  }
}
layer {
  name: "res3b6"
  type: "Eltwise"
  bottom: "res3b5"
  bottom: "res3b6_branch2c"
  top: "res3b6"
}
layer {
  name: "res3b6_relu"
  type: "ReLU"
  bottom: "res3b6"
  top: "res3b6"
}
layer {
  name: "res3b7_branch2a"
  type: "Convolution"
  bottom: "res3b6"
  top: "res3b7_branch2a"
  convolution_param {
    num_output: 128
    bias_term: false
    pad: 0
    kernel_size: 1
    stride: 1
  }
}
layer {
  name: "bn3b7_branch2a"
  type: "BatchNorm"
  bottom: "res3b7_branch2a"
  top: "res3b7_branch2a"
}
layer {
  name: "scale3b7_branch2a"
  type: "Scale"
  bottom: "res3b7_branch2a"
  top: "res3b7_branch2a"
  param {
    lr_mult: 1
    decay_mult: 1
  }
  param {
    lr_mult: 1
    decay_mult: 0
  }
  scale_param {
    bias_term: true
  }
}
layer {
  name: "res3b7_branch2a_relu"
  type: "ReLU"
  bottom: "res3b7_branch2a"
  top: "res3b7_branch2a"
}
layer {
  name: "res3b7_branch2b"
  type: "Convolution"
  bottom: "res3b7_branch2a"
  top: "res3b7_branch2b"
  convolution_param {
    num_output: 128
    bias_term: false
    pad: 1
    kernel_size: 3
    stride: 1
  }
}
layer {
  name: "bn3b7_branch2b"
  type: "BatchNorm"
  bottom: "res3b7_branch2b"
  top: "res3b7_branch2b"
}
layer {
  name: "scale3b7_branch2b"
  type: "Scale"
  bottom: "res3b7_branch2b"
  top: "res3b7_branch2b"
  param {
    lr_mult: 1
    decay_mult: 1
  }
  param {
    lr_mult: 1
    decay_mult: 0
  }
  scale_param {
    bias_term: true
  }
}
layer {
  name: "res3b7_branch2b_relu"
  type: "ReLU"
  bottom: "res3b7_branch2b"
  top: "res3b7_branch2b"
}
layer {
  name: "res3b7_branch2c"
  type: "Convolution"
  bottom: "res3b7_branch2b"
  top: "res3b7_branch2c"
  convolution_param {
    num_output: 512
    bias_term: false
    pad: 0
    kernel_size: 1
    stride: 1
  }
}
layer {
  name: "bn3b7_branch2c"
  type: "BatchNorm"
  bottom: "res3b7_branch2c"
  top: "res3b7_branch2c"
}
layer {
  name: "scale3b7_branch2c"
  type: "Scale"
  bottom: "res3b7_branch2c"
  top: "res3b7_branch2c"
  param {
    lr_mult: 1
    decay_mult: 1
  }
  param {
    lr_mult: 1
    decay_mult: 0
  }
  scale_param {
    bias_term: true
  }
}
layer {
  name: "res3b7"
  type: "Eltwise"
  bottom: "res3b6"
  bottom: "res3b7_branch2c"
  top: "res3b7"
}
layer {
  name: "res3b7_relu"
  type: "ReLU"
  bottom: "res3b7"
  top: "res3b7"
}
layer {
  name: "res4a_branch1"
  type: "Convolution"
  bottom: "res3b7"
  top: "res4a_branch1"
  convolution_param {
    num_output: 1024
    bias_term: false
    pad: 0
    kernel_size: 1
    stride: 2
  }
}
layer {
  name: "bn4a_branch1"
  type: "BatchNorm"
  bottom: "res4a_branch1"
  top: "res4a_branch1"
}
layer {
  name: "scale4a_branch1"
  type: "Scale"
  bottom: "res4a_branch1"
  top: "res4a_branch1"
  param {
    lr_mult: 1
    decay_mult: 1
  }
  param {
    lr_mult: 1
    decay_mult: 0
  }
  scale_param {
    bias_term: true
  }
}
layer {
  name: "res4a_branch2a"
  type: "Convolution"
  bottom: "res3b7"
  top: "res4a_branch2a"
  convolution_param {
    num_output: 256
    bias_term: false
    pad: 0
    kernel_size: 1
    stride: 2
  }
}
layer {
  name: "bn4a_branch2a"
  type: "BatchNorm"
  bottom: "res4a_branch2a"
  top: "res4a_branch2a"
}
layer {
  name: "scale4a_branch2a"
  type: "Scale"
  bottom: "res4a_branch2a"
  top: "res4a_branch2a"
  param {
    lr_mult: 1
    decay_mult: 1
  }
  param {
    lr_mult: 1
    decay_mult: 0
  }
  scale_param {
    bias_term: true
  }
}
layer {
  name: "res4a_branch2a_relu"
  type: "ReLU"
  bottom: "res4a_branch2a"
  top: "res4a_branch2a"
}
layer {
  name: "res4a_branch2b"
  type: "Convolution"
  bottom: "res4a_branch2a"
  top: "res4a_branch2b"
  convolution_param {
    num_output: 256
    bias_term: false
    pad: 1
    kernel_size: 3
    stride: 1
  }
}
layer {
  name: "bn4a_branch2b"
  type: "BatchNorm"
  bottom: "res4a_branch2b"
  top: "res4a_branch2b"
}
layer {
  name: "scale4a_branch2b"
  type: "Scale"
  bottom: "res4a_branch2b"
  top: "res4a_branch2b"
  param {
    lr_mult: 1
    decay_mult: 1
  }
  param {
    lr_mult: 1
    decay_mult: 0
  }
  scale_param {
    bias_term: true
  }
}
layer {
  name: "res4a_branch2b_relu"
  type: "ReLU"
  bottom: "res4a_branch2b"
  top: "res4a_branch2b"
}
layer {
  name: "res4a_branch2c"
  type: "Convolution"
  bottom: "res4a_branch2b"
  top: "res4a_branch2c"
  convolution_param {
    num_output: 1024
    bias_term: false
    pad: 0
    kernel_size: 1
    stride: 1
  }
}
layer {
  name: "bn4a_branch2c"
  type: "BatchNorm"
  bottom: "res4a_branch2c"
  top: "res4a_branch2c"
}
layer {
  name: "scale4a_branch2c"
  type: "Scale"
  bottom: "res4a_branch2c"
  top: "res4a_branch2c"
  param {
    lr_mult: 1
    decay_mult: 1
  }
  param {
    lr_mult: 1
    decay_mult: 0
  }
  scale_param {
    bias_term: true
  }
}
layer {
  name: "res4a"
  type: "Eltwise"
  bottom: "res4a_branch1"
  bottom: "res4a_branch2c"
  top: "res4a"
}
layer {
  name: "res4a_relu"
  type: "ReLU"
  bottom: "res4a"
  top: "res4a"
}
layer {
  name: "res4b1_branch2a"
  type: "Convolution"
  bottom: "res4a"
  top: "res4b1_branch2a"
  convolution_param {
    num_output: 256
    bias_term: false
    pad: 0
    kernel_size: 1
    stride: 1
  }
}
layer {
  name: "bn4b1_branch2a"
  type: "BatchNorm"
  bottom: "res4b1_branch2a"
  top: "res4b1_branch2a"
}
layer {
  name: "scale4b1_branch2a"
  type: "Scale"
  bottom: "res4b1_branch2a"
  top: "res4b1_branch2a"
  param {
    lr_mult: 1
    decay_mult: 1
  }
  param {
    lr_mult: 1
    decay_mult: 0
  }
  scale_param {
    bias_term: true
  }
}
layer {
  name: "res4b1_branch2a_relu"
  type: "ReLU"
  bottom: "res4b1_branch2a"
  top: "res4b1_branch2a"
}
layer {
  name: "res4b1_branch2b"
  type: "Convolution"
  bottom: "res4b1_branch2a"
  top: "res4b1_branch2b"
  convolution_param {
    num_output: 256
    bias_term: false
    pad: 1
    kernel_size: 3
    stride: 1
  }
}
layer {
  name: "bn4b1_branch2b"
  type: "BatchNorm"
  bottom: "res4b1_branch2b"
  top: "res4b1_branch2b"
}
layer {
  name: "scale4b1_branch2b"
  type: "Scale"
  bottom: "res4b1_branch2b"
  top: "res4b1_branch2b"
  param {
    lr_mult: 1
    decay_mult: 1
  }
  param {
    lr_mult: 1
    decay_mult: 0
  }
  scale_param {
    bias_term: true
  }
}
layer {
  name: "res4b1_branch2b_relu"
  type: "ReLU"
  bottom: "res4b1_branch2b"
  top: "res4b1_branch2b"
}
layer {
  name: "res4b1_branch2c"
  type: "Convolution"
  bottom: "res4b1_branch2b"
  top: "res4b1_branch2c"
  convolution_param {
    num_output: 1024
    bias_term: false
    pad: 0
    kernel_size: 1
    stride: 1
  }
}
layer {
  name: "bn4b1_branch2c"
  type: "BatchNorm"
  bottom: "res4b1_branch2c"
  top: "res4b1_branch2c"
}
layer {
  name: "scale4b1_branch2c"
  type: "Scale"
  bottom: "res4b1_branch2c"
  top: "res4b1_branch2c"
  param {
    lr_mult: 1
    decay_mult: 1
  }
  param {
    lr_mult: 1
    decay_mult: 0
  }
  scale_param {
    bias_term: true
  }
}
layer {
  name: "res4b1"
  type: "Eltwise"
  bottom: "res4a"
  bottom: "res4b1_branch2c"
  top: "res4b1"
}
layer {
  name: "res4b1_relu"
  type: "ReLU"
  bottom: "res
I1019 22:49:54.522297 20515 layer_factory.hpp:77] Creating layer data
I1019 22:49:54.523411 20515 net.cpp:100] Creating Layer data
I1019 22:49:54.523460 20515 net.cpp:408] data -> data
I1019 22:49:54.523533 20515 net.cpp:408] data -> label
I1019 22:49:54.525023 20521 db_lmdb.cpp:35] Opened lmdb /data/zhangming/aichallenger/img_train_lmdb
I1019 22:49:54.632575 20515 data_layer.cpp:41] output data size: 16,3,224,224
I1019 22:49:54.687738 20515 net.cpp:150] Setting up data
I1019 22:49:54.687942 20515 net.cpp:157] Top shape: 16 3 224 224 (2408448)
I1019 22:49:54.688021 20515 net.cpp:157] Top shape: 16 (16)
I1019 22:49:54.688087 20515 net.cpp:165] Memory required for data: 9633856
I1019 22:49:54.688163 20515 layer_factory.hpp:77] Creating layer conv1
I1019 22:49:54.688257 20515 net.cpp:100] Creating Layer conv1
I1019 22:49:54.688329 20515 net.cpp:434] conv1 <- data
I1019 22:49:54.688416 20515 net.cpp:408] conv1 -> conv1
I1019 22:49:55.508132 20515 net.cpp:150] Setting up conv1
I1019 22:49:55.508327 20515 net.cpp:157] Top shape: 16 64 112 112 (12845056)
I1019 22:49:55.508381 20515 net.cpp:165] Memory required for data: 61014080
I1019 22:49:55.508467 20515 layer_factory.hpp:77] Creating layer bn_conv1
I1019 22:49:55.508543 20515 net.cpp:100] Creating Layer bn_conv1
I1019 22:49:55.508625 20515 net.cpp:434] bn_conv1 <- conv1
I1019 22:49:55.508682 20515 net.cpp:395] bn_conv1 -> conv1 (in-place)
I1019 22:49:55.508935 20515 net.cpp:150] Setting up bn_conv1
I1019 22:49:55.509011 20515 net.cpp:157] Top shape: 16 64 112 112 (12845056)
I1019 22:49:55.509048 20515 net.cpp:165] Memory required for data: 112394304
I1019 22:49:55.509091 20515 layer_factory.hpp:77] Creating layer scale_conv1
I1019 22:49:55.509137 20515 net.cpp:100] Creating Layer scale_conv1
I1019 22:49:55.509173 20515 net.cpp:434] scale_conv1 <- conv1
I1019 22:49:55.509209 20515 net.cpp:395] scale_conv1 -> conv1 (in-place)
I1019 22:49:55.509305 20515 layer_factory.hpp:77] Creating layer scale_conv1
I1019 22:49:55.509490 20515 net.cpp:150] Setting up scale_conv1
I1019 22:49:55.509534 20515 net.cpp:157] Top shape: 16 64 112 112 (12845056)
I1019 22:49:55.509567 20515 net.cpp:165] Memory required for data: 163774528
I1019 22:49:55.509604 20515 layer_factory.hpp:77] Creating layer conv1_relu
I1019 22:49:55.509657 20515 net.cpp:100] Creating Layer conv1_relu
I1019 22:49:55.509701 20515 net.cpp:434] conv1_relu <- conv1
I1019 22:49:55.509737 20515 net.cpp:395] conv1_relu -> conv1 (in-place)
I1019 22:49:55.509950 20515 net.cpp:150] Setting up conv1_relu
I1019 22:49:55.510000 20515 net.cpp:157] Top shape: 16 64 112 112 (12845056)
I1019 22:49:55.510033 20515 net.cpp:165] Memory required for data: 215154752
I1019 22:49:55.510066 20515 layer_factory.hpp:77] Creating layer pool1
I1019 22:49:55.510110 20515 net.cpp:100] Creating Layer pool1
I1019 22:49:55.510146 20515 net.cpp:434] pool1 <- conv1
I1019 22:49:55.510181 20515 net.cpp:408] pool1 -> pool1
I1019 22:49:55.510277 20515 net.cpp:150] Setting up pool1
I1019 22:49:55.510318 20515 net.cpp:157] Top shape: 16 64 56 56 (3211264)
I1019 22:49:55.510350 20515 net.cpp:165] Memory required for data: 227999808
I1019 22:49:55.510382 20515 layer_factory.hpp:77] Creating layer pool1_pool1_0_split
I1019 22:49:55.510418 20515 net.cpp:100] Creating Layer pool1_pool1_0_split
I1019 22:49:55.510452 20515 net.cpp:434] pool1_pool1_0_split <- pool1
I1019 22:49:55.510485 20515 net.cpp:408] pool1_pool1_0_split -> pool1_pool1_0_split_0
I1019 22:49:55.510522 20515 net.cpp:408] pool1_pool1_0_split -> pool1_pool1_0_split_1
I1019 22:49:55.510601 20515 net.cpp:150] Setting up pool1_pool1_0_split
I1019 22:49:55.510653 20515 net.cpp:157] Top shape: 16 64 56 56 (3211264)
I1019 22:49:55.510690 20515 net.cpp:157] Top shape: 16 64 56 56 (3211264)
I1019 22:49:55.510722 20515 net.cpp:165] Memory required for data: 253689920
I1019 22:49:55.510754 20515 layer_factory.hpp:77] Creating layer res2a_branch1
I1019 22:49:55.510792 20515 net.cpp:100] Creating Layer res2a_branch1
I1019 22:49:55.510826 20515 net.cpp:434] res2a_branch1 <- pool1_pool1_0_split_0
I1019 22:49:55.510861 20515 net.cpp:408] res2a_branch1 -> res2a_branch1
I1019 22:49:55.516460 20515 net.cpp:150] Setting up res2a_branch1
I1019 22:49:55.516526 20515 net.cpp:157] Top shape: 16 256 56 56 (12845056)
I1019 22:49:55.516562 20515 net.cpp:165] Memory required for data: 305070144
I1019 22:49:55.516599 20515 layer_factory.hpp:77] Creating layer bn2a_branch1
I1019 22:49:55.516647 20515 net.cpp:100] Creating Layer bn2a_branch1
I1019 22:49:55.516685 20515 net.cpp:434] bn2a_branch1 <- res2a_branch1
I1019 22:49:55.516721 20515 net.cpp:395] bn2a_branch1 -> res2a_branch1 (in-place)
I1019 22:49:55.519449 20515 net.cpp:150] Setting up bn2a_branch1
I1019 22:49:55.519513 20515 net.cpp:157] Top shape: 16 256 56 56 (12845056)
I1019 22:49:55.519549 20515 net.cpp:165] Memory required for data: 356450368
I1019 22:49:55.519594 20515 layer_factory.hpp:77] Creating layer scale2a_branch1
I1019 22:49:55.519646 20515 net.cpp:100] Creating Layer scale2a_branch1
I1019 22:49:55.519685 20515 net.cpp:434] scale2a_branch1 <- res2a_branch1
I1019 22:49:55.519721 20515 net.cpp:395] scale2a_branch1 -> res2a_branch1 (in-place)
I1019 22:49:55.519814 20515 layer_factory.hpp:77] Creating layer scale2a_branch1
I1019 22:49:55.519958 20515 net.cpp:150] Setting up scale2a_branch1
I1019 22:49:55.520016 20515 net.cpp:157] Top shape: 16 256 56 56 (12845056)
I1019 22:49:55.520050 20515 net.cpp:165] Memory required for data: 407830592
I1019 22:49:55.520084 20515 layer_factory.hpp:77] Creating layer res2a_branch2a
I1019 22:49:55.520123 20515 net.cpp:100] Creating Layer res2a_branch2a
I1019 22:49:55.520156 20515 net.cpp:434] res2a_branch2a <- pool1_pool1_0_split_1
I1019 22:49:55.520192 20515 net.cpp:408] res2a_branch2a -> res2a_branch2a
I1019 22:49:55.525389 20515 net.cpp:150] Setting up res2a_branch2a
I1019 22:49:55.525455 20515 net.cpp:157] Top shape: 16 64 56 56 (3211264)
I1019 22:49:55.525490 20515 net.cpp:165] Memory required for data: 420675648
I1019 22:49:55.525524 20515 layer_factory.hpp:77] Creating layer bn2a_branch2a
I1019 22:49:55.525562 20515 net.cpp:100] Creating Layer bn2a_branch2a
I1019 22:49:55.525594 20515 net.cpp:434] bn2a_branch2a <- res2a_branch2a
I1019 22:49:55.525630 20515 net.cpp:395] bn2a_branch2a -> res2a_branch2a (in-place)
I1019 22:49:55.525841 20515 net.cpp:150] Setting up bn2a_branch2a
I1019 22:49:55.525883 20515 net.cpp:157] Top shape: 16 64 56 56 (3211264)
I1019 22:49:55.525915 20515 net.cpp:165] Memory required for data: 433520704
I1019 22:49:55.525952 20515 layer_factory.hpp:77] Creating layer scale2a_branch2a
I1019 22:49:55.525990 20515 net.cpp:100] Creating Layer scale2a_branch2a
I1019 22:49:55.526023 20515 net.cpp:434] scale2a_branch2a <- res2a_branch2a
I1019 22:49:55.526058 20515 net.cpp:395] scale2a_branch2a -> res2a_branch2a (in-place)
I1019 22:49:55.526136 20515 layer_factory.hpp:77] Creating layer scale2a_branch2a
I1019 22:49:55.526281 20515 net.cpp:150] Setting up scale2a_branch2a
I1019 22:49:55.526324 20515 net.cpp:157] Top shape: 16 64 56 56 (3211264)
I1019 22:49:55.526355 20515 net.cpp:165] Memory required for data: 446365760
I1019 22:49:55.526393 20515 layer_factory.hpp:77] Creating layer res2a_branch2a_relu
I1019 22:49:55.526430 20515 net.cpp:100] Creating Layer res2a_branch2a_relu
I1019 22:49:55.526463 20515 net.cpp:434] res2a_branch2a_relu <- res2a_branch2a
I1019 22:49:55.526496 20515 net.cpp:395] res2a_branch2a_relu -> res2a_branch2a (in-place)
I1019 22:49:55.527536 20515 net.cpp:150] Setting up res2a_branch2a_relu
I1019 22:49:55.527585 20515 net.cpp:157] Top shape: 16 64 56 56 (3211264)
I1019 22:49:55.527618 20515 net.cpp:165] Memory required for data: 459210816
I1019 22:49:55.527659 20515 layer_factory.hpp:77] Creating layer res2a_branch2b
I1019 22:49:55.527698 20515 net.cpp:100] Creating Layer res2a_branch2b
I1019 22:49:55.527730 20515 net.cpp:434] res2a_branch2b <- res2a_branch2a
I1019 22:49:55.527765 20515 net.cpp:408] res2a_branch2b -> res2a_branch2b
I1019 22:49:55.534313 20515 net.cpp:150] Setting up res2a_branch2b
I1019 22:49:55.534380 20515 net.cpp:157] Top shape: 16 64 56 56 (3211264)
I1019 22:49:55.534417 20515 net.cpp:165] Memory required for data: 472055872
I1019 22:49:55.534452 20515 layer_factory.hpp:77] Creating layer bn2a_branch2b
I1019 22:49:55.534489 20515 net.cpp:100] Creating Layer bn2a_branch2b
I1019 22:49:55.534523 20515 net.cpp:434] bn2a_branch2b <- res2a_branch2b
I1019 22:49:55.534564 20515 net.cpp:395] bn2a_branch2b -> res2a_branch2b (in-place)
I1019 22:49:55.534819 20515 net.cpp:150] Setting up bn2a_branch2b
I1019 22:49:55.534867 20515 net.cpp:157] Top shape: 16 64 56 56 (3211264)
I1019 22:49:55.534898 20515 net.cpp:165] Memory required for data: 484900928
I1019 22:49:55.534935 20515 layer_factory.hpp:77] Creating layer scale2a_branch2b
I1019 22:49:55.534976 20515 net.cpp:100] Creating Layer scale2a_branch2b
I1019 22:49:55.535008 20515 net.cpp:434] scale2a_branch2b <- res2a_branch2b
I1019 22:49:55.535039 20515 net.cpp:395] scale2a_branch2b -> res2a_branch2b (in-place)
I1019 22:49:55.535117 20515 layer_factory.hpp:77] Creating layer scale2a_branch2b
I1019 22:49:55.535284 20515 net.cpp:150] Setting up scale2a_branch2b
I1019 22:49:55.535325 20515 net.cpp:157] Top shape: 16 64 56 56 (3211264)
I1019 22:49:55.535362 20515 net.cpp:165] Memory required for data: 497745984
I1019 22:49:55.535398 20515 layer_factory.hpp:77] Creating layer res2a_branch2b_relu
I1019 22:49:55.535449 20515 net.cpp:100] Creating Layer res2a_branch2b_relu
I1019 22:49:55.535480 20515 net.cpp:434] res2a_branch2b_relu <- res2a_branch2b
I1019 22:49:55.535511 20515 net.cpp:395] res2a_branch2b_relu -> res2a_branch2b (in-place)
I1019 22:49:55.536468 20515 net.cpp:150] Setting up res2a_branch2b_relu
I1019 22:49:55.536530 20515 net.cpp:157] Top shape: 16 64 56 56 (3211264)
I1019 22:49:55.536562 20515 net.cpp:165] Memory required for data: 510591040
I1019 22:49:55.536590 20515 layer_factory.hpp:77] Creating layer res2a_branch2c
I1019 22:49:55.536623 20515 net.cpp:100] Creating Layer res2a_branch2c
I1019 22:49:55.536664 20515 net.cpp:434] res2a_branch2c <- res2a_branch2b
I1019 22:49:55.536706 20515 net.cpp:408] res2a_branch2c -> res2a_branch2c
I1019 22:49:55.543388 20515 net.cpp:150] Setting up res2a_branch2c
I1019 22:49:55.543449 20515 net.cpp:157] Top shape: 16 256 56 56 (12845056)
I1019 22:49:55.543483 20515 net.cpp:165] Memory required for data: 561971264
I1019 22:49:55.543519 20515 layer_factory.hpp:77] Creating layer bn2a_branch2c
I1019 22:49:55.543562 20515 net.cpp:100] Creating Layer bn2a_branch2c
I1019 22:49:55.543598 20515 net.cpp:434] bn2a_branch2c <- res2a_branch2c
I1019 22:49:55.543633 20515 net.cpp:395] bn2a_branch2c -> res2a_branch2c (in-place)
I1019 22:49:55.543884 20515 net.cpp:150] Setting up bn2a_branch2c
I1019 22:49:55.543929 20515 net.cpp:157] Top shape: 16 256 56 56 (12845056)
I1019 22:49:55.543962 20515 net.cpp:165] Memory required for data: 613351488
I1019 22:49:55.544004 20515 layer_factory.hpp:77] Creating layer scale2a_branch2c
I1019 22:49:55.544045 20515 net.cpp:100] Creating Layer scale2a_branch2c
I1019 22:49:55.544078 20515 net.cpp:434] scale2a_branch2c <- res2a_branch2c
I1019 22:49:55.544114 20515 net.cpp:395] scale2a_branch2c -> res2a_branch2c (in-place)
I1019 22:49:55.544205 20515 layer_factory.hpp:77] Creating layer scale2a_branch2c
I1019 22:49:55.544373 20515 net.cpp:150] Setting up scale2a_branch2c
I1019 22:49:55.544416 20515 net.cpp:157] Top shape: 16 256 56 56 (12845056)
I1019 22:49:55.544447 20515 net.cpp:165] Memory required for data: 664731712
I1019 22:49:55.544482 20515 layer_factory.hpp:77] Creating layer res2a
I1019 22:49:55.544531 20515 net.cpp:100] Creating Layer res2a
I1019 22:49:55.544567 20515 net.cpp:434] res2a <- res2a_branch1
I1019 22:49:55.544600 20515 net.cpp:434] res2a <- res2a_branch2c
I1019 22:49:55.544644 20515 net.cpp:408] res2a -> res2a
I1019 22:49:55.544725 20515 net.cpp:150] Setting up res2a
I1019 22:49:55.544767 20515 net.cpp:157] Top shape: 16 256 56 56 (12845056)
I1019 22:49:55.544800 20515 net.cpp:165] Memory required for data: 716111936
I1019 22:49:55.544831 20515 layer_factory.hpp:77] Creating layer res2a_relu
I1019 22:49:55.544864 20515 net.cpp:100] Creating Layer res2a_relu
I1019 22:49:55.544898 20515 net.cpp:434] res2a_relu <- res2a
I1019 22:49:55.544940 20515 net.cpp:395] res2a_relu -> res2a (in-place)
I1019 22:49:55.545794 20515 net.cpp:150] Setting up res2a_relu
I1019 22:49:55.545861 20515 net.cpp:157] Top shape: 16 256 56 56 (12845056)
I1019 22:49:55.545898 20515 net.cpp:165] Memory required for data: 767492160
I1019 22:49:55.545931 20515 layer_factory.hpp:77] Creating layer res2a_res2a_relu_0_split
I1019 22:49:55.545969 20515 net.cpp:100] Creating Layer res2a_res2a_relu_0_split
I1019 22:49:55.546003 20515 net.cpp:434] res2a_res2a_relu_0_split <- res2a
I1019 22:49:55.546038 20515 net.cpp:408] res2a_res2a_relu_0_split -> res2a_res2a_relu_0_split_0
I1019 22:49:55.546077 20515 net.cpp:408] res2a_res2a_relu_0_split -> res2a_res2a_relu_0_split_1
I1019 22:49:55.546165 20515 net.cpp:150] Setting up res2a_res2a_relu_0_split
I1019 22:49:55.546208 20515 net.cpp:157] Top shape: 16 256 56 56 (12845056)
I1019 22:49:55.546241 20515 net.cpp:157] Top shape: 16 256 56 56 (12845056)
I1019 22:49:55.546272 20515 net.cpp:165] Memory required for data: 870252608
I1019 22:49:55.546303 20515 layer_factory.hpp:77] Creating layer res2b_branch2a
I1019 22:49:55.546355 20515 net.cpp:100] Creating Layer res2b_branch2a
I1019 22:49:55.546391 20515 net.cpp:434] res2b_branch2a <- res2a_res2a_relu_0_split_0
I1019 22:49:55.546447 20515 net.cpp:408] res2b_branch2a -> res2b_branch2a
I1019 22:49:55.552429 20515 net.cpp:150] Setting up res2b_branch2a
I1019 22:49:55.552511 20515 net.cpp:157] Top shape: 16 64 56 56 (3211264)
I1019 22:49:55.552548 20515 net.cpp:165] Memory required for data: 883097664
I1019 22:49:55.552587 20515 layer_factory.hpp:77] Creating layer bn2b_branch2a
I1019 22:49:55.552656 20515 net.cpp:100] Creating Layer bn2b_branch2a
I1019 22:49:55.552697 20515 net.cpp:434] bn2b_branch2a <- res2b_branch2a
I1019 22:49:55.552743 20515 net.cpp:395] bn2b_branch2a -> res2b_branch2a (in-place)
I1019 22:49:55.553113 20515 net.cpp:150] Setting up bn2b_branch2a
I1019 22:49:55.553162 20515 net.cpp:157] Top shape: 16 64 56 56 (3211264)
I1019 22:49:55.553196 20515 net.cpp:165] Memory required for data: 895942720
I1019 22:49:55.553241 20515 layer_factory.hpp:77] Creating layer scale2b_branch2a
I1019 22:49:55.553280 20515 net.cpp:100] Creating Layer scale2b_branch2a
I1019 22:49:55.553313 20515 net.cpp:434] scale2b_branch2a <- res2b_branch2a
I1019 22:49:55.553349 20515 net.cpp:395] scale2b_branch2a -> res2b_branch2a (in-place)
I1019 22:49:55.553443 20515 layer_factory.hpp:77] Creating layer scale2b_branch2a
I1019 22:49:55.553622 20515 net.cpp:150] Setting up scale2b_branch2a
I1019 22:49:55.553675 20515 net.cpp:157] Top shape: 16 64 56 56 (3211264)
I1019 22:49:55.553710 20515 net.cpp:165] Memory required for data: 908787776
I1019 22:49:55.553745 20515 layer_factory.hpp:77] Creating layer res2b_branch2a_relu
I1019 22:49:55.553781 20515 net.cpp:100] Creating Layer res2b_branch2a_relu
I1019 22:49:55.553813 20515 net.cpp:434] res2b_branch2a_relu <- res2b_branch2a
I1019 22:49:55.553853 20515 net.cpp:395] res2b_branch2a_relu -> res2b_branch2a (in-place)
I1019 22:49:55.554620 20515 net.cpp:150] Setting up res2b_branch2a_relu
I1019 22:49:55.554683 20515 net.cpp:157] Top shape: 16 64 56 56 (3211264)
I1019 22:49:55.554716 20515 net.cpp:165] Memory required for data: 921632832
I1019 22:49:55.554749 20515 layer_factory.hpp:77] Creating layer res2b_branch2b
I1019 22:49:55.554790 20515 net.cpp:100] Creating Layer res2b_branch2b
I1019 22:49:55.554826 20515 net.cpp:434] res2b_branch2b <- res2b_branch2a
I1019 22:49:55.554868 20515 net.cpp:408] res2b_branch2b -> res2b_branch2b
I1019 22:49:55.561501 20515 net.cpp:150] Setting up res2b_branch2b
I1019 22:49:55.561564 20515 net.cpp:157] Top shape: 16 64 56 56 (3211264)
I1019 22:49:55.561600 20515 net.cpp:165] Memory required for data: 934477888
I1019 22:49:55.561646 20515 layer_factory.hpp:77] Creating layer bn2b_branch2b
I1019 22:49:55.561695 20515 net.cpp:100] Creating Layer bn2b_branch2b
I1019 22:49:55.561728 20515 net.cpp:434] bn2b_branch2b <- res2b_branch2b
I1019 22:49:55.561758 20515 net.cpp:395] bn2b_branch2b -> res2b_branch2b (in-place)
I1019 22:49:55.562000 20515 net.cpp:150] Setting up bn2b_branch2b
I1019 22:49:55.562041 20515 net.cpp:157] Top shape: 16 64 56 56 (3211264)
I1019 22:49:55.562068 20515 net.cpp:165] Memory required for data: 947322944
I1019 22:49:55.562100 20515 layer_factory.hpp:77] Creating layer scale2b_branch2b
I1019 22:49:55.562132 20515 net.cpp:100] Creating Layer scale2b_branch2b
I1019 22:49:55.562161 20515 net.cpp:434] scale2b_branch2b <- res2b_branch2b
I1019 22:49:55.562191 20515 net.cpp:395] scale2b_branch2b -> res2b_branch2b (in-place)
I1019 22:49:55.562283 20515 layer_factory.hpp:77] Creating layer scale2b_branch2b
I1019 22:49:55.562458 20515 net.cpp:150] Setting up scale2b_branch2b
I1019 22:49:55.562502 20515 net.cpp:157] Top shape: 16 64 56 56 (3211264)
I1019 22:49:55.562532 20515 net.cpp:165] Memory required for data: 960168000
I1019 22:49:55.562563 20515 layer_factory.hpp:77] Creating layer res2b_branch2b_relu
I1019 22:49:55.562593 20515 net.cpp:100] Creating Layer res2b_branch2b_relu
I1019 22:49:55.562621 20515 net.cpp:434] res2b_branch2b_relu <- res2b_branch2b
I1019 22:49:55.562671 20515 net.cpp:395] res2b_branch2b_relu -> res2b_branch2b (in-place)
I1019 22:49:55.563602 20515 net.cpp:150] Setting up res2b_branch2b_relu
I1019 22:49:55.563673 20515 net.cpp:157] Top shape: 16 64 56 56 (3211264)
I1019 22:49:55.563706 20515 net.cpp:165] Memory required for data: 973013056
I1019 22:49:55.563733 20515 layer_factory.hpp:77] Creating layer res2b_branch2c
I1019 22:49:55.563776 20515 net.cpp:100] Creating Layer res2b_branch2c
I1019 22:49:55.563807 20515 net.cpp:434] res2b_branch2c <- res2b_branch2b
I1019 22:49:55.563843 20515 net.cpp:408] res2b_branch2c -> res2b_branch2c
I1019 22:49:55.570427 20515 net.cpp:150] Setting up res2b_branch2c
I1019 22:49:55.570485 20515 net.cpp:157] Top shape: 16 256 56 56 (12845056)
I1019 22:49:55.570516 20515 net.cpp:165] Memory required for data: 1024393280
I1019 22:49:55.570547 20515 layer_factory.hpp:77] Creating layer bn2b_branch2c
I1019 22:49:55.570586 20515 net.cpp:100] Creating Layer bn2b_branch2c
I1019 22:49:55.570618 20515 net.cpp:434] bn2b_branch2c <- res2b_branch2c
I1019 22:49:55.570668 20515 net.cpp:395] bn2b_branch2c -> res2b_branch2c (in-place)
I1019 22:49:55.570904 20515 net.cpp:150] Setting up bn2b_branch2c
I1019 22:49:55.570945 20515 net.cpp:157] Top shape: 16 256 56 56 (12845056)
I1019 22:49:55.570972 20515 net.cpp:165] Memory required for data: 1075773504
I1019 22:49:55.571004 20515 layer_factory.hpp:77] Creating layer scale2b_branch2c
I1019 22:49:55.571036 20515 net.cpp:100] Creating Layer scale2b_branch2c
I1019 22:49:55.571065 20515 net.cpp:434] scale2b_branch2c <- res2b_branch2c
I1019 22:49:55.571101 20515 net.cpp:395] scale2b_branch2c -> res2b_branch2c (in-place)
I1019 22:49:55.571187 20515 layer_factory.hpp:77] Creating layer scale2b_branch2c
I1019 22:49:55.571354 20515 net.cpp:150] Setting up scale2b_branch2c
I1019 22:49:55.571393 20515 net.cpp:157] Top shape: 16 256 56 56 (12845056)
I1019 22:49:55.571420 20515 net.cpp:165] Memory required for data: 1127153728
I1019 22:49:55.571450 20515 layer_factory.hpp:77] Creating layer res2b
I1019 22:49:55.571481 20515 net.cpp:100] Creating Layer res2b
I1019 22:49:55.571509 20515 net.cpp:434] res2b <- res2a_res2a_relu_0_split_1
I1019 22:49:55.571538 20515 net.cpp:434] res2b <- res2b_branch2c
I1019 22:49:55.571574 20515 net.cpp:408] res2b -> res2b
I1019 22:49:55.571655 20515 net.cpp:150] Setting up res2b
I1019 22:49:55.571693 20515 net.cpp:157] Top shape: 16 256 56 56 (12845056)
I1019 22:49:55.571720 20515 net.cpp:165] Memory required for data: 1178533952
I1019 22:49:55.571746 20515 layer_factory.hpp:77] Creating layer res2b_relu
I1019 22:49:55.571776 20515 net.cpp:100] Creating Layer res2b_relu
I1019 22:49:55.571805 20515 net.cpp:434] res2b_relu <- res2b
I1019 22:49:55.571833 20515 net.cpp:395] res2b_relu -> res2b (in-place)
I1019 22:49:55.572633 20515 net.cpp:150] Setting up res2b_relu
I1019 22:49:55.572685 20515 net.cpp:157] Top shape: 16 256 56 56 (12845056)
I1019 22:49:55.572715 20515 net.cpp:165] Memory required for data: 1229914176
I1019 22:49:55.572741 20515 layer_factory.hpp:77] Creating layer res2b_res2b_relu_0_split
I1019 22:49:55.572772 20515 net.cpp:100] Creating Layer res2b_res2b_relu_0_split
I1019 22:49:55.572803 20515 net.cpp:434] res2b_res2b_relu_0_split <- res2b
I1019 22:49:55.572839 20515 net.cpp:408] res2b_res2b_relu_0_split -> res2b_res2b_relu_0_split_0
I1019 22:49:55.572875 20515 net.cpp:408] res2b_res2b_relu_0_split -> res2b_res2b_relu_0_split_1
I1019 22:49:55.572971 20515 net.cpp:150] Setting up res2b_res2b_relu_0_split
I1019 22:49:55.573011 20515 net.cpp:157] Top shape: 16 256 56 56 (12845056)
I1019 22:49:55.573040 20515 net.cpp:157] Top shape: 16 256 56 56 (12845056)
I1019 22:49:55.573066 20515 net.cpp:165] Memory required for data: 1332674624
I1019 22:49:55.573093 20515 layer_factory.hpp:77] Creating layer res2c_branch2a
I1019 22:49:55.573135 20515 net.cpp:100] Creating Layer res2c_branch2a
I1019 22:49:55.573166 20515 net.cpp:434] res2c_branch2a <- res2b_res2b_relu_0_split_0
I1019 22:49:55.573196 20515 net.cpp:408] res2c_branch2a -> res2c_branch2a
I1019 22:49:55.579423 20515 net.cpp:150] Setting up res2c_branch2a
I1019 22:49:55.579486 20515 net.cpp:157] Top shape: 16 64 56 56 (3211264)
I1019 22:49:55.579522 20515 net.cpp:165] Memory required for data: 1345519680
I1019 22:49:55.579581 20515 layer_factory.hpp:77] Creating layer bn2c_branch2a
I1019 22:49:55.579627 20515 net.cpp:100] Creating Layer bn2c_branch2a
I1019 22:49:55.579674 20515 net.cpp:434] bn2c_branch2a <- res2c_branch2a
I1019 22:49:55.579710 20515 net.cpp:395] bn2c_branch2a -> res2c_branch2a (in-place)
I1019 22:49:55.579959 20515 net.cpp:150] Setting up bn2c_branch2a
I1019 22:49:55.580003 20515 net.cpp:157] Top shape: 16 64 56 56 (3211264)
I1019 22:49:55.580036 20515 net.cpp:165] Memory required for data: 1358364736
I1019 22:49:55.580073 20515 layer_factory.hpp:77] Creating layer scale2c_branch2a
I1019 22:49:55.580111 20515 net.cpp:100] Creating Layer scale2c_branch2a
I1019 22:49:55.580144 20515 net.cpp:434] scale2c_branch2a <- res2c_branch2a
I1019 22:49:55.580179 20515 net.cpp:395] scale2c_branch2a -> res2c_branch2a (in-place)
I1019 22:49:55.580273 20515 layer_factory.hpp:77] Creating layer scale2c_branch2a
I1019 22:49:55.580457 20515 net.cpp:150] Setting up scale2c_branch2a
I1019 22:49:55.580502 20515 net.cpp:157] Top shape: 16 64 56 56 (3211264)
I1019 22:49:55.580533 20515 net.cpp:165] Memory required for data: 1371209792
I1019 22:49:55.580567 20515 layer_factory.hpp:77] Creating layer res2c_branch2a_relu
I1019 22:49:55.580603 20515 net.cpp:100] Creating Layer res2c_branch2a_relu
I1019 22:49:55.580646 20515 net.cpp:434] res2c_branch2a_relu <- res2c_branch2a
I1019 22:49:55.580684 20515 net.cpp:395] res2c_branch2a_relu -> res2c_branch2a (in-place)
I1019 22:49:55.581622 20515 net.cpp:150] Setting up res2c_branch2a_relu
I1019 22:49:55.581686 20515 net.cpp:157] Top shape: 16 64 56 56 (3211264)
I1019 22:49:55.581720 20515 net.cpp:165] Memory required for data: 1384054848
I1019 22:49:55.581753 20515 layer_factory.hpp:77] Creating layer res2c_branch2b
I1019 22:49:55.581797 20515 net.cpp:100] Creating Layer res2c_branch2b
I1019 22:49:55.581835 20515 net.cpp:434] res2c_branch2b <- res2c_branch2a
I1019 22:49:55.581871 20515 net.cpp:408] res2c_branch2b -> res2c_branch2b
I1019 22:49:55.588421 20515 net.cpp:150] Setting up res2c_branch2b
I1019 22:49:55.588479 20515 net.cpp:157] Top shape: 16 64 56 56 (3211264)
I1019 22:49:55.588510 20515 net.cpp:165] Memory required for data: 1396899904
I1019 22:49:55.588541 20515 layer_factory.hpp:77] Creating layer bn2c_branch2b
I1019 22:49:55.588579 20515 net.cpp:100] Creating Layer bn2c_branch2b
I1019 22:49:55.588611 20515 net.cpp:434] bn2c_branch2b <- res2c_branch2b
I1019 22:49:55.588657 20515 net.cpp:395] bn2c_branch2b -> res2c_branch2b (in-place)
I1019 22:49:55.588899 20515 net.cpp:150] Setting up bn2c_branch2b
I1019 22:49:55.588939 20515 net.cpp:157] Top shape: 16 64 56 56 (3211264)
I1019 22:49:55.588994 20515 net.cpp:165] Memory required for data: 1409744960
I1019 22:49:55.589028 20515 layer_factory.hpp:77] Creating layer scale2c_branch2b
I1019 22:49:55.589068 20515 net.cpp:100] Creating Layer scale2c_branch2b
I1019 22:49:55.589099 20515 net.cpp:434] scale2c_branch2b <- res2c_branch2b
I1019 22:49:55.589130 20515 net.cpp:395] scale2c_branch2b -> res2c_branch2b (in-place)
I1019 22:49:55.589215 20515 layer_factory.hpp:77] Creating layer scale2c_branch2b
I1019 22:49:55.589401 20515 net.cpp:150] Setting up scale2c_branch2b
I1019 22:49:55.589442 20515 net.cpp:157] Top shape: 16 64 56 56 (3211264)
I1019 22:49:55.589468 20515 net.cpp:165] Memory required for data: 1422590016
I1019 22:49:55.589498 20515 layer_factory.hpp:77] Creating layer res2c_branch2b_relu
I1019 22:49:55.589529 20515 net.cpp:100] Creating Layer res2c_branch2b_relu
I1019 22:49:55.589556 20515 net.cpp:434] res2c_branch2b_relu <- res2c_branch2b
I1019 22:49:55.589592 20515 net.cpp:395] res2c_branch2b_relu -> res2c_branch2b (in-place)
I1019 22:49:55.590436 20515 net.cpp:150] Setting up res2c_branch2b_relu
I1019 22:49:55.590492 20515 net.cpp:157] Top shape: 16 64 56 56 (3211264)
I1019 22:49:55.590523 20515 net.cpp:165] Memory required for data: 1435435072
I1019 22:49:55.590601 20515 layer_factory.hpp:77] Creating layer res2c_branch2c
I1019 22:49:55.590658 20515 net.cpp:100] Creating Layer res2c_branch2c
I1019 22:49:55.590705 20515 net.cpp:434] res2c_branch2c <- res2c_branch2b
I1019 22:49:55.590744 20515 net.cpp:408] res2c_branch2c -> res2c_branch2c
I1019 22:49:55.591589 20515 net.cpp:150] Setting up res2c_branch2c
I1019 22:49:55.591650 20515 net.cpp:157] Top shape: 16 256 56 56 (12845056)
I1019 22:49:55.591682 20515 net.cpp:165] Memory required for data: 1486815296
I1019 22:49:55.591712 20515 layer_factory.hpp:77] Creating layer bn2c_branch2c
I1019 22:49:55.591744 20515 net.cpp:100] Creating Layer bn2c_branch2c
I1019 22:49:55.591773 20515 net.cpp:434] bn2c_branch2c <- res2c_branch2c
I1019 22:49:55.591811 20515 net.cpp:395] bn2c_branch2c -> res2c_branch2c (in-place)
I1019 22:49:55.592048 20515 net.cpp:150] Setting up bn2c_branch2c
I1019 22:49:55.592087 20515 net.cpp:157] Top shape: 16 256 56 56 (12845056)
I1019 22:49:55.592114 20515 net.cpp:165] Memory required for data: 1538195520
I1019 22:49:55.592146 20515 layer_factory.hpp:77] Creating layer scale2c_branch2c
I1019 22:49:55.592195 20515 net.cpp:100] Creating Layer scale2c_branch2c
I1019 22:49:55.592226 20515 net.cpp:434] scale2c_branch2c <- res2c_branch2c
I1019 22:49:55.592303 20515 net.cpp:395] scale2c_branch2c -> res2c_branch2c (in-place)
I1019 22:49:55.592393 20515 layer_factory.hpp:77] Creating layer scale2c_branch2c
I1019 22:49:55.592586 20515 net.cpp:150] Setting up scale2c_branch2c
I1019 22:49:55.592625 20515 net.cpp:157] Top shape: 16 256 56 56 (12845056)
I1019 22:49:55.592664 20515 net.cpp:165] Memory required for data: 1589575744
I1019 22:49:55.592720 20515 layer_factory.hpp:77] Creating layer res2c
I1019 22:49:55.592757 20515 net.cpp:100] Creating Layer res2c
I1019 22:49:55.592785 20515 net.cpp:434] res2c <- res2b_res2b_relu_0_split_1
I1019 22:49:55.592814 20515 net.cpp:434] res2c <- res2c_branch2c
I1019 22:49:55.592844 20515 net.cpp:408] res2c -> res2c
I1019 22:49:55.592905 20515 net.cpp:150] Setting up res2c
I1019 22:49:55.592939 20515 net.cpp:157] Top shape: 16 256 56 56 (12845056)
I1019 22:49:55.592993 20515 net.cpp:165] Memory required for data: 1640955968
I1019 22:49:55.593024 20515 layer_factory.hpp:77] Creating layer res2c_relu
I1019 22:49:55.593070 20515 net.cpp:100] Creating Layer res2c_relu
I1019 22:49:55.593101 20515 net.cpp:434] res2c_relu <- res2c
I1019 22:49:55.593132 20515 net.cpp:395] res2c_relu -> res2c (in-place)
I1019 22:49:55.594018 20515 net.cpp:150] Setting up res2c_relu
I1019 22:49:55.594077 20515 net.cpp:157] Top shape: 16 256 56 56 (12845056)
I1019 22:49:55.594122 20515 net.cpp:165] Memory required for data: 1692336192
I1019 22:49:55.594151 20515 layer_factory.hpp:77] Creating layer res2c_res2c_relu_0_split
I1019 22:49:55.594182 20515 net.cpp:100] Creating Layer res2c_res2c_relu_0_split
I1019 22:49:55.594209 20515 net.cpp:434] res2c_res2c_relu_0_split <- res2c
I1019 22:49:55.594285 20515 net.cpp:408] res2c_res2c_relu_0_split -> res2c_res2c_relu_0_split_0
I1019 22:49:55.594324 20515 net.cpp:408] res2c_res2c_relu_0_split -> res2c_res2c_relu_0_split_1
I1019 22:49:55.594410 20515 net.cpp:150] Setting up res2c_res2c_relu_0_split
I1019 22:49:55.594447 20515 net.cpp:157] Top shape: 16 256 56 56 (12845056)
I1019 22:49:55.594476 20515 net.cpp:157] Top shape: 16 256 56 56 (12845056)
I1019 22:49:55.594518 20515 net.cpp:165] Memory required for data: 1795096640
I1019 22:49:55.594547 20515 layer_factory.hpp:77] Creating layer res3a_branch1
I1019 22:49:55.594586 20515 net.cpp:100] Creating Layer res3a_branch1
I1019 22:49:55.594624 20515 net.cpp:434] res3a_branch1 <- res2c_res2c_relu_0_split_0
I1019 22:49:55.594669 20515 net.cpp:408] res3a_branch1 -> res3a_branch1
I1019 22:49:55.602458 20515 net.cpp:150] Setting up res3a_branch1
I1019 22:49:55.602538 20515 net.cpp:157] Top shape: 16 512 28 28 (6422528)
I1019 22:49:55.602572 20515 net.cpp:165] Memory required for data: 1820786752
I1019 22:49:55.602605 20515 layer_factory.hpp:77] Creating layer bn3a_branch1
I1019 22:49:55.602658 20515 net.cpp:100] Creating Layer bn3a_branch1
I1019 22:49:55.602705 20515 net.cpp:434] bn3a_branch1 <- res3a_branch1
I1019 22:49:55.602759 20515 net.cpp:395] bn3a_branch1 -> res3a_branch1 (in-place)
I1019 22:49:55.605468 20515 net.cpp:150] Setting up bn3a_branch1
I1019 22:49:55.605530 20515 net.cpp:157] Top shape: 16 512 28 28 (6422528)
I1019 22:49:55.605563 20515 net.cpp:165] Memory required for data: 1846476864
I1019 22:49:55.605612 20515 layer_factory.hpp:77] Creating layer scale3a_branch1
I1019 22:49:55.605660 20515 net.cpp:100] Creating Layer scale3a_branch1
I1019 22:49:55.605693 20515 net.cpp:434] scale3a_branch1 <- res3a_branch1
I1019 22:49:55.605734 20515 net.cpp:395] scale3a_branch1 -> res3a_branch1 (in-place)
I1019 22:49:55.605832 20515 layer_factory.hpp:77] Creating layer scale3a_branch1
I1019 22:49:55.606036 20515 net.cpp:150] Setting up scale3a_branch1
I1019 22:49:55.606081 20515 net.cpp:157] Top shape: 16 512 28 28 (6422528)
I1019 22:49:55.606112 20515 net.cpp:165] Memory required for data: 1872166976
I1019 22:49:55.606144 20515 layer_factory.hpp:77] Creating layer res3a_branch2a
I1019 22:49:55.606181 20515 net.cpp:100] Creating Layer res3a_branch2a
I1019 22:49:55.606212 20515 net.cpp:434] res3a_branch2a <- res2c_res2c_relu_0_split_1
I1019 22:49:55.606254 20515 net.cpp:408] res3a_branch2a -> res3a_branch2a
I1019 22:49:55.611438 20515 net.cpp:150] Setting up res3a_branch2a
I1019 22:49:55.611515 20515 net.cpp:157] Top shape: 16 128 28 28 (1605632)
I1019 22:49:55.611559 20515 net.cpp:165] Memory required for data: 1878589504
I1019 22:49:55.611598 20515 layer_factory.hpp:77] Creating layer bn3a_branch2a
I1019 22:49:55.611647 20515 net.cpp:100] Creating Layer bn3a_branch2a
I1019 22:49:55.611692 20515 net.cpp:434] bn3a_branch2a <- res3a_branch2a
I1019 22:49:55.611738 20515 net.cpp:395] bn3a_branch2a -> res3a_branch2a (in-place)
I1019 22:49:55.612020 20515 net.cpp:150] Setting up bn3a_branch2a
I1019 22:49:55.612067 20515 net.cpp:157] Top shape: 16 128 28 28 (1605632)
I1019 22:49:55.612118 20515 net.cpp:165] Memory required for data: 1885012032
I1019 22:49:55.612159 20515 layer_factory.hpp:77] Creating layer scale3a_branch2a
I1019 22:49:55.612200 20515 net.cpp:100] Creating Layer scale3a_branch2a
I1019 22:49:55.612236 20515 net.cpp:434] scale3a_branch2a <- res3a_branch2a
I1019 22:49:55.612275 20515 net.cpp:395] scale3a_branch2a -> res3a_branch2a (in-place)
I1019 22:49:55.612372 20515 layer_factory.hpp:77] Creating layer scale3a_branch2a
I1019 22:49:55.612577 20515 net.cpp:150] Setting up scale3a_branch2a
I1019 22:49:55.612623 20515 net.cpp:157] Top shape: 16 128 28 28 (1605632)
I1019 22:49:55.612669 20515 net.cpp:165] Memory required for data: 1891434560
I1019 22:49:55.612707 20515 layer_factory.hpp:77] Creating layer res3a_branch2a_relu
I1019 22:49:55.612741 20515 net.cpp:100] Creating Layer res3a_branch2a_relu
I1019 22:49:55.612771 20515 net.cpp:434] res3a_branch2a_relu <- res3a_branch2a
I1019 22:49:55.612841 20515 net.cpp:395] res3a_branch2a_relu -> res3a_branch2a (in-place)
I1019 22:49:55.613131 20515 net.cpp:150] Setting up res3a_branch2a_relu
I1019 22:49:55.613195 20515 net.cpp:157] Top shape: 16 128 28 28 (1605632)
I1019 22:49:55.613226 20515 net.cpp:165] Memory required for data: 1897857088
I1019 22:49:55.613256 20515 layer_factory.hpp:77] Creating layer res3a_branch2b
I1019 22:49:55.613312 20515 net.cpp:100] Creating Layer res3a_branch2b
I1019 22:49:55.613346 20515 net.cpp:434] res3a_branch2b <- res3a_branch2a
I1019 22:49:55.613379 20515 net.cpp:408] res3a_branch2b -> res3a_branch2b
I1019 22:49:55.620231 20515 net.cpp:150] Setting up res3a_branch2b
I1019 22:49:55.620292 20515 net.cpp:157] Top shape: 16 128 28 28 (1605632)
I1019 22:49:55.620323 20515 net.cpp:165] Memory required for data: 1904279616
I1019 22:49:55.620360 20515 layer_factory.hpp:77] Creating layer bn3a_branch2b
I1019 22:49:55.620395 20515 net.cpp:100] Creating Layer bn3a_branch2b
I1019 22:49:55.620424 20515 net.cpp:434] bn3a_branch2b <- res3a_branch2b
I1019 22:49:55.620461 20515 net.cpp:395] bn3a_branch2b -> res3a_branch2b (in-place)
I1019 22:49:55.620726 20515 net.cpp:150] Setting up bn3a_branch2b
I1019 22:49:55.620774 20515 net.cpp:157] Top shape: 16 128 28 28 (1605632)
I1019 22:49:55.620800 20515 net.cpp:165] Memory required for data: 1910702144
I1019 22:49:55.620851 20515 layer_factory.hpp:77] Creating layer scale3a_branch2b
I1019 22:49:55.620890 20515 net.cpp:100] Creating Layer scale3a_branch2b
I1019 22:49:55.620921 20515 net.cpp:434] scale3a_branch2b <- res3a_branch2b
I1019 22:49:55.620952 20515 net.cpp:395] scale3a_branch2b -> res3a_branch2b (in-place)
I1019 22:49:55.621060 20515 layer_factory.hpp:77] Creating layer scale3a_branch2b
I1019 22:49:55.621232 20515 net.cpp:150] Setting up scale3a_branch2b
I1019 22:49:55.621273 20515 net.cpp:157] Top shape: 16 128 28 28 (1605632)
I1019 22:49:55.621299 20515 net.cpp:165] Memory required for data: 1917124672
I1019 22:49:55.621330 20515 layer_factory.hpp:77] Creating layer res3a_branch2b_relu
I1019 22:49:55.621361 20515 net.cpp:100] Creating Layer res3a_branch2b_relu
I1019 22:49:55.621389 20515 net.cpp:434] res3a_branch2b_relu <- res3a_branch2b
I1019 22:49:55.621425 20515 net.cpp:395] res3a_branch2b_relu -> res3a_branch2b (in-place)
I1019 22:49:55.621878 20515 net.cpp:150] Setting up res3a_branch2b_relu
I1019 22:49:55.621924 20515 net.cpp:157] Top shape: 16 128 28 28 (1605632)
I1019 22:49:55.621953 20515 net.cpp:165] Memory required for data: 1923547200
I1019 22:49:55.621979 20515 layer_factory.hpp:77] Creating layer res3a_branch2c
I1019 22:49:55.622017 20515 net.cpp:100] Creating Layer res3a_branch2c
I1019 22:49:55.622050 20515 net.cpp:434] res3a_branch2c <- res3a_branch2b
I1019 22:49:55.622087 20515 net.cpp:408] res3a_branch2c -> res3a_branch2c
I1019 22:49:55.628826 20515 net.cpp:150] Setting up res3a_branch2c
I1019 22:49:55.628896 20515 net.cpp:157] Top shape: 16 512 28 28 (6422528)
I1019 22:49:55.628935 20515 net.cpp:165] Memory required for data: 1949237312
I1019 22:49:55.629047 20515 layer_factory.hpp:77] Creating layer bn3a_branch2c
I1019 22:49:55.629107 20515 net.cpp:100] Creating Layer bn3a_branch2c
I1019 22:49:55.629148 20515 net.cpp:434] bn3a_branch2c <- res3a_branch2c
I1019 22:49:55.629194 20515 net.cpp:395] bn3a_branch2c -> res3a_branch2c (in-place)
I1019 22:49:55.629469 20515 net.cpp:150] Setting up bn3a_branch2c
I1019 22:49:55.629526 20515 net.cpp:157] Top shape: 16 512 28 28 (6422528)
I1019 22:49:55.629560 20515 net.cpp:165] Memory required for data: 1974927424
I1019 22:49:55.629595 20515 layer_factory.hpp:77] Creating layer scale3a_branch2c
I1019 22:49:55.629631 20515 net.cpp:100] Creating Layer scale3a_branch2c
I1019 22:49:55.629673 20515 net.cpp:434] scale3a_branch2c <- res3a_branch2c
I1019 22:49:55.629706 20515 net.cpp:395] scale3a_branch2c -> res3a_branch2c (in-place)
I1019 22:49:55.629818 20515 layer_factory.hpp:77] Creating layer scale3a_branch2c
I1019 22:49:55.629993 20515 net.cpp:150] Setting up scale3a_branch2c
I1019 22:49:55.630033 20515 net.cpp:157] Top shape: 16 512 28 28 (6422528)
I1019 22:49:55.630060 20515 net.cpp:165] Memory required for data: 2000617536
I1019 22:49:55.630091 20515 layer_factory.hpp:77] Creating layer res3a
I1019 22:49:55.630129 20515 net.cpp:100] Creating Layer res3a
I1019 22:49:55.630161 20515 net.cpp:434] res3a <- res3a_branch1
I1019 22:49:55.630189 20515 net.cpp:434] res3a <- res3a_branch2c
I1019 22:49:55.630220 20515 net.cpp:408] res3a -> res3a
I1019 22:49:55.630290 20515 net.cpp:150] Setting up res3a
I1019 22:49:55.630327 20515 net.cpp:157] Top shape: 16 512 28 28 (6422528)
I1019 22:49:55.630354 20515 net.cpp:165] Memory required for data: 2026307648
I1019 22:49:55.630380 20515 layer_factory.hpp:77] Creating layer res3a_relu
I1019 22:49:55.630410 20515 net.cpp:100] Creating Layer res3a_relu
I1019 22:49:55.630439 20515 net.cpp:434] res3a_relu <- res3a
I1019 22:49:55.630472 20515 net.cpp:395] res3a_relu -> res3a (in-place)
I1019 22:49:55.630947 20515 net.cpp:150] Setting up res3a_relu
I1019 22:49:55.630992 20515 net.cpp:157] Top shape: 16 512 28 28 (6422528)
I1019 22:49:55.631019 20515 net.cpp:165] Memory required for data: 2051997760
I1019 22:49:55.631047 20515 layer_factory.hpp:77] Creating layer res3a_res3a_relu_0_split
I1019 22:49:55.631088 20515 net.cpp:100] Creating Layer res3a_res3a_relu_0_split
I1019 22:49:55.631131 20515 net.cpp:434] res3a_res3a_relu_0_split <- res3a
I1019 22:49:55.631170 20515 net.cpp:408] res3a_res3a_relu_0_split -> res3a_res3a_relu_0_split_0
I1019 22:49:55.631207 20515 net.cpp:408] res3a_res3a_relu_0_split -> res3a_res3a_relu_0_split_1
I1019 22:49:55.631291 20515 net.cpp:150] Setting up res3a_res3a_relu_0_split
I1019 22:49:55.631335 20515 net.cpp:157] Top shape: 16 512 28 28 (6422528)
I1019 22:49:55.631366 20515 net.cpp:157] Top shape: 16 512 28 28 (6422528)
I1019 22:49:55.631392 20515 net.cpp:165] Memory required for data: 2103377984
I1019 22:49:55.631419 20515 layer_factory.hpp:77] Creating layer res3b1_branch2a
I1019 22:49:55.631450 20515 net.cpp:100] Creating Layer res3b1_branch2a
I1019 22:49:55.631479 20515 net.cpp:434] res3b1_branch2a <- res3a_res3a_relu_0_split_0
I1019 22:49:55.631515 20515 net.cpp:408] res3b1_branch2a -> res3b1_branch2a
I1019 22:49:55.637838 20515 net.cpp:150] Setting up res3b1_branch2a
I1019 22:49:55.637897 20515 net.cpp:157] Top shape: 16 128 28 28 (1605632)
I1019 22:49:55.637929 20515 net.cpp:165] Memory required for data: 2109800512
I1019 22:49:55.637959 20515 layer_factory.hpp:77] Creating layer bn3b1_branch2a
I1019 22:49:55.638002 20515 net.cpp:100] Creating Layer bn3b1_branch2a
I1019 22:49:55.638036 20515 net.cpp:434] bn3b1_branch2a <- res3b1_branch2a
I1019 22:49:55.638070 20515 net.cpp:395] bn3b1_branch2a -> res3b1_branch2a (in-place)
I1019 22:49:55.638314 20515 net.cpp:150] Setting up bn3b1_branch2a
I1019 22:49:55.638355 20515 net.cpp:157] Top shape: 16 128 28 28 (1605632)
I1019 22:49:55.638382 20515 net.cpp:165] Memory required for data: 2116223040
I1019 22:49:55.638413 20515 layer_factory.hpp:77] Creating layer scale3b1_branch2a
I1019 22:49:55.638453 20515 net.cpp:100] Creating Layer scale3b1_branch2a
I1019 22:49:55.638484 20515 net.cpp:434] scale3b1_branch2a <- res3b1_branch2a
I1019 22:49:55.638514 20515 net.cpp:395] scale3b1_branch2a -> res3b1_branch2a (in-place)
I1019 22:49:55.638600 20515 layer_factory.hpp:77] Creating layer scale3b1_branch2a
I1019 22:49:55.638799 20515 net.cpp:150] Setting up scale3b1_branch2a
I1019 22:49:55.638840 20515 net.cpp:157] Top shape: 16 128 28 28 (1605632)
I1019 22:49:55.638869 20515 net.cpp:165] Memory required for data: 2122645568
I1019 22:49:55.638898 20515 layer_factory.hpp:77] Creating layer res3b1_branch2a_relu
I1019 22:49:55.638931 20515 net.cpp:100] Creating Layer res3b1_branch2a_relu
I1019 22:49:55.638959 20515 net.cpp:434] res3b1_branch2a_relu <- res3b1_branch2a
I1019 22:49:55.638994 20515 net.cpp:395] res3b1_branch2a_relu -> res3b1_branch2a (in-place)
I1019 22:49:55.639999 20515 net.cpp:150] Setting up res3b1_branch2a_relu
I1019 22:49:55.640045 20515 net.cpp:157] Top shape: 16 128 28 28 (1605632)
I1019 22:49:55.640074 20515 net.cpp:165] Memory required for data: 2129068096
I1019 22:49:55.640101 20515 layer_factory.hpp:77] Creating layer res3b1_branch2b
I1019 22:49:55.640141 20515 net.cpp:100] Creating Layer res3b1_branch2b
I1019 22:49:55.640172 20515 net.cpp:434] res3b1_branch2b <- res3b1_branch2a
I1019 22:49:55.640208 20515 net.cpp:408] res3b1_branch2b -> res3b1_branch2b
I1019 22:49:55.647393 20515 net.cpp:150] Setting up res3b1_branch2b
I1019 22:49:55.647460 20515 net.cpp:157] Top shape: 16 128 28 28 (1605632)
I1019 22:49:55.647496 20515 net.cpp:165] Memory required for data: 2135490624
I1019 22:49:55.647532 20515 layer_factory.hpp:77] Creating layer bn3b1_branch2b
I1019 22:49:55.647569 20515 net.cpp:100] Creating Layer bn3b1_branch2b
I1019 22:49:55.647603 20515 net.cpp:434] bn3b1_branch2b <- res3b1_branch2b
I1019 22:49:55.647655 20515 net.cpp:395] bn3b1_branch2b -> res3b1_branch2b (in-place)
I1019 22:49:55.647922 20515 net.cpp:150] Setting up bn3b1_branch2b
I1019 22:49:55.647969 20515 net.cpp:157] Top shape: 16 128 28 28 (1605632)
I1019 22:49:55.648002 20515 net.cpp:165] Memory required for data: 2141913152
I1019 22:49:55.648043 20515 layer_factory.hpp:77] Creating layer scale3b1_branch2b
I1019 22:49:55.648092 20515 net.cpp:100] Creating Layer scale3b1_branch2b
I1019 22:49:55.648129 20515 net.cpp:434] scale3b1_branch2b <- res3b1_branch2b
I1019 22:49:55.648180 20515 net.cpp:395] scale3b1_branch2b -> res3b1_branch2b (in-place)
I1019 22:49:55.648272 20515 layer_factory.hpp:77] Creating layer scale3b1_branch2b
I1019 22:49:55.648453 20515 net.cpp:150] Setting up scale3b1_branch2b
I1019 22:49:55.648499 20515 net.cpp:157] Top shape: 16 128 28 28 (1605632)
I1019 22:49:55.648531 20515 net.cpp:165] Memory required for data: 2148335680
I1019 22:49:55.648566 20515 layer_factory.hpp:77] Creating layer res3b1_branch2b_relu
I1019 22:49:55.648609 20515 net.cpp:100] Creating Layer res3b1_branch2b_relu
I1019 22:49:55.648656 20515 net.cpp:434] res3b1_branch2b_relu <- res3b1_branch2b
I1019 22:49:55.648694 20515 net.cpp:395] res3b1_branch2b_relu -> res3b1_branch2b (in-place)
I1019 22:49:55.649075 20515 net.cpp:150] Setting up res3b1_branch2b_relu
I1019 22:49:55.649132 20515 net.cpp:157] Top shape: 16 128 28 28 (1605632)
I1019 22:49:55.649174 20515 net.cpp:165] Memory required for data: 2154758208
I1019 22:49:55.649207 20515 layer_factory.hpp:77] Creating layer res3b1_branch2c
I1019 22:49:55.649243 20515 net.cpp:100] Creating Layer res3b1_branch2c
I1019 22:49:55.649277 20515 net.cpp:434] res3b1_branch2c <- res3b1_branch2b
I1019 22:49:55.649318 20515 net.cpp:408] res3b1_branch2c -> res3b1_branch2c
I1019 22:49:55.655874 20515 net.cpp:150] Setting up res3b1_branch2c
I1019 22:49:55.655938 20515 net.cpp:157] Top shape: 16 512 28 28 (6422528)
I1019 22:49:55.655974 20515 net.cpp:165] Memory required for data: 2180448320
I1019 22:49:55.656010 20515 layer_factory.hpp:77] Creating layer bn3b1_branch2c
I1019 22:49:55.656050 20515 net.cpp:100] Creating Layer bn3b1_branch2c
I1019 22:49:55.656085 20515 net.cpp:434] bn3b1_branch2c <- res3b1_branch2c
I1019 22:49:55.656119 20515 net.cpp:395] bn3b1_branch2c -> res3b1_branch2c (in-place)
I1019 22:49:55.656374 20515 net.cpp:150] Setting up bn3b1_branch2c
I1019 22:49:55.656419 20515 net.cpp:157] Top shape: 16 512 28 28 (6422528)
I1019 22:49:55.656450 20515 net.cpp:165] Memory required for data: 2206138432
I1019 22:49:55.656486 20515 layer_factory.hpp:77] Creating layer scale3b1_branch2c
I1019 22:49:55.656523 20515 net.cpp:100] Creating Layer scale3b1_branch2c
I1019 22:49:55.656556 20515 net.cpp:434] scale3b1_branch2c <- res3b1_branch2c
I1019 22:49:55.656594 20515 net.cpp:395] scale3b1_branch2c -> res3b1_branch2c (in-place)
I1019 22:49:55.656692 20515 layer_factory.hpp:77] Creating layer scale3b1_branch2c
I1019 22:49:55.656873 20515 net.cpp:150] Setting up scale3b1_branch2c
I1019 22:49:55.656922 20515 net.cpp:157] Top shape: 16 512 28 28 (6422528)
I1019 22:49:55.656973 20515 net.cpp:165] Memory required for data: 2231828544
I1019 22:49:55.657017 20515 layer_factory.hpp:77] Creating layer res3b1
I1019 22:49:55.657060 20515 net.cpp:100] Creating Layer res3b1
I1019 22:49:55.657094 20515 net.cpp:434] res3b1 <- res3a_res3a_relu_0_split_1
I1019 22:49:55.657124 20515 net.cpp:434] res3b1 <- res3b1_branch2c
I1019 22:49:55.657155 20515 net.cpp:408] res3b1 -> res3b1
I1019 22:49:55.657228 20515 net.cpp:150] Setting up res3b1
I1019 22:49:55.657266 20515 net.cpp:157] Top shape: 16 512 28 28 (6422528)
I1019 22:49:55.657294 20515 net.cpp:165] Memory required for data: 2257518656
I1019 22:49:55.657320 20515 layer_factory.hpp:77] Creating layer res3b1_relu
I1019 22:49:55.657356 20515 net.cpp:100] Creating Layer res3b1_relu
I1019 22:49:55.657387 20515 net.cpp:434] res3b1_relu <- res3b1
I1019 22:49:55.657416 20515 net.cpp:395] res3b1_relu -> res3b1 (in-place)
I1019 22:49:55.658248 20515 net.cpp:150] Setting up res3b1_relu
I1019 22:49:55.658303 20515 net.cpp:157] Top shape: 16 512 28 28 (6422528)
I1019 22:49:55.658334 20515 net.cpp:165] Memory required for data: 2283208768
I1019 22:49:55.658361 20515 layer_factory.hpp:77] Creating layer res3b1_res3b1_relu_0_split
I1019 22:49:55.658399 20515 net.cpp:100] Creating Layer res3b1_res3b1_relu_0_split
I1019 22:49:55.658432 20515 net.cpp:434] res3b1_res3b1_relu_0_split <- res3b1
I1019 22:49:55.658473 20515 net.cpp:408] res3b1_res3b1_relu_0_split -> res3b1_res3b1_relu_0_split_0
I1019 22:49:55.658509 20515 net.cpp:408] res3b1_res3b1_relu_0_split -> res3b1_res3b1_relu_0_split_1
I1019 22:49:55.658618 20515 net.cpp:150] Setting up res3b1_res3b1_relu_0_split
I1019 22:49:55.658668 20515 net.cpp:157] Top shape: 16 512 28 28 (6422528)
I1019 22:49:55.658713 20515 net.cpp:157] Top shape: 16 512 28 28 (6422528)
I1019 22:49:55.658777 20515 net.cpp:165] Memory required for data: 2334588992
I1019 22:49:55.658818 20515 layer_factory.hpp:77] Creating layer res3b2_branch2a
I1019 22:49:55.658864 20515 net.cpp:100] Creating Layer res3b2_branch2a
I1019 22:49:55.658905 20515 net.cpp:434] res3b2_branch2a <- res3b1_res3b1_relu_0_split_0
I1019 22:49:55.658943 20515 net.cpp:408] res3b2_branch2a -> res3b2_branch2a
I1019 22:49:55.664866 20515 net.cpp:150] Setting up res3b2_branch2a
I1019 22:49:55.664937 20515 net.cpp:157] Top shape: 16 128 28 28 (1605632)
I1019 22:49:55.665045 20515 net.cpp:165] Memory required for data: 2341011520
I1019 22:49:55.665089 20515 layer_factory.hpp:77] Creating layer bn3b2_branch2a
I1019 22:49:55.665130 20515 net.cpp:100] Creating Layer bn3b2_branch2a
I1019 22:49:55.665168 20515 net.cpp:434] bn3b2_branch2a <- res3b2_branch2a
I1019 22:49:55.665213 20515 net.cpp:395] bn3b2_branch2a -> res3b2_branch2a (in-place)
I1019 22:49:55.665515 20515 net.cpp:150] Setting up bn3b2_branch2a
I1019 22:49:55.665556 20515 net.cpp:157] Top shape: 16 128 28 28 (1605632)
I1019 22:49:55.665585 20515 net.cpp:165] Memory required for data: 2347434048
I1019 22:49:55.665616 20515 layer_factory.hpp:77] Creating layer scale3b2_branch2a
I1019 22:49:55.665659 20515 net.cpp:100] Creating Layer scale3b2_branch2a
I1019 22:49:55.665689 20515 net.cpp:434] scale3b2_branch2a <- res3b2_branch2a
I1019 22:49:55.665719 20515 net.cpp:395] scale3b2_branch2a -> res3b2_branch2a (in-place)
I1019 22:49:55.665802 20515 layer_factory.hpp:77] Creating layer scale3b2_branch2a
I1019 22:49:55.665961 20515 net.cpp:150] Setting up scale3b2_branch2a
I1019 22:49:55.665999 20515 net.cpp:157] Top shape: 16 128 28 28 (1605632)
I1019 22:49:55.666028 20515 net.cpp:165] Memory required for data: 2353856576
I1019 22:49:55.666057 20515 layer_factory.hpp:77] Creating layer res3b2_branch2a_relu
I1019 22:49:55.666088 20515 net.cpp:100] Creating Layer res3b2_branch2a_relu
I1019 22:49:55.666116 20515 net.cpp:434] res3b2_branch2a_relu <- res3b2_branch2a
I1019 22:49:55.666148 20515 net.cpp:395] res3b2_branch2a_relu -> res3b2_branch2a (in-place)
I1019 22:49:55.667045 20515 net.cpp:150] Setting up res3b2_branch2a_relu
I1019 22:49:55.667091 20515 net.cpp:157] Top shape: 16 128 28 28 (1605632)
I1019 22:49:55.667119 20515 net.cpp:165] Memory required for data: 2360279104
I1019 22:49:55.667146 20515 layer_factory.hpp:77] Creating layer res3b2_branch2b
I1019 22:49:55.667187 20515 net.cpp:100] Creating Layer res3b2_branch2b
I1019 22:49:55.667219 20515 net.cpp:434] res3b2_branch2b <- res3b2_branch2a
I1019 22:49:55.667251 20515 net.cpp:408] res3b2_branch2b -> res3b2_branch2b
I1019 22:49:55.674461 20515 net.cpp:150] Setting up res3b2_branch2b
I1019 22:49:55.674520 20515 net.cpp:157] Top shape: 16 128 28 28 (1605632)
I1019 22:49:55.674551 20515 net.cpp:165] Memory required for data: 2366701632
I1019 22:49:55.674582 20515 layer_factory.hpp:77] Creating layer bn3b2_branch2b
I1019 22:49:55.674621 20515 net.cpp:100] Creating Layer bn3b2_branch2b
I1019 22:49:55.674664 20515 net.cpp:434] bn3b2_branch2b <- res3b2_branch2b
I1019 22:49:55.674696 20515 net.cpp:395] bn3b2_branch2b -> res3b2_branch2b (in-place)
I1019 22:49:55.674952 20515 net.cpp:150] Setting up bn3b2_branch2b
I1019 22:49:55.674993 20515 net.cpp:157] Top shape: 16 128 28 28 (1605632)
I1019 22:49:55.675021 20515 net.cpp:165] Memory required for data: 2373124160
I1019 22:49:55.675053 20515 layer_factory.hpp:77] Creating layer scale3b2_branch2b
I1019 22:49:55.675086 20515 net.cpp:100] Creating Layer scale3b2_branch2b
I1019 22:49:55.675114 20515 net.cpp:434] scale3b2_branch2b <- res3b2_branch2b
I1019 22:49:55.675163 20515 net.cpp:395] scale3b2_branch2b -> res3b2_branch2b (in-place)
I1019 22:49:55.675249 20515 layer_factory.hpp:77] Creating layer scale3b2_branch2b
I1019 22:49:55.675443 20515 net.cpp:150] Setting up scale3b2_branch2b
I1019 22:49:55.675488 20515 net.cpp:157] Top shape: 16 128 28 28 (1605632)
I1019 22:49:55.675515 20515 net.cpp:165] Memory required for data: 2379546688
I1019 22:49:55.675546 20515 layer_factory.hpp:77] Creating layer res3b2_branch2b_relu
I1019 22:49:55.675577 20515 net.cpp:100] Creating Layer res3b2_branch2b_relu
I1019 22:49:55.675606 20515 net.cpp:434] res3b2_branch2b_relu <- res3b2_branch2b
I1019 22:49:55.675643 20515 net.cpp:395] res3b2_branch2b_relu -> res3b2_branch2b (in-place)
I1019 22:49:55.676154 20515 net.cpp:150] Setting up res3b2_branch2b_relu
I1019 22:49:55.676208 20515 net.cpp:157] Top shape: 16 128 28 28 (1605632)
I1019 22:49:55.676244 20515 net.cpp:165] Memory required for data: 2385969216
I1019 22:49:55.676277 20515 layer_factory.hpp:77] Creating layer res3b2_branch2c
I1019 22:49:55.676331 20515 net.cpp:100] Creating Layer res3b2_branch2c
I1019 22:49:55.676363 20515 net.cpp:434] res3b2_branch2c <- res3b2_branch2b
I1019 22:49:55.676403 20515 net.cpp:408] res3b2_branch2c -> res3b2_branch2c
I1019 22:49:55.683032 20515 net.cpp:150] Setting up res3b2_branch2c
I1019 22:49:55.683099 20515 net.cpp:157] Top shape: 16 512 28 28 (6422528)
I1019 22:49:55.683135 20515 net.cpp:165] Memory required for data: 2411659328
I1019 22:49:55.683169 20515 layer_factory.hpp:77] Creating layer bn3b2_branch2c
I1019 22:49:55.683213 20515 net.cpp:100] Creating Layer bn3b2_branch2c
I1019 22:49:55.683251 20515 net.cpp:434] bn3b2_branch2c <- res3b2_branch2c
I1019 22:49:55.683292 20515 net.cpp:395] bn3b2_branch2c -> res3b2_branch2c (in-place)
I1019 22:49:55.683552 20515 net.cpp:150] Setting up bn3b2_branch2c
I1019 22:49:55.683595 20515 net.cpp:157] Top shape: 16 512 28 28 (6422528)
I1019 22:49:55.683627 20515 net.cpp:165] Memory required for data: 2437349440
I1019 22:49:55.683677 20515 layer_factory.hpp:77] Creating layer scale3b2_branch2c
I1019 22:49:55.683714 20515 net.cpp:100] Creating Layer scale3b2_branch2c
I1019 22:49:55.683748 20515 net.cpp:434] scale3b2_branch2c <- res3b2_branch2c
I1019 22:49:55.683790 20515 net.cpp:395] scale3b2_branch2c -> res3b2_branch2c (in-place)
I1019 22:49:55.683889 20515 layer_factory.hpp:77] Creating layer scale3b2_branch2c
I1019 22:49:55.684074 20515 net.cpp:150] Setting up scale3b2_branch2c
I1019 22:49:55.684119 20515 net.cpp:157] Top shape: 16 512 28 28 (6422528)
I1019 22:49:55.684154 20515 net.cpp:165] Memory required for data: 2463039552
I1019 22:49:55.684190 20515 layer_factory.hpp:77] Creating layer res3b2
I1019 22:49:55.684228 20515 net.cpp:100] Creating Layer res3b2
I1019 22:49:55.684262 20515 net.cpp:434] res3b2 <- res3b1_res3b1_relu_0_split_1
I1019 22:49:55.684294 20515 net.cpp:434] res3b2 <- res3b2_branch2c
I1019 22:49:55.684336 20515 net.cpp:408] res3b2 -> res3b2
I1019 22:49:55.684408 20515 net.cpp:150] Setting up res3b2
I1019 22:49:55.684454 20515 net.cpp:157] Top shape: 16 512 28 28 (6422528)
I1019 22:49:55.684489 20515 net.cpp:165] Memory required for data: 2488729664
I1019 22:49:55.684521 20515 layer_factory.hpp:77] Creating layer res3b2_relu
I1019 22:49:55.684556 20515 net.cpp:100] Creating Layer res3b2_relu
I1019 22:49:55.684588 20515 net.cpp:434] res3b2_relu <- res3b2
I1019 22:49:55.684622 20515 net.cpp:395] res3b2_relu -> res3b2 (in-place)
I1019 22:49:55.685195 20515 net.cpp:150] Setting up res3b2_relu
I1019 22:49:55.685250 20515 net.cpp:157] Top shape: 16 512 28 28 (6422528)
I1019 22:49:55.685282 20515 net.cpp:165] Memory required for data: 2514419776
I1019 22:49:55.685314 20515 layer_factory.hpp:77] Creating layer res3b2_res3b2_relu_0_split
I1019 22:49:55.685351 20515 net.cpp:100] Creating Layer res3b2_res3b2_relu_0_split
I1019 22:49:55.685384 20515 net.cpp:434] res3b2_res3b2_relu_0_split <- res3b2
I1019 22:49:55.685420 20515 net.cpp:408] res3b2_res3b2_relu_0_split -> res3b2_res3b2_relu_0_split_0
I1019 22:49:55.685457 20515 net.cpp:408] res3b2_res3b2_relu_0_split -> res3b2_res3b2_relu_0_split_1
I1019 22:49:55.685564 20515 net.cpp:150] Setting up res3b2_res3b2_relu_0_split
I1019 22:49:55.685607 20515 net.cpp:157] Top shape: 16 512 28 28 (6422528)
I1019 22:49:55.685684 20515 net.cpp:157] Top shape: 16 512 28 28 (6422528)
I1019 22:49:55.685719 20515 net.cpp:165] Memory required for data: 2565800000
I1019 22:49:55.685753 20515 layer_factory.hpp:77] Creating layer res3b3_branch2a
I1019 22:49:55.685798 20515 net.cpp:100] Creating Layer res3b3_branch2a
I1019 22:49:55.685837 20515 net.cpp:434] res3b3_branch2a <- res3b2_res3b2_relu_0_split_0
I1019 22:49:55.685883 20515 net.cpp:408] res3b3_branch2a -> res3b3_branch2a
I1019 22:49:55.692003 20515 net.cpp:150] Setting up res3b3_branch2a
I1019 22:49:55.692075 20515 net.cpp:157] Top shape: 16 128 28 28 (1605632)
I1019 22:49:55.692112 20515 net.cpp:165] Memory required for data: 2572222528
I1019 22:49:55.692162 20515 layer_factory.hpp:77] Creating layer bn3b3_branch2a
I1019 22:49:55.692200 20515 net.cpp:100] Creating Layer bn3b3_branch2a
I1019 22:49:55.692234 20515 net.cpp:434] bn3b3_branch2a <- res3b3_branch2a
I1019 22:49:55.692276 20515 net.cpp:395] bn3b3_branch2a -> res3b3_branch2a (in-place)
I1019 22:49:55.692553 20515 net.cpp:150] Setting up bn3b3_branch2a
I1019 22:49:55.692596 20515 net.cpp:157] Top shape: 16 128 28 28 (1605632)
I1019 22:49:55.692632 20515 net.cpp:165] Memory required for data: 2578645056
I1019 22:49:55.692711 20515 layer_factory.hpp:77] Creating layer scale3b3_branch2a
I1019 22:49:55.692755 20515 net.cpp:100] Creating Layer scale3b3_branch2a
I1019 22:49:55.692790 20515 net.cpp:434] scale3b3_branch2a <- res3b3_branch2a
I1019 22:49:55.692831 20515 net.cpp:395] scale3b3_branch2a -> res3b3_branch2a (in-place)
I1019 22:49:55.692929 20515 layer_factory.hpp:77] Creating layer scale3b3_branch2a
I1019 22:49:55.693169 20515 net.cpp:150] Setting up scale3b3_branch2a
I1019 22:49:55.693217 20515 net.cpp:157] Top shape: 16 128 28 28 (1605632)
I1019 22:49:55.693251 20515 net.cpp:165] Memory required for data: 2585067584
I1019 22:49:55.693289 20515 layer_factory.hpp:77] Creating layer res3b3_branch2a_relu
I1019 22:49:55.693327 20515 net.cpp:100] Creating Layer res3b3_branch2a_relu
I1019 22:49:55.693377 20515 net.cpp:434] res3b3_branch2a_relu <- res3b3_branch2a
I1019 22:49:55.693411 20515 net.cpp:395] res3b3_branch2a_relu -> res3b3_branch2a (in-place)
I1019 22:49:55.694149 20515 net.cpp:150] Setting up res3b3_branch2a_relu
I1019 22:49:55.694200 20515 net.cpp:157] Top shape: 16 128 28 28 (1605632)
I1019 22:49:55.694233 20515 net.cpp:165] Memory required for data: 2591490112
I1019 22:49:55.694265 20515 layer_factory.hpp:77] Creating layer res3b3_branch2b
I1019 22:49:55.694308 20515 net.cpp:100] Creating Layer res3b3_branch2b
I1019 22:49:55.694344 20515 net.cpp:434] res3b3_branch2b <- res3b3_branch2a
I1019 22:49:55.694380 20515 net.cpp:408] res3b3_branch2b -> res3b3_branch2b
I1019 22:49:55.701539 20515 net.cpp:150] Setting up res3b3_branch2b
I1019 22:49:55.701603 20515 net.cpp:157] Top shape: 16 128 28 28 (1605632)
I1019 22:49:55.701650 20515 net.cpp:165] Memory required for data: 2597912640
I1019 22:49:55.701689 20515 layer_factory.hpp:77] Creating layer bn3b3_branch2b
I1019 22:49:55.701735 20515 net.cpp:100] Creating Layer bn3b3_branch2b
I1019 22:49:55.701771 20515 net.cpp:434] bn3b3_branch2b <- res3b3_branch2b
I1019 22:49:55.701807 20515 net.cpp:395] bn3b3_branch2b -> res3b3_branch2b (in-place)
I1019 22:49:55.702071 20515 net.cpp:150] Setting up bn3b3_branch2b
I1019 22:49:55.702118 20515 net.cpp:157] Top shape: 16 128 28 28 (1605632)
I1019 22:49:55.702150 20515 net.cpp:165] Memory required for data: 2604335168
I1019 22:49:55.702188 20515 layer_factory.hpp:77] Creating layer scale3b3_branch2b
I1019 22:49:55.702230 20515 net.cpp:100] Creating Layer scale3b3_branch2b
I1019 22:49:55.702267 20515 net.cpp:434] scale3b3_branch2b <- res3b3_branch2b
I1019 22:49:55.702302 20515 net.cpp:395] scale3b3_branch2b -> res3b3_branch2b (in-place)
I1019 22:49:55.702396 20515 layer_factory.hpp:77] Creating layer scale3b3_branch2b
I1019 22:49:55.702652 20515 net.cpp:150] Setting up scale3b3_branch2b
I1019 22:49:55.702704 20515 net.cpp:157] Top shape: 16 128 28 28 (1605632)
I1019 22:49:55.702736 20515 net.cpp:165] Memory required for data: 2610757696
I1019 22:49:55.702788 20515 layer_factory.hpp:77] Creating layer res3b3_branch2b_relu
I1019 22:49:55.702826 20515 net.cpp:100] Creating Layer res3b3_branch2b_relu
I1019 22:49:55.702854 20515 net.cpp:434] res3b3_branch2b_relu <- res3b3_branch2b
I1019 22:49:55.702891 20515 net.cpp:395] res3b3_branch2b_relu -> res3b3_branch2b (in-place)
I1019 22:49:55.703194 20515 net.cpp:150] Setting up res3b3_branch2b_relu
I1019 22:49:55.703240 20515 net.cpp:157] Top shape: 16 128 28 28 (1605632)
I1019 22:49:55.703284 20515 net.cpp:165] Memory required for data: 2617180224
I1019 22:49:55.703311 20515 layer_factory.hpp:77] Creating layer res3b3_branch2c
I1019 22:49:55.703346 20515 net.cpp:100] Creating Layer res3b3_branch2c
I1019 22:49:55.703377 20515 net.cpp:434] res3b3_branch2c <- res3b3_branch2b
I1019 22:49:55.703410 20515 net.cpp:408] res3b3_branch2c -> res3b3_branch2c
I1019 22:49:55.710049 20515 net.cpp:150] Setting up res3b3_branch2c
I1019 22:49:55.710158 20515 net.cpp:157] Top shape: 16 512 28 28 (6422528)
I1019 22:49:55.710197 20515 net.cpp:165] Memory required for data: 2642870336
I1019 22:49:55.710234 20515 layer_factory.hpp:77] Creating layer bn3b3_branch2c
I1019 22:49:55.710280 20515 net.cpp:100] Creating Layer bn3b3_branch2c
I1019 22:49:55.710319 20515 net.cpp:434] bn3b3_branch2c <- res3b3_branch2c
I1019 22:49:55.710356 20515 net.cpp:395] bn3b3_branch2c -> res3b3_branch2c (in-place)
I1019 22:49:55.710707 20515 net.cpp:150] Setting up bn3b3_branch2c
I1019 22:49:55.710777 20515 net.cpp:157] Top shape: 16 512 28 28 (6422528)
I1019 22:49:55.710824 20515 net.cpp:165] Memory required for data: 2668560448
I1019 22:49:55.710880 20515 layer_factory.hpp:77] Creating layer scale3b3_branch2c
I1019 22:49:55.710924 20515 net.cpp:100] Creating Layer scale3b3_branch2c
I1019 22:49:55.710960 20515 net.cpp:434] scale3b3_branch2c <- res3b3_branch2c
I1019 22:49:55.710997 20515 net.cpp:395] scale3b3_branch2c -> res3b3_branch2c (in-place)
I1019 22:49:55.711105 20515 layer_factory.hpp:77] Creating layer scale3b3_branch2c
I1019 22:49:55.711307 20515 net.cpp:150] Setting up scale3b3_branch2c
I1019 22:49:55.711351 20515 net.cpp:157] Top shape: 16 512 28 28 (6422528)
I1019 22:49:55.711383 20515 net.cpp:165] Memory required for data: 2694250560
I1019 22:49:55.711419 20515 layer_factory.hpp:77] Creating layer res3b3
I1019 22:49:55.711462 20515 net.cpp:100] Creating Layer res3b3
I1019 22:49:55.711498 20515 net.cpp:434] res3b3 <- res3b2_res3b2_relu_0_split_1
I1019 22:49:55.711532 20515 net.cpp:434] res3b3 <- res3b3_branch2c
I1019 22:49:55.711577 20515 net.cpp:408] res3b3 -> res3b3
I1019 22:49:55.711660 20515 net.cpp:150] Setting up res3b3
I1019 22:49:55.711702 20515 net.cpp:157] Top shape: 16 512 28 28 (6422528)
I1019 22:49:55.711736 20515 net.cpp:165] Memory required for data: 2719940672
I1019 22:49:55.711768 20515 layer_factory.hpp:77] Creating layer res3b3_relu
I1019 22:49:55.711812 20515 net.cpp:100] Creating Layer res3b3_relu
I1019 22:49:55.711848 20515 net.cpp:434] res3b3_relu <- res3b3
I1019 22:49:55.711882 20515 net.cpp:395] res3b3_relu -> res3b3 (in-place)
I1019 22:49:55.712761 20515 net.cpp:150] Setting up res3b3_relu
I1019 22:49:55.712829 20515 net.cpp:157] Top shape: 16 512 28 28 (6422528)
I1019 22:49:55.712867 20515 net.cpp:165] Memory required for data: 2745630784
I1019 22:49:55.712898 20515 layer_factory.hpp:77] Creating layer res3b3_res3b3_relu_0_split
I1019 22:49:55.712934 20515 net.cpp:100] Creating Layer res3b3_res3b3_relu_0_split
I1019 22:49:55.713024 20515 net.cpp:434] res3b3_res3b3_relu_0_split <- res3b3
I1019 22:49:55.713069 20515 net.cpp:408] res3b3_res3b3_relu_0_split -> res3b3_res3b3_relu_0_split_0
I1019 22:49:55.713145 20515 net.cpp:408] res3b3_res3b3_relu_0_split -> res3b3_res3b3_relu_0_split_1
I1019 22:49:55.713246 20515 net.cpp:150] Setting up res3b3_res3b3_relu_0_split
I1019 22:49:55.713291 20515 net.cpp:157] Top shape: 16 512 28 28 (6422528)
I1019 22:49:55.713387 20515 net.cpp:157] Top shape: 16 512 28 28 (6422528)
I1019 22:49:55.713425 20515 net.cpp:165] Memory required for data: 2797011008
I1019 22:49:55.713502 20515 layer_factory.hpp:77] Creating layer res3b4_branch2a
I1019 22:49:55.713544 20515 net.cpp:100] Creating Layer res3b4_branch2a
I1019 22:49:55.713582 20515 net.cpp:434] res3b4_branch2a <- res3b3_res3b3_relu_0_split_0
I1019 22:49:55.713644 20515 net.cpp:408] res3b4_branch2a -> res3b4_branch2a
I1019 22:49:55.719084 20515 net.cpp:150] Setting up res3b4_branch2a
I1019 22:49:55.719149 20515 net.cpp:157] Top shape: 16 128 28 28 (1605632)
I1019 22:49:55.719185 20515 net.cpp:165] Memory required for data: 2803433536
I1019 22:49:55.719220 20515 layer_factory.hpp:77] Creating layer bn3b4_branch2a
I1019 22:49:55.719266 20515 net.cpp:100] Creating Layer bn3b4_branch2a
I1019 22:49:55.719303 20515 net.cpp:434] bn3b4_branch2a <- res3b4_branch2a
I1019 22:49:55.719339 20515 net.cpp:395] bn3b4_branch2a -> res3b4_branch2a (in-place)
I1019 22:49:55.719599 20515 net.cpp:150] Setting up bn3b4_branch2a
I1019 22:49:55.719655 20515 net.cpp:157] Top shape: 16 128 28 28 (1605632)
I1019 22:49:55.719689 20515 net.cpp:165] Memory required for data: 2809856064
I1019 22:49:55.719727 20515 layer_factory.hpp:77] Creating layer scale3b4_branch2a
I1019 22:49:55.719763 20515 net.cpp:100] Creating Layer scale3b4_branch2a
I1019 22:49:55.719800 20515 net.cpp:434] scale3b4_branch2a <- res3b4_branch2a
I1019 22:49:55.719841 20515 net.cpp:395] scale3b4_branch2a -> res3b4_branch2a (in-place)
I1019 22:49:55.719967 20515 layer_factory.hpp:77] Creating layer scale3b4_branch2a
I1019 22:49:55.720190 20515 net.cpp:150] Setting up scale3b4_branch2a
I1019 22:49:55.720253 20515 net.cpp:157] Top shape: 16 128 28 28 (1605632)
I1019 22:49:55.720299 20515 net.cpp:165] Memory required for data: 2816278592
I1019 22:49:55.720340 20515 layer_factory.hpp:77] Creating layer res3b4_branch2a_relu
I1019 22:49:55.720377 20515 net.cpp:100] Creating Layer res3b4_branch2a_relu
I1019 22:49:55.720413 20515 net.cpp:434] res3b4_branch2a_relu <- res3b4_branch2a
I1019 22:49:55.720449 20515 net.cpp:395] res3b4_branch2a_relu -> res3b4_branch2a (in-place)
I1019 22:49:55.721261 20515 net.cpp:150] Setting up res3b4_branch2a_relu
I1019 22:49:55.721315 20515 net.cpp:157] Top shape: 16 128 28 28 (1605632)
I1019 22:49:55.721349 20515 net.cpp:165] Memory required for data: 2822701120
I1019 22:49:55.721380 20515 layer_factory.hpp:77] Creating layer res3b4_branch2b
I1019 22:49:55.721426 20515 net.cpp:100] Creating Layer res3b4_branch2b
I1019 22:49:55.721462 20515 net.cpp:434] res3b4_branch2b <- res3b4_branch2a
I1019 22:49:55.721503 20515 net.cpp:408] res3b4_branch2b -> res3b4_branch2b
I1019 22:49:55.728513 20515 net.cpp:150] Setting up res3b4_branch2b
I1019 22:49:55.728579 20515 net.cpp:157] Top shape: 16 128 28 28 (1605632)
I1019 22:49:55.728615 20515 net.cpp:165] Memory required for data: 2829123648
I1019 22:49:55.728662 20515 layer_factory.hpp:77] Creating layer bn3b4_branch2b
I1019 22:49:55.728700 20515 net.cpp:100] Creating Layer bn3b4_branch2b
I1019 22:49:55.728735 20515 net.cpp:434] bn3b4_branch2b <- res3b4_branch2b
I1019 22:49:55.728778 20515 net.cpp:395] bn3b4_branch2b -> res3b4_branch2b (in-place)
I1019 22:49:55.729069 20515 net.cpp:150] Setting up bn3b4_branch2b
I1019 22:49:55.729118 20515 net.cpp:157] Top shape: 16 128 28 28 (1605632)
I1019 22:49:55.729151 20515 net.cpp:165] Memory required for data: 2835546176
I1019 22:49:55.729189 20515 layer_factory.hpp:77] Creating layer scale3b4_branch2b
I1019 22:49:55.729228 20515 net.cpp:100] Creating Layer scale3b4_branch2b
I1019 22:49:55.729260 20515 net.cpp:434] scale3b4_branch2b <- res3b4_branch2b
I1019 22:49:55.729295 20515 net.cpp:395] scale3b4_branch2b -> res3b4_branch2b (in-place)
I1019 22:49:55.729390 20515 layer_factory.hpp:77] Creating layer scale3b4_branch2b
I1019 22:49:55.729578 20515 net.cpp:150] Setting up scale3b4_branch2b
I1019 22:49:55.729622 20515 net.cpp:157] Top shape: 16 128 28 28 (1605632)
I1019 22:49:55.729665 20515 net.cpp:165] Memory required for data: 2841968704
I1019 22:49:55.729730 20515 layer_factory.hpp:77] Creating layer res3b4_branch2b_relu
I1019 22:49:55.729809 20515 net.cpp:100] Creating Layer res3b4_branch2b_relu
I1019 22:49:55.729900 20515 net.cpp:434] res3b4_branch2b_relu <- res3b4_branch2b
I1019 22:49:55.729940 20515 net.cpp:395] res3b4_branch2b_relu -> res3b4_branch2b (in-place)
I1019 22:49:55.730211 20515 net.cpp:150] Setting up res3b4_branch2b_relu
I1019 22:49:55.730267 20515 net.cpp:157] Top shape: 16 128 28 28 (1605632)
I1019 22:49:55.730303 20515 net.cpp:165] Memory required for data: 2848391232
I1019 22:49:55.730334 20515 layer_factory.hpp:77] Creating layer res3b4_branch2c
I1019 22:49:55.730372 20515 net.cpp:100] Creating Layer res3b4_branch2c
I1019 22:49:55.730406 20515 net.cpp:434] res3b4_branch2c <- res3b4_branch2b
I1019 22:49:55.730448 20515 net.cpp:408] res3b4_branch2c -> res3b4_branch2c
I1019 22:49:55.736970 20515 net.cpp:150] Setting up res3b4_branch2c
I1019 22:49:55.737035 20515 net.cpp:157] Top shape: 16 512 28 28 (6422528)
I1019 22:49:55.737069 20515 net.cpp:165] Memory required for data: 2874081344
I1019 22:49:55.737104 20515 layer_factory.hpp:77] Creating layer bn3b4_branch2c
I1019 22:49:55.737149 20515 net.cpp:100] Creating Layer bn3b4_branch2c
I1019 22:49:55.737186 20515 net.cpp:434] bn3b4_branch2c <- res3b4_branch2c
I1019 22:49:55.737223 20515 net.cpp:395] bn3b4_branch2c -> res3b4_branch2c (in-place)
I1019 22:49:55.737493 20515 net.cpp:150] Setting up bn3b4_branch2c
I1019 22:49:55.737538 20515 net.cpp:157] Top shape: 16 512 28 28 (6422528)
I1019 22:49:55.737571 20515 net.cpp:165] Memory required for data: 2899771456
I1019 22:49:55.737607 20515 layer_factory.hpp:77] Creating layer scale3b4_branch2c
I1019 22:49:55.737654 20515 net.cpp:100] Creating Layer scale3b4_branch2c
I1019 22:49:55.737691 20515 net.cpp:434] scale3b4_branch2c <- res3b4_branch2c
I1019 22:49:55.737728 20515 net.cpp:395] scale3b4_branch2c -> res3b4_branch2c (in-place)
I1019 22:49:55.737820 20515 layer_factory.hpp:77] Creating layer scale3b4_branch2c
I1019 22:49:55.738003 20515 net.cpp:150] Setting up scale3b4_branch2c
I1019 22:49:55.738049 20515 net.cpp:157] Top shape: 16 512 28 28 (6422528)
I1019 22:49:55.738080 20515 net.cpp:165] Memory required for data: 2925461568
I1019 22:49:55.738116 20515 layer_factory.hpp:77] Creating layer res3b4
I1019 22:49:55.738150 20515 net.cpp:100] Creating Layer res3b4
I1019 22:49:55.738183 20515 net.cpp:434] res3b4 <- res3b3_res3b3_relu_0_split_1
I1019 22:49:55.738217 20515 net.cpp:434] res3b4 <- res3b4_branch2c
I1019 22:49:55.738253 20515 net.cpp:408] res3b4 -> res3b4
I1019 22:49:55.738330 20515 net.cpp:150] Setting up res3b4
I1019 22:49:55.738373 20515 net.cpp:157] Top shape: 16 512 28 28 (6422528)
I1019 22:49:55.738409 20515 net.cpp:165] Memory required for data: 2951151680
I1019 22:49:55.738440 20515 layer_factory.hpp:77] Creating layer res3b4_relu
I1019 22:49:55.738481 20515 net.cpp:100] Creating Layer res3b4_relu
I1019 22:49:55.738517 20515 net.cpp:434] res3b4_relu <- res3b4
I1019 22:49:55.738553 20515 net.cpp:395] res3b4_relu -> res3b4 (in-place)
I1019 22:49:55.739140 20515 net.cpp:150] Setting up res3b4_relu
I1019 22:49:55.739195 20515 net.cpp:157] Top shape: 16 512 28 28 (6422528)
I1019 22:49:55.739226 20515 net.cpp:165] Memory required for data: 2976841792
I1019 22:49:55.739254 20515 layer_factory.hpp:77] Creating layer res3b4_res3b4_relu_0_split
I1019 22:49:55.739284 20515 net.cpp:100] Creating Layer res3b4_res3b4_relu_0_split
I1019 22:49:55.739312 20515 net.cpp:434] res3b4_res3b4_relu_0_split <- res3b4
I1019 22:49:55.739342 20515 net.cpp:408] res3b4_res3b4_relu_0_split -> res3b4_res3b4_relu_0_split_0
I1019 22:49:55.739377 20515 net.cpp:408] res3b4_res3b4_relu_0_split -> res3b4_res3b4_relu_0_split_1
I1019 22:49:55.739468 20515 net.cpp:150] Setting up res3b4_res3b4_relu_0_split
I1019 22:49:55.739506 20515 net.cpp:157] Top shape: 16 512 28 28 (6422528)
I1019 22:49:55.739536 20515 net.cpp:157] Top shape: 16 512 28 28 (6422528)
I1019 22:49:55.739562 20515 net.cpp:165] Memory required for data: 3028222016
I1019 22:49:55.739601 20515 layer_factory.hpp:77] Creating layer res3b5_branch2a
I1019 22:49:55.739652 20515 net.cpp:100] Creating Layer res3b5_branch2a
I1019 22:49:55.739698 20515 net.cpp:434] res3b5_branch2a <- res3b4_res3b4_relu_0_split_0
I1019 22:49:55.739735 20515 net.cpp:408] res3b5_branch2a -> res3b5_branch2a
I1019 22:49:55.746526 20515 net.cpp:150] Setting up res3b5_branch2a
I1019 22:49:55.746629 20515 net.cpp:157] Top shape: 16 128 28 28 (1605632)
I1019 22:49:55.746688 20515 net.cpp:165] Memory required for data: 3034644544
I1019 22:49:55.746740 20515 layer_factory.hpp:77] Creating layer bn3b5_branch2a
I1019 22:49:55.746811 20515 net.cpp:100] Creating Layer bn3b5_branch2a
I1019 22:49:55.746860 20515 net.cpp:434] bn3b5_branch2a <- res3b5_branch2a
I1019 22:49:55.746911 20515 net.cpp:395] bn3b5_branch2a -> res3b5_branch2a (in-place)
I1019 22:49:55.747233 20515 net.cpp:150] Setting up bn3b5_branch2a
I1019 22:49:55.747285 20515 net.cpp:157] Top shape: 16 128 28 28 (1605632)
I1019 22:49:55.747320 20515 net.cpp:165] Memory required for data: 3041067072
I1019 22:49:55.747360 20515 layer_factory.hpp:77] Creating layer scale3b5_branch2a
I1019 22:49:55.747401 20515 net.cpp:100] Creating Layer scale3b5_branch2a
I1019 22:49:55.747439 20515 net.cpp:434] scale3b5_branch2a <- res3b5_branch2a
I1019 22:49:55.747478 20515 net.cpp:395] scale3b5_branch2a -> res3b5_branch2a (in-place)
I1019 22:49:55.747588 20515 layer_factory.hpp:77] Creating layer scale3b5_branch2a
I1019 22:49:55.747812 20515 net.cpp:150] Setting up scale3b5_branch2a
I1019 22:49:55.747862 20515 net.cpp:157] Top shape: 16 128 28 28 (1605632)
I1019 22:49:55.747897 20515 net.cpp:165] Memory required for data: 3047489600
I1019 22:49:55.747936 20515 layer_factory.hpp:77] Creating layer res3b5_branch2a_relu
I1019 22:49:55.748000 20515 net.cpp:100] Creating Layer res3b5_branch2a_relu
I1019 22:49:55.748042 20515 net.cpp:434] res3b5_branch2a_relu <- res3b5_branch2a
I1019 22:49:55.748080 20515 net.cpp:395] res3b5_branch2a_relu -> res3b5_branch2a (in-place)
I1019 22:49:55.748366 20515 net.cpp:150] Setting up res3b5_branch2a_relu
I1019 22:49:55.748427 20515 net.cpp:157] Top shape: 16 128 28 28 (1605632)
I1019 22:49:55.748466 20515 net.cpp:165] Memory required for data: 3053912128
I1019 22:49:55.748510 20515 layer_factory.hpp:77] Creating layer res3b5_branch2b
I1019 22:49:55.748562 20515 net.cpp:100] Creating Layer res3b5_branch2b
I1019 22:49:55.748603 20515 net.cpp:434] res3b5_branch2b <- res3b5_branch2a
I1019 22:49:55.748653 20515 net.cpp:408] res3b5_branch2b -> res3b5_branch2b
I1019 22:49:55.756988 20515 net.cpp:150] Setting up res3b5_branch2b
I1019 22:49:55.757058 20515 net.cpp:157] Top shape: 16 128 28 28 (1605632)
I1019 22:49:55.757097 20515 net.cpp:165] Memory required for data: 3060334656
I1019 22:49:55.757136 20515 layer_factory.hpp:77] Creating layer bn3b5_branch2b
I1019 22:49:55.757175 20515 net.cpp:100] Creating Layer bn3b5_branch2b
I1019 22:49:55.757211 20515 net.cpp:434] bn3b5_branch2b <- res3b5_branch2b
I1019 22:49:55.757257 20515 net.cpp:395] bn3b5_branch2b -> res3b5_branch2b (in-place)
I1019 22:49:55.757576 20515 net.cpp:150] Setting up bn3b5_branch2b
I1019 22:49:55.757625 20515 net.cpp:157] Top shape: 16 128 28 28 (1605632)
I1019 22:49:55.757674 20515 net.cpp:165] Memory required for data: 3066757184
I1019 22:49:55.757716 20515 layer_factory.hpp:77] Creating layer scale3b5_branch2b
I1019 22:49:55.757758 20515 net.cpp:100] Creating Layer scale3b5_branch2b
I1019 22:49:55.757796 20515 net.cpp:434] scale3b5_branch2b <- res3b5_branch2b
I1019 22:49:55.757846 20515 net.cpp:395] scale3b5_branch2b -> res3b5_branch2b (in-place)
I1019 22:49:55.757944 20515 layer_factory.hpp:77] Creating layer scale3b5_branch2b
I1019 22:49:55.758175 20515 net.cpp:150] Setting up scale3b5_branch2b
I1019 22:49:55.758241 20515 net.cpp:157] Top shape: 16 128 28 28 (1605632)
I1019 22:49:55.758276 20515 net.cpp:165] Memory required for data: 3073179712
I1019 22:49:55.758316 20515 layer_factory.hpp:77] Creating layer res3b5_branch2b_relu
I1019 22:49:55.758395 20515 net.cpp:100] Creating Layer res3b5_branch2b_relu
I1019 22:49:55.758448 20515 net.cpp:434] res3b5_branch2b_relu <- res3b5_branch2b
I1019 22:49:55.758494 20515 net.cpp:395] res3b5_branch2b_relu -> res3b5_branch2b (in-place)
I1019 22:49:55.758854 20515 net.cpp:150] Setting up res3b5_branch2b_relu
I1019 22:49:55.758913 20515 net.cpp:157] Top shape: 16 128 28 28 (1605632)
I1019 22:49:55.758958 20515 net.cpp:165] Memory required for data: 3079602240
I1019 22:49:55.758994 20515 layer_factory.hpp:77] Creating layer res3b5_branch2c
I1019 22:49:55.759064 20515 net.cpp:100] Creating Layer res3b5_branch2c
I1019 22:49:55.759104 20515 net.cpp:434] res3b5_branch2c <- res3b5_branch2b
I1019 22:49:55.759150 20515 net.cpp:408] res3b5_branch2c -> res3b5_branch2c
I1019 22:49:55.765401 20515 net.cpp:150] Setting up res3b5_branch2c
I1019 22:49:55.765472 20515 net.cpp:157] Top shape: 16 512 28 28 (6422528)
I1019 22:49:55.765512 20515 net.cpp:165] Memory required for data: 3105292352
I1019 22:49:55.765550 20515 layer_factory.hpp:77] Creating layer bn3b5_branch2c
I1019 22:49:55.765589 20515 net.cpp:100] Creating Layer bn3b5_branch2c
I1019 22:49:55.765627 20515 net.cpp:434] bn3b5_branch2c <- res3b5_branch2c
I1019 22:49:55.765688 20515 net.cpp:395] bn3b5_branch2c -> res3b5_branch2c (in-place)
I1019 22:49:55.766001 20515 net.cpp:150] Setting up bn3b5_branch2c
I1019 22:49:55.766049 20515 net.cpp:157] Top shape: 16 512 28 28 (6422528)
I1019 22:49:55.766084 20515 net.cpp:165] Memory required for data: 3130982464
I1019 22:49:55.766139 20515 layer_factory.hpp:77] Creating layer scale3b5_branch2c
I1019 22:49:55.766180 20515 net.cpp:100] Creating Layer scale3b5_branch2c
I1019 22:49:55.766216 20515 net.cpp:434] scale3b5_branch2c <- res3b5_branch2c
I1019 22:49:55.766255 20515 net.cpp:395] scale3b5_branch2c -> res3b5_branch2c (in-place)
I1019 22:49:55.766363 20515 layer_factory.hpp:77] Creating layer scale3b5_branch2c
I1019 22:49:55.766582 20515 net.cpp:150] Setting up scale3b5_branch2c
I1019 22:49:55.766628 20515 net.cpp:157] Top shape: 16 512 28 28 (6422528)
I1019 22:49:55.766674 20515 net.cpp:165] Memory required for data: 3156672576
I1019 22:49:55.766712 20515 layer_factory.hpp:77] Creating layer res3b5
I1019 22:49:55.766757 20515 net.cpp:100] Creating Layer res3b5
I1019 22:49:55.766795 20515 net.cpp:434] res3b5 <- res3b4_res3b4_relu_0_split_1
I1019 22:49:55.766831 20515 net.cpp:434] res3b5 <- res3b5_branch2c
I1019 22:49:55.766870 20515 net.cpp:408] res3b5 -> res3b5
I1019 22:49:55.766969 20515 net.cpp:150] Setting up res3b5
I1019 22:49:55.767015 20515 net.cpp:157] Top shape: 16 512 28 28 (6422528)
I1019 22:49:55.767052 20515 net.cpp:165] Memory required for data: 3182362688
I1019 22:49:55.767086 20515 layer_factory.hpp:77] Creating layer res3b5_relu
I1019 22:49:55.767124 20515 net.cpp:100] Creating Layer res3b5_relu
I1019 22:49:55.767164 20515 net.cpp:434] res3b5_relu <- res3b5
I1019 22:49:55.767210 20515 net.cpp:395] res3b5_relu -> res3b5 (in-place)
I1019 22:49:55.768208 20515 net.cpp:150] Setting up res3b5_relu
I1019 22:49:55.768272 20515 net.cpp:157] Top shape: 16 512 28 28 (6422528)
I1019 22:49:55.768311 20515 net.cpp:165] Memory required for data: 3208052800
I1019 22:49:55.768345 20515 layer_factory.hpp:77] Creating layer res3b5_res3b5_relu_0_split
I1019 22:49:55.768383 20515 net.cpp:100] Creating Layer res3b5_res3b5_relu_0_split
I1019 22:49:55.768432 20515 net.cpp:434] res3b5_res3b5_relu_0_split <- res3b5
I1019 22:49:55.768513 20515 net.cpp:408] res3b5_res3b5_relu_0_split -> res3b5_res3b5_relu_0_split_0
I1019 22:49:55.768563 20515 net.cpp:408] res3b5_res3b5_relu_0_split -> res3b5_res3b5_relu_0_split_1
I1019 22:49:55.768682 20515 net.cpp:150] Setting up res3b5_res3b5_relu_0_split
I1019 22:49:55.768729 20515 net.cpp:157] Top shape: 16 512 28 28 (6422528)
I1019 22:49:55.768766 20515 net.cpp:157] Top shape: 16 512 28 28 (6422528)
I1019 22:49:55.768801 20515 net.cpp:165] Memory required for data: 3259433024
I1019 22:49:55.768836 20515 layer_factory.hpp:77] Creating layer res3b6_branch2a
I1019 22:49:55.768903 20515 net.cpp:100] Creating Layer res3b6_branch2a
I1019 22:49:55.768942 20515 net.cpp:434] res3b6_branch2a <- res3b5_res3b5_relu_0_split_0
I1019 22:49:55.769019 20515 net.cpp:408] res3b6_branch2a -> res3b6_branch2a
I1019 22:49:55.774574 20515 net.cpp:150] Setting up res3b6_branch2a
I1019 22:49:55.774685 20515 net.cpp:157] Top shape: 16 128 28 28 (1605632)
I1019 22:49:55.774740 20515 net.cpp:165] Memory required for data: 3265855552
I1019 22:49:55.774777 20515 layer_factory.hpp:77] Creating layer bn3b6_branch2a
I1019 22:49:55.774824 20515 net.cpp:100] Creating Layer bn3b6_branch2a
I1019 22:49:55.774863 20515 net.cpp:434] bn3b6_branch2a <- res3b6_branch2a
I1019 22:49:55.774900 20515 net.cpp:395] bn3b6_branch2a -> res3b6_branch2a (in-place)
I1019 22:49:55.775287 20515 net.cpp:150] Setting up bn3b6_branch2a
I1019 22:49:55.775341 20515 net.cpp:157] Top shape: 16 128 28 28 (1605632)
I1019 22:49:55.775377 20515 net.cpp:165] Memory required for data: 3272278080
I1019 22:49:55.775439 20515 layer_factory.hpp:77] Creating layer scale3b6_branch2a
I1019 22:49:55.775496 20515 net.cpp:100] Creating Layer scale3b6_branch2a
I1019 22:49:55.775529 20515 net.cpp:434] scale3b6_branch2a <- res3b6_branch2a
I1019 22:49:55.775565 20515 net.cpp:395] scale3b6_branch2a -> res3b6_branch2a (in-place)
I1019 22:49:55.775682 20515 layer_factory.hpp:77] Creating layer scale3b6_branch2a
I1019 22:49:55.775876 20515 net.cpp:150] Setting up scale3b6_branch2a
I1019 22:49:55.775920 20515 net.cpp:157] Top shape: 16 128 28 28 (1605632)
I1019 22:49:55.775956 20515 net.cpp:165] Memory required for data: 3278700608
I1019 22:49:55.775992 20515 layer_factory.hpp:77] Creating layer res3b6_branch2a_relu
I1019 22:49:55.776053 20515 net.cpp:100] Creating Layer res3b6_branch2a_relu
I1019 22:49:55.776118 20515 net.cpp:434] res3b6_branch2a_relu <- res3b6_branch2a
I1019 22:49:55.776157 20515 net.cpp:395] res3b6_branch2a_relu -> res3b6_branch2a (in-place)
I1019 22:49:55.776613 20515 net.cpp:150] Setting up res3b6_branch2a_relu
I1019 22:49:55.776677 20515 net.cpp:157] Top shape: 16 128 28 28 (1605632)
I1019 22:49:55.776712 20515 net.cpp:165] Memory required for data: 3285123136
I1019 22:49:55.776746 20515 layer_factory.hpp:77] Creating layer res3b6_branch2b
I1019 22:49:55.776794 20515 net.cpp:100] Creating Layer res3b6_branch2b
I1019 22:49:55.776834 20515 net.cpp:434] res3b6_branch2b <- res3b6_branch2a
I1019 22:49:55.776872 20515 net.cpp:408] res3b6_branch2b -> res3b6_branch2b
I1019 22:49:55.784013 20515 net.cpp:150] Setting up res3b6_branch2b
I1019 22:49:55.784121 20515 net.cpp:157] Top shape: 16 128 28 28 (1605632)
I1019 22:49:55.784176 20515 net.cpp:165] Memory required for data: 3291545664
I1019 22:49:55.784229 20515 layer_factory.hpp:77] Creating layer bn3b6_branch2b
I1019 22:49:55.784281 20515 net.cpp:100] Creating Layer bn3b6_branch2b
I1019 22:49:55.784339 20515 net.cpp:434] bn3b6_branch2b <- res3b6_branch2b
I1019 22:49:55.784390 20515 net.cpp:395] bn3b6_branch2b -> res3b6_branch2b (in-place)
I1019 22:49:55.784724 20515 net.cpp:150] Setting up bn3b6_branch2b
I1019 22:49:55.784778 20515 net.cpp:157] Top shape: 16 128 28 28 (1605632)
I1019 22:49:55.784813 20515 net.cpp:165] Memory required for data: 3297968192
I1019 22:49:55.784853 20515 layer_factory.hpp:77] Creating layer scale3b6_branch2b
I1019 22:49:55.784900 20515 net.cpp:100] Creating Layer scale3b6_branch2b
I1019 22:49:55.784940 20515 net.cpp:434] scale3b6_branch2b <- res3b6_branch2b
I1019 22:49:55.785028 20515 net.cpp:395] scale3b6_branch2b -> res3b6_branch2b (in-place)
I1019 22:49:55.785152 20515 layer_factory.hpp:77] Creating layer scale3b6_branch2b
I1019 22:49:55.785382 20515 net.cpp:150] Setting up scale3b6_branch2b
I1019 22:49:55.785430 20515 net.cpp:157] Top shape: 16 128 28 28 (1605632)
I1019 22:49:55.785465 20515 net.cpp:165] Memory required for data: 3304390720
I1019 22:49:55.785503 20515 layer_factory.hpp:77] Creating layer res3b6_branch2b_relu
I1019 22:49:55.785542 20515 net.cpp:100] Creating Layer res3b6_branch2b_relu
I1019 22:49:55.785576 20515 net.cpp:434] res3b6_branch2b_relu <- res3b6_branch2b
I1019 22:49:55.785619 20515 net.cpp:395] res3b6_branch2b_relu -> res3b6_branch2b (in-place)
I1019 22:49:55.785899 20515 net.cpp:150] Setting up res3b6_branch2b_relu
I1019 22:49:55.785951 20515 net.cpp:157] Top shape: 16 128 28 28 (1605632)
I1019 22:49:55.786010 20515 net.cpp:165] Memory required for data: 3310813248
I1019 22:49:55.786044 20515 layer_factory.hpp:77] Creating layer res3b6_branch2c
I1019 22:49:55.786089 20515 net.cpp:100] Creating Layer res3b6_branch2c
I1019 22:49:55.786128 20515 net.cpp:434] res3b6_branch2c <- res3b6_branch2b
I1019 22:49:55.786172 20515 net.cpp:408] res3b6_branch2c -> res3b6_branch2c
I1019 22:49:55.792595 20515 net.cpp:150] Setting up res3b6_branch2c
I1019 22:49:55.792681 20515 net.cpp:157] Top shape: 16 512 28 28 (6422528)
I1019 22:49:55.792723 20515 net.cpp:165] Memory required for data: 3336503360
I1019 22:49:55.792762 20515 layer_factory.hpp:77] Creating layer bn3b6_branch2c
I1019 22:49:55.792801 20515 net.cpp:100] Creating Layer bn3b6_branch2c
I1019 22:49:55.792837 20515 net.cpp:434] bn3b6_branch2c <- res3b6_branch2c
I1019 22:49:55.792874 20515 net.cpp:395] bn3b6_branch2c -> res3b6_branch2c (in-place)
I1019 22:49:55.793208 20515 net.cpp:150] Setting up bn3b6_branch2c
I1019 22:49:55.793262 20515 net.cpp:157] Top shape: 16 512 28 28 (6422528)
I1019 22:49:55.793296 20515 net.cpp:165] Memory required for data: 3362193472
I1019 22:49:55.793336 20515 layer_factory.hpp:77] Creating layer scale3b6_branch2c
I1019 22:49:55.793376 20515 net.cpp:100] Creating Layer scale3b6_branch2c
I1019 22:49:55.793411 20515 net.cpp:434] scale3b6_branch2c <- res3b6_branch2c
I1019 22:49:55.793448 20515 net.cpp:395] scale3b6_branch2c -> res3b6_branch2c (in-place)
I1019 22:49:55.793551 20515 layer_factory.hpp:77] Creating layer scale3b6_branch2c
I1019 22:49:55.793769 20515 net.cpp:150] Setting up scale3b6_branch2c
I1019 22:49:55.793818 20515 net.cpp:157] Top shape: 16 512 28 28 (6422528)
I1019 22:49:55.793853 20515 net.cpp:165] Memory required for data: 3387883584
I1019 22:49:55.793889 20515 layer_factory.hpp:77] Creating layer res3b6
I1019 22:49:55.793941 20515 net.cpp:100] Creating Layer res3b6
I1019 22:49:55.793974 20515 net.cpp:434] res3b6 <- res3b5_res3b5_relu_0_split_1
I1019 22:49:55.794009 20515 net.cpp:434] res3b6 <- res3b6_branch2c
I1019 22:49:55.794051 20515 net.cpp:408] res3b6 -> res3b6
I1019 22:49:55.794126 20515 net.cpp:150] Setting up res3b6
I1019 22:49:55.794167 20515 net.cpp:157] Top shape: 16 512 28 28 (6422528)
I1019 22:49:55.794198 20515 net.cpp:165] Memory required for data: 3413573696
I1019 22:49:55.794230 20515 layer_factory.hpp:77] Creating layer res3b6_relu
I1019 22:49:55.794271 20515 net.cpp:100] Creating Layer res3b6_relu
I1019 22:49:55.794308 20515 net.cpp:434] res3b6_relu <- res3b6
I1019 22:49:55.794342 20515 net.cpp:395] res3b6_relu -> res3b6 (in-place)
I1019 22:49:55.794739 20515 net.cpp:150] Setting up res3b6_relu
I1019 22:49:55.794793 20515 net.cpp:157] Top shape: 16 512 28 28 (6422528)
I1019 22:49:55.794826 20515 net.cpp:165] Memory required for data: 3439263808
I1019 22:49:55.794857 20515 layer_factory.hpp:77] Creating layer res3b6_res3b6_relu_0_split
I1019 22:49:55.794898 20515 net.cpp:100] Creating Layer res3b6_res3b6_relu_0_split
I1019 22:49:55.794934 20515 net.cpp:434] res3b6_res3b6_relu_0_split <- res3b6
I1019 22:49:55.794970 20515 net.cpp:408] res3b6_res3b6_relu_0_split -> res3b6_res3b6_relu_0_split_0
I1019 22:49:55.795017 20515 net.cpp:408] res3b6_res3b6_relu_0_split -> res3b6_res3b6_relu_0_split_1
I1019 22:49:55.795111 20515 net.cpp:150] Setting up res3b6_res3b6_relu_0_split
I1019 22:49:55.795155 20515 net.cpp:157] Top shape: 16 512 28 28 (6422528)
I1019 22:49:55.795187 20515 net.cpp:157] Top shape: 16 512 28 28 (6422528)
I1019 22:49:55.795218 20515 net.cpp:165] Memory required for data: 3490644032
I1019 22:49:55.795250 20515 layer_factory.hpp:77] Creating layer res3b7_branch2a
I1019 22:49:55.795294 20515 net.cpp:100] Creating Layer res3b7_branch2a
I1019 22:49:55.795369 20515 net.cpp:434] res3b7_branch2a <- res3b6_res3b6_relu_0_split_0
I1019 22:49:55.795414 20515 net.cpp:408] res3b7_branch2a -> res3b7_branch2a
I1019 22:49:55.801573 20515 net.cpp:150] Setting up res3b7_branch2a
I1019 22:49:55.801656 20515 net.cpp:157] Top shape: 16 128 28 28 (1605632)
I1019 22:49:55.801697 20515 net.cpp:165] Memory required for data: 3497066560
I1019 22:49:55.801750 20515 layer_factory.hpp:77] Creating layer bn3b7_branch2a
I1019 22:49:55.801795 20515 net.cpp:100] Creating Layer bn3b7_branch2a
I1019 22:49:55.801832 20515 net.cpp:434] bn3b7_branch2a <- res3b7_branch2a
I1019 22:49:55.801867 20515 net.cpp:395] bn3b7_branch2a -> res3b7_branch2a (in-place)
I1019 22:49:55.802147 20515 net.cpp:150] Setting up bn3b7_branch2a
I1019 22:49:55.802192 20515 net.cpp:157] Top shape: 16 128 28 28 (1605632)
I1019 22:49:55.802225 20515 net.cpp:165] Memory required for data: 3503489088
I1019 22:49:55.802271 20515 layer_factory.hpp:77] Creating layer scale3b7_branch2a
I1019 22:49:55.802314 20515 net.cpp:100] Creating Layer scale3b7_branch2a
I1019 22:49:55.802347 20515 net.cpp:434] scale3b7_branch2a <- res3b7_branch2a
I1019 22:49:55.802378 20515 net.cpp:395] scale3b7_branch2a -> res3b7_branch2a (in-place)
I1019 22:49:55.802471 20515 layer_factory.hpp:77] Creating layer scale3b7_branch2a
I1019 22:49:55.802675 20515 net.cpp:150] Setting up scale3b7_branch2a
I1019 22:49:55.802716 20515 net.cpp:157] Top shape: 16 128 28 28 (1605632)
I1019 22:49:55.802744 20515 net.cpp:165] Memory required for data: 3509911616
I1019 22:49:55.802774 20515 layer_factory.hpp:77] Creating layer res3b7_branch2a_relu
I1019 22:49:55.802811 20515 net.cpp:100] Creating Layer res3b7_branch2a_relu
I1019 22:49:55.802846 20515 net.cpp:434] res3b7_branch2a_relu <- res3b7_branch2a
I1019 22:49:55.802876 20515 net.cpp:395] res3b7_branch2a_relu -> res3b7_branch2a (in-place)
I1019 22:49:55.803753 20515 net.cpp:150] Setting up res3b7_branch2a_relu
I1019 22:49:55.803799 20515 net.cpp:157] Top shape: 16 128 28 28 (1605632)
I1019 22:49:55.803828 20515 net.cpp:165] Memory required for data: 3516334144
I1019 22:49:55.803855 20515 layer_factory.hpp:77] Creating layer res3b7_branch2b
I1019 22:49:55.803894 20515 net.cpp:100] Creating Layer res3b7_branch2b
I1019 22:49:55.803925 20515 net.cpp:434] res3b7_branch2b <- res3b7_branch2a
I1019 22:49:55.803956 20515 net.cpp:408] res3b7_branch2b -> res3b7_branch2b
I1019 22:49:55.811231 20515 net.cpp:150] Setting up res3b7_branch2b
I1019 22:49:55.811396 20515 net.cpp:157] Top shape: 16 128 28 28 (1605632)
I1019 22:49:55.811487 20515 net.cpp:165] Memory required for data: 3522756672
I1019 22:49:55.811609 20515 layer_factory.hpp:77] Creating layer bn3b7_branch2b
I1019 22:49:55.811715 20515 net.cpp:100] Creating Layer bn3b7_branch2b
I1019 22:49:55.811758 20515 net.cpp:434] bn3b7_branch2b <- res3b7_branch2b
I1019 22:49:55.811805 20515 net.cpp:395] bn3b7_branch2b -> res3b7_branch2b (in-place)
I1019 22:49:55.812163 20515 net.cpp:150] Setting up bn3b7_branch2b
I1019 22:49:55.812214 20515 net.cpp:157] Top shape: 16 128 28 28 (1605632)
I1019 22:49:55.812250 20515 net.cpp:165] Memory required for data: 3529179200
I1019 22:49:55.812306 20515 layer_factory.hpp:77] Creating layer scale3b7_branch2b
I1019 22:49:55.812353 20515 net.cpp:100] Creating Layer scale3b7_branch2b
I1019 22:49:55.812394 20515 net.cpp:434] scale3b7_branch2b <- res3b7_branch2b
I1019 22:49:55.812433 20515 net.cpp:395] scale3b7_branch2b -> res3b7_branch2b (in-place)
I1019 22:49:55.812541 20515 layer_factory.hpp:77] Creating layer scale3b7_branch2b
I1019 22:49:55.812780 20515 net.cpp:150] Setting up scale3b7_branch2b
I1019 22:49:55.812829 20515 net.cpp:157] Top shape: 16 128 28 28 (1605632)
I1019 22:49:55.812863 20515 net.cpp:165] Memory required for data: 3535601728
I1019 22:49:55.812901 20515 layer_factory.hpp:77] Creating layer res3b7_branch2b_relu
I1019 22:49:55.812939 20515 net.cpp:100] Creating Layer res3b7_branch2b_relu
I1019 22:49:55.813025 20515 net.cpp:434] res3b7_branch2b_relu <- res3b7_branch2b
I1019 22:49:55.813189 20515 net.cpp:395] res3b7_branch2b_relu -> res3b7_branch2b (in-place)
I1019 22:49:55.813762 20515 net.cpp:150] Setting up res3b7_branch2b_relu
I1019 22:49:55.813796 20515 net.cpp:157] Top shape: 16 128 28 28 (1605632)
I1019 22:49:55.813804 20515 net.cpp:165] Memory required for data: 3542024256
I1019 22:49:55.813812 20515 layer_factory.hpp:77] Creating layer res3b7_branch2c
I1019 22:49:55.813838 20515 net.cpp:100] Creating Layer res3b7_branch2c
I1019 22:49:55.813881 20515 net.cpp:434] res3b7_branch2c <- res3b7_branch2b
I1019 22:49:55.813905 20515 net.cpp:408] res3b7_branch2c -> res3b7_branch2c
I1019 22:49:55.819867 20515 net.cpp:150] Setting up res3b7_branch2c
I1019 22:49:55.819911 20515 net.cpp:157] Top shape: 16 512 28 28 (6422528)
I1019 22:49:55.819921 20515 net.cpp:165] Memory required for data: 3567714368
I1019 22:49:55.819933 20515 layer_factory.hpp:77] Creating layer bn3b7_branch2c
I1019 22:49:55.819957 20515 net.cpp:100] Creating Layer bn3b7_branch2c
I1019 22:49:55.819968 20515 net.cpp:434] bn3b7_branch2c <- res3b7_branch2c
I1019 22:49:55.819989 20515 net.cpp:395] bn3b7_branch2c -> res3b7_branch2c (in-place)
I1019 22:49:55.820492 20515 net.cpp:150] Setting up bn3b7_branch2c
I1019 22:49:55.820516 20515 net.cpp:157] Top shape: 16 512 28 28 (6422528)
I1019 22:49:55.820524 20515 net.cpp:165] Memory required for data: 3593404480
I1019 22:49:55.820541 20515 layer_factory.hpp:77] Creating layer scale3b7_branch2c
I1019 22:49:55.820564 20515 net.cpp:100] Creating Layer scale3b7_branch2c
I1019 22:49:55.820574 20515 net.cpp:434] scale3b7_branch2c <- res3b7_branch2c
I1019 22:49:55.820585 20515 net.cpp:395] scale3b7_branch2c -> res3b7_branch2c (in-place)
I1019 22:49:55.820705 20515 layer_factory.hpp:77] Creating layer scale3b7_branch2c
I1019 22:49:55.821034 20515 net.cpp:150] Setting up scale3b7_branch2c
I1019 22:49:55.821060 20515 net.cpp:157] Top shape: 16 512 28 28 (6422528)
I1019 22:49:55.821069 20515 net.cpp:165] Memory required for data: 3619094592
I1019 22:49:55.821080 20515 layer_factory.hpp:77] Creating layer res3b7
I1019 22:49:55.821094 20515 net.cpp:100] Creating Layer res3b7
I1019 22:49:55.821102 20515 net.cpp:434] res3b7 <- res3b6_res3b6_relu_0_split_1
I1019 22:49:55.821112 20515 net.cpp:434] res3b7 <- res3b7_branch2c
I1019 22:49:55.821132 20515 net.cpp:408] res3b7 -> res3b7
I1019 22:49:55.821202 20515 net.cpp:150] Setting up res3b7
I1019 22:49:55.821213 20515 net.cpp:157] Top shape: 16 512 28 28 (6422528)
I1019 22:49:55.821220 20515 net.cpp:165] Memory required for data: 3644784704
I1019 22:49:55.821228 20515 layer_factory.hpp:77] Creating layer res3b7_relu
I1019 22:49:55.821238 20515 net.cpp:100] Creating Layer res3b7_relu
I1019 22:49:55.821246 20515 net.cpp:434] res3b7_relu <- res3b7
I1019 22:49:55.821255 20515 net.cpp:395] res3b7_relu -> res3b7 (in-place)
I1019 22:49:55.823056 20515 net.cpp:150] Setting up res3b7_relu
I1019 22:49:55.823098 20515 net.cpp:157] Top shape: 16 512 28 28 (6422528)
I1019 22:49:55.823107 20515 net.cpp:165] Memory required for data: 3670474816
I1019 22:49:55.823114 20515 layer_factory.hpp:77] Creating layer res3b7_res3b7_relu_0_split
I1019 22:49:55.823128 20515 net.cpp:100] Creating Layer res3b7_res3b7_relu_0_split
I1019 22:49:55.823137 20515 net.cpp:434] res3b7_res3b7_relu_0_split <- res3b7
I1019 22:49:55.823160 20515 net.cpp:408] res3b7_res3b7_relu_0_split -> res3b7_res3b7_relu_0_split_0
I1019 22:49:55.823176 20515 net.cpp:408] res3b7_res3b7_relu_0_split -> res3b7_res3b7_relu_0_split_1
I1019 22:49:55.823287 20515 net.cpp:150] Setting up res3b7_res3b7_relu_0_split
I1019 22:49:55.823308 20515 net.cpp:157] Top shape: 16 512 28 28 (6422528)
I1019 22:49:55.823318 20515 net.cpp:157] Top shape: 16 512 28 28 (6422528)
I1019 22:49:55.823324 20515 net.cpp:165] Memory required for data: 3721855040
I1019 22:49:55.823331 20515 layer_factory.hpp:77] Creating layer res4a_branch1
I1019 22:49:55.823346 20515 net.cpp:100] Creating Layer res4a_branch1
I1019 22:49:55.823354 20515 net.cpp:434] res4a_branch1 <- res3b7_res3b7_relu_0_split_0
I1019 22:49:55.823372 20515 net.cpp:408] res4a_branch1 -> res4a_branch1
I1019 22:49:55.833113 20515 net.cpp:150] Setting up res4a_branch1
I1019 22:49:55.833150 20515 net.cpp:157] Top shape: 16 1024 14 14 (3211264)
I1019 22:49:55.833158 20515 net.cpp:165] Memory required for data: 3734700096
I1019 22:49:55.833170 20515 layer_factory.hpp:77] Creating layer bn4a_branch1
I1019 22:49:55.833194 20515 net.cpp:100] Creating Layer bn4a_branch1
I1019 22:49:55.833211 20515 net.cpp:434] bn4a_branch1 <- res4a_branch1
I1019 22:49:55.833250 20515 net.cpp:395] bn4a_branch1 -> res4a_branch1 (in-place)
I1019 22:49:55.833778 20515 net.cpp:150] Setting up bn4a_branch1
I1019 22:49:55.833803 20515 net.cpp:157] Top shape: 16 1024 14 14 (3211264)
I1019 22:49:55.833811 20515 net.cpp:165] Memory required for data: 3747545152
I1019 22:49:55.833827 20515 layer_factory.hpp:77] Creating layer scale4a_branch1
I1019 22:49:55.833839 20515 net.cpp:100] Creating Layer scale4a_branch1
I1019 22:49:55.833847 20515 net.cpp:434] scale4a_branch1 <- res4a_branch1
I1019 22:49:55.833858 20515 net.cpp:395] scale4a_branch1 -> res4a_branch1 (in-place)
I1019 22:49:55.833957 20515 layer_factory.hpp:77] Creating layer scale4a_branch1
I1019 22:49:55.834239 20515 net.cpp:150] Setting up scale4a_branch1
I1019 22:49:55.834260 20515 net.cpp:157] Top shape: 16 1024 14 14 (3211264)
I1019 22:49:55.834266 20515 net.cpp:165] Memory required for data: 3760390208
I1019 22:49:55.834278 20515 layer_factory.hpp:77] Creating layer res4a_branch2a
I1019 22:49:55.834298 20515 net.cpp:100] Creating Layer res4a_branch2a
I1019 22:49:55.834306 20515 net.cpp:434] res4a_branch2a <- res3b7_res3b7_relu_0_split_1
I1019 22:49:55.834316 20515 net.cpp:408] res4a_branch2a -> res4a_branch2a
I1019 22:49:55.843945 20515 net.cpp:150] Setting up res4a_branch2a
I1019 22:49:55.843984 20515 net.cpp:157] Top shape: 16 256 14 14 (802816)
I1019 22:49:55.843992 20515 net.cpp:165] Memory required for data: 3763601472
I1019 22:49:55.844002 20515 layer_factory.hpp:77] Creating layer bn4a_branch2a
I1019 22:49:55.844013 20515 net.cpp:100] Creating Layer bn4a_branch2a
I1019 22:49:55.844022 20515 net.cpp:434] bn4a_branch2a <- res4a_branch2a
I1019 22:49:55.844038 20515 net.cpp:395] bn4a_branch2a -> res4a_branch2a (in-place)
I1019 22:49:55.844439 20515 net.cpp:150] Setting up bn4a_branch2a
I1019 22:49:55.844460 20515 net.cpp:157] Top shape: 16 256 14 14 (802816)
I1019 22:49:55.844465 20515 net.cpp:165] Memory required for data: 3766812736
I1019 22:49:55.844478 20515 layer_factory.hpp:77] Creating layer scale4a_branch2a
I1019 22:49:55.844489 20515 net.cpp:100] Creating Layer scale4a_branch2a
I1019 22:49:55.844496 20515 net.cpp:434] scale4a_branch2a <- res4a_branch2a
I1019 22:49:55.844504 20515 net.cpp:395] scale4a_branch2a -> res4a_branch2a (in-place)
I1019 22:49:55.844588 20515 layer_factory.hpp:77] Creating layer scale4a_branch2a
I1019 22:49:55.844811 20515 net.cpp:150] Setting up scale4a_branch2a
I1019 22:49:55.844831 20515 net.cpp:157] Top shape: 16 256 14 14 (802816)
I1019 22:49:55.844836 20515 net.cpp:165] Memory required for data: 3770024000
I1019 22:49:55.844846 20515 layer_factory.hpp:77] Creating layer res4a_branch2a_relu
I1019 22:49:55.844859 20515 net.cpp:100] Creating Layer res4a_branch2a_relu
I1019 22:49:55.844866 20515 net.cpp:434] res4a_branch2a_relu <- res4a_branch2a
I1019 22:49:55.844873 20515 net.cpp:395] res4a_branch2a_relu -> res4a_branch2a (in-place)
I1019 22:49:55.846467 20515 net.cpp:150] Setting up res4a_branch2a_relu
I1019 22:49:55.846500 20515 net.cpp:157] Top shape: 16 256 14 14 (802816)
I1019 22:49:55.846508 20515 net.cpp:165] Memory required for data: 3773235264
I1019 22:49:55.846514 20515 layer_factory.hpp:77] Creating layer res4a_branch2b
I1019 22:49:55.846530 20515 net.cpp:100] Creating Layer res4a_branch2b
I1019 22:49:55.846539 20515 net.cpp:434] res4a_branch2b <- res4a_branch2a
I1019 22:49:55.846560 20515 net.cpp:408] res4a_branch2b -> res4a_branch2b
I1019 22:49:55.857903 20515 net.cpp:150] Setting up res4a_branch2b
I1019 22:49:55.857940 20515 net.cpp:157] Top shape: 16 256 14 14 (802816)
I1019 22:49:55.857947 20515 net.cpp:165] Memory required for data: 3776446528
I1019 22:49:55.857959 20515 layer_factory.hpp:77] Creating layer bn4a_branch2b
I1019 22:49:55.857980 20515 net.cpp:100] Creating Layer bn4a_branch2b
I1019 22:49:55.857990 20515 net.cpp:434] bn4a_branch2b <- res4a_branch2b
I1019 22:49:55.857998 20515 net.cpp:395] bn4a_branch2b -> res4a_branch2b (in-place)
I1019 22:49:55.858409 20515 net.cpp:150] Setting up bn4a_branch2b
I1019 22:49:55.858430 20515 net.cpp:157] Top shape: 16 256 14 14 (802816)
I1019 22:49:55.858466 20515 net.cpp:165] Memory required for data: 3779657792
I1019 22:49:55.858489 20515 layer_factory.hpp:77] Creating layer scale4a_branch2b
I1019 22:49:55.858500 20515 net.cpp:100] Creating Layer scale4a_branch2b
I1019 22:49:55.858506 20515 net.cpp:434] scale4a_branch2b <- res4a_branch2b
I1019 22:49:55.858515 20515 net.cpp:395] scale4a_branch2b -> res4a_branch2b (in-place)
I1019 22:49:55.858604 20515 layer_factory.hpp:77] Creating layer scale4a_branch2b
I1019 22:49:55.858842 20515 net.cpp:150] Setting up scale4a_branch2b
I1019 22:49:55.858862 20515 net.cpp:157] Top shape: 16 256 14 14 (802816)
I1019 22:49:55.858868 20515 net.cpp:165] Memory required for data: 3782869056
I1019 22:49:55.858877 20515 layer_factory.hpp:77] Creating layer res4a_branch2b_relu
I1019 22:49:55.858894 20515 net.cpp:100] Creating Layer res4a_branch2b_relu
I1019 22:49:55.858901 20515 net.cpp:434] res4a_branch2b_relu <- res4a_branch2b
I1019 22:49:55.858909 20515 net.cpp:395] res4a_branch2b_relu -> res4a_branch2b (in-place)
I1019 22:49:55.859261 20515 net.cpp:150] Setting up res4a_branch2b_relu
I1019 22:49:55.859284 20515 net.cpp:157] Top shape: 16 256 14 14 (802816)
I1019 22:49:55.859290 20515 net.cpp:165] Memory required for data: 3786080320
I1019 22:49:55.859297 20515 layer_factory.hpp:77] Creating layer res4a_branch2c
I1019 22:49:55.859314 20515 net.cpp:100] Creating Layer res4a_branch2c
I1019 22:49:55.859321 20515 net.cpp:434] res4a_branch2c <- res4a_branch2b
I1019 22:49:55.859330 20515 net.cpp:408] res4a_branch2c -> res4a_branch2c
I1019 22:49:55.866111 20515 net.cpp:150] Setting up res4a_branch2c
I1019 22:49:55.866144 20515 net.cpp:157] Top shape: 16 1024 14 14 (3211264)
I1019 22:49:55.866152 20515 net.cpp:165] Memory required for data: 3798925376
I1019 22:49:55.866160 20515 layer_factory.hpp:77] Creating layer bn4a_branch2c
I1019 22:49:55.866178 20515 net.cpp:100] Creating Layer bn4a_branch2c
I1019 22:49:55.866186 20515 net.cpp:434] bn4a_branch2c <- res4a_branch2c
I1019 22:49:55.866194 20515 net.cpp:395] bn4a_branch2c -> res4a_branch2c (in-place)
I1019 22:49:55.866578 20515 net.cpp:150] Setting up bn4a_branch2c
I1019 22:49:55.866597 20515 net.cpp:157] Top shape: 16 1024 14 14 (3211264)
I1019 22:49:55.866602 20515 net.cpp:165] Memory required for data: 3811770432
I1019 22:49:55.866614 20515 layer_factory.hpp:77] Creating layer scale4a_branch2c
I1019 22:49:55.866624 20515 net.cpp:100] Creating Layer scale4a_branch2c
I1019 22:49:55.866631 20515 net.cpp:434] scale4a_branch2c <- res4a_branch2c
I1019 22:49:55.866645 20515 net.cpp:395] scale4a_branch2c -> res4a_branch2c (in-place)
I1019 22:49:55.866724 20515 layer_factory.hpp:77] Creating layer scale4a_branch2c
I1019 22:49:55.866950 20515 net.cpp:150] Setting up scale4a_branch2c
I1019 22:49:55.866968 20515 net.cpp:157] Top shape: 16 1024 14 14 (3211264)
I1019 22:49:55.866973 20515 net.cpp:165] Memory required for data: 3824615488
I1019 22:49:55.866983 20515 layer_factory.hpp:77] Creating layer res4a
I1019 22:49:55.866991 20515 net.cpp:100] Creating Layer res4a
I1019 22:49:55.866997 20515 net.cpp:434] res4a <- res4a_branch1
I1019 22:49:55.867004 20515 net.cpp:434] res4a <- res4a_branch2c
I1019 22:49:55.867020 20515 net.cpp:408] res4a -> res4a
I1019 22:49:55.867064 20515 net.cpp:150] Setting up res4a
I1019 22:49:55.867072 20515 net.cpp:157] Top shape: 16 1024 14 14 (3211264)
I1019 22:49:55.867077 20515 net.cpp:165] Memory required for data: 3837460544
I1019 22:49:55.867082 20515 layer_factory.hpp:77] Creating layer res4a_relu
I1019 22:49:55.867097 20515 net.cpp:100] Creating Layer res4a_relu
I1019 22:49:55.867103 20515 net.cpp:434] res4a_relu <- res4a
I1019 22:49:55.867110 20515 net.cpp:395] res4a_relu -> res4a (in-place)
I1019 22:49:55.868191 20515 net.cpp:150] Setting up res4a_relu
I1019 22:49:55.868218 20515 net.cpp:157] Top shape: 16 1024 14 14 (3211264)
I1019 22:49:55.868223 20515 net.cpp:165] Memory required for data: 3850305600
I1019 22:49:55.868229 20515 layer_factory.hpp:77] Creating layer res4a_res4a_relu_0_split
I1019 22:49:55.868273 20515 net.cpp:100] Creating Layer res4a_res4a_relu_0_split
I1019 22:49:55.868279 20515 net.cpp:434] res4a_res4a_relu_0_split <- res4a
I1019 22:49:55.868288 20515 net.cpp:408] res4a_res4a_relu_0_split -> res4a_res4a_relu_0_split_0
I1019 22:49:55.868304 20515 net.cpp:408] res4a_res4a_relu_0_split -> res4a_res4a_relu_0_split_1
I1019 22:49:55.868384 20515 net.cpp:150] Setting up res4a_res4a_relu_0_split
I1019 22:49:55.868393 20515 net.cpp:157] Top shape: 16 1024 14 14 (3211264)
I1019 22:49:55.868399 20515 net.cpp:157] Top shape: 16 1024 14 14 (3211264)
I1019 22:49:55.868404 20515 net.cpp:165] Memory required for data: 3875995712
I1019 22:49:55.868409 20515 layer_factory.hpp:77] Creating layer res4b1_branch2a
I1019 22:49:55.868425 20515 net.cpp:100] Creating Layer res4b1_branch2a
I1019 22:49:55.868432 20515 net.cpp:434] res4b1_branch2a <- res4a_res4a_relu_0_split_0
I1019 22:49:55.868445 20515 net.cpp:408] res4b1_branch2a -> res4b1_branch2a
I1019 22:49:55.877296 20515 net.cpp:150] Setting up res4b1_branch2a
I1019 22:49:55.877327 20515 net.cpp:157] Top shape: 16 256 14 14 (802816)
I1019 22:49:55.877333 20515 net.cpp:165] Memory required for data: 3879206976
I1019 22:49:55.877342 20515 layer_factory.hpp:77] Creating layer bn4b1_branch2a
I1019 22:49:55.877359 20515 net.cpp:100] Creating Layer bn4b1_branch2a
I1019 22:49:55.877367 20515 net.cpp:434] bn4b1_branch2a <- res4b1_branch2a
I1019 22:49:55.877375 20515 net.cpp:395] bn4b1_branch2a -> res4b1_branch2a (in-place)
I1019 22:49:55.877729 20515 net.cpp:150] Setting up bn4b1_branch2a
I1019 22:49:55.877748 20515 net.cpp:157] Top shape: 16 256 14 14 (802816)
I1019 22:49:55.877753 20515 net.cpp:165] Memory required for data: 3882418240
I1019 22:49:55.877764 20515 layer_factory.hpp:77] Creating layer scale4b1_branch2a
I1019 22:49:55.877784 20515 net.cpp:100] Creating Layer scale4b1_branch2a
I1019 22:49:55.877791 20515 net.cpp:434] scale4b1_branch2a <- res4b1_branch2a
I1019 22:49:55.877799 20515 net.cpp:395] scale4b1_branch2a -> res4b1_branch2a (in-place)
I1019 22:49:55.877874 20515 layer_factory.hpp:77] Creating layer scale4b1_branch2a
I1019 22:49:55.878072 20515 net.cpp:150] Setting up scale4b1_branch2a
I1019 22:49:55.878088 20515 net.cpp:157] Top shape: 16 256 14 14 (802816)
I1019 22:49:55.878093 20515 net.cpp:165] Memory required for data: 3885629504
I1019 22:49:55.878103 20515 layer_factory.hpp:77] Creating layer res4b1_branch2a_relu
I1019 22:49:55.878116 20515 net.cpp:100] Creating Layer res4b1_branch2a_relu
I1019 22:49:55.878123 20515 net.cpp:434] res4b1_branch2a_relu <- res4b1_branch2a
I1019 22:49:55.878137 20515 net.cpp:395] res4b1_branch2a_relu -> res4b1_branch2a (in-place)
I1019 22:49:55.879365 20515 net.cpp:150] Setting up res4b1_branch2a_relu
I1019 22:49:55.879386 20515 net.cpp:157] Top shape: 16 256 14 14 (802816)
I1019 22:49:55.879392 20515 net.cpp:165] Memory required for data: 3888840768
I1019 22:49:55.879397 20515 layer_factory.hpp:77] Creating layer res4b1_branch2b
I1019 22:49:55.879415 20515 net.cpp:100] Creating Layer res4b1_branch2b
I1019 22:49:55.879426 20515 net.cpp:434] res4b1_branch2b <- res4b1_branch2a
I1019 22:49:55.879434 20515 net.cpp:408] res4b1_branch2b -> res4b1_branch2b
I1019 22:49:55.889123 20515 net.cpp:150] Setting up res4b1_branch2b
I1019 22:49:55.889155 20515 net.cpp:157] Top shape: 16 256 14 14 (802816)
I1019 22:49:55.889169 20515 net.cpp:165] Memory required for data: 3892052032
I1019 22:49:55.889179 20515 layer_factory.hpp:77] Creating layer bn4b1_branch2b
I1019 22:49:55.889189 20515 net.cpp:100] Creating Layer bn4b1_branch2b
I1019 22:49:55.889195 20515 net.cpp:434] bn4b1_branch2b <- res4b1_branch2b
I1019 22:49:55.889204 20515 net.cpp:395] bn4b1_branch2b -> res4b1_branch2b (in-place)
I1019 22:49:55.889583 20515 net.cpp:150] Setting up bn4b1_branch2b
I1019 22:49:55.889600 20515 net.cpp:157] Top shape: 16 256 14 14 (802816)
I1019 22:49:55.889605 20515 net.cpp:165] Memory required for data: 3895263296
I1019 22:49:55.889616 20515 layer_factory.hpp:77] Creating layer scale4b1_branch2b
I1019 22:49:55.889626 20515 net.cpp:100] Creating Layer scale4b1_branch2b
I1019 22:49:55.889663 20515 net.cpp:434] scale4b1_branch2b <- res4b1_branch2b
I1019 22:49:55.889673 20515 net.cpp:395] scale4b1_branch2b -> res4b1_branch2b (in-place)
I1019 22:49:55.889760 20515 layer_factory.hpp:77] Creating layer scale4b1_branch2b
I1019 22:49:55.889981 20515 net.cpp:150] Setting up scale4b1_branch2b
I1019 22:49:55.889998 20515 net.cpp:157] Top shape: 16 256 14 14 (802816)
I1019 22:49:55.890003 20515 net.cpp:165] Memory required for data: 3898474560
I1019 22:49:55.890012 20515 layer_factory.hpp:77] Creating layer res4b1_branch2b_relu
I1019 22:49:55.890020 20515 net.cpp:100] Creating Layer res4b1_branch2b_relu
I1019 22:49:55.890025 20515 net.cpp:434] res4b1_branch2b_relu <- res4b1_branch2b
I1019 22:49:55.890038 20515 net.cpp:395] res4b1_branch2b_relu -> res4b1_branch2b (in-place)
I1019 22:49:55.890516 20515 net.cpp:150] Setting up res4b1_branch2b_relu
I1019 22:49:55.890543 20515 net.cpp:157] Top shape: 16 256 14 14 (802816)
I1019 22:49:55.890549 20515 net.cpp:165] Memory required for data: 3901685824
I1019 22:49:55.890554 20515 layer_factory.hpp:77] Creating layer res4b1_branch2c
I1019 22:49:55.890570 20515 net.cpp:100] Creating Layer res4b1_branch2c
I1019 22:49:55.890576 20515 net.cpp:434] res4b1_branch2c <- res4b1_branch2b
I1019 22:49:55.890584 20515 net.cpp:408] res4b1_branch2c -> res4b1_branch2c
I1019 22:49:55.897378 20515 net.cpp:150] Setting up res4b1_branch2c
I1019 22:49:55.897410 20515 net.cpp:157] Top shape: 16 1024 14 14 (3211264)
I1019 22:49:55.897418 20515 net.cpp:165] Memory required for data: 3914530880
I1019 22:49:55.897425 20515 layer_factory.hpp:77] Creating layer bn4b1_branch2c
I1019 22:49:55.897447 20515 net.cpp:100] Creating Layer bn4b1_branch2c
I1019 22:49:55.897454 20515 net.cpp:434] bn4b1_branch2c <- res4b1_branch2c
I1019 22:49:55.897462 20515 net.cpp:395] bn4b1_branch2c -> res4b1_branch2c (in-place)
I1019 22:49:55.897799 20515 net.cpp:150] Setting up bn4b1_branch2c
I1019 22:49:55.897809 20515 net.cpp:157] Top shape: 16 1024 14 14 (3211264)
I1019 22:49:55.897814 20515 net.cpp:165] Memory required for data: 3927375936
I1019 22:49:55.897831 20515 layer_factory.hpp:77] Creating layer scale4b1_branch2c
I1019 22:49:55.897841 20515 net.cpp:100] Creating Layer scale4b1_branch2c
I1019 22:49:55.897847 20515 net.cpp:434] scale4b1_branch2c <- res4b1_branch2c
I1019 22:49:55.897853 20515 net.cpp:395] scale4b1_branch2c -> res4b1_branch2c (in-place)
I1019 22:49:55.897920 20515 layer_factory.hpp:77] Creating layer scale4b1_branch2c
I1019 22:49:55.898128 20515 net.cpp:150] Setting up scale4b1_branch2c
I1019 22:49:55.898138 20515 net.cpp:157] Top shape: 16 1024 14 14 (3211264)
I1019 22:49:55.898142 20515 net.cpp:165] Memory required for data: 3940220992
I1019 22:49:55.898207 20515 layer_factory.hpp:77] Creating layer res4b1
I1019 22:49:55.898217 20515 net.cpp:100] Creating Layer res4b1
I1019 22:49:55.898223 20515 net.cpp:434] res4b1 <- res4a_res4a_relu_0_split_1
I1019 22:49:55.898231 20515 net.cpp:434] res4b1 <- res4b1_branch2c
I1019 22:49:55.898237 20515 net.cpp:408] res4b1 -> res4b1
I1019 22:49:55.898280 20515 net.cpp:150] Setting up res4b1
I1019 22:49:55.898290 20515 net.cpp:157] Top shape: 16 1024 14 14 (3211264)
I1019 22:49:55.898295 20515 net.cpp:165] Memory required for data: 3953066048
I1019 22:49:55.898299 20515 layer_factory.hpp:77] Creating layer res4b1_relu
I1019 22:49:55.898306 20515 net.cpp:100] Creating Layer res4b1_relu
I1019 22:49:55.898311 20515 net.cpp:434] res4b1_relu <- res4b1
I1019 22:49:55.898319 20515 net.cpp:395] res4b1_relu -> res4b1 (in-place)
I1019 22:49:55.899499 20515 net.cpp:150] Setting up res4b1_relu
I1019 22:49:55.899529 20515 net.cpp:157] Top shape: 16 1024 14 14 (3211264)
I1019 22:49:55.899534 20515 net.cpp:165] Memory required for data: 3965911104
I1019 22:49:55.899540 20515 layer_factory.hpp:77] Creating layer res4b1_res4b1_relu_0_split
I1019 22:49:55.899559 20515 net.cpp:100] Creating Layer res4b1_res4b1_relu_0_split
I1019 22:49:55.899567 20515 net.cpp:434] res4b1_res4b1_relu_0_split <- res4b1
I1019 22:49:55.899575 20515 net.cpp:408] res4b1_res4b1_relu_0_split -> res4b1_res4b1_relu_0_split_0
I1019 22:49:55.899605 20515 net.cpp:408] res4b1_res4b1_relu_0_split -> res4b1_res4b1_relu_0_split_1
I1019 22:49:55.899704 20515 net.cpp:150] Setting up res4b1_res4b1_relu_0_split
I1019 22:49:55.899714 20515 net.cpp:157] Top shape: 16 1024 14 14 (3211264)
I1019 22:49:55.899720 20515 net.cpp:157] Top shape: 16 1024 14 14 (3211264)
I1019 22:49:55.899724 20515 net.cpp:165] Memory required for data: 3991601216
I1019 22:49:55.899729 20515 layer_factory.hpp:77] Creating layer res4b2_branch2a
I1019 22:49:55.899745 20515 net.cpp:100] Creating Layer res4b2_branch2a
I1019 22:49:55.899750 20515 net.cpp:434] res4b2_branch2a <- res4b1_res4b1_relu_0_split_0
I1019 22:49:55.899758 20515 net.cpp:408] res4b2_branch2a -> res4b2_branch2a
I1019 22:49:55.910379 20515 net.cpp:150] Setting up res4b2_branch2a
I1019 22:49:55.910408 20515 net.cpp:157] Top shape: 16 256 14 14 (802816)
I1019 22:49:55.910413 20515 net.cpp:165] Memory required for data: 3994812480
I1019 22:49:55.910421 20515 layer_factory.hpp:77] Creating layer bn4b2_branch2a
I1019 22:49:55.910437 20515 net.cpp:100] Creating Layer bn4b2_branch2a
I1019 22:49:55.910444 20515 net.cpp:434] bn4b2_branch2a <- res4b2_branch2a
I1019 22:49:55.910451 20515 net.cpp:395] bn4b2_branch2a -> res4b2_branch2a (in-place)
I1019 22:49:55.910797 20515 net.cpp:150] Setting up bn4b2_branch2a
I1019 22:49:55.910809 20515 net.cpp:157] Top shape: 16 256 14 14 (802816)
I1019 22:49:55.910812 20515 net.cpp:165] Memory required for data: 3998023744
I1019 22:49:55.910822 20515 layer_factory.hpp:77] Creating layer scale4b2_branch2a
I1019 22:49:55.910836 20515 net.cpp:100] Creating Layer scale4b2_branch2a
I1019 22:49:55.910842 20515 net.cpp:434] scale4b2_branch2a <- res4b2_branch2a
I1019 22:49:55.910850 20515 net.cpp:395] scale4b2_branch2a -> res4b2_branch2a (in-place)
I1019 22:49:55.910925 20515 layer_factory.hpp:77] Creating layer scale4b2_branch2a
I1019 22:49:55.911118 20515 net.cpp:150] Setting up scale4b2_branch2a
I1019 22:49:55.911128 20515 net.cpp:157] Top shape: 16 256 14 14 (802816)
I1019 22:49:55.911131 20515 net.cpp:165] Memory required for data: 4001235008
I1019 22:49:55.911139 20515 layer_factory.hpp:77] Creating layer res4b2_branch2a_relu
I1019 22:49:55.911152 20515 net.cpp:100] Creating Layer res4b2_branch2a_relu
I1019 22:49:55.911157 20515 net.cpp:434] res4b2_branch2a_relu <- res4b2_branch2a
I1019 22:49:55.911164 20515 net.cpp:395] res4b2_branch2a_relu -> res4b2_branch2a (in-place)
I1019 22:49:55.912314 20515 net.cpp:150] Setting up res4b2_branch2a_relu
I1019 22:49:55.912348 20515 net.cpp:157] Top shape: 16 256 14 14 (802816)
I1019 22:49:55.912353 20515 net.cpp:165] Memory required for data: 4004446272
I1019 22:49:55.912358 20515 layer_factory.hpp:77] Creating layer res4b2_branch2b
I1019 22:49:55.912369 20515 net.cpp:100] Creating Layer res4b2_branch2b
I1019 22:49:55.912375 20515 net.cpp:434] res4b2_branch2b <- res4b2_branch2a
I1019 22:49:55.912389 20515 net.cpp:408] res4b2_branch2b -> res4b2_branch2b
I1019 22:49:55.923401 20515 net.cpp:150] Setting up res4b2_branch2b
I1019 22:49:55.923434 20515 net.cpp:157] Top shape: 16 256 14 14 (802816)
I1019 22:49:55.923439 20515 net.cpp:165] Memory required for data: 4007657536
I1019 22:49:55.923447 20515 layer_factory.hpp:77] Creating layer bn4b2_branch2b
I1019 22:49:55.923462 20515 net.cpp:100] Creating Layer bn4b2_branch2b
I1019 22:49:55.923470 20515 net.cpp:434] bn4b2_branch2b <- res4b2_branch2b
I1019 22:49:55.923481 20515 net.cpp:395] bn4b2_branch2b -> res4b2_branch2b (in-place)
I1019 22:49:55.923835 20515 net.cpp:150] Setting up bn4b2_branch2b
I1019 22:49:55.923851 20515 net.cpp:157] Top shape: 16 256 14 14 (802816)
I1019 22:49:55.923856 20515 net.cpp:165] Memory required for data: 4010868800
I1019 22:49:55.923866 20515 layer_factory.hpp:77] Creating layer scale4b2_branch2b
I1019 22:49:55.923882 20515 net.cpp:100] Creating Layer scale4b2_branch2b
I1019 22:49:55.923887 20515 net.cpp:434] scale4b2_branch2b <- res4b2_branch2b
I1019 22:49:55.923893 20515 net.cpp:395] scale4b2_branch2b -> res4b2_branch2b (in-place)
I1019 22:49:55.923988 20515 layer_factory.hpp:77] Creating layer scale4b2_branch2b
I1019 22:49:55.924180 20515 net.cpp:150] Setting up scale4b2_branch2b
I1019 22:49:55.924194 20515 net.cpp:157] Top shape: 16 256 14 14 (802816)
I1019 22:49:55.924198 20515 net.cpp:165] Memory required for data: 4014080064
I1019 22:49:55.924206 20515 layer_factory.hpp:77] Creating layer res4b2_branch2b_relu
I1019 22:49:55.924213 20515 net.cpp:100] Creating Layer res4b2_branch2b_relu
I1019 22:49:55.924217 20515 net.cpp:434] res4b2_branch2b_relu <- res4b2_branch2b
I1019 22:49:55.924228 20515 net.cpp:395] res4b2_branch2b_relu -> res4b2_branch2b (in-place)
I1019 22:49:55.924901 20515 net.cpp:150] Setting up res4b2_branch2b_relu
I1019 22:49:55.924921 20515 net.cpp:157] Top shape: 16 256 14 14 (802816)
I1019 22:49:55.924924 20515 net.cpp:165] Memory required for data: 4017291328
I1019 22:49:55.924929 20515 layer_factory.hpp:77] Creating layer res4b2_branch2c
I1019 22:49:55.924947 20515 net.cpp:100] Creating Layer res4b2_branch2c
I1019 22:49:55.924953 20515 net.cpp:434] res4b2_branch2c <- res4b2_branch2b
I1019 22:49:55.924981 20515 net.cpp:408] res4b2_branch2c -> res4b2_branch2c
I1019 22:49:55.931797 20515 net.cpp:150] Setting up res4b2_branch2c
I1019 22:49:55.931824 20515 net.cpp:157] Top shape: 16 1024 14 14 (3211264)
I1019 22:49:55.931829 20515 net.cpp:165] Memory required for data: 4030136384
I1019 22:49:55.931838 20515 layer_factory.hpp:77] Creating layer bn4b2_branch2c
I1019 22:49:55.931851 20515 net.cpp:100] Creating Layer bn4b2_branch2c
I1019 22:49:55.931857 20515 net.cpp:434] bn4b2_branch2c <- res4b2_branch2c
I1019 22:49:55.931864 20515 net.cpp:395] bn4b2_branch2c -> res4b2_branch2c (in-place)
I1019 22:49:55.932273 20515 net.cpp:150] Setting up bn4b2_branch2c
I1019 22:49:55.932284 20515 net.cpp:157] Top shape: 16 1024 14 14 (3211264)
I1019 22:49:55.932288 20515 net.cpp:165] Memory required for data: 4042981440
I1019 22:49:55.932297 20515 layer_factory.hpp:77] Creating layer scale4b2_branch2c
I1019 22:49:55.932307 20515 net.cpp:100] Creating Layer scale4b2_branch2c
I1019 22:49:55.932310 20515 net.cpp:434] scale4b2_branch2c <- res4b2_branch2c
I1019 22:49:55.932322 20515 net.cpp:395] scale4b2_branch2c -> res4b2_branch2c (in-place)
I1019 22:49:55.932379 20515 layer_factory.hpp:77] Creating layer scale4b2_branch2c
I1019 22:49:55.932557 20515 net.cpp:150] Setting up scale4b2_branch2c
I1019 22:49:55.932575 20515 net.cpp:157] Top shape: 16 1024 14 14 (3211264)
I1019 22:49:55.932579 20515 net.cpp:165] Memory required for data: 4055826496
I1019 22:49:55.932587 20515 layer_factory.hpp:77] Creating layer res4b2
I1019 22:49:55.932595 20515 net.cpp:100] Creating Layer res4b2
I1019 22:49:55.932600 20515 net.cpp:434] res4b2 <- res4b1_res4b1_relu_0_split_1
I1019 22:49:55.932605 20515 net.cpp:434] res4b2 <- res4b2_branch2c
I1019 22:49:55.932611 20515 net.cpp:408] res4b2 -> res4b2
I1019 22:49:55.932665 20515 net.cpp:150] Setting up res4b2
I1019 22:49:55.932673 20515 net.cpp:157] Top shape: 16 1024 14 14 (3211264)
I1019 22:49:55.932677 20515 net.cpp:165] Memory required for data: 4068671552
I1019 22:49:55.932682 20515 layer_factory.hpp:77] Creating layer res4b2_relu
I1019 22:49:55.932696 20515 net.cpp:100] Creating Layer res4b2_relu
I1019 22:49:55.932701 20515 net.cpp:434] res4b2_relu <- res4b2
I1019 22:49:55.932708 20515 net.cpp:395] res4b2_relu -> res4b2 (in-place)
I1019 22:49:55.933895 20515 net.cpp:150] Setting up res4b2_relu
I1019 22:49:55.933915 20515 net.cpp:157] Top shape: 16 1024 14 14 (3211264)
I1019 22:49:55.933919 20515 net.cpp:165] Memory required for data: 4081516608
I1019 22:49:55.933924 20515 layer_factory.hpp:77] Creating layer res4b2_res4b2_relu_0_split
…
I1019 22:49:58.825057 20515 net.cpp:150] Setting up bn4b33_branch2a
I1019 22:49:58.825109 20515 net.cpp:157] Top shape: 16 256 14 14 (802816)
I1019 22:49:58.825126 20515 net.cpp:165] Memory required for data: 7581794496
I1019 22:49:58.825150 20515 layer_factory.hpp:77] Creating layer scale4b33_branch2a
I1019 22:49:58.825179 20515 net.cpp:100] Creating Layer scale4b33_branch2a
I1019 22:49:58.825201 20515 net.cpp:434] scale4b33_branch2a <- res4b33_branch2a
I1019 22:49:58.825232 20515 net.cpp:395] scale4b33_branch2a -> res4b33_branch2a (in-place)
I1019 22:49:58.825393 20515 layer_factory.hpp:77] Creating layer scale4b33_branch2a
I1019 22:49:58.825804 20515 net.cpp:150] Setting up scale4b33_branch2a
I1019 22:49:58.825857 20515 net.cpp:157] Top shape: 16 256 14 14 (802816)
I1019 22:49:58.825884 20515 net.cpp:165] Memory required for data: 7585005760
I1019 22:49:58.825906 20515 layer_factory.hpp:77] Creating layer res4b33_branch2a_relu
I1019 22:49:58.825927 20515 net.cpp:100] Creating Layer res4b33_branch2a_relu
I1019 22:49:58.825947 20515 net.cpp:434] res4b33_branch2a_relu <- res4b33_branch2a
I1019 22:49:58.825986 20515 net.cpp:395] res4b33_branch2a_relu -> res4b33_branch2a (in-place)
I1019 22:49:58.827622 20515 net.cpp:150] Setting up res4b33_branch2a_relu
I1019 22:49:58.827692 20515 net.cpp:157] Top shape: 16 256 14 14 (802816)
I1019 22:49:58.827711 20515 net.cpp:165] Memory required for data: 7588217024
I1019 22:49:58.827729 20515 layer_factory.hpp:77] Creating layer res4b33_branch2b
I1019 22:49:58.827761 20515 net.cpp:100] Creating Layer res4b33_branch2b
I1019 22:49:58.827792 20515 net.cpp:434] res4b33_branch2b <- res4b33_branch2a
I1019 22:49:58.827814 20515 net.cpp:408] res4b33_branch2b -> res4b33_branch2b
I1019 22:49:58.838385 20515 net.cpp:150] Setting up res4b33_branch2b
I1019 22:49:58.838456 20515 net.cpp:157] Top shape: 16 256 14 14 (802816)
I1019 22:49:58.838477 20515 net.cpp:165] Memory required for data: 7591428288
I1019 22:49:58.838497 20515 layer_factory.hpp:77] Creating layer bn4b33_branch2b
I1019 22:49:58.838522 20515 net.cpp:100] Creating Layer bn4b33_branch2b
I1019 22:49:58.838543 20515 net.cpp:434] bn4b33_branch2b <- res4b33_branch2b
I1019 22:49:58.838563 20515 net.cpp:395] bn4b33_branch2b -> res4b33_branch2b (in-place)
I1019 22:49:58.838996 20515 net.cpp:150] Setting up bn4b33_branch2b
I1019 22:49:58.839053 20515 net.cpp:157] Top shape: 16 256 14 14 (802816)
I1019 22:49:58.839071 20515 net.cpp:165] Memory required for data: 7594639552
I1019 22:49:58.839105 20515 layer_factory.hpp:77] Creating layer scale4b33_branch2b
I1019 22:49:58.839131 20515 net.cpp:100] Creating Layer scale4b33_branch2b
I1019 22:49:58.839162 20515 net.cpp:434] scale4b33_branch2b <- res4b33_branch2b
I1019 22:49:58.839184 20515 net.cpp:395] scale4b33_branch2b -> res4b33_branch2b (in-place)
I1019 22:49:58.839306 20515 layer_factory.hpp:77] Creating layer scale4b33_branch2b
I1019 22:49:58.839570 20515 net.cpp:150] Setting up scale4b33_branch2b
I1019 22:49:58.839604 20515 net.cpp:157] Top shape: 16 256 14 14 (802816)
I1019 22:49:58.839622 20515 net.cpp:165] Memory required for data: 7597850816
I1019 22:49:58.839664 20515 layer_factory.hpp:77] Creating layer res4b33_branch2b_relu
I1019 22:49:58.839695 20515 net.cpp:100] Creating Layer res4b33_branch2b_relu
I1019 22:49:58.839718 20515 net.cpp:434] res4b33_branch2b_relu <- res4b33_branch2b
I1019 22:49:58.839737 20515 net.cpp:395] res4b33_branch2b_relu -> res4b33_branch2b (in-place)
I1019 22:49:58.841356 20515 net.cpp:150] Setting up res4b33_branch2b_relu
I1019 22:49:58.841420 20515 net.cpp:157] Top shape: 16 256 14 14 (802816)
I1019 22:49:58.841439 20515 net.cpp:165] Memory required for data: 7601062080
I1019 22:49:58.841457 20515 layer_factory.hpp:77] Creating layer res4b33_branch2c
I1019 22:49:58.841482 20515 net.cpp:100] Creating Layer res4b33_branch2c
I1019 22:49:58.841502 20515 net.cpp:434] res4b33_branch2c <- res4b33_branch2b
I1019 22:49:58.841526 20515 net.cpp:408] res4b33_branch2c -> res4b33_branch2c
I1019 22:49:58.850286 20515 net.cpp:150] Setting up res4b33_branch2c
I1019 22:49:58.850356 20515 net.cpp:157] Top shape: 16 1024 14 14 (3211264)
I1019 22:49:58.850378 20515 net.cpp:165] Memory required for data: 7613907136
I1019 22:49:58.850399 20515 layer_factory.hpp:77] Creating layer bn4b33_branch2c
I1019 22:49:58.850466 20515 net.cpp:100] Creating Layer bn4b33_branch2c
I1019 22:49:58.850491 20515 net.cpp:434] bn4b33_branch2c <- res4b33_branch2c
I1019 22:49:58.850512 20515 net.cpp:395] bn4b33_branch2c -> res4b33_branch2c (in-place)
I1019 22:49:58.851191 20515 net.cpp:150] Setting up bn4b33_branch2c
I1019 22:49:58.851246 20515 net.cpp:157] Top shape: 16 1024 14 14 (3211264)
I1019 22:49:58.851264 20515 net.cpp:165] Memory required for data: 7626752192
I1019 22:49:58.851287 20515 layer_factory.hpp:77] Creating layer scale4b33_branch2c
I1019 22:49:58.851353 20515 net.cpp:100] Creating Layer scale4b33_branch2c
I1019 22:49:58.851382 20515 net.cpp:434] scale4b33_branch2c <- res4b33_branch2c
I1019 22:49:58.851403 20515 net.cpp:395] scale4b33_branch2c -> res4b33_branch2c (in-place)
I1019 22:49:58.851613 20515 layer_factory.hpp:77] Creating layer scale4b33_branch2c
I1019 22:49:58.852032 20515 net.cpp:150] Setting up scale4b33_branch2c
I1019 22:49:58.852082 20515 net.cpp:157] Top shape: 16 1024 14 14 (3211264)
I1019 22:49:58.852100 20515 net.cpp:165] Memory required for data: 7639597248
I1019 22:49:58.852121 20515 layer_factory.hpp:77] Creating layer res4b33
I1019 22:49:58.852183 20515 net.cpp:100] Creating Layer res4b33
I1019 22:49:58.852217 20515 net.cpp:434] res4b33 <- res4b32_res4b32_relu_0_split_1
I1019 22:49:58.852238 20515 net.cpp:434] res4b33 <- res4b33_branch2c
I1019 22:49:58.852270 20515 net.cpp:408] res4b33 -> res4b33
I1019 22:49:58.852399 20515 net.cpp:150] Setting up res4b33
I1019 22:49:58.852427 20515 net.cpp:157] Top shape: 16 1024 14 14 (3211264)
I1019 22:49:58.852443 20515 net.cpp:165] Memory required for data: 7652442304
I1019 22:49:58.852460 20515 layer_factory.hpp:77] Creating layer res4b33_relu
I1019 22:49:58.852479 20515 net.cpp:100] Creating Layer res4b33_relu
I1019 22:49:58.852497 20515 net.cpp:434] res4b33_relu <- res4b33
I1019 22:49:58.852557 20515 net.cpp:395] res4b33_relu -> res4b33 (in-place)
I1019 22:49:58.853056 20515 net.cpp:150] Setting up res4b33_relu
I1019 22:49:58.853111 20515 net.cpp:157] Top shape: 16 1024 14 14 (3211264)
I1019 22:49:58.853129 20515 net.cpp:165] Memory required for data: 7665287360
I1019 22:49:58.853158 20515 layer_factory.hpp:77] Creating layer res4b33_res4b33_relu_0_split
I1019 22:49:58.853180 20515 net.cpp:100] Creating Layer res4b33_res4b33_relu_0_split
I1019 22:49:58.853214 20515 net.cpp:434] res4b33_res4b33_relu_0_split <- res4b33
I1019 22:49:58.853243 20515 net.cpp:408] res4b33_res4b33_relu_0_split -> res4b33_res4b33_relu_0_split_0
I1019 22:49:58.853269 20515 net.cpp:408] res4b33_res4b33_relu_0_split -> res4b33_res4b33_relu_0_split_1
I1019 22:49:58.853399 20515 net.cpp:150] Setting up res4b33_res4b33_relu_0_split
I1019 22:49:58.853426 20515 net.cpp:157] Top shape: 16 1024 14 14 (3211264)
I1019 22:49:58.853444 20515 net.cpp:157] Top shape: 16 1024 14 14 (3211264)
I1019 22:49:58.853459 20515 net.cpp:165] Memory required for data: 7690977472
I1019 22:49:58.853477 20515 layer_factory.hpp:77] Creating layer res4b34_branch2a
I1019 22:49:58.853505 20515 net.cpp:100] Creating Layer res4b34_branch2a
I1019 22:49:58.853526 20515 net.cpp:434] res4b34_branch2a <- res4b33_res4b33_relu_0_split_0
I1019 22:49:58.853548 20515 net.cpp:408] res4b34_branch2a -> res4b34_branch2a
I1019 22:49:58.858150 20515 net.cpp:150] Setting up res4b34_branch2a
I1019 22:49:58.858207 20515 net.cpp:157] Top shape: 16 256 14 14 (802816)
I1019 22:49:58.858234 20515 net.cpp:165] Memory required for data: 7694188736
I1019 22:49:58.858263 20515 layer_factory.hpp:77] Creating layer bn4b34_branch2a
I1019 22:49:58.858297 20515 net.cpp:100] Creating Layer bn4b34_branch2a
I1019 22:49:58.858325 20515 net.cpp:434] bn4b34_branch2a <- res4b34_branch2a
I1019 22:49:58.858351 20515 net.cpp:395] bn4b34_branch2a -> res4b34_branch2a (in-place)
I1019 22:49:58.858805 20515 net.cpp:150] Setting up bn4b34_branch2a
I1019 22:49:58.858839 20515 net.cpp:157] Top shape: 16 256 14 14 (802816)
I1019 22:49:58.858860 20515 net.cpp:165] Memory required for data: 7697400000
I1019 22:49:58.858886 20515 layer_factory.hpp:77] Creating layer scale4b34_branch2a
I1019 22:49:58.858917 20515 net.cpp:100] Creating Layer scale4b34_branch2a
I1019 22:49:58.858942 20515 net.cpp:434] scale4b34_branch2a <- res4b34_branch2a
I1019 22:49:58.858964 20515 net.cpp:395] scale4b34_branch2a -> res4b34_branch2a (in-place)
I1019 22:49:58.859091 20515 layer_factory.hpp:77] Creating layer scale4b34_branch2a
I1019 22:49:58.859374 20515 net.cpp:150] Setting up scale4b34_branch2a
I1019 22:49:58.859408 20515 net.cpp:157] Top shape: 16 256 14 14 (802816)
I1019 22:49:58.859431 20515 net.cpp:165] Memory required for data: 7700611264
I1019 22:49:58.859457 20515 layer_factory.hpp:77] Creating layer res4b34_branch2a_relu
I1019 22:49:58.859493 20515 net.cpp:100] Creating Layer res4b34_branch2a_relu
I1019 22:49:58.859519 20515 net.cpp:434] res4b34_branch2a_relu <- res4b34_branch2a
I1019 22:49:58.859544 20515 net.cpp:395] res4b34_branch2a_relu -> res4b34_branch2a (in-place)
I1019 22:49:58.861328 20515 net.cpp:150] Setting up res4b34_branch2a_relu
I1019 22:49:58.861377 20515 net.cpp:157] Top shape: 16 256 14 14 (802816)
I1019 22:49:58.861399 20515 net.cpp:165] Memory required for data: 7703822528
I1019 22:49:58.861420 20515 layer_factory.hpp:77] Creating layer res4b34_branch2b
I1019 22:49:58.861459 20515 net.cpp:100] Creating Layer res4b34_branch2b
I1019 22:49:58.861488 20515 net.cpp:434] res4b34_branch2b <- res4b34_branch2a
I1019 22:49:58.861516 20515 net.cpp:408] res4b34_branch2b -> res4b34_branch2b
I1019 22:49:58.872678 20515 net.cpp:150] Setting up res4b34_branch2b
I1019 22:49:58.872736 20515 net.cpp:157] Top shape: 16 256 14 14 (802816)
I1019 22:49:58.872757 20515 net.cpp:165] Memory required for data: 7707033792
I1019 22:49:58.872788 20515 layer_factory.hpp:77] Creating layer bn4b34_branch2b
I1019 22:49:58.872824 20515 net.cpp:100] Creating Layer bn4b34_branch2b
I1019 22:49:58.872860 20515 net.cpp:434] bn4b34_branch2b <- res4b34_branch2b
I1019 22:49:58.872882 20515 net.cpp:395] bn4b34_branch2b -> res4b34_branch2b (in-place)
I1019 22:49:58.873345 20515 net.cpp:150] Setting up bn4b34_branch2b
I1019 22:49:58.873384 20515 net.cpp:157] Top shape: 16 256 14 14 (802816)
I1019 22:49:58.873415 20515 net.cpp:165] Memory required for data: 7710245056
I1019 22:49:58.873440 20515 layer_factory.hpp:77] Creating layer scale4b34_branch2b
I1019 22:49:58.873497 20515 net.cpp:100] Creating Layer scale4b34_branch2b
I1019 22:49:58.873523 20515 net.cpp:434] scale4b34_branch2b <- res4b34_branch2b
I1019 22:49:58.873544 20515 net.cpp:395] scale4b34_branch2b -> res4b34_branch2b (in-place)
I1019 22:49:58.873697 20515 layer_factory.hpp:77] Creating layer scale4b34_branch2b
I1019 22:49:58.873986 20515 net.cpp:150] Setting up scale4b34_branch2b
I1019 22:49:58.874022 20515 net.cpp:157] Top shape: 16 256 14 14 (802816)
I1019 22:49:58.874039 20515 net.cpp:165] Memory required for data: 7713456320
I1019 22:49:58.874060 20515 layer_factory.hpp:77] Creating layer res4b34_branch2b_relu
I1019 22:49:58.874088 20515 net.cpp:100] Creating Layer res4b34_branch2b_relu
I1019 22:49:58.874107 20515 net.cpp:434] res4b34_branch2b_relu <- res4b34_branch2b
I1019 22:49:58.874140 20515 net.cpp:395] res4b34_branch2b_relu -> res4b34_branch2b (in-place)
I1019 22:49:58.874590 20515 net.cpp:150] Setting up res4b34_branch2b_relu
I1019 22:49:58.874644 20515 net.cpp:157] Top shape: 16 256 14 14 (802816)
I1019 22:49:58.874663 20515 net.cpp:165] Memory required for data: 7716667584
I1019 22:49:58.874689 20515 layer_factory.hpp:77] Creating layer res4b34_branch2c
I1019 22:49:58.874722 20515 net.cpp:100] Creating Layer res4b34_branch2c
I1019 22:49:58.874750 20515 net.cpp:434] res4b34_branch2c <- res4b34_branch2b
I1019 22:49:58.874778 20515 net.cpp:408] res4b34_branch2c -> res4b34_branch2c
I1019 22:49:58.882059 20515 net.cpp:150] Setting up res4b34_branch2c
I1019 22:49:58.882117 20515 net.cpp:157] Top shape: 16 1024 14 14 (3211264)
I1019 22:49:58.882138 20515 net.cpp:165] Memory required for data: 7729512640
I1019 22:49:58.882158 20515 layer_factory.hpp:77] Creating layer bn4b34_branch2c
I1019 22:49:58.882180 20515 net.cpp:100] Creating Layer bn4b34_branch2c
I1019 22:49:58.882200 20515 net.cpp:434] bn4b34_branch2c <- res4b34_branch2c
I1019 22:49:58.882231 20515 net.cpp:395] bn4b34_branch2c -> res4b34_branch2c (in-place)
I1019 22:49:58.882807 20515 net.cpp:150] Setting up bn4b34_branch2c
I1019 22:49:58.882851 20515 net.cpp:157] Top shape: 16 1024 14 14 (3211264)
I1019 22:49:58.882869 20515 net.cpp:165] Memory required for data: 7742357696
I1019 22:49:58.882899 20515 layer_factory.hpp:77] Creating layer scale4b34_branch2c
I1019 22:49:58.882927 20515 net.cpp:100] Creating Layer scale4b34_branch2c
I1019 22:49:58.882956 20515 net.cpp:434] scale4b34_branch2c <- res4b34_branch2c
I1019 22:49:58.882977 20515 net.cpp:395] scale4b34_branch2c -> res4b34_branch2c (in-place)
I1019 22:49:58.883154 20515 layer_factory.hpp:77] Creating layer scale4b34_branch2c
I1019 22:49:58.883517 20515 net.cpp:150] Setting up scale4b34_branch2c
I1019 22:49:58.883554 20515 net.cpp:157] Top shape: 16 1024 14 14 (3211264)
I1019 22:49:58.883571 20515 net.cpp:165] Memory required for data: 7755202752
I1019 22:49:58.883592 20515 layer_factory.hpp:77] Creating layer res4b34
I1019 22:49:58.883640 20515 net.cpp:100] Creating Layer res4b34
I1019 22:49:58.883672 20515 net.cpp:434] res4b34 <- res4b33_res4b33_relu_0_split_1
I1019 22:49:58.883693 20515 net.cpp:434] res4b34 <- res4b34_branch2c
I1019 22:49:58.883720 20515 net.cpp:408] res4b34 -> res4b34
I1019 22:49:58.883816 20515 net.cpp:150] Setting up res4b34
I1019 22:49:58.883849 20515 net.cpp:157] Top shape: 16 1024 14 14 (3211264)
I1019 22:49:58.883867 20515 net.cpp:165] Memory required for data: 7768047808
I1019 22:49:58.883889 20515 layer_factory.hpp:77] Creating layer res4b34_relu
I1019 22:49:58.883910 20515 net.cpp:100] Creating Layer res4b34_relu
I1019 22:49:58.883935 20515 net.cpp:434] res4b34_relu <- res4b34
I1019 22:49:58.883961 20515 net.cpp:395] res4b34_relu -> res4b34 (in-place)
I1019 22:49:58.884387 20515 net.cpp:150] Setting up res4b34_relu
I1019 22:49:58.884429 20515 net.cpp:157] Top shape: 16 1024 14 14 (3211264)
I1019 22:49:58.884455 20515 net.cpp:165] Memory required for data: 7780892864
I1019 22:49:58.884485 20515 layer_factory.hpp:77] Creating layer res4b34_res4b34_relu_0_split
I1019 22:49:58.884516 20515 net.cpp:100] Creating Layer res4b34_res4b34_relu_0_split
I1019 22:49:58.884562 20515 net.cpp:434] res4b34_res4b34_relu_0_split <- res4b34
I1019 22:49:58.884584 20515 net.cpp:408] res4b34_res4b34_relu_0_split -> res4b34_res4b34_relu_0_split_0
I1019 22:49:58.884614 20515 net.cpp:408] res4b34_res4b34_relu_0_split -> res4b34_res4b34_relu_0_split_1
I1019 22:49:58.884762 20515 net.cpp:150] Setting up res4b34_res4b34_relu_0_split
I1019 22:49:58.884796 20515 net.cpp:157] Top shape: 16 1024 14 14 (3211264)
I1019 22:49:58.884815 20515 net.cpp:157] Top shape: 16 1024 14 14 (3211264)
I1019 22:49:58.884836 20515 net.cpp:165] Memory required for data: 7806582976
I1019 22:49:58.884853 20515 layer_factory.hpp:77] Creating layer res4b35_branch2a
I1019 22:49:58.884888 20515 net.cpp:100] Creating Layer res4b35_branch2a
I1019 22:49:58.884915 20515 net.cpp:434] res4b35_branch2a <- res4b34_res4b34_relu_0_split_0
I1019 22:49:58.884938 20515 net.cpp:408] res4b35_branch2a -> res4b35_branch2a
I1019 22:49:58.891520 20515 net.cpp:150] Setting up res4b35_branch2a
I1019 22:49:58.891577 20515 net.cpp:157] Top shape: 16 256 14 14 (802816)
I1019 22:49:58.891605 20515 net.cpp:165] Memory required for data: 7809794240
I1019 22:49:58.891628 20515 layer_factory.hpp:77] Creating layer bn4b35_branch2a
I1019 22:49:58.891676 20515 net.cpp:100] Creating Layer bn4b35_branch2a
I1019 22:49:58.891705 20515 net.cpp:434] bn4b35_branch2a <- res4b35_branch2a
I1019 22:49:58.891727 20515 net.cpp:395] bn4b35_branch2a -> res4b35_branch2a (in-place)
I1019 22:49:58.892179 20515 net.cpp:150] Setting up bn4b35_branch2a
I1019 22:49:58.892216 20515 net.cpp:157] Top shape: 16 256 14 14 (802816)
I1019 22:49:58.892238 20515 net.cpp:165] Memory required for data: 7813005504
I1019 22:49:58.892271 20515 layer_factory.hpp:77] Creating layer scale4b35_branch2a
I1019 22:49:58.892297 20515 net.cpp:100] Creating Layer scale4b35_branch2a
I1019 22:49:58.892321 20515 net.cpp:434] scale4b35_branch2a <- res4b35_branch2a
I1019 22:49:58.892349 20515 net.cpp:395] scale4b35_branch2a -> res4b35_branch2a (in-place)
I1019 22:49:58.892472 20515 layer_factory.hpp:77] Creating layer scale4b35_branch2a
I1019 22:49:58.892786 20515 net.cpp:150] Setting up scale4b35_branch2a
I1019 22:49:58.892833 20515 net.cpp:157] Top shape: 16 256 14 14 (802816)
I1019 22:49:58.892851 20515 net.cpp:165] Memory required for data: 7816216768
I1019 22:49:58.892881 20515 layer_factory.hpp:77] Creating layer res4b35_branch2a_relu
I1019 22:49:58.892913 20515 net.cpp:100] Creating Layer res4b35_branch2a_relu
I1019 22:49:58.892932 20515 net.cpp:434] res4b35_branch2a_relu <- res4b35_branch2a
I1019 22:49:58.892969 20515 net.cpp:395] res4b35_branch2a_relu -> res4b35_branch2a (in-place)
I1019 22:49:58.894644 20515 net.cpp:150] Setting up res4b35_branch2a_relu
I1019 22:49:58.894697 20515 net.cpp:157] Top shape: 16 256 14 14 (802816)
I1019 22:49:58.894723 20515 net.cpp:165] Memory required for data: 7819428032
I1019 22:49:58.894742 20515 layer_factory.hpp:77] Creating layer res4b35_branch2b
I1019 22:49:58.894783 20515 net.cpp:100] Creating Layer res4b35_branch2b
I1019 22:49:58.894810 20515 net.cpp:434] res4b35_branch2b <- res4b35_branch2a
I1019 22:49:58.894834 20515 net.cpp:408] res4b35_branch2b -> res4b35_branch2b
I1019 22:49:58.907433 20515 net.cpp:150] Setting up res4b35_branch2b
I1019 22:49:58.907492 20515 net.cpp:157] Top shape: 16 256 14 14 (802816)
I1019 22:49:58.907512 20515 net.cpp:165] Memory required for data: 7822639296
I1019 22:49:58.907533 20515 layer_factory.hpp:77] Creating layer bn4b35_branch2b
I1019 22:49:58.907567 20515 net.cpp:100] Creating Layer bn4b35_branch2b
I1019 22:49:58.907601 20515 net.cpp:434] bn4b35_branch2b <- res4b35_branch2b
I1019 22:49:58.907629 20515 net.cpp:395] bn4b35_branch2b -> res4b35_branch2b (in-place)
I1019 22:49:58.907999 20515 net.cpp:150] Setting up bn4b35_branch2b
I1019 22:49:58.908041 20515 net.cpp:157] Top shape: 16 256 14 14 (802816)
I1019 22:49:58.908061 20515 net.cpp:165] Memory required for data: 7825850560
I1019 22:49:58.908097 20515 layer_factory.hpp:77] Creating layer scale4b35_branch2b
I1019 22:49:58.908123 20515 net.cpp:100] Creating Layer scale4b35_branch2b
I1019 22:49:58.908166 20515 net.cpp:434] scale4b35_branch2b <- res4b35_branch2b
I1019 22:49:58.908188 20515 net.cpp:395] scale4b35_branch2b -> res4b35_branch2b (in-place)
I1019 22:49:58.908294 20515 layer_factory.hpp:77] Creating layer scale4b35_branch2b
I1019 22:49:58.908502 20515 net.cpp:150] Setting up scale4b35_branch2b
I1019 22:49:58.908537 20515 net.cpp:157] Top shape: 16 256 14 14 (802816)
I1019 22:49:58.908555 20515 net.cpp:165] Memory required for data: 7829061824
I1019 22:49:58.908582 20515 layer_factory.hpp:77] Creating layer res4b35_branch2b_relu
I1019 22:49:58.908608 20515 net.cpp:100] Creating Layer res4b35_branch2b_relu
I1019 22:49:58.908643 20515 net.cpp:434] res4b35_branch2b_relu <- res4b35_branch2b
I1019 22:49:58.908674 20515 net.cpp:395] res4b35_branch2b_relu -> res4b35_branch2b (in-place)
I1019 22:49:58.910336 20515 net.cpp:150] Setting up res4b35_branch2b_relu
I1019 22:49:58.910394 20515 net.cpp:157] Top shape: 16 256 14 14 (802816)
I1019 22:49:58.910414 20515 net.cpp:165] Memory required for data: 7832273088
I1019 22:49:58.910431 20515 layer_factory.hpp:77] Creating layer res4b35_branch2c
I1019 22:49:58.910454 20515 net.cpp:100] Creating Layer res4b35_branch2c
I1019 22:49:58.910475 20515 net.cpp:434] res4b35_branch2c <- res4b35_branch2b
I1019 22:49:58.910506 20515 net.cpp:408] res4b35_branch2c -> res4b35_branch2c
I1019 22:49:58.917006 20515 net.cpp:150] Setting up res4b35_branch2c
I1019 22:49:58.917059 20515 net.cpp:157] Top shape: 16 1024 14 14 (3211264)
I1019 22:49:58.917080 20515 net.cpp:165] Memory required for data: 7845118144
I1019 22:49:58.917101 20515 layer_factory.hpp:77] Creating layer bn4b35_branch2c
I1019 22:49:58.917124 20515 net.cpp:100] Creating Layer bn4b35_branch2c
I1019 22:49:58.917148 20515 net.cpp:434] bn4b35_branch2c <- res4b35_branch2c
I1019 22:49:58.917184 20515 net.cpp:395] bn4b35_branch2c -> res4b35_branch2c (in-place)
I1019 22:49:58.917673 20515 net.cpp:150] Setting up bn4b35_branch2c
I1019 22:49:58.917718 20515 net.cpp:157] Top shape: 16 1024 14 14 (3211264)
I1019 22:49:58.917737 20515 net.cpp:165] Memory required for data: 7857963200
I1019 22:49:58.917760 20515 layer_factory.hpp:77] Creating layer scale4b35_branch2c
I1019 22:49:58.917783 20515 net.cpp:100] Creating Layer scale4b35_branch2c
I1019 22:49:58.917804 20515 net.cpp:434] scale4b35_branch2c <- res4b35_branch2c
I1019 22:49:58.917824 20515 net.cpp:395] scale4b35_branch2c -> res4b35_branch2c (in-place)
I1019 22:49:58.918000 20515 layer_factory.hpp:77] Creating layer scale4b35_branch2c
I1019 22:49:58.918308 20515 net.cpp:150] Setting up scale4b35_branch2c
I1019 22:49:58.918345 20515 net.cpp:157] Top shape: 16 1024 14 14 (3211264)
I1019 22:49:58.918364 20515 net.cpp:165] Memory required for data: 7870808256
I1019 22:49:58.918383 20515 layer_factory.hpp:77] Creating layer res4b35
I1019 22:49:58.918412 20515 net.cpp:100] Creating Layer res4b35
I1019 22:49:58.918433 20515 net.cpp:434] res4b35 <- res4b34_res4b34_relu_0_split_1
I1019 22:49:58.918467 20515 net.cpp:434] res4b35 <- res4b35_branch2c
I1019 22:49:58.918504 20515 net.cpp:408] res4b35 -> res4b35
I1019 22:49:58.918568 20515 net.cpp:150] Setting up res4b35
I1019 22:49:58.918607 20515 net.cpp:157] Top shape: 16 1024 14 14 (3211264)
I1019 22:49:58.918642 20515 net.cpp:165] Memory required for data: 7883653312
I1019 22:49:58.918663 20515 layer_factory.hpp:77] Creating layer res4b35_relu
I1019 22:49:58.918690 20515 net.cpp:100] Creating Layer res4b35_relu
I1019 22:49:58.918710 20515 net.cpp:434] res4b35_relu <- res4b35
I1019 22:49:58.918743 20515 net.cpp:395] res4b35_relu -> res4b35 (in-place)
I1019 22:49:58.919193 20515 net.cpp:150] Setting up res4b35_relu
I1019 22:49:58.919235 20515 net.cpp:157] Top shape: 16 1024 14 14 (3211264)
I1019 22:49:58.919260 20515 net.cpp:165] Memory required for data: 7896498368
I1019 22:49:58.919278 20515 layer_factory.hpp:77] Creating layer res4b35_res4b35_relu_0_split
I1019 22:49:58.919317 20515 net.cpp:100] Creating Layer res4b35_res4b35_relu_0_split
I1019 22:49:58.919344 20515 net.cpp:434] res4b35_res4b35_relu_0_split <- res4b35
I1019 22:49:58.919394 20515 net.cpp:408] res4b35_res4b35_relu_0_split -> res4b35_res4b35_relu_0_split_0
I1019 22:49:58.919428 20515 net.cpp:408] res4b35_res4b35_relu_0_split -> res4b35_res4b35_relu_0_split_1
I1019 22:49:58.919523 20515 net.cpp:150] Setting up res4b35_res4b35_relu_0_split
I1019 22:49:58.919562 20515 net.cpp:157] Top shape: 16 1024 14 14 (3211264)
I1019 22:49:58.919589 20515 net.cpp:157] Top shape: 16 1024 14 14 (3211264)
I1019 22:49:58.919605 20515 net.cpp:165] Memory required for data: 7922188480
I1019 22:49:58.919641 20515 layer_factory.hpp:77] Creating layer res5a_branch1
I1019 22:49:58.919667 20515 net.cpp:100] Creating Layer res5a_branch1
I1019 22:49:58.919693 20515 net.cpp:434] res5a_branch1 <- res4b35_res4b35_relu_0_split_0
I1019 22:49:58.919723 20515 net.cpp:408] res5a_branch1 -> res5a_branch1
I1019 22:49:58.933691 20515 net.cpp:150] Setting up res5a_branch1
I1019 22:49:58.933755 20515 net.cpp:157] Top shape: 16 2048 7 7 (1605632)
I1019 22:49:58.933778 20515 net.cpp:165] Memory required for data: 7928611008
I1019 22:49:58.933799 20515 layer_factory.hpp:77] Creating layer bn5a_branch1
I1019 22:49:58.933837 20515 net.cpp:100] Creating Layer bn5a_branch1
I1019 22:49:58.933866 20515 net.cpp:434] bn5a_branch1 <- res5a_branch1
I1019 22:49:58.933888 20515 net.cpp:395] bn5a_branch1 -> res5a_branch1 (in-place)
I1019 22:49:58.934532 20515 net.cpp:150] Setting up bn5a_branch1
I1019 22:49:58.934576 20515 net.cpp:157] Top shape: 16 2048 7 7 (1605632)
I1019 22:49:58.934594 20515 net.cpp:165] Memory required for data: 7935033536
I1019 22:49:58.934623 20515 layer_factory.hpp:77] Creating layer scale5a_branch1
I1019 22:49:58.934672 20515 net.cpp:100] Creating Layer scale5a_branch1
I1019 22:49:58.934692 20515 net.cpp:434] scale5a_branch1 <- res5a_branch1
I1019 22:49:58.934712 20515 net.cpp:395] scale5a_branch1 -> res5a_branch1 (in-place)
I1019 22:49:58.934908 20515 layer_factory.hpp:77] Creating layer scale5a_branch1
I1019 22:49:58.935222 20515 net.cpp:150] Setting up scale5a_branch1
I1019 22:49:58.935261 20515 net.cpp:157] Top shape: 16 2048 7 7 (1605632)
I1019 22:49:58.935278 20515 net.cpp:165] Memory required for data: 7941456064
I1019 22:49:58.935299 20515 layer_factory.hpp:77] Creating layer res5a_branch2a
I1019 22:49:58.935369 20515 net.cpp:100] Creating Layer res5a_branch2a
I1019 22:49:58.935398 20515 net.cpp:434] res5a_branch2a <- res4b35_res4b35_relu_0_split_1
I1019 22:49:58.935436 20515 net.cpp:408] res5a_branch2a -> res5a_branch2a
I1019 22:49:58.948611 20515 net.cpp:150] Setting up res5a_branch2a
I1019 22:49:58.948684 20515 net.cpp:157] Top shape: 16 512 7 7 (401408)
I1019 22:49:58.948706 20515 net.cpp:165] Memory required for data: 7943061696
I1019 22:49:58.948727 20515 layer_factory.hpp:77] Creating layer bn5a_branch2a
I1019 22:49:58.948762 20515 net.cpp:100] Creating Layer bn5a_branch2a
I1019 22:49:58.948791 20515 net.cpp:434] bn5a_branch2a <- res5a_branch2a
I1019 22:49:58.948814 20515 net.cpp:395] bn5a_branch2a -> res5a_branch2a (in-place)
I1019 22:49:58.949652 20515 net.cpp:150] Setting up bn5a_branch2a
I1019 22:49:58.949700 20515 net.cpp:157] Top shape: 16 512 7 7 (401408)
I1019 22:49:58.949719 20515 net.cpp:165] Memory required for data: 7944667328
I1019 22:49:58.949744 20515 layer_factory.hpp:77] Creating layer scale5a_branch2a
I1019 22:49:58.949769 20515 net.cpp:100] Creating Layer scale5a_branch2a
I1019 22:49:58.949790 20515 net.cpp:434] scale5a_branch2a <- res5a_branch2a
I1019 22:49:58.949822 20515 net.cpp:395] scale5a_branch2a -> res5a_branch2a (in-place)
I1019 22:49:58.950000 20515 layer_factory.hpp:77] Creating layer scale5a_branch2a
I1019 22:49:58.950301 20515 net.cpp:150] Setting up scale5a_branch2a
I1019 22:49:58.950340 20515 net.cpp:157] Top shape: 16 512 7 7 (401408)
I1019 22:49:58.950356 20515 net.cpp:165] Memory required for data: 7946272960
I1019 22:49:58.950377 20515 layer_factory.hpp:77] Creating layer res5a_branch2a_relu
I1019 22:49:58.950407 20515 net.cpp:100] Creating Layer res5a_branch2a_relu
I1019 22:49:58.950426 20515 net.cpp:434] res5a_branch2a_relu <- res5a_branch2a
I1019 22:49:58.950469 20515 net.cpp:395] res5a_branch2a_relu -> res5a_branch2a (in-place)
I1019 22:49:58.950922 20515 net.cpp:150] Setting up res5a_branch2a_relu
I1019 22:49:58.950968 20515 net.cpp:157] Top shape: 16 512 7 7 (401408)
I1019 22:49:58.950986 20515 net.cpp:165] Memory required for data: 7947878592
I1019 22:49:58.951004 20515 layer_factory.hpp:77] Creating layer res5a_branch2b
I1019 22:49:58.951030 20515 net.cpp:100] Creating Layer res5a_branch2b
I1019 22:49:58.951050 20515 net.cpp:434] res5a_branch2b <- res5a_branch2a
I1019 22:49:58.951076 20515 net.cpp:408] res5a_branch2b -> res5a_branch2b
I1019 22:49:58.976231 20515 net.cpp:150] Setting up res5a_branch2b
I1019 22:49:58.976325 20515 net.cpp:157] Top shape: 16 512 7 7 (401408)
I1019 22:49:58.976347 20515 net.cpp:165] Memory required for data: 7949484224
I1019 22:49:58.976371 20515 layer_factory.hpp:77] Creating layer bn5a_branch2b
I1019 22:49:58.976397 20515 net.cpp:100] Creating Layer bn5a_branch2b
I1019 22:49:58.976419 20515 net.cpp:434] bn5a_branch2b <- res5a_branch2b
I1019 22:49:58.976510 20515 net.cpp:395] bn5a_branch2b -> res5a_branch2b (in-place)
I1019 22:49:58.977139 20515 net.cpp:150] Setting up bn5a_branch2b
I1019 22:49:58.977188 20515 net.cpp:157] Top shape: 16 512 7 7 (401408)
I1019 22:49:58.977207 20515 net.cpp:165] Memory required for data: 7951089856
I1019 22:49:58.977237 20515 layer_factory.hpp:77] Creating layer scale5a_branch2b
I1019 22:49:58.977267 20515 net.cpp:100] Creating Layer scale5a_branch2b
I1019 22:49:58.977293 20515 net.cpp:434] scale5a_branch2b <- res5a_branch2b
I1019 22:49:58.977321 20515 net.cpp:395] scale5a_branch2b -> res5a_branch2b (in-place)
I1019 22:49:58.977504 20515 layer_factory.hpp:77] Creating layer scale5a_branch2b
I1019 22:49:58.977823 20515 net.cpp:150] Setting up scale5a_branch2b
I1019 22:49:58.977864 20515 net.cpp:157] Top shape: 16 512 7 7 (401408)
I1019 22:49:58.977887 20515 net.cpp:165] Memory required for data: 7952695488
I1019 22:49:58.977916 20515 layer_factory.hpp:77] Creating layer res5a_branch2b_relu
I1019 22:49:58.977947 20515 net.cpp:100] Creating Layer res5a_branch2b_relu
I1019 22:49:58.977973 20515 net.cpp:434] res5a_branch2b_relu <- res5a_branch2b
I1019 22:49:58.977999 20515 net.cpp:395] res5a_branch2b_relu -> res5a_branch2b (in-place)
I1019 22:49:58.978449 20515 net.cpp:150] Setting up res5a_branch2b_relu
I1019 22:49:58.978497 20515 net.cpp:157] Top shape: 16 512 7 7 (401408)
I1019 22:49:58.978521 20515 net.cpp:165] Memory required for data: 7954301120
I1019 22:49:58.978545 20515 layer_factory.hpp:77] Creating layer res5a_branch2c
I1019 22:49:58.978575 20515 net.cpp:100] Creating Layer res5a_branch2c
I1019 22:49:58.978600 20515 net.cpp:434] res5a_branch2c <- res5a_branch2b
I1019 22:49:58.978643 20515 net.cpp:408] res5a_branch2c -> res5a_branch2c
I1019 22:49:58.994979 20515 net.cpp:150] Setting up res5a_branch2c
I1019 22:49:58.995044 20515 net.cpp:157] Top shape: 16 2048 7 7 (1605632)
I1019 22:49:58.995066 20515 net.cpp:165] Memory required for data: 7960723648
I1019 22:49:58.995090 20515 layer_factory.hpp:77] Creating layer bn5a_branch2c
I1019 22:49:58.995131 20515 net.cpp:100] Creating Layer bn5a_branch2c
I1019 22:49:58.995162 20515 net.cpp:434] bn5a_branch2c <- res5a_branch2c
I1019 22:49:58.995192 20515 net.cpp:395] bn5a_branch2c -> res5a_branch2c (in-place)
I1019 22:49:58.995699 20515 net.cpp:150] Setting up bn5a_branch2c
I1019 22:49:58.995743 20515 net.cpp:157] Top shape: 16 2048 7 7 (1605632)
I1019 22:49:58.995769 20515 net.cpp:165] Memory required for data: 7967146176
I1019 22:49:58.995793 20515 layer_factory.hpp:77] Creating layer scale5a_branch2c
I1019 22:49:58.995818 20515 net.cpp:100] Creating Layer scale5a_branch2c
I1019 22:49:58.995843 20515 net.cpp:434] scale5a_branch2c <- res5a_branch2c
I1019 22:49:58.995872 20515 net.cpp:395] scale5a_branch2c -> res5a_branch2c (in-place)
I1019 22:49:58.996060 20515 layer_factory.hpp:77] Creating layer scale5a_branch2c
I1019 22:49:58.996394 20515 net.cpp:150] Setting up scale5a_branch2c
I1019 22:49:58.996435 20515 net.cpp:157] Top shape: 16 2048 7 7 (1605632)
I1019 22:49:58.996475 20515 net.cpp:165] Memory required for data: 7973568704
I1019 22:49:58.996498 20515 layer_factory.hpp:77] Creating layer res5a
I1019 22:49:58.996520 20515 net.cpp:100] Creating Layer res5a
I1019 22:49:58.996539 20515 net.cpp:434] res5a <- res5a_branch1
I1019 22:49:58.996563 20515 net.cpp:434] res5a <- res5a_branch2c
I1019 22:49:58.996608 20515 net.cpp:408] res5a -> res5a
I1019 22:49:58.996697 20515 net.cpp:150] Setting up res5a
I1019 22:49:58.996734 20515 net.cpp:157] Top shape: 16 2048 7 7 (1605632)
I1019 22:49:58.996752 20515 net.cpp:165] Memory required for data: 7979991232
I1019 22:49:58.996778 20515 layer_factory.hpp:77] Creating layer res5a_relu
I1019 22:49:58.996807 20515 net.cpp:100] Creating Layer res5a_relu
I1019 22:49:58.996835 20515 net.cpp:434] res5a_relu <- res5a
I1019 22:49:58.996855 20515 net.cpp:395] res5a_relu -> res5a (in-place)
I1019 22:49:58.997325 20515 net.cpp:150] Setting up res5a_relu
I1019 22:49:58.997372 20515 net.cpp:157] Top shape: 16 2048 7 7 (1605632)
I1019 22:49:58.997396 20515 net.cpp:165] Memory required for data: 7986413760
I1019 22:49:58.997421 20515 layer_factory.hpp:77] Creating layer res5a_res5a_relu_0_split
I1019 22:49:58.997457 20515 net.cpp:100] Creating Layer res5a_res5a_relu_0_split
I1019 22:49:58.997485 20515 net.cpp:434] res5a_res5a_relu_0_split <- res5a
I1019 22:49:58.997514 20515 net.cpp:408] res5a_res5a_relu_0_split -> res5a_res5a_relu_0_split_0
I1019 22:49:58.997551 20515 net.cpp:408] res5a_res5a_relu_0_split -> res5a_res5a_relu_0_split_1
I1019 22:49:58.997665 20515 net.cpp:150] Setting up res5a_res5a_relu_0_split
I1019 22:49:58.997702 20515 net.cpp:157] Top shape: 16 2048 7 7 (1605632)
I1019 22:49:58.997727 20515 net.cpp:157] Top shape: 16 2048 7 7 (1605632)
I1019 22:49:58.997750 20515 net.cpp:165] Memory required for data: 7999258816
I1019 22:49:58.997776 20515 layer_factory.hpp:77] Creating layer res5b_branch2a
I1019 22:49:58.997813 20515 net.cpp:100] Creating Layer res5b_branch2a
I1019 22:49:58.997841 20515 net.cpp:434] res5b_branch2a <- res5a_res5a_relu_0_split_0
I1019 22:49:58.997915 20515 net.cpp:408] res5b_branch2a -> res5b_branch2a
I1019 22:49:59.016479 20515 net.cpp:150] Setting up res5b_branch2a
I1019 22:49:59.016543 20515 net.cpp:157] Top shape: 16 512 7 7 (401408)
I1019 22:49:59.016566 20515 net.cpp:165] Memory required for data: 8000864448
I1019 22:49:59.016587 20515 layer_factory.hpp:77] Creating layer bn5b_branch2a
I1019 22:49:59.016623 20515 net.cpp:100] Creating Layer bn5b_branch2a
I1019 22:49:59.016657 20515 net.cpp:434] bn5b_branch2a <- res5b_branch2a
I1019 22:49:59.016685 20515 net.cpp:395] bn5b_branch2a -> res5b_branch2a (in-place)
I1019 22:49:59.017231 20515 net.cpp:150] Setting up bn5b_branch2a
I1019 22:49:59.017277 20515 net.cpp:157] Top shape: 16 512 7 7 (401408)
I1019 22:49:59.017297 20515 net.cpp:165] Memory required for data: 8002470080
I1019 22:49:59.017320 20515 layer_factory.hpp:77] Creating layer scale5b_branch2a
I1019 22:49:59.017390 20515 net.cpp:100] Creating Layer scale5b_branch2a
I1019 22:49:59.017421 20515 net.cpp:434] scale5b_branch2a <- res5b_branch2a
I1019 22:49:59.017444 20515 net.cpp:395] scale5b_branch2a -> res5b_branch2a (in-place)
I1019 22:49:59.017669 20515 layer_factory.hpp:77] Creating layer scale5b_branch2a
I1019 22:49:59.017999 20515 net.cpp:150] Setting up scale5b_branch2a
I1019 22:49:59.018038 20515 net.cpp:157] Top shape: 16 512 7 7 (401408)
I1019 22:49:59.018056 20515 net.cpp:165] Memory required for data: 8004075712
I1019 22:49:59.018077 20515 layer_factory.hpp:77] Creating layer res5b_branch2a_relu
I1019 22:49:59.018100 20515 net.cpp:100] Creating Layer res5b_branch2a_relu
I1019 22:49:59.018131 20515 net.cpp:434] res5b_branch2a_relu <- res5b_branch2a
I1019 22:49:59.018164 20515 net.cpp:395] res5b_branch2a_relu -> res5b_branch2a (in-place)
I1019 22:49:59.018610 20515 net.cpp:150] Setting up res5b_branch2a_relu
I1019 22:49:59.018674 20515 net.cpp:157] Top shape: 16 512 7 7 (401408)
I1019 22:49:59.018694 20515 net.cpp:165] Memory required for data: 8005681344
I1019 22:49:59.018724 20515 layer_factory.hpp:77] Creating layer res5b_branch2b
I1019 22:49:59.018751 20515 net.cpp:100] Creating Layer res5b_branch2b
I1019 22:49:59.018779 20515 net.cpp:434] res5b_branch2b <- res5b_branch2a
I1019 22:49:59.018805 20515 net.cpp:408] res5b_branch2b -> res5b_branch2b
I1019 22:49:59.042462 20515 net.cpp:150] Setting up res5b_branch2b
I1019 22:49:59.042527 20515 net.cpp:157] Top shape: 16 512 7 7 (401408)
I1019 22:49:59.042549 20515 net.cpp:165] Memory required for data: 8007286976
I1019 22:49:59.042572 20515 layer_factory.hpp:77] Creating layer bn5b_branch2b
I1019 22:49:59.042603 20515 net.cpp:100] Creating Layer bn5b_branch2b
I1019 22:49:59.042654 20515 net.cpp:434] bn5b_branch2b <- res5b_branch2b
I1019 22:49:59.042685 20515 net.cpp:395] bn5b_branch2b -> res5b_branch2b (in-place)
I1019 22:49:59.043184 20515 net.cpp:150] Setting up bn5b_branch2b
I1019 22:49:59.043225 20515 net.cpp:157] Top shape: 16 512 7 7 (401408)
I1019 22:49:59.043243 20515 net.cpp:165] Memory required for data: 8008892608
I1019 22:49:59.043267 20515 layer_factory.hpp:77] Creating layer scale5b_branch2b
I1019 22:49:59.043290 20515 net.cpp:100] Creating Layer scale5b_branch2b
I1019 22:49:59.043318 20515 net.cpp:434] scale5b_branch2b <- res5b_branch2b
I1019 22:49:59.043346 20515 net.cpp:395] scale5b_branch2b -> res5b_branch2b (in-place)
I1019 22:49:59.043524 20515 layer_factory.hpp:77] Creating layer scale5b_branch2b
I1019 22:49:59.043962 20515 net.cpp:150] Setting up scale5b_branch2b
I1019 22:49:59.044049 20515 net.cpp:157] Top shape: 16 512 7 7 (401408)
I1019 22:49:59.044077 20515 net.cpp:165] Memory required for data: 8010498240
I1019 22:49:59.044102 20515 layer_factory.hpp:77] Creating layer res5b_branch2b_relu
I1019 22:49:59.044131 20515 net.cpp:100] Creating Layer res5b_branch2b_relu
I1019 22:49:59.044157 20515 net.cpp:434] res5b_branch2b_relu <- res5b_branch2b
I1019 22:49:59.044188 20515 net.cpp:395] res5b_branch2b_relu -> res5b_branch2b (in-place)
I1019 22:49:59.045994 20515 net.cpp:150] Setting up res5b_branch2b_relu
I1019 22:49:59.046054 20515 net.cpp:157] Top shape: 16 512 7 7 (401408)
I1019 22:49:59.046083 20515 net.cpp:165] Memory required for data: 8012103872
I1019 22:49:59.046103 20515 layer_factory.hpp:77] Creating layer res5b_branch2c
I1019 22:49:59.046141 20515 net.cpp:100] Creating Layer res5b_branch2c
I1019 22:49:59.046170 20515 net.cpp:434] res5b_branch2c <- res5b_branch2b
I1019 22:49:59.046201 20515 net.cpp:408] res5b_branch2c -> res5b_branch2c
I1019 22:49:59.061956 20515 net.cpp:150] Setting up res5b_branch2c
I1019 22:49:59.062017 20515 net.cpp:157] Top shape: 16 2048 7 7 (1605632)
I1019 22:49:59.062039 20515 net.cpp:165] Memory required for data: 8018526400
I1019 22:49:59.062060 20515 layer_factory.hpp:77] Creating layer bn5b_branch2c
I1019 22:49:59.062094 20515 net.cpp:100] Creating Layer bn5b_branch2c
I1019 22:49:59.062117 20515 net.cpp:434] bn5b_branch2c <- res5b_branch2c
I1019 22:49:59.062139 20515 net.cpp:395] bn5b_branch2c -> res5b_branch2c (in-place)
I1019 22:49:59.062618 20515 net.cpp:150] Setting up bn5b_branch2c
I1019 22:49:59.062674 20515 net.cpp:157] Top shape: 16 2048 7 7 (1605632)
I1019 22:49:59.062693 20515 net.cpp:165] Memory required for data: 8024948928
I1019 22:49:59.062717 20515 layer_factory.hpp:77] Creating layer scale5b_branch2c
I1019 22:49:59.062741 20515 net.cpp:100] Creating Layer scale5b_branch2c
I1019 22:49:59.062772 20515 net.cpp:434] scale5b_branch2c <- res5b_branch2c
I1019 22:49:59.062820 20515 net.cpp:395] scale5b_branch2c -> res5b_branch2c (in-place)
I1019 22:49:59.063004 20515 layer_factory.hpp:77] Creating layer scale5b_branch2c
I1019 22:49:59.063339 20515 net.cpp:150] Setting up scale5b_branch2c
I1019 22:49:59.063379 20515 net.cpp:157] Top shape: 16 2048 7 7 (1605632)
I1019 22:49:59.063396 20515 net.cpp:165] Memory required for data: 8031371456
I1019 22:49:59.063417 20515 layer_factory.hpp:77] Creating layer res5b
I1019 22:49:59.063455 20515 net.cpp:100] Creating Layer res5b
I1019 22:49:59.063491 20515 net.cpp:434] res5b <- res5a_res5a_relu_0_split_1
I1019 22:49:59.063513 20515 net.cpp:434] res5b <- res5b_branch2c
I1019 22:49:59.063561 20515 net.cpp:408] res5b -> res5b
I1019 22:49:59.063658 20515 net.cpp:150] Setting up res5b
I1019 22:49:59.063695 20515 net.cpp:157] Top shape: 16 2048 7 7 (1605632)
I1019 22:49:59.063719 20515 net.cpp:165] Memory required for data: 8037793984
I1019 22:49:59.063736 20515 layer_factory.hpp:77] Creating layer res5b_relu
I1019 22:49:59.063771 20515 net.cpp:100] Creating Layer res5b_relu
I1019 22:49:59.063797 20515 net.cpp:434] res5b_relu <- res5b
I1019 22:49:59.063827 20515 net.cpp:395] res5b_relu -> res5b (in-place)
I1019 22:49:59.064275 20515 net.cpp:150] Setting up res5b_relu
I1019 22:49:59.064326 20515 net.cpp:157] Top shape: 16 2048 7 7 (1605632)
I1019 22:49:59.064352 20515 net.cpp:165] Memory required for data: 8044216512
I1019 22:49:59.064370 20515 layer_factory.hpp:77] Creating layer res5b_res5b_relu_0_split
I1019 22:49:59.064398 20515 net.cpp:100] Creating Layer res5b_res5b_relu_0_split
I1019 22:49:59.064424 20515 net.cpp:434] res5b_res5b_relu_0_split <- res5b
I1019 22:49:59.064455 20515 net.cpp:408] res5b_res5b_relu_0_split -> res5b_res5b_relu_0_split_0
I1019 22:49:59.064486 20515 net.cpp:408] res5b_res5b_relu_0_split -> res5b_res5b_relu_0_split_1
I1019 22:49:59.064697 20515 net.cpp:150] Setting up res5b_res5b_relu_0_split
I1019 22:49:59.064738 20515 net.cpp:157] Top shape: 16 2048 7 7 (1605632)
I1019 22:49:59.064764 20515 net.cpp:157] Top shape: 16 2048 7 7 (1605632)
I1019 22:49:59.064790 20515 net.cpp:165] Memory required for data: 8057061568
I1019 22:49:59.064807 20515 layer_factory.hpp:77] Creating layer res5c_branch2a
I1019 22:49:59.064891 20515 net.cpp:100] Creating Layer res5c_branch2a
I1019 22:49:59.064918 20515 net.cpp:434] res5c_branch2a <- res5b_res5b_relu_0_split_0
I1019 22:49:59.065004 20515 net.cpp:408] res5c_branch2a -> res5c_branch2a
I1019 22:49:59.085618 20515 net.cpp:150] Setting up res5c_branch2a
I1019 22:49:59.085690 20515 net.cpp:157] Top shape: 16 512 7 7 (401408)
I1019 22:49:59.085711 20515 net.cpp:165] Memory required for data: 8058667200
I1019 22:49:59.085732 20515 layer_factory.hpp:77] Creating layer bn5c_branch2a
I1019 22:49:59.085755 20515 net.cpp:100] Creating Layer bn5c_branch2a
I1019 22:49:59.085775 20515 net.cpp:434] bn5c_branch2a <- res5c_branch2a
I1019 22:49:59.085815 20515 net.cpp:395] bn5c_branch2a -> res5c_branch2a (in-place)
I1019 22:49:59.086483 20515 net.cpp:150] Setting up bn5c_branch2a
I1019 22:49:59.086526 20515 net.cpp:157] Top shape: 16 512 7 7 (401408)
I1019 22:49:59.086544 20515 net.cpp:165] Memory required for data: 8060272832
I1019 22:49:59.086568 20515 layer_factory.hpp:77] Creating layer scale5c_branch2a
I1019 22:49:59.086591 20515 net.cpp:100] Creating Layer scale5c_branch2a
I1019 22:49:59.086611 20515 net.cpp:434] scale5c_branch2a <- res5c_branch2a
I1019 22:49:59.086642 20515 net.cpp:395] scale5c_branch2a -> res5c_branch2a (in-place)
I1019 22:49:59.086823 20515 layer_factory.hpp:77] Creating layer scale5c_branch2a
I1019 22:49:59.087239 20515 net.cpp:150] Setting up scale5c_branch2a
I1019 22:49:59.087280 20515 net.cpp:157] Top shape: 16 512 7 7 (401408)
I1019 22:49:59.087297 20515 net.cpp:165] Memory required for data: 8061878464
I1019 22:49:59.087319 20515 layer_factory.hpp:77] Creating layer res5c_branch2a_relu
I1019 22:49:59.087391 20515 net.cpp:100] Creating Layer res5c_branch2a_relu
I1019 22:49:59.087419 20515 net.cpp:434] res5c_branch2a_relu <- res5c_branch2a
I1019 22:49:59.087445 20515 net.cpp:395] res5c_branch2a_relu -> res5c_branch2a (in-place)
I1019 22:49:59.088186 20515 net.cpp:150] Setting up res5c_branch2a_relu
I1019 22:49:59.088289 20515 net.cpp:157] Top shape: 16 512 7 7 (401408)
I1019 22:49:59.088312 20515 net.cpp:165] Memory required for data: 8063484096
I1019 22:49:59.088331 20515 layer_factory.hpp:77] Creating layer res5c_branch2b
I1019 22:49:59.088356 20515 net.cpp:100] Creating Layer res5c_branch2b
I1019 22:49:59.088407 20515 net.cpp:434] res5c_branch2b <- res5c_branch2a
I1019 22:49:59.088531 20515 net.cpp:408] res5c_branch2b -> res5c_branch2b
I1019 22:49:59.121991 20515 net.cpp:150] Setting up res5c_branch2b
I1019 22:49:59.122071 20515 net.cpp:157] Top shape: 16 512 7 7 (401408)
I1019 22:49:59.122092 20515 net.cpp:165] Memory required for data: 8065089728
I1019 22:49:59.122113 20515 layer_factory.hpp:77] Creating layer bn5c_branch2b
I1019 22:49:59.122144 20515 net.cpp:100] Creating Layer bn5c_branch2b
I1019 22:49:59.122167 20515 net.cpp:434] bn5c_branch2b <- res5c_branch2b
I1019 22:49:59.122187 20515 net.cpp:395] bn5c_branch2b -> res5c_branch2b (in-place)
I1019 22:49:59.122690 20515 net.cpp:150] Setting up bn5c_branch2b
I1019 22:49:59.122733 20515 net.cpp:157] Top shape: 16 512 7 7 (401408)
I1019 22:49:59.122752 20515 net.cpp:165] Memory required for data: 8066695360
I1019 22:49:59.122783 20515 layer_factory.hpp:77] Creating layer scale5c_branch2b
I1019 22:49:59.122809 20515 net.cpp:100] Creating Layer scale5c_branch2b
I1019 22:49:59.122829 20515 net.cpp:434] scale5c_branch2b <- res5c_branch2b
I1019 22:49:59.122849 20515 net.cpp:395] scale5c_branch2b -> res5c_branch2b (in-place)
I1019 22:49:59.123028 20515 layer_factory.hpp:77] Creating layer scale5c_branch2b
I1019 22:49:59.123350 20515 net.cpp:150] Setting up scale5c_branch2b
I1019 22:49:59.123391 20515 net.cpp:157] Top shape: 16 512 7 7 (401408)
I1019 22:49:59.123409 20515 net.cpp:165] Memory required for data: 8068300992
I1019 22:49:59.123430 20515 layer_factory.hpp:77] Creating layer res5c_branch2b_relu
I1019 22:49:59.123456 20515 net.cpp:100] Creating Layer res5c_branch2b_relu
I1019 22:49:59.123476 20515 net.cpp:434] res5c_branch2b_relu <- res5c_branch2b
I1019 22:49:59.123495 20515 net.cpp:395] res5c_branch2b_relu -> res5c_branch2b (in-place)
I1019 22:49:59.123976 20515 net.cpp:150] Setting up res5c_branch2b_relu
I1019 22:49:59.124020 20515 net.cpp:157] Top shape: 16 512 7 7 (401408)
I1019 22:49:59.124039 20515 net.cpp:165] Memory required for data: 8069906624
I1019 22:49:59.124056 20515 layer_factory.hpp:77] Creating layer res5c_branch2c
I1019 22:49:59.124088 20515 net.cpp:100] Creating Layer res5c_branch2c
I1019 22:49:59.124109 20515 net.cpp:434] res5c_branch2c <- res5c_branch2b
I1019 22:49:59.124130 20515 net.cpp:408] res5c_branch2c -> res5c_branch2c
I1019 22:49:59.139348 20515 net.cpp:150] Setting up res5c_branch2c
I1019 22:49:59.139408 20515 net.cpp:157] Top shape: 16 2048 7 7 (1605632)
I1019 22:49:59.139430 20515 net.cpp:165] Memory required for data: 8076329152
I1019 22:49:59.139451 20515 layer_factory.hpp:77] Creating layer bn5c_branch2c
I1019 22:49:59.139482 20515 net.cpp:100] Creating Layer bn5c_branch2c
I1019 22:49:59.139518 20515 net.cpp:434] bn5c_branch2c <- res5c_branch2c
I1019 22:49:59.139547 20515 net.cpp:395] bn5c_branch2c -> res5c_branch2c (in-place)
I1019 22:49:59.140048 20515 net.cpp:150] Setting up bn5c_branch2c
I1019 22:49:59.140089 20515 net.cpp:157] Top shape: 16 2048 7 7 (1605632)
I1019 22:49:59.140107 20515 net.cpp:165] Memory required for data: 8082751680
I1019 22:49:59.140131 20515 layer_factory.hpp:77] Creating layer scale5c_branch2c
I1019 22:49:59.140157 20515 net.cpp:100] Creating Layer scale5c_branch2c
I1019 22:49:59.140178 20515 net.cpp:434] scale5c_branch2c <- res5c_branch2c
I1019 22:49:59.140213 20515 net.cpp:395] scale5c_branch2c -> res5c_branch2c (in-place)
I1019 22:49:59.140384 20515 layer_factory.hpp:77] Creating layer scale5c_branch2c
I1019 22:49:59.140727 20515 net.cpp:150] Setting up scale5c_branch2c
I1019 22:49:59.140767 20515 net.cpp:157] Top shape: 16 2048 7 7 (1605632)
I1019 22:49:59.140785 20515 net.cpp:165] Memory required for data: 8089174208
I1019 22:49:59.140807 20515 layer_factory.hpp:77] Creating layer res5c
I1019 22:49:59.140828 20515 net.cpp:100] Creating Layer res5c
I1019 22:49:59.140847 20515 net.cpp:434] res5c <- res5b_res5b_relu_0_split_1
I1019 22:49:59.140867 20515 net.cpp:434] res5c <- res5c_branch2c
I1019 22:49:59.140907 20515 net.cpp:408] res5c -> res5c
I1019 22:49:59.140995 20515 net.cpp:150] Setting up res5c
I1019 22:49:59.141052 20515 net.cpp:157] Top shape: 16 2048 7 7 (1605632)
I1019 22:49:59.141080 20515 net.cpp:165] Memory required for data: 8095596736
I1019 22:49:59.141100 20515 layer_factory.hpp:77] Creating layer res5c_relu
I1019 22:49:59.141145 20515 net.cpp:100] Creating Layer res5c_relu
I1019 22:49:59.141166 20515 net.cpp:434] res5c_relu <- res5c
I1019 22:49:59.141189 20515 net.cpp:395] res5c_relu -> res5c (in-place)
I1019 22:49:59.141647 20515 net.cpp:150] Setting up res5c_relu
I1019 22:49:59.141693 20515 net.cpp:157] Top shape: 16 2048 7 7 (1605632)
I1019 22:49:59.141711 20515 net.cpp:165] Memory required for data: 8102019264
I1019 22:49:59.141728 20515 layer_factory.hpp:77] Creating layer pool5
I1019 22:49:59.141752 20515 net.cpp:100] Creating Layer pool5
I1019 22:49:59.141773 20515 net.cpp:434] pool5 <- res5c
I1019 22:49:59.141805 20515 net.cpp:408] pool5 -> pool5
I1019 22:49:59.143733 20515 net.cpp:150] Setting up pool5
I1019 22:49:59.143788 20515 net.cpp:157] Top shape: 16 2048 1 1 (32768)
I1019 22:49:59.143808 20515 net.cpp:165] Memory required for data: 8102150336
I1019 22:49:59.143826 20515 layer_factory.hpp:77] Creating layer fc365_my
I1019 22:49:59.143851 20515 net.cpp:100] Creating Layer fc365_my
I1019 22:49:59.143868 20515 net.cpp:434] fc365_my <- pool5
I1019 22:49:59.143899 20515 net.cpp:408] fc365_my -> fc365_my
I1019 22:49:59.144348 20515 net.cpp:150] Setting up fc365_my
I1019 22:49:59.144387 20515 net.cpp:157] Top shape: 16 80 (1280)
I1019 22:49:59.144404 20515 net.cpp:165] Memory required for data: 8102155456
I1019 22:49:59.144425 20515 layer_factory.hpp:77] Creating layer fc365_my_fc365_my_0_split
I1019 22:49:59.144448 20515 net.cpp:100] Creating Layer fc365_my_fc365_my_0_split
I1019 22:49:59.144465 20515 net.cpp:434] fc365_my_fc365_my_0_split <- fc365_my
I1019 22:49:59.144493 20515 net.cpp:408] fc365_my_fc365_my_0_split -> fc365_my_fc365_my_0_split_0
I1019 22:49:59.144532 20515 net.cpp:408] fc365_my_fc365_my_0_split -> fc365_my_fc365_my_0_split_1
I1019 22:49:59.144626 20515 net.cpp:150] Setting up fc365_my_fc365_my_0_split
I1019 22:49:59.144671 20515 net.cpp:157] Top shape: 16 80 (1280)
I1019 22:49:59.144691 20515 net.cpp:157] Top shape: 16 80 (1280)
I1019 22:49:59.144711 20515 net.cpp:165] Memory required for data: 8102165696
I1019 22:49:59.144727 20515 layer_factory.hpp:77] Creating layer loss
I1019 22:49:59.144759 20515 net.cpp:100] Creating Layer loss
I1019 22:49:59.144788 20515 net.cpp:434] loss <- fc365_my_fc365_my_0_split_0
I1019 22:49:59.144810 20515 net.cpp:434] loss <- label_data_1_split_0
I1019 22:49:59.144834 20515 net.cpp:408] loss -> loss
…
